models/_brain_154.pt (torch, 14593 bytes, 12 tensors)

weight f4 [14]
0	0x3f800000	1.0
1	0x3f800000	1.0
2	0x3f800000	1.0
3	0x3f800000	1.0
4	0x3f800000	1.0
5	0x3f800000	1.0
6	0x3f800000	1.0
7	0x3f800000	1.0
8	0x3f800000	1.0
9	0x3f800000	1.0
10	0x3f800000	1.0
11	0x3f800000	1.0
12	0x3f800000	1.0
13	0x3f800000	1.0

bias f4 [14]
0	0x00000000	0.0
1	0x00000000	0.0
2	0x00000000	0.0
3	0x00000000	0.0
4	0x00000000	0.0
5	0x00000000	0.0
6	0x00000000	0.0
7	0x00000000	0.0
8	0x00000000	0.0
9	0x00000000	0.0
10	0x00000000	0.0
11	0x00000000	0.0
12	0x00000000	0.0
13	0x00000000	0.0

weight f4 [25, 14]
0	0x3dd0e72c	0.102003425
1	0x3e613b66	0.21995315
2	0xbd76f96c	-0.06029646
3	0x3e52d72a	0.20589891
4	0xbe5a9d1d	-0.21348996
5	0xbe1e2ca4	-0.15446717
6	0x3e21aa08	0.15787518
7	0xbde01384	-0.10941222
8	0x3e67f6c2	0.22652724
9	0xbe559c08	-0.20860302
10	0xbe363e42	-0.17797187
11	0xbdd19cfa	-0.10235019
12	0x3e108a84	0.1411534
13	0x3ceff9d0	0.029293925
14	0xbe6fa479	-0.23402585
15	0x3e5b1456	0.21394476
16	0xbb9af2c0	-0.004728645
17	0xbde20c78	-0.110375345
18	0xbe3a2a08	-0.18180096
19	0x3e59c4e4	0.21266514
20	0xbdfb144c	-0.12259731
21	0xbe214bbe	-0.1575155
22	0xbe58aeb0	-0.21160388
23	0x3dbd52ac	0.09244284
24	0xbc928740	-0.017886758
25	0x3dd7d018	0.105377376
26	0x3e4e6d00	0.20158768
27	0x3d75bbb0	0.059993446
28	0xbdac4494	-0.08411518
29	0x3e791f8e	0.24328443
30	0xbe81b416	-0.25332707
31	0xbe47ccae	-0.19511673
32	0xbd84d1f2	-0.064853564
33	0x3ad7e500	0.0016471446
34	0xbe45285a	-0.19253674
35	0xbe7bdfdd	-0.24597116
36	0x3e75b18e	0.23993513
37	0xbd8b3082	-0.067963615
38	0xbe1fc672	-0.15603045
39	0x3e4ae0f2	0.19812372
40	0xbe6ff831	-0.23434521
41	0xbe61eedb	-0.22063772
42	0xbe33312c	-0.17499226
43	0xbde2a42e	-0.11066471
44	0xbe6215c2	-0.22078612
45	0x3d9e5048	0.07730156
46	0x3c6b5e20	0.014365703
47	0xbbd81380	-0.0065941215
48	0xbe3b3aa6	-0.18284091
49	0x3cf292e0	0.029611051
50	0xbe438fc0	-0.19097805
51	0x3e47f1b4	0.19525796
52	0xbe0f9477	-0.14021479
53	0xbdd8686a	-0.105667904
54	0xbc9589e8	-0.018254235
55	0x3c9a5b60	0.0188424
56	0xbdf00414	-0.11719528
57	0xbc95d910	-0.01829198
58	0x3e13f6be	0.14449593
59	0x3dccfd84	0.10009292
60	0xbcac81a8	-0.021057919
61	0x3e1350ba	0.14386263
62	0xbc04bee0	-0.008102149
63	0x3e43e756	0.19131216
64	0xbd5804a8	-0.052738816
65	0x3e2bcbe6	0.16777
66	0x3da8685c	0.0822303
67	0x3da1db14	0.07903114
68	0x3d97ca88	0.07411677
69	0x3d2f67e8	0.042823702
70	0x3d0cda08	0.03438762
71	0xbdcdce76	-0.10049145
72	0xbe4d84b0	-0.20070148
73	0xbdd35c34	-0.10320321
74	0xbe63d568	-0.22249377
75	0xbdbb8a28	-0.091572106
76	0x3bade040	0.0053062737
77	0x3e626f5e	0.22112796
78	0x3d9b4838	0.07582134
79	0xbe491d34	-0.19640046
80	0x3d819754	0.06327692
81	0x3e297ee6	0.16552314
82	0x3d4af590	0.049550593
83	0xbe6a3c7a	-0.22874632
84	0xbdc0afda	-0.09408541
85	0xbda947ac	-0.082656235
86	0xbd495518	-0.049153417
87	0xbd28b250	-0.041185677
88	0x3e14b2e2	0.14521363
89	0xbe2d903b	-0.16949551
90	0x3e5107ae	0.20413086
91	0x3ca91c90	0.020643502
92	0x3e332682	0.17495158
93	0xbe0be096	-0.13659891
94	0xbe7acb64	-0.2449165
95	0xbe8127e3	-0.25225744
96	0xbdf4508e	-0.11929427
97	0x3df31014	0.11868301
98	0xbe458c82	-0.1929188
99	0x3db44790	0.08802712
100	0x3e7e7c82	0.24852183
101	0xbd0dbcd4	-0.03460391
102	0x3e7fa0ea	0.24963728
103	0x3d709308	0.05873397
104	0xbe50bd99	-0.20384826
105	0x3e25466c	0.16140145
106	0x3df34170	0.118777156
107	0xbe440e3c	-0.19146055
108	0x3e5841a8	0.21118796
109	0xbe7b37e6	-0.24533042
110	0x3e07cc8c	0.13261622
111	0x3c099fe0	0.008399934
112	0x3e7d345e	0.24727008
113	0x3e718b42	0.23588279
114	0x3d39ff28	0.04540935
115	0x3e56c6f0	0.20974326
116	0x3e3d816e	0.18506405
117	0xbe289a82	-0.1646519
118	0x3df20fac	0.118193954
119	0xbcebfbf0	-0.028806657
120	0x3e0c1a82	0.13681987
121	0x3de4b0b0	0.11166513
122	0x3dec0d78	0.115260065
123	0x3e087208	0.1332475
124	0xbe0cbe62	-0.137445
125	0x3c051f60	0.008125156
126	0xbe38a540	-0.18031788
127	0x3dfd196c	0.123583645
128	0xbe79e6a6	-0.24404392
129	0xbe87cd7d	-0.26523963
130	0x3e210a4c	0.15726584
131	0xbdd6886a	-0.10475238
132	0x3d9f9a70	0.077931285
133	0xbdbac854	-0.09120241
134	0xbbf61e40	-0.0075109303
135	0x3e4564f8	0.19276798
136	0xbe8757a8	-0.26434064
137	0x3e5d2f4e	0.21600077
138	0xbe739410	-0.2378695
139	0x3cf4d980	0.029888868
140	0xbe702544	-0.23451716
141	0xbe227688	-0.15865529
142	0xbc0f4460	-0.008744329
143	0x3e5f6bd6	0.2181848
144	0xbe1f534a	-0.15559116
145	0xbe71a6cd	-0.23598786
146	0xbe517fee	-0.20458958
147	0xbe5d6a17	-0.21622501
148	0xbdde2cea	-0.108484104
149	0xbda20252	-0.07910599
150	0xbe5adb4b	-0.21372716
151	0xbe602002	-0.2188721
152	0x3df3e750	0.11909354
153	0x3e6370b6	0.22210965
154	0xbe86afa7	-0.26305887
155	0x3d0ae7c0	0.03391242
156	0x3de734e0	0.11289382
157	0xbe71fa90	-0.23630738
158	0x3da36a90	0.079793096
159	0xbe0b1c2b	-0.13584964
160	0x3de968b4	0.11396924
161	0xbd9420f2	-0.07232846
162	0xbe26b488	-0.16279805
163	0xbe86c25e	-0.26320165
164	0xbe7026b2	-0.23452261
165	0x3d1303b0	0.03589219
166	0xbe866b33	-0.26253662
167	0x3d29d7f0	0.0414657
168	0xbe28a87c	-0.16470522
169	0xbd3fadf8	-0.04679677
170	0x3e74de8e	0.23913023
171	0x3d98d964	0.07463339
172	0xbe8402e4	-0.25783455
173	0xbe3b7d6e	-0.18309566
174	0x3c21c0e0	0.009872645
175	0xbe47568b	-0.19466607
176	0x3d2f3728	0.04277721
177	0x3e5ee4a6	0.2176691
178	0x3e8798e9	0.2648385
179	0xbe7cfa04	-0.24704748
180	0xbd643c74	-0.055721715
181	0xbe1beb42	-0.15226462
182	0xbe53db0a	-0.20689026
183	0x3e3963d6	0.1810449
184	0x3dc6fb88	0.097159445
185	0x3e64b1c0	0.22333431
186	0x3d669f80	0.056304455
187	0x3e34ec56	0.1766828
188	0xbd953204	-0.0728493
189	0xbdddf2c6	-0.10837321
190	0x3e7ed6ee	0.24886677
191	0x3e1cc54c	0.15309638
192	0x3cfdd910	0.030987293
193	0xbd8bc516	-0.068247005
194	0xbe729eab	-0.2369334
195	0x3d5d1ff8	0.053985566
196	0x3e157f20	0.14599276
197	0xbb7ae980	-0.003828615
198	0xbe528aa4	-0.205607
199	0x3ddfc37c	0.109259576
200	0x3e8549f5	0.26032987
201	0xbe2d6b37	-0.1693543
202	0xbe7cf631	-0.2470329
203	0xbdb8415a	-0.0899684
204	0xbcaef930	-0.021359056
205	0xba3e8800	-0.00072681904
206	0x3e8652a3	0.26234922
207	0x3e5e49f4	0.21707898
208	0x3de38014	0.11108413
209	0x3d0da908	0.03458503
210	0xbe6a13d2	-0.22859123
211	0xbe40a4dd	-0.1881289
212	0xbdf7c446	-0.12097983
213	0x3e2f4874	0.17117482
214	0x3d662e08	0.056196243
215	0xbe6af5b0	-0.22945285
216	0xbe0fe363	-0.14051585
217	0xbe700583	-0.23439603
218	0xbc4d6940	-0.012537301
219	0xbd6c1238	-0.057634562
220	0x3e40a5c4	0.18813235
221	0x3d84c0a0	0.06482053
222	0xbe5c19f8	-0.21494281
223	0x3c3a0b40	0.011355221
224	0x3be4dac0	0.006984085
225	0x3d99b4a8	0.075051606
226	0x3e4bc13e	0.19897935
227	0xbd305854	-0.043052986
228	0xbe0c7d49	-0.13719667
229	0x3cb56f60	0.022147834
230	0x3de4c638	0.1117062
231	0x3e25a1ba	0.16174975
232	0xbe51974c	-0.20467871
233	0xbd9c2f80	-0.076262474
234	0xbd613074	-0.05497785
235	0x3dc791b8	0.097445905
236	0x3e3c9a18	0.18418157
237	0xbe7384bd	-0.23781104
238	0x3d6717f0	0.056419313
239	0x3d2cc430	0.042179286
240	0xbe27e77e	-0.16396901
241	0xbe87dfb8	-0.2653787
242	0x3e6a9f28	0.22912276
243	0x3e836dd3	0.25669727
244	0x3ca86fa0	0.02056104
245	0x3e0857f8	0.13314807
246	0x3ceeec40	0.029165387
247	0x3d2123e8	0.039340883
248	0x3d47f8c8	0.04882124
249	0xbe0c311c	-0.13690609
250	0x3e318fde	0.17340037
251	0x3e8532d9	0.26015356
252	0xbe786247	-0.2425624
253	0xbe1050fb	-0.14093392
254	0xbdcf8474	-0.10132685
255	0x3e03cf7e	0.1287212

bias f4 [25]
0	0xbd9eaca2	-0.07747771
1	0x3d91a370	0.07111251
2	0x3e0e31ea	0.13886228
3	0x3e5ebf60	0.21752691
4	0x3d05aaa0	0.032633424
5	0x3e81c35b	0.25344357
6	0x3dc0aa30	0.09407461
7	0x3d9ef614	0.077617794
8	0xbe4b8e12	-0.19878414
9	0x3e11785a	0.14206067
10	0x3de36530	0.11103284
11	0xbdd6ec5a	-0.10494299
12	0x3e2a04b4	0.16603357
13	0xbdabe34c	-0.08392963
14	0x3dbe754c	0.09299716
15	0x3c6d8760	0.014497608
16	0x3e2bf176	0.16791329
17	0xbe3edaa3	-0.18638091
18	0x3e8391df	0.25697228
19	0xbe3d8e10	-0.18511224
20	0x3e69cf0a	0.22832885
21	0x3e373618	0.17891729
22	0x3cf7c470	0.030245036
23	0x3d05a280	0.032625675
24	0xbd9e46fe	-0.077283844

weight f4 [25, 25]
0	0x3ca4c7a8	0.020114735
1	0x3e21e127	0.15808545
2	0xbd844366	-0.06458168
3	0x3e125597	0.14290462
4	0x3b884940	0.0041591227
5	0xbdcb78b3	-0.09935131
6	0xbddf78ed	-0.10911737
7	0xbdad5827	-0.08464079
8	0xbe37f77b	-0.179655
9	0xbdc633cd	-0.09677849
10	0xbc0c7db0	-0.008574888
11	0x3dca2fb6	0.098723814
12	0xbd2e264c	-0.04251699
13	0x3e08c3b3	0.13355903
14	0xbe01a0b0	-0.12658954
15	0xbe1c19ad	-0.1524417
16	0xbc390260	-0.01129207
17	0x3e375507	0.17903529
18	0xbe3591ca	-0.17731395
19	0xbbed29a0	-0.007237628
20	0x3e167257	0.14692055
21	0xbe122d1a	-0.14275017
22	0xbd9ae06d	-0.07562337
23	0xbd9fdaa3	-0.078053735
24	0xbd5f950c	-0.0545855
25	0x3dba33ba	0.09091897
26	0x3cc0b150	0.02352205
27	0x3e125da1	0.14293529
28	0x3d230c34	0.03980656
29	0x3da1d92a	0.07902749
30	0xbdd0b57d	-0.10190866
31	0x3d77b424	0.06047453
32	0x3df3a792	0.11897196
33	0xbd94aac0	-0.072591305
34	0x3dadca4e	0.08485852
35	0xbbf55660	-0.0074871033
36	0x3d6b371c	0.057425603
37	0x3c8cb670	0.017176837
38	0xbe1f03a2	-0.1552873
39	0xbe3f0762	-0.1865516
40	0x3cb06380	0.02153182
41	0xbd6327b4	-0.055457786
42	0xbe241b7e	-0.16026112
43	0xbcc80928	-0.024418429
44	0xbdb949bd	-0.090472676
45	0xbdb0cbbd	-0.0863261
46	0x3d163dec	0.036680147
47	0x3dacc2e2	0.084356084
48	0xbe04e9a8	-0.12979758
49	0xbe3aaba7	-0.18229543
50	0x3d14e5d8	0.03635201
51	0x3cb43798	0.021999165
52	0xbdbec13d	-0.09314201
53	0xbd8f5c3a	-0.07000013
54	0x3d87172a	0.06596215
55	0x3da1deba	0.0790381
56	0x3bfda460	0.0077405423
57	0xbd434774	-0.047675565
58	0xbca08cd0	-0.019598395
59	0xbd6fe120	-0.058564305
60	0x3dfcc45a	0.123421386
61	0x3dd902ea	0.10596259
62	0xbe3e3308	-0.18574154
63	0xbd21aacc	-0.039469525
64	0xbe43046b	-0.19044654
65	0xbd820aaa	-0.0634969
66	0xbe1341f3	-0.14380626
67	0xbe3cd8d0	-0.18442082
68	0xbcda9b30	-0.026685327
69	0xbd6a4294	-0.0571924
70	0x3e230d0b	0.15922944
71	0x3e4a1a0d	0.197365
72	0xbd200ee8	-0.039076716
73	0x3e230291	0.15918948
74	0xbe37f355	-0.17963918
75	0x3e3a9fc3	0.18225007
76	0xbe0d02b8	-0.13770568
77	0x3da14572	0.07874574
78	0x3d054fcc	0.032546803
79	0x3da52eb2	0.08065547
80	0x3e1f22a3	0.15540557
81	0xbcb2ab00	-0.021810055
82	0xbdaf1f6d	-0.08550916
83	0xbe18c6a2	-0.14919522
84	0xbe1a35de	-0.15059611
85	0x3e33e4f1	0.17567803
86	0xbd4b69f8	-0.049661607
87	0xbe06c3c5	-0.13160618
88	0xbe47ff6b	-0.19531028
89	0xbd3a5558	-0.045491546
90	0x3e1e2489	0.15443625
91	0xbd199b78	-0.037501782
92	0xbddeeba3	-0.10884788
93	0xbd54a348	-0.05191353
94	0x3d693d64	0.056943312
95	0xbc9780d0	-0.01849404
96	0xbd9799aa	-0.07402356
97	0xbc837d80	-0.016051054
98	0x3e3ec92d	0.1863143
99	0xbc881eb0	-0.016616195
100	0x3e22c281	0.1589451
101	0xbdfe122d	-0.124058105
102	0x3dd63b9a	0.10460587
103	0x3d384798	0.044990152
104	0x3da11e42	0.07867099
105	0x3d539014	0.051651075
106	0x3df06abe	0.117391095
107	0xbdf2e4ba	-0.118600324
108	0x3df5d03a	0.12002607
109	0x3dc2f85e	0.095200285
110	0xbd2e4a8c	-0.042551562
111	0x3d970ba6	0.07375269
112	0x3cb2d9d8	0.021832392
113	0xbd85e6b0	-0.06538141
114	0x3e47afed	0.19500704
115	0x3e24361f	0.1603627
116	0xbe3d602b	-0.18493716
117	0x3dd5e262	0.1044357
118	0x3c8e3880	0.017360926
119	0x3e18f0e1	0.14935638
120	0x3a1acb00	0.0005904883
121	0xbe1df612	-0.154259
122	0x3de2343e	0.11045121
123	0xbe236f3e	-0.15960404
124	0x3e3ccf51	0.1843846
125	0x3e2765b1	0.16347386
126	0x3ced6da8	0.028982952
127	0x3cd89b00	0.026441097
128	0x3c6087b0	0.013704225
129	0xbe01b736	-0.12667546
130	0x3de88a12	0.1135446
131	0xbb797b40	-0.0038067847
132	0xbdf47c4d	-0.11937771
133	0x3e40ca77	0.18827234
134	0x3e168ac3	0.14701371
135	0x3e0246a3	0.12722258
136	0x3c2d5960	0.010580391
137	0xbdef281a	-0.11677571
138	0xbd225c18	-0.03963861
139	0xbcd9e180	-0.026596785
140	0x3da48df2	0.080348864
141	0xbb988ca0	-0.0046554357
142	0x3cf4ddf0	0.029890984
143	0xbe0115fd	-0.12606044
144	0xbd38da08	-0.045129806
145	0x3e3bbe59	0.1833433
146	0xbdbfd460	-0.09366679
147	0xbdf485b3	-0.119395636
148	0x3e029535	0.1275223
149	0xbe3f224d	-0.18665428
150	0xbe3a89e8	-0.1821667
151	0xbe1df32b	-0.15424792
152	0x3dfcba2a	0.123401955
153	0x3d77f424	0.060535565
154	0x3e1bd995	0.1521972
155	0xbe1a54e8	-0.15071452
156	0xbe07733e	-0.13227555
157	0xbcd8d5d8	-0.026469156
158	0x3d185080	0.037186146
159	0xbdda9a7a	-0.10673995
160	0x3cc0d100	0.023537159
161	0x3daf21da	0.085513785
162	0xbe40f3c8	-0.18842995
163	0xbd29380c	-0.041313216
164	0xbe2b1ab0	-0.16709399
165	0x3e283d2b	0.16429584
166	0xbddcde53	-0.107845925
167	0x3db25e7a	0.08709426
168	0x3dce8d7a	0.10085578
169	0xbe1fb50a	-0.15596405
170	0x3e125479	0.14290036
171	0xbc74a160	-0.014931053
172	0x3db5d2de	0.0887811
173	0x3e1b1f81	0.15148737
174	0x3d22d674	0.0397553
175	0xbd86ab70	-0.06575668
176	0xb8506000	-4.968047e-05
177	0x3dad6eba	0.08468385
178	0x3d7f81ac	0.062379524
179	0xbd47e3f4	-0.048801377
180	0xbd9dcd3d	-0.07705162
181	0xbe12defa	-0.14342871
182	0x3e242ca9	0.16032661
183	0xbdb91ae7	-0.09038334
184	0xbcb53e68	-0.022124484
185	0xbcb88518	-0.022524402
186	0x3e0f3d21	0.13988163
187	0x3dcacdfa	0.09902568
188	0x3d9ea70e	0.07746707
189	0x3e198b5b	0.14994566
190	0x3d8cf562	0.068827406
191	0xbe0ab36e	-0.1354501
192	0x3d1e89c8	0.038705617
193	0x3dea11ba	0.11429162
194	0x3e016fcd	0.12640305
195	0x3cd98528	0.026552752
196	0x3cdfa080	0.027298212
197	0xbcd804d8	-0.026369497
198	0xbe37debd	-0.17956062
199	0xbd78c4c0	-0.06073451
200	0xbb917e00	-0.004440069
201	0xbdd2fcb3	-0.10302105
202	0xbe287a5e	-0.1645293
203	0xbc57c4a0	-0.013169438
204	0x3e4b557d	0.1985683
205	0x3de666c2	0.11250068
206	0xbdbba197	-0.0916168
207	0x3d44fbc0	0.04809165
208	0x3de16062	0.11004712
209	0x3dfdd1e2	0.123935476
210	0x3ddaf932	0.106920615
211	0x3dd20b4a	0.102560595
212	0x3e0448d1	0.12918402
213	0xbd9a88f0	-0.0754565
214	0x3c689dd0	0.014197782
215	0x3de7ce9a	0.11318703
216	0xbdfaee67	-0.12252503
217	0x3d26f1d8	0.040757984
218	0x3dc6359e	0.096781954
219	0xbe3637aa	-0.17794672
220	0xbdf96c97	-0.12178915
221	0xbe3603a2	-0.17774823
222	0x3e0aa8dd	0.13540979
223	0xbd928eaa	-0.07156117
224	0x3c533460	0.012890905
225	0xbe429d6d	-0.19005366
226	0x3cfe3a28	0.03103359
227	0xbe1be790	-0.15225053
228	0xbdfc3aed	-0.12315927
229	0xbdb8b5fa	-0.09019084
230	0x3e43c1e5	0.19116934
231	0x3db9fe42	0.09081699
232	0xbddd4797	-0.1080467
233	0xbe2bdddd	-0.16783853
234	0x3dc11672	0.09428109
235	0xbd97e56c	-0.074168056
236	0xbdfbae9a	-0.12289162
237	0xbd6df478	-0.05809447
238	0xbd931a76	-0.071827814
239	0x3d9b130a	0.07571991
240	0x3d3ec668	0.046575934
241	0x3cff0710	0.031131297
242	0x3c84ef18	0.01622729
243	0xbd325708	-0.04354003
244	0xbd5fdbc8	-0.05465296
245	0xbc5955a0	-0.0132650435
246	0x3d9b3f66	0.07580452
247	0x3dd55312	0.10416235
248	0x3df5d986	0.1200438
249	0xbe29d0f5	-0.16583617
250	0xbc7dd900	-0.015493631
251	0x3dfacf4a	0.122465685
252	0xbe373b77	-0.17893778
253	0xbe032116	-0.1280559
254	0x3d1391ac	0.036027595
255	0x3d92fe16	0.07177369

bias f4 [25]
0	0xbdc6c8d0	-0.09706271
1	0xbd4841a0	-0.04889071
2	0xbd88427c	-0.06653306
3	0x3dea8a82	0.114521995
4	0x3e481b47	0.19541655
5	0x3d95849e	0.07300685
6	0x3dfc8062	0.123291746
7	0xbe0b4bb0	-0.13603091
8	0xbd8356ac	-0.06413016
9	0x3e015367	0.12629472
10	0xbe41db87	-0.189314
11	0xbdb4986d	-0.088181354
12	0x3e3bb8b1	0.18332173
13	0xbd31a3f8	-0.043369263
14	0x3df53f86	0.11975007
15	0xbe3314aa	-0.17488351
16	0xbdf8cb03	-0.121480964
17	0xbe23aec2	-0.15984634
18	0xbe103883	-0.14084058
19	0x3e049b6f	0.12949918
20	0x3c0fbb50	0.008772686
21	0xbe3f5c50	-0.18687558
22	0x3cf54380	0.029939413
23	0xbe3e83b3	-0.18604927
24	0x3da69782	0.081343666

weight f4 [25, 25]
0	0xbd966af4	-0.073446184
1	0xbe2249de	-0.1584849
2	0x3e17fdd3	0.1484292
3	0xbe0cdbb0	-0.13755679
4	0xbdc95863	-0.098313116
5	0x3dd6f77a	0.10496421
6	0x3d83656a	0.064158276
7	0xbdd76080	-0.10516453
8	0x3d130458	0.035892814
9	0x3befd8a0	0.007319525
10	0x3e4380cd	0.19092102
11	0xbdef9a6d	-0.11699376
12	0xbe265305	-0.16242607
13	0x3dfda8b2	0.12385692
14	0xbe2fefed	-0.17181368
15	0x3b35a380	0.0027715862
16	0x3d3b1614	0.045675352
17	0x3c4d4b50	0.012530163
18	0xbd86111c	-0.06546232
19	0xbc863e00	-0.016386986
20	0x3d63384c	0.05547361
21	0xbe44dda0	-0.19225168
22	0x3e1740a9	0.1477076
23	0xbab40b00	-0.0013736188
24	0xbe3a5a60	-0.18198538
25	0xbe34c4e0	-0.17653227
26	0xbe399132	-0.18121794
27	0x3d791b84	0.060817257
28	0x3e272209	0.16321577
29	0xbdd23a00	-0.10264969
30	0xbc87e318	-0.016587779
31	0x3d31e6f4	0.043433145
32	0xbdfb61e7	-0.12274533
33	0xbb90a1c0	-0.0044138134
34	0xbe016b66	-0.12638626
35	0xbd549f54	-0.05190976
36	0xbd5c37f4	-0.0537643
37	0x3e39f18d	0.1815855
38	0xbd095ad4	-0.033533886
39	0xbda21b3a	-0.07915349
40	0x3e46fe1b	0.19432871
41	0xbdf79ac0	-0.12090063
42	0x3da73522	0.08164431
43	0x3e0923e5	0.13392599
44	0xbd43aba8	-0.047771126
45	0xbd6209b4	-0.055185035
46	0x3dca4d7e	0.09878062
47	0xbd3d8428	-0.046268612
48	0xbd6e9440	-0.05824685
49	0x3c191000	0.009342194
50	0x3d8a5a0e	0.06755458
51	0x3dbce6de	0.09223722
52	0x3e044a8d	0.12919064
53	0x3cfd1500	0.030893803
54	0xbd872554	-0.06598917
55	0x3b96b3c0	0.0045990646
56	0x3e4c8257	0.19971596
57	0x3dc5d702	0.0966015
58	0x3c03ede0	0.008052319
59	0xbd493634	-0.049123958
60	0xbe3b9273	-0.18317585
61	0x3dd9a19e	0.10626529
62	0x3d3f584c	0.046715066
63	0x3e00768b	0.1254522
64	0x3d5660a4	0.052338257
65	0x3de6a81a	0.112625316
66	0x3d3a51ac	0.045488045
67	0xbe3f7847	-0.18698226
68	0xbd826aac	-0.06368002
69	0xbd894fac	-0.06704649
70	0xbe02bdb0	-0.12767673
71	0x3df14736	0.117811605
72	0x3d54ff04	0.052001014
73	0xbded1c2a	-0.115776375
74	0xbd816a3c	-0.06319091
75	0xbe0d6e2e	-0.13811561
76	0x3dcc4ee2	0.09975983
77	0x3e370837	0.17874227
78	0x3d9b4fe2	0.07583596
79	0x3d0e9a8c	0.034815356
80	0x3d96c7e2	0.07362343
81	0x3d819ab2	0.06328334
82	0xbe2bfb0d	-0.16794987
83	0x3e070eb3	0.13189201
84	0xbe3b4c5f	-0.18290852
85	0xbdb2f407	-0.08737951
86	0x3d942ae2	0.07234742
87	0xbe2ddc17	-0.16978489
88	0x3e42928d	0.19001217
89	0x3e28cd83	0.16484646
90	0x3df40916	0.119157955
91	0x3d029858	0.031883568
92	0xbe4c43af	-0.19947694
93	0x3e434e79	0.19072904
94	0x3d28012c	0.041016743
95	0x3e1b41db	0.1516184
96	0xbe4ba04a	-0.19885364
97	0xbdc4d010	-0.09609997
98	0xbe43f098	-0.19134748
99	0xbde0f580	-0.109843254
100	0x3d8f28ce	0.06990205
101	0x3dbea852	0.09309448
102	0xbe2694d8	-0.16267717
103	0xbd4a5e54	-0.049406365
104	0x3e21e007	0.15808116
105	0x3d236f00	0.03990078
106	0xbdc7612d	-0.09735332
107	0x3d8e8f7a	0.0696096
108	0x3e105891	0.14096285
109	0xbe0a8df2	-0.1353071
110	0xbc80c790	-0.015720159
111	0x3e194a6f	0.149698
112	0xbe3c2bbd	-0.1837606
113	0x3e175d6f	0.14781736
114	0xbcc14268	-0.023591235
115	0x3e10c455	0.14137395
116	0xbe1ae012	-0.15124539
117	0x3db380d6	0.08764808
118	0xbd68ae8c	-0.056807086
119	0xbe40cf32	-0.18829039
120	0xbe07760a	-0.13228622
121	0x3cd52db0	0.026022762
122	0xbe1b6135	-0.151738
123	0x3e488881	0.19583322
124	0xbe266328	-0.16248763
125	0xbd9456c0	-0.07243109
126	0x3de59542	0.11210109
127	0x3bfc6ba0	0.0077032596
128	0x3d38f64c	0.045156762
129	0x3e23f2d5	0.16010602
130	0x3dfd717e	0.123751625
131	0x3d911376	0.0708379
132	0xbe1a4fc5	-0.15069492
133	0xbe2eb53b	-0.17061321
134	0xbe447b9a	-0.19187775
135	0x3e1e4549	0.15456118
136	0xbcf6ee50	-0.030142933
137	0x3ddabc56	0.106804535
138	0x3d5ad004	0.053421035
139	0x3b8329c0	0.0040027797
140	0x3e0a65f9	0.13515462
141	0xbe04822a	-0.12940279
142	0xbca22d58	-0.019797012
143	0xbdec10f7	-0.11526673
144	0xbd83f674	-0.064434916
145	0x3dd58022	0.1042483
146	0xbc2bc530	-0.010484025
147	0xbd4e9acc	-0.050440595
148	0x3e2cc48d	0.16871853
149	0xbe050b64	-0.12992626
150	0x3dbb7dc2	0.09154846
151	0xbe14885a	-0.14505139
152	0xbd8dbc6a	-0.06920703
153	0xbdaf8b0a	-0.085714415
154	0xbdb0fdb7	-0.08642142
155	0xbdbad2e0	-0.091222525
156	0x3e4111c7	0.18854438
157	0xbd0ee654	-0.034887627
158	0xbe0bdd90	-0.13658738
159	0x3d43770c	0.047720954
160	0xbc7626e0	-0.015023917
161	0x3e1d0991	0.1533568
162	0x3d38ae18	0.045087904
163	0x3e1e65b1	0.1546848
164	0xbe38c265	-0.18042906
165	0xbd82a49c	-0.06379053
166	0x3e021821	0.12704517
167	0x3d7dda84	0.06197597
168	0x3d55ec9c	0.0522276
169	0x3dbd4022	0.09240748
170	0x3d2532a8	0.040331513
171	0xbdd08a97	-0.10182684
172	0xbd984ff6	-0.07437126
173	0xbd9b8d43	-0.07595303
174	0xbb347600	-0.0027536154
175	0xbd8566b4	-0.0651373
176	0xbdc36f77	-0.095427446
177	0x3e356017	0.17712437
178	0xbe002154	-0.12512714
179	0xbddb8cad	-0.10720191
180	0xbddc38fd	-0.10753057
181	0x3d9efb8a	0.07762821
182	0xbc8676d0	-0.016414076
183	0x3e44a0a3	0.19201903
184	0x3dc77476	0.0973901
185	0x3e37c949	0.17947878
186	0xbe3cc038	-0.184327
187	0x3c725160	0.014789909
188	0x3c92ac30	0.017904371
189	0x3d8ce742	0.068800464
190	0x3dc30bd6	0.09523742
191	0x3daf5956	0.08561961
192	0x3d66f824	0.05638899
193	0x3da7b0b2	0.08187999
194	0xbded390a	-0.11583145
195	0xbdf76a53	-0.120808266
196	0xbd92f034	-0.07174721
197	0x3e142117	0.14465748
198	0x3d152d6c	0.03642027
199	0x3e035fd1	0.1282952
200	0x3deac9be	0.114642605
201	0xbe259db3	-0.16173439
202	0xbe1e72b2	-0.1547344
203	0x3bddae40	0.006765157
204	0x3e1690bd	0.14703651
205	0xbe323400	-0.17402649
206	0x3d95e6b2	0.07319392
207	0xbd8cff4c	-0.068846315
208	0xbe0e2600	-0.13881683
209	0xbe277e62	-0.16356805
210	0xbe3cbf0b	-0.18432252
211	0x3dc3a142	0.09552242
212	0x3ce12b80	0.027486563
213	0xbd0bfca8	-0.0341765
214	0x3db6fa02	0.08934404
215	0x3db38a9a	0.087666705
216	0x3db8824e	0.09009229
217	0xbda6eed0	-0.081510186
218	0xbe214e43	-0.1575251
219	0xbc2f85a0	-0.010713011
220	0xbdf937fd	-0.12168882
221	0x3c673960	0.0141128
222	0xba6ad000	-0.0008957386
223	0x3e44b157	0.19208275
224	0xbc6deed0	-0.014522269
225	0xbe2befad	-0.16790648
226	0xbe186673	-0.14882831
227	0xbd18daf8	-0.0373182
228	0xbdb58ac0	-0.08864355
229	0x3e3b3411	0.1828158
230	0xbe04c724	-0.12966591
231	0xbbb66fc0	-0.005567521
232	0xbc28d950	-0.010305718
233	0xbe48bc33	-0.19603042
234	0x3e07bd47	0.13255797
235	0x3ce8b9d0	0.028408915
236	0x3c9f7f90	0.019470006
237	0x3d97aed2	0.07406391
238	0x3dcdacc2	0.100427166
239	0x3e1b34c3	0.15156846
240	0xbded4260	-0.11584926
241	0xbcb8a968	-0.022541717
242	0xbd5e43e0	-0.05426395
243	0xbcc469b0	-0.023976177
244	0x3d904546	0.07044463
245	0xbc263780	-0.010145068
246	0x387ca000	6.0230494e-05
247	0xbb4a2880	-0.0030846894
248	0xbdf6e9f3	-0.12056341
249	0x3ccaa8b0	0.02473864
250	0x3e2bd267	0.16779481
251	0xbd67ce40	-0.05659318
252	0xbdb23c4d	-0.08702908
253	0xbaa70700	-0.0012743175
254	0x3e06addf	0.13152264
255	0xbe14128a	-0.14460197

bias f4 [25]
0	0x3bd48fa0	0.006486848
1	0xbdc3e72d	-0.09565578
2	0x3d9395ce	0.07206307
3	0xbd1163ec	-0.035495684
4	0xbe1ba8e8	-0.15201151
5	0xbe024b2c	-0.12723988
6	0xbda2102d	-0.079132415
7	0x3e21ad85	0.15788849
8	0x3db39d7a	0.08770271
9	0xbdc6528d	-0.09683714
10	0x3cca9a70	0.024731845
11	0xbd5fda08	-0.05465129
12	0x3e398919	0.18118705
13	0x3e0b9dfd	0.13634486
14	0x3e097721	0.1342435
15	0xbdf74807	-0.12074285
16	0x3da5c002	0.08093263
17	0xbe3472e2	-0.1762195
18	0x3e297031	0.16546704
19	0xbe41187d	-0.18856998
20	0xbcbe02c0	-0.02319467
21	0xbb9c87a0	-0.00477691
22	0x3da9e2f6	0.082952425
23	0xbbd184a0	-0.006393984
24	0xbdd4a62d	-0.10383258

weight f4 [25, 25]
0	0x3db835be	0.089946255
1	0x3dea7632	0.11448325
2	0xbdc63800	-0.0967865
3	0xbc29e620	-0.0103698075
4	0xbca637e8	-0.02029033
5	0xbd4ec62c	-0.05048196
6	0xbcf5e040	-0.030014157
7	0x3dcbc362	0.09949376
8	0x3df793da	0.12088747
9	0x3e487ded	0.19579287
10	0x3dcefd9e	0.101069674
11	0xbde07800	-0.10960388
12	0xbe0de27a	-0.13855925
13	0x3d8626c6	0.06550364
14	0xbe250e15	-0.16118653
15	0xbd9f3350	-0.07773459
16	0xbdb922f3	-0.09039869
17	0xbdbdbd27	-0.092645936
18	0x3df9cac2	0.12196876
19	0x3e492ae7	0.19645272
20	0xbd7899a8	-0.060693413
21	0xbe22d282	-0.15900615
22	0xbcf126d8	-0.029437467
23	0xbd6bb708	-0.0575476
24	0xbd86e8fa	-0.065874055
25	0xbd713bac	-0.0588948
26	0xbe114468	-0.14186251
27	0x3dd5eafe	0.10445212
28	0xbd819baa	-0.06328519
29	0x3dbd3406	0.09238438
30	0xbcaad768	-0.020854667
31	0x3dbc442e	0.09192692
32	0x3dc0e49a	0.09418602
33	0x3e2dfbeb	0.1699063
34	0x3e00bab1	0.12571217
35	0x3e2f1f99	0.17101897
36	0xbd350d08	-0.04420188
37	0x3df50ee6	0.11965732
38	0xbdac8f6a	-0.084257916
39	0xbe419930	-0.18906093
40	0x3cfccdd8	0.030859873
41	0x3e202c93	0.15642004
42	0x3e314967	0.17313157
43	0x3c26b0d0	0.010173991
44	0xbe3bbe58	-0.18334329
45	0x3ce1c6d8	0.027560636
46	0x3e2bf8cb	0.16794126
47	0xbe2a5dfa	-0.16637412
48	0x3d0ec500	0.034855843
49	0xbe43124a	-0.19049945
50	0xbdf5a400	-0.11994171
51	0xbe3ad798	-0.18246305
52	0xbd626ae8	-0.055277735
53	0xbdf5a1e0	-0.11993766
54	0x3e408179	0.1879939
55	0xbe296b38	-0.16544807
56	0xbd0bf078	-0.034164876
57	0xbdaf4df3	-0.085597895
58	0x3df3e466	0.11908798
59	0xbd066628	-0.032812268
60	0x3d2d43f4	0.042301133
61	0xbe444113	-0.19165449
62	0xbe034e4d	-0.12822838
63	0xbd875276	-0.06607525
64	0x3e4016ef	0.18758748
65	0x3d2fc8ec	0.042916223
66	0x3da33912	0.0796987
67	0x3e213ca9	0.15745796
68	0x3cd70d90	0.026251584
69	0x3e3bb4dd	0.18330713
70	0xbc1378b0	-0.009000942
71	0x3dfc5d52	0.12322487
72	0x3d651e44	0.055937067
73	0xbdacdd5a	-0.08440657
74	0x3d59a414	0.053134993
75	0x3e102c81	0.14079477
76	0x3e376f0b	0.17913453
77	0x3dd87302	0.10568811
78	0x3dd0a476	0.101876184
79	0x3e0cacb7	0.1373776
80	0x3e4bb217	0.19892155
81	0x3d725c1c	0.059169874
82	0xbdeb8583	-0.11500075
83	0xbe1599aa	-0.146094
84	0x3c5008d0	0.012697414
85	0xbbb096c0	-0.0053890646
86	0xbe072c82	-0.13200572
87	0xbe20c48d	-0.15699978
88	0xbda29ada	-0.07939692
89	0x3dcfd836	0.10148661
90	0x3d941e8a	0.07232387
91	0x3e06eb3f	0.13175677
92	0x3df0161a	0.117229655
93	0xbe192d8b	-0.1495878
94	0x3b760780	0.0037541091
95	0x3dc9aebe	0.098477826
96	0x3e2dc997	0.16971432
97	0x3e11e947	0.14249144
98	0xbe0e7e63	-0.139154
99	0x3d7da924	0.061928883
100	0x3e4920f7	0.19641481
101	0xbd5ee0b8	-0.054413527
102	0x3e4062e5	0.18787725
103	0xbcc579f0	-0.024105996
104	0xbe215aee	-0.15757343
105	0xbe128760	-0.14309454
106	0x3e26ad1d	0.16276975
107	0xbe1d368d	-0.1535284
108	0xbd64df6c	-0.055877134
109	0x3e19bb1d	0.15012784
110	0x3d49d694	0.049276903
111	0xbc9c1d80	-0.019057035
112	0x3ca48990	0.020085126
113	0xbdb48d0a	-0.088159636
114	0x3dfabcb2	0.12243022
115	0xbe2612b2	-0.16218069
116	0xbddebf4d	-0.108763315
117	0x3d914432	0.07093085
118	0x3c794e60	0.01521644
119	0xbe18e070	-0.14929366
120	0x3e4a3039	0.19744958
121	0x3e3226d9	0.17397632
122	0xbbebcac0	-0.0071958005
123	0x3de0f5b2	0.10984363
124	0xbc1575b0	-0.009122297
125	0xbe1fae9e	-0.15593955
126	0x3e154ef1	0.14580895
127	0x3e243eb5	0.16039546
128	0xbd20acd8	-0.039227337
129	0x3deff1a6	0.11716013
130	0x3ca82e98	0.02053003
131	0x3e23c79f	0.15994118
132	0x3df6699e	0.12031864
133	0x3e1c055d	0.15236421
134	0xbd0d4fa0	-0.034499764
135	0x3e05aaa1	0.13053371
136	0xbd668088	-0.05627492
137	0x3d78fc24	0.060787335
138	0x3d232298	0.039827913
139	0x3c5d1160	0.013492912
140	0xbd0aabec	-0.033855364
141	0x3c44a520	0.0120022595
142	0xbcce0e50	-0.02515331
143	0xbdbf7bbd	-0.09349773
144	0x3e09caa9	0.13456215
145	0x3dea731e	0.11447738
146	0xbd9724bc	-0.073800534
147	0xbdb27147	-0.08713012
148	0x3de62702	0.11237909
149	0xbc737450	-0.014859274
150	0xbdd17260	-0.102268934
151	0xbddee240	-0.108829975
152	0xbdd6bf83	-0.10485747
153	0xbdc2829d	-0.09497569
154	0x3dd344e6	0.10315876
155	0x3dd047da	0.101699546
156	0xbd1ae018	-0.03781137
157	0xbe00783d	-0.12545867
158	0xbc038650	-0.008027628
159	0x3d304aa0	0.043039918
160	0xbe3d98fa	-0.18515387
161	0x3d935716	0.07194345
162	0x3e486889	0.19571127
163	0x3de51a26	0.11186628
164	0xbdbb7e2d	-0.091549255
165	0x3e443b17	0.19163166
166	0x3e3658bb	0.17807285
167	0xbdf87090	-0.121308446
168	0x3db63f0a	0.088987425
169	0xbdaf6163	-0.08563497
170	0x3e341b91	0.17588641
171	0xbc9d6d30	-0.019217104
172	0xbe20e66a	-0.15712896
173	0xbda071b3	-0.078341864
174	0x3d8e5462	0.069496885
175	0xbe25e0be	-0.16199014
176	0x3e43ac07	0.19108592
177	0xbd33bb34	-0.043879703
178	0x3b400c00	0.0029304028
179	0xbd1d0f2c	-0.038344547
180	0x3d9c2852	0.07624878
181	0xbdf1a06a	-0.11798175
182	0xbe4acf50	-0.19805646
183	0x3d5c7cd4	0.053829983
184	0x3d397d80	0.0452857
185	0x3d3f6b4c	0.046733186
186	0x3e10f851	0.14157225
187	0xbd692d78	-0.056928128
188	0x3c357a30	0.011076495
189	0xbdac2d97	-0.08407133
190	0x3e1a7759	0.1508459
191	0xbda6211a	-0.08111782
192	0xbc0acb30	-0.008471295
193	0x3e0443d5	0.12916501
194	0xbce7d298	-0.028298661
195	0xbe38cb55	-0.18046315
196	0x3e2d0c77	0.16899286
197	0x3e22a999	0.15885009
198	0xbd68f60c	-0.056875274
199	0xbe15fe0a	-0.1464769
200	0x3cfa31d0	0.03054133
201	0x3d84bbe2	0.06481148
202	0x3d6563e4	0.056003466
203	0xbbb8e3c0	-0.0056423843
204	0x3dd7a15a	0.10528822
205	0x3e3ef39f	0.18647622
206	0xbe259d75	-0.16173346
207	0x3e3b9871	0.1831987
208	0xbe070c16	-0.13188204
209	0xbe38d662	-0.1805053
210	0xbe15d1a0	-0.14630747
211	0xbdeb19ed	-0.11479554
212	0x3d2bbbe8	0.04192725
213	0x3bb1f140	0.0054303706
214	0xbc35e8d0	-0.01110287
215	0xbdf8341d	-0.12119315
216	0x3d80683a	0.0626988
217	0x3e4bf779	0.19918622
218	0x3e4b9bf1	0.19883706
219	0xbdff572a	-0.12467797
220	0x3e43edb3	0.19133644
221	0x3d73c124	0.059510365
222	0xbdf98953	-0.12184396
223	0x3e183de5	0.14867361
224	0xbe020695	-0.12697823
225	0xbe0fb723	-0.14034705
226	0x3d7e06a4	0.06201805
227	0xbe2bc1e8	-0.16773188
228	0x3d7c26b4	0.061560348
229	0xbe1add65	-0.15123518
230	0xbe35d3c5	-0.17756565
231	0xbe12a633	-0.14321212
232	0xbdb0a33a	-0.08624883
233	0x3d02fde0	0.031980395
234	0xbdff62ba	-0.124700025
235	0xbe27ad12	-0.16374615
236	0x3e0fc021	0.14038135
237	0xbc05f980	-0.008177161
238	0xbe39ec63	-0.1815658
239	0xbd751700	-0.059836388
240	0x3df10d76	0.117701456
241	0x3c515b80	0.012778163
242	0x3b528b40	0.0032126456
243	0x3dd0c1ee	0.10193239
244	0xbdb67c47	-0.08910423
245	0xbdeeb6e3	-0.116559766
246	0x3c081350	0.008305386
247	0x3e494933	0.1965683
248	0x3df69622	0.12040354
249	0xbe2f1bb5	-0.17100413
250	0xbe168a42	-0.14701179
251	0x3daf806a	0.08569415
252	0xbe188053	-0.14892702
253	0x3d78b814	0.060722426
254	0xb948d400	-0.00019152462
255	0xbd82f976	-0.06395237

bias f4 [25]
0	0x3e16d1c7	0.14728461
1	0x3c7c4620	0.0153975785
2	0x3d462ea0	0.04838431
3	0xbdf497cd	-0.11943016
4	0x3d715004	0.0589142
5	0xbe0b888a	-0.13626304
6	0x3da6c0fe	0.08142279
7	0x3e1f207d	0.15539737
8	0xbdc73de3	-0.09728601
9	0xbda9d197	-0.08291929
10	0xbd80fc74	-0.062981516
11	0xbdde1eaa	-0.108456925
12	0xbc121460	-0.008915991
13	0xbe304bef	-0.17216466
14	0x3e41aa1d	0.1891255
15	0x3d10a4a0	0.03531325
16	0x3e009a41	0.12558843
17	0x3cd17168	0.025566772
18	0xbdc4ce1d	-0.096096255
19	0xbe065c5d	-0.13121171
20	0xbd827f6c	-0.0637196
21	0x3e1cf901	0.15329362
22	0x3e343d79	0.17601575
23	0x3de1ce92	0.11025728
24	0xbd4d8040	-0.050171137

weight f4 [4, 25]
0	0x3d48a2f4	0.04898353
1	0x3e01e221	0.12683918
2	0x3bb953c0	0.0056557357
3	0x3d4c2ff8	0.049850434
4	0xbb8f3400	-0.0043702126
5	0xbc678060	-0.014129728
6	0xbd312d20	-0.043255925
7	0xbe23c598	-0.15993345
8	0xbdc55377	-0.0963506
9	0xbda15cfd	-0.07879064
10	0xbe2244e3	-0.1584659
11	0x3d0fa988	0.035073787
12	0xbd4b7580	-0.049672604
13	0xbd829e4a	-0.063778475
14	0x3d6e1d44	0.05813338
15	0xbe183afa	-0.14866248
16	0xbc325d60	-0.01088652
17	0xbd4a81b8	-0.049440116
18	0xbdf755dd	-0.12076924
19	0xbe46ad93	-0.19402151
20	0xbd5a9580	-0.05336523
21	0x3e30f089	0.17279257
22	0xbdf1fef7	-0.11816209
23	0x3de3019a	0.1108429
24	0xbdee85b3	-0.11646595
25	0xbd4eef98	-0.050521463
26	0x3e2aceeb	0.16680495
27	0x3e158185	0.14600189
28	0x3c987430	0.01861009
29	0x3dcf54a2	0.10123564
30	0x3a61e800	0.00086176395
31	0xbdb6e017	-0.089294605
32	0xbab8b000	-0.0014090538
33	0xbd879fb6	-0.06622259
34	0x3e38385d	0.17990251
35	0xbd7c62f8	-0.06161782
36	0x3b174340	0.0023080856
37	0x3dc5d706	0.09660153
38	0x3daae08a	0.08343609
39	0xbd68b838	-0.05681631
40	0x3e02a34f	0.1275761
41	0xbe1b1340	-0.15144062
42	0x3d596cb4	0.053082183
43	0xbe060382	-0.13087276
44	0x3d8d8d52	0.0691172
45	0xbd5084d8	-0.05090794
46	0x3e286713	0.1644557
47	0x3c763020	0.015026122
48	0xbe35d56a	-0.17757192
49	0x3dc9f232	0.09860648
50	0x3d1938f8	0.037407845
51	0x3d0532d4	0.032519177
52	0x3e3df561	0.18550636
53	0x3d0757e8	0.03304282
54	0xbe079fc2	-0.13244537
55	0xbe3b536a	-0.18293539
56	0x3e143429	0.14473023
57	0xbe036158	-0.12830102
58	0xbe0cd175	-0.13751777
59	0x3e2852ed	0.16437884
60	0x3d0eb568	0.03484097
61	0xbe02192a	-0.12704912
62	0x3c17b760	0.009260029
63	0x3dd106de	0.10206388
64	0x3e489acf	0.19590305
65	0xbda82e5a	-0.08211966
66	0xbd1f11ec	-0.03883545
67	0xbd3c030c	-0.045901343
68	0xbdd0fb93	-0.10204234
69	0xbe34e012	-0.17663601
70	0x3e054ff5	0.13018782
71	0xbdc3d030	-0.09561193
72	0x3e2fe379	0.17176618
73	0xbc937030	-0.017997831
74	0xbdbef367	-0.09323769
75	0xbe322075	-0.17395194
76	0xbd820540	-0.063486576
77	0x3d6414e4	0.055683985
78	0xbe185ffa	-0.14880362
79	0xbd0fbc40	-0.03509164
80	0x3cac7fe8	0.021057084
81	0xbdefb24d	-0.1170393
82	0xbdaaedaa	-0.08346112
83	0xbde9a01a	-0.1140749
84	0xbd7b2df4	-0.06132312
85	0xbc15b1e0	-0.009136647
86	0x3df20b76	0.11818592
87	0xbe1faa26	-0.1559225
88	0xbdf0bf0a	-0.11755188
89	0x3e18dd37	0.14928137
90	0x3ca0ea90	0.019643098
91	0x3be78200	0.0070650578
92	0xbdc75817	-0.09733599
93	0xbdae636a	-0.085150555
94	0xbd5d7020	-0.05406201
95	0x3cbdc300	0.023164272
96	0xbd559d78	-0.052152127
97	0xbdee3633	-0.116314314
98	0x3dc99f22	0.09844805
99	0xbe355c72	-0.17711046

bias f4 [4]
0	0x3ddf99aa	0.10917981
1	0xbd880db0	-0.06643236
2	0x3cd59340	0.02607119
3	0x3daf8fde	0.08572362
