models/_brain_285.pt (torch, 14593 bytes, 12 tensors)

weight f4 [14]
1.0 1.0 1.0 1.0 1.0 1.0 1.0 1.0
1.0 1.0 1.0 1.0 1.0 1.0
00000000: 0000 803f 0000 803f 0000 803f 0000 803f
00000010: 0000 803f 0000 803f 0000 803f 0000 803f
00000020: 0000 803f 0000 803f 0000 803f 0000 803f
00000030: 0000 803f 0000 803f

bias f4 [14]
0.0 0.0 0.0 0.0 0.0 0.0 0.0 0.0
0.0 0.0 0.0 0.0 0.0 0.0
00000000: 0000 0000 0000 0000 0000 0000 0000 0000
00000010: 0000 0000 0000 0000 0000 0000 0000 0000
00000020: 0000 0000 0000 0000 0000 0000 0000 0000
00000030: 0000 0000 0000 0000

weight f4 [25, 14]
0.095701694 0.16730762 -0.101154685 0.048720986 -0.1376115 -0.09353395 0.23829135 0.25107822
-0.24188572 -0.17722112 0.12417981 -0.15386736 -0.08747713 -0.15889966 0.18325126 -0.13258341
0.022705346 0.0920662 -0.17555255 0.19674653 -0.21353632 0.103116006 -0.00067186356 -0.05053009
0.14899486 0.057928115 -0.2542713 -0.019939855 -0.21689749 -0.15067306 0.10408652 0.07644239
-0.12870494 -0.013561785 0.25454435 -0.08174071 0.015724331 -0.029173464 -0.22382028 -0.23692992
-0.08527565 -0.17735308 -0.25511378 -0.16690427 -0.00020951033 0.04401058 0.10464451 -0.08024494
-0.05182074 0.058888704 -0.05656667 -0.12133317 -0.16584173 0.1936934 0.008005828 0.16053939
-0.029162884 0.2101048 -0.23434445 -0.08403915 0.1960642 -0.05617945 -0.060474113 0.18006435
-0.081245705 -0.1526191 0.084416986 0.20429897 0.25740394 -0.117586896 -0.057426065 -0.029144466
-0.1703668 0.1444822 -0.075663984 0.14461079 0.18794024 -0.02248098 0.120367795 0.05351886
-0.2579757 0.014050722 0.115119636 0.20657974 -0.06702864 0.106472254 -0.18303815 0.04647243
0.08973238 -0.26421255 -0.13612956 -0.2655449 -0.17356917 0.22141641 -0.06638284 0.16574407
-0.18792118 0.048287243 0.14090526 -0.043566152 -0.10187106 -0.093281046 -0.078146234 -0.17102346
-0.10307272 -0.014810175 0.089420974 0.12680572 0.087547034 0.26187292 0.17422906 -0.048203006
-0.167755 -0.047391236 -0.018643811 0.12177831 -0.006879449 -0.051282436 0.17666829 0.124008596
-0.1382228 -0.22812203 -0.20464721 -0.13446675 -0.26556864 0.077714026 0.03743556 0.18907106
-0.20298766 -0.1971084 0.21813506 0.17185405 0.046681404 -0.14254168 -0.069543615 0.1781505
-0.2669917 -0.06740567 0.0019637346 -0.20441064 -0.19696493 -0.22795027 -0.07068853 -0.22255589
0.26630417 -0.19567874 0.21822214 -0.0890031 -0.19303513 0.23660395 0.1004473 0.006184697
0.09103763 0.08886257 0.104352355 0.015542805 0.030524522 -0.14397773 -0.24301857 -0.055693224
-0.166574 0.048092812 0.25909594 -0.110739574 -0.047799975 0.069053024 -0.09426358 -0.23579176
0.030142933 -0.12999539 -0.011731207 -0.13147911 0.10523915 -0.04726167 -0.1510086 0.04062
0.2493904 0.009059161 -0.26093858 0.015630782 -0.050353274 -0.12138863 -0.2475735 0.065861344
0.19482881 -0.19454962 -0.11897689 0.18729952 -0.24097277 -0.19833332 0.24156198 0.12502378
-0.07733804 -0.24469991 -0.2408424 -0.24300396 -0.08628869 0.2509708 -0.0028667748 -0.1800264
0.02005148 0.16788071 -0.03807649 0.038907558 0.2442284 -0.21881498 -0.108738706 0.15391752
-0.068397164 -0.25141877 0.07956064 -0.11482458 0.039724052 0.12470266 0.18207297 0.047044754
0.15291002 0.0059453845 -0.099531606 -0.027458757 -0.012628585 -0.15587178 0.263146 0.055998743
0.2053428 0.15940315 0.015557498 -0.24186784 0.16235608 0.049370527 0.24848321 -0.07333177
-0.09627181 0.029073298 -0.20299947 0.26507053 -0.057761684 -0.20075981 0.006344795 -0.13977887
0.07517353 0.023750216 -0.033562914 0.21684015 0.05961007 -0.09233086 0.18091688 -0.19493045
-0.08707519 0.26515874 -0.22989768 -0.039708734 0.012525409 -0.1601011 0.14478257 0.061736345
00000000: 40ff c33d b052 2b3e 302a cfbd a88f 473d
00000010: 07ea 0cbe ba8e bfbd a602 743e 538d 803e
00000020: e4b0 77be 7479 35be fc51 fe3d 688f 1dbe
00000030: 3627 b3bd 98b6 22be 38a6 3b3e f2c3 07be
00000040: 9000 ba3c 348d bc3d 0cc4 33be ec77 493e
00000050: 44a9 5abe 7c2e d33d 0020 30ba a4f8 4ebd
00000060: 1c92 183e 0846 6d3d d92f 82be e858 a3bc
00000070: 601a 5ebe 0a4a 1abe 502b d53d d48d 9c3d
00000080: 3acb 03be 4032 5ebc a353 823e ac67 a7bd
00000090: 50d0 803c 30fd eebc 2531 65be c29d 72be
000000a0: 00a5 aebd 0c9c 35be 469e 82be f4e8 2abe
000000b0: 00b0 5bb9 7044 343d dc4f d63d 7657 a4bd
000000c0: fc41 54bd 4835 713d 74b2 67bd 867d f8bd
000000d0: 6ad2 29be 9057 463e e02a 033c 7064 243e
000000e0: 00e7 eebc b625 573e fef7 6fbe b81c acbd
000000f0: 0ec5 483e 6c1c 66bd b4b3 77bd ca62 383e
00000100: 2664 a6bd 2e48 1cbe d0e2 ac3d c033 513e
00000110: 73ca 833e 66d1 f0bd 9837 6bbd 60c0 eebc
00000120: a274 2ebe 24f3 133e b8f5 9abd da14 143e
00000130: 6873 403e 082a b8bc 6483 f63d 9836 5b3d
00000140: 6415 84be 0035 663c d8c3 eb3d a489 533e
00000150: 5046 89bd 200e da3d 5a6e 3bbe e059 3e3d
00000160: 9cc5 b73d de46 87be 8c65 0bbe 80f5 87be
00000170: 1ebc 31be fcba 623e baf3 87bd d0b8 293e
00000180: 696e 40be d8c8 453d 7849 103e 6c72 32bd
00000190: c6a1 d0bd 220a bfbd 220b a0bd c620 2fbe
000001a0: ca17 d3bd 60a6 72bc 5822 b73d 5cd9 013e
000001b0: dc4b b33d 3514 863e 1a69 323e 8470 45bd
000001c0: f7c7 2bbe 501d 42bd e8ba 98bc e866 f93d
000001d0: 006d e1bb 880d 52bd 88e8 343e 38f8 fd3d
000001e0: 478a 0dbe d298 69be 0a8f 51be a7b1 09be
000001f0: 9df8 87be 8828 9f3d 0856 193d d89b 413e
00000200: ffdb 4fbe c9d6 49be cc5e 5f3e 82fa 2f3e
00000210: 0035 3f3d 72f6 11be e26c 8ebd 166d 363e
00000220: 23b3 88be fc0b 8abd 00b2 003b 0651 51be
00000230: 2db1 49be cc6b 69be 26c5 90bd b1e5 63be
00000240: 0559 883e 0260 48be a075 5f3e 4247 b6bd
00000250: 00ab 45be 4e48 723e 50b7 cd3d 00a9 ca3b
00000260: f071 ba3d 94fd b53d b0b6 d53d 40a7 7e3c
00000270: 900e fa3c e66e 13be dcd9 78be 941e 64bd
00000280: 6092 2abe f8fc 443d 39a8 843e 6ecb e2bd
00000290: e8c9 43bd ac6b 8d3d 440d c1bd 6573 71be
000002a0: 50ee f63c 831d 05be 4034 40bc 76a2 06be
000002b0: a087 d73d 7495 41bd 00a2 1abe 2861 263d
000002c0: 3260 7f3e e06c 143c be99 85be 200c 803c
000002d0: 3c3f 4ebd 9a9a f8bd e883 7dbe 50e2 863d
000002e0: 3481 473e 0438 47be 28aa f3bd 72cb 3f3e
000002f0: 91c1 76be e417 4bbe 065c 773e 3c06 003e
00000300: 6863 9ebd 9d92 7abe 649f 76be 08d6 78be
00000310: 20b8 b0bd 3f7f 803e 80e0 3bbb d758 38be
00000320: 0043 a43c ece8 2b3e 18f6 1bbd 885d 1f3d
00000330: 0217 7a3e 0911 60be 66b2 debd 8e9c 1d3e
00000340: d013 8cbd f6b9 80be b0f0 a23d 2629 ebbd
00000350: b0b5 223d 1c64 ff3d 5671 3a3e 00b2 403d
00000360: 7294 1c3e 80d1 c23b 3ad7 cbbd 30f1 e0bc
00000370: 20e8 4ebc da9c 1fbe 13bb 863e f05e 653d
00000380: 6245 523e 943a 233e e0e4 7e3c 34ac 77be
00000390: ac40 263e c038 4a3d 6272 7e3e f82e 96bd
000003a0: 282a c5bd 202b ee3c 18df 4fbe 53b7 873e
000003b0: 8497 6cbd fb93 4dbe 00e8 cf3b 3122 0fbe
000003c0: 94f4 993d d08f c23c 4479 09bd 580b 5e3e
000003d0: b029 743d f617 bdbd 4642 393e d99b 47be
000003e0: 7a54 b2bd e3c2 873e 4c6a 6bbe a0a5 22bd
000003f0: 6037 4d3c 8bf1 23be e241 143e 40df 7c3d

bias f4 [25]
-0.07535425 -0.12652297 0.23991653 -0.11026779 0.22001144 -0.24129847 -0.112298384 -0.005060315
0.072416306 -0.08093344 -0.23847093 0.06034276 -0.21261814 -0.26255146 0.16175592 -0.23173404
0.23962656 -0.09882893 0.11347425 5.301833e-05 0.055075675 0.23335734 0.10765687 -0.19427031
0.1634605
00000000: 5453 9abd 3d8f 01be aeac 753e 14d4 e1bd
00000010: ae4a 613e f216 77be b2fc e5bd 00d1 a5bb
00000020: 004f 943d 6ec0 a5bd b931 74be f829 773d
00000030: 92b8 59be 256d 86be 58a3 253e b04b 6dbe
00000040: aa60 753e d266 cabd 3065 e83d 0060 5e38
00000050: 0897 613d 3af5 6e3e 347b dc3d ccee 46be
00000060: 3062 273e

weight f4 [25, 25]
0.12106775 0.16369303 0.16559355 -0.11959157 0.11407162 -0.1683344 -0.05954954 -0.07237339
-0.18546031 -0.15317221 -0.10167797 -0.050798014 -0.17348225 0.10970907 0.0014912337 0.095969304
-0.18916546 0.17365657 -0.1893893 -0.08174973 0.14147924 -0.11226463 0.0033992976 0.09777488
0.12501444 0.15860762 0.002383113 -0.13233078 -0.015988022 -0.13516188 0.052429125 -0.1476229
-0.010562301 -0.19198637 -0.09108465 0.10012843 0.052456036 0.18623365 0.16448174 -0.025208026
0.0058830976 -0.047048062 -0.19487122 -0.056897134 -0.08996258 -0.05727212 -0.19933489 0.06603862
0.15640403 0.019705966 -0.06560838 0.12355812 0.17874373 -0.12472942 -0.02466479 -0.09275033
-0.19021218 -0.13028798 0.06491314 -0.15725839 0.110103115 0.11385338 0.15831946 0.18608646
-0.088998534 -0.06294377 0.10661401 -0.17398551 -0.094061874 0.19333754 0.11816059 0.18105917
0.16104428 -0.028233647 -0.07657819 -0.040298864 -0.12243264 0.11225031 -0.012725711 -0.18988326
-0.07698429 0.19064198 -0.16206518 -0.089626364 -0.07724529 0.09808378 0.06809248 -0.02561751
0.093520775 -0.18204525 -0.18951976 -0.071645886 -0.17422731 0.060818 0.12503691 0.15872838
-0.025559217 0.16059802 -0.13199985 0.119682565 -0.036640614 0.11095561 -0.17416938 -0.030901983
-0.06385121 0.15446363 -0.15122907 0.1534398 -0.10401392 0.14542593 0.027810976 0.024851084
0.15697415 -0.17086954 -0.14026704 0.11508848 -0.015516788 -0.083373785 -0.16325311 -0.08006215
-0.003223613 0.11299993 0.101358816 0.1085739 0.13652398 -0.08181446 -0.11286838 0.076272294
-0.12686676 -0.029560477 -0.024903774 -0.027081206 0.06770022 0.100552544 -0.060503274 -0.053689525
0.009296864 -0.061365604 -0.1311328 0.047163084 0.07017915 0.023528144 -0.19925332 -0.13231511
0.003592059 -0.18662928 0.15051429 0.15223707 -0.09521506 0.0028828382 -0.18112803 -0.17199211
0.041977644 -0.09560931 -0.19028488 0.013458937 -0.07982459 -0.12225926 -0.078294754 -0.10642605
0.11057104 -0.04815121 -0.092050366 -0.007403165 0.11765687 -0.11127808 0.023500055 -0.13725205
-0.16132414 0.16329776 -0.15119688 -0.0942708 0.17737116 0.027076408 0.12362184 -0.17899838
0.004610747 0.118532464 0.19566311 0.12792961 -0.097754955 0.043689102 0.008993506 -0.13613328
0.18306611 -0.08193624 0.14326815 -0.08237653 0.1388651 -0.17868005 0.010980725 0.14562477
-0.117796615 -0.034611538 -0.118005775 0.16425468 -0.075176336 0.1967373 0.096690014 -0.0967341
-0.07897957 -0.0072324723 -0.04805553 0.098582044 0.04845786 -0.0044123232 0.12479146 -0.1817065
-0.075122215 -0.13643709 0.047899157 -0.06944771 -0.18816964 0.09643848 0.17507888 0.017686993
0.1028298 -0.14685693 0.15959392 0.108456805 -0.08671236 -0.001423642 -0.14606547 0.008838847
-0.15337448 0.0676281 -0.035091966 0.050370082 0.1333582 -0.06185703 0.09359135 0.09655337
0.062941834 -0.15672496 0.025826693 0.038240865 -0.04501398 -0.03357753 -0.034738466 0.0038519353
-0.07923939 -0.09215281 0.08519666 -0.094473265 0.13272442 -0.08463905 -0.17443489 -0.056432173
0.13907854 0.018418953 0.1349792 0.040429592 -0.027563572 0.12518926 -0.0102216005 0.054409042
00000000: 5ef2 f73d 259f 273e 5b91 293e 6dec f4bd
00000010: 629e e93d da5f 2cbe 38ea 73bd 8038 94bd
00000020: 4fe9 3dbe 2dd9 1cbe 8a3c d0bd 9411 50bd
00000030: 55a5 31be 26af e03d 8075 c33a 8e8b c43d
00000040: 97b4 41be 07d3 313e 45ef 41be 676c a7bd
00000050: efdf 103e 00eb e5bd c0c6 5e3b 323e c83d
00000060: c903 003e 096a 223e 002e 1c3b b881 07be
00000070: 50f9 82bc e067 0abe ecbf 563d 752a 17be
00000080: 800d 2dbc 1398 44be 978a babd 2210 cd3d
00000090: 24dc 563d 09b4 3e3e e76d 283e 1081 cebc
000000a0: 00c7 c03b 78b5 40bd 528c 47be f80c 69bd
000000b0: 4d3e b8bd 2c96 6abd 721e 4cbe 423f 873d
000000c0: 6128 203e 686e a13c b05d 86bd 0a0c fd3d
000000d0: 9908 373e 2372 ffbd d00d cabc e3f3 bdbd
000000e0: fbc6 42be 366a 05be 2ef1 843d 5808 21be
000000f0: be7d e13d f62b e93d 7f1e 223e 738d 3e3e
00000100: dd44 b6bd aae8 80bd 7258 da3d 4229 32be
00000110: 83a3 c0bd 47fa 453e 2efe f13d 9367 393e
00000120: cbe8 243e 404a e7bc 07d5 9cbd 6c10 25bd
00000130: f7bd fabd 7ee3 e53d 807f 50bc c270 42be
00000140: f0a9 9dbd a737 433e 6af4 25be 078e b7bd
00000150: c732 9ebd 26e0 c83d 1274 8b3d d0db d1bc
00000160: d287 bf3d 126a 3abe 7811 42be 14bb 92bd
00000170: a568 32be 4c1c 793d ad09 003e b189 223e
00000180: 9061 d1bc cf73 243e f82a 07be 221c f53d
00000190: 7814 16bd b23c e33d 7559 32be 2826 fdbc
000001a0: 6cc4 82bd b72b 1e3e cbdb 1abe 531f 1d3e
000001b0: 4005 d5bd 89ea 143e d8d3 e33c 8094 cb3c
000001c0: d5bd 203e 6df8 2ebe 2aa2 0fbe 82b3 eb3d
000001d0: 203a 7ebc e0bf aabd d32b 27be a0f7 a3bd
000001e0: 4043 53bb 826c e73d 3695 cf3d fe5b de3d
000001f0: f1cc 0b3e 578e a7bd 8a27 e7bd a634 9c3d
00000200: 5ce9 01be d028 f2bc 0003 ccbc 68d9 ddbc
00000210: 6aa6 8a3d 7eee cd3d 48d2 77bd 8ce9 5bbd
00000220: e051 183c 805a 7bbd ad47 06be 142e 413d
00000230: 16ba 8f3d 18be c03c 1009 4cbe 9d7d 07be
00000240: c068 6b3b bf1b 3fbe 6b20 1a3e 09e4 1b3e
00000250: 1d00 c3bd 00ee 3c3b a079 39be b31e 30be
00000260: c0f0 2b3d d0ce c3bd 0ada 42be e082 5c3c
00000270: 137b a3bd 1063 fabd 0059 a0bd e7f5 d9bd
00000280: 1273 e23d 343a 45bd e784 bcbd 4096 f2bb
00000290: 16f6 f03d c3e5 e3bd 3083 c03c cd8b 0cbe
000002a0: 2832 25be 8737 273e 5bd3 1abe 0d11 c1bd
000002b0: c9a0 353e 58cf dd3c 722d fd3d 5a4b 37be
000002c0: c015 973b 26c1 f23d e95b 483e fbff 023e
000002d0: c033 c8bd 58f3 323d 8059 133c 8666 0bbe
000002e0: af75 3b3e 30ce a7bd e3b4 123e 07b5 a8bd
000002f0: a732 0e3e e7f7 36be 80e8 333c a91e 153e
00000300: 5a3f f1bd d4c4 0dbd 03ad f1bd 6132 283e
00000310: 0df6 99bd 8175 493e 6a05 c63d 871c c6bd
00000320: 0ac0 a1bd 60fe ecbb e0d5 44bd 62e5 c93d
00000330: c07b 463d 4095 90bb aa92 ff3d 4511 3abe
00000340: add9 99bd 2ab6 0bbe e831 443d 9a3a 8ebd
00000350: 8baf 40be 8a81 c53d e147 333e 50e4 903c
00000360: 6e98 d23d aa61 16be 976c 233e 9a1e de3d
00000370: 4096 b1bd 8099 baba 3092 15be d0d0 103c
00000380: 330e 1dbe 9a80 8a3d 98bc 0fbd dc50 4e3d
00000390: 0d8f 083e cc5d 7dbd d2ac bf3d c6bd c53d
000003a0: a6e7 803d 827c 20be 8092 d33c 74a2 1c3d
000003b0: 9460 38bd 9888 09bd ec49 0ebd c070 7c3b
000003c0: 4348 a2bd 9dba bcbd 967b ae3d 337b c1bd
000003d0: e9e8 073e 3d57 adbd 0f9f 32be 6c25 67bd
000003e0: 9b6a 0e3e 58e3 963c fd37 0a3e 8099 253d
000003f0: 00cd e1bc 9d31 003e 8078 27bc 04dc 5e3d

bias f4 [25]
-0.16828847 -0.08313811 -0.03893535 0.118775114 0.047515273 -0.1471672 0.017653897 -0.013754159
0.1519811 -0.105971575 -0.08873522 -0.0629812 -0.11270149 0.0796776 0.12569045 0.0048874915
0.18980269 -0.10989974 -0.12193177 -0.037864298 -0.06770508 0.048503563 -0.11383057 -0.1298033
0.18018554
00000000: d053 2cbe 5044 aabd ac7a 1fbd 5e40 f33d
00000010: 609f 423d 00b3 16be e89e 903c 2059 61bc
00000020: efa0 1b3e a007 d9bd d0ba b5bd 4afc 80bd
00000030: 0ad0 e6bd 022e a33d ffb4 003e 4027 a03b
00000040: a35b 423e 1d13 e1bd 5db7 f9bd 9817 1bbd
00000050: f6a8 8abd acab 463d 0020 e9bd 28eb 04be
00000060: 8f82 383e

weight f4 [25, 25]
-0.019324735 -0.16639297 0.15520559 0.1912768 -0.026261851 -0.051370546 0.034524605 -0.0883786
-0.096202016 -0.09033046 -0.1996481 -0.15595917 0.025406316 -0.093317054 -0.10810783 0.14707448
-0.10392874 0.10762058 -0.100308895 -0.09529779 0.10608329 0.04705596 0.17036806 0.059714213
0.04409723 0.19030093 -0.19046438 0.08858456 0.0742255 -0.04004939 -0.016987294 -0.08398824
0.115648404 -0.02281776 -0.14751606 0.18915187 0.14501525 -0.018249199 0.18312554 0.010555908
0.14921753 0.054694876 0.11135541 -0.032348275 -0.1669744 0.15815412 -0.039667845 0.05077307
0.05794154 -0.043891743 0.108387366 0.09535183 0.018309325 -0.10333057 -0.07573237 -0.06421824
-0.11394341 -0.07911134 0.15877165 0.013251737 -0.19236127 0.11927144 -0.19285373 -0.14382294
-0.03768222 -0.07099652 -0.018618375 -0.009796664 -0.19337228 0.18727763 0.14631481 -0.061600804
0.18817069 -0.116464905 0.00013335049 -0.15290877 0.009673044 -0.16052613 0.034789443 0.1686915
-0.008055851 0.023171157 -0.067922235 -0.017204255 0.066374436 -0.19739242 0.020902991 0.0080884695
0.0013062507 0.07804407 -0.12698972 0.0005992204 -0.042973116 0.124348834 0.07342996 0.19912158
-0.055244133 0.03121908 0.07438822 -0.17850728 0.1171691 -0.101801254 -0.014638379 0.18780471
0.14781977 0.14115863 -0.19261098 -0.07640014 -0.19119708 -0.16166091 -0.10954137 -0.12701079
-0.09836221 0.13159151 0.14924337 -0.122532986 0.10112782 0.013566822 -0.01941447 0.18867542
0.16365005 -0.044623137 -0.027315289 0.16852163 -0.1911137 0.08567728 0.19793428 -0.19130068
-0.16621523 0.17518707 0.15575327 0.015660614 -0.15073164 -0.0445956 -0.19521742 0.17444177
-0.1514009 0.19079913 0.1381327 -0.069324106 -0.0836333 0.0667323 -0.134709 -0.14050126
0.1838188 -0.13720532 0.10802753 0.1895438 0.1613342 0.075472996 0.089049384 -0.16171566
-0.064257145 0.044808894 0.017590448 0.18692781 0.0549051 0.19849159 -0.18251216 -0.115070276
-0.11014392 -0.07646566 0.013650537 -0.120197415 -0.109480694 -0.15452942 -0.05349271 0.11459018
0.019411728 -0.1723192 0.0258805 -0.18601222 0.019842118 -0.16214208 -0.16862912 -0.0855423
0.11228658 0.04084246 0.12478422 0.03649497 -0.15518454 0.14834057 0.19118272 0.12372504
0.13033454 -0.13097566 0.11301322 0.09348501 -0.13885471 -0.0118353665 -0.038131192 0.13961034
0.009567231 -0.19677547 0.16023056 0.024749517 -0.010591775 -0.053360105 -0.0782805 0.06927495
0.16803505 0.029019162 -0.06039481 -0.1976522 0.06538673 -0.06794231 -0.169096 0.055001125
-0.06519854 0.16340853 0.00049714744 -0.10425408 0.15001933 -0.08664105 -0.016240805 -0.1005426
0.13684212 0.15027653 0.02304563 -0.062190264 -0.124598436 0.18989994 -0.10773945 0.009888083
-0.103128456 0.1640443 -0.006346673 -0.024746805 0.19267489 -0.16591203 0.13163559 0.1395254
-0.07459208 0.19733076 -0.10732835 -0.013156816 -0.088890746 0.17826368 -0.054200694 0.15345503
-0.15771595 0.18328919 -0.0020445138 -0.19654468 0.15439619 -0.08671906 0.06503032 0.15022625
0.008156538 0.023154452 -0.040056676 -0.011948034 -0.14815314 0.13199987 0.11558415 0.07981868
00000000: e84e 9ebc eb62 2abe 37ee 1e3e 11de 433e
00000010: 1823 d7bc ec69 52bd ac69 0d3d d7ff b4bd
00000020: 9005 c5bd 2dff b8bd 8d70 4cbe c3b3 1fbe
00000030: e820 d03c 031d bfbd a367 ddbd b19a 163e
00000040: 97d8 d4bd 2e68 dc3d c06e cdbd 7d2b c3bd
00000050: 3242 d93d c0bd 403d f774 2e3e e496 743d
00000060: 4c9f 343d 3fde 423e 1809 43be d26b b53d
00000070: 8a03 983d d40a 24bd f028 8bbc 0702 acbd
00000080: 12d9 ec3d 50ec babc 730e 17be 07b1 413e
00000090: e17e 143e 587f 95bc 4385 3b3e b0f2 2c3c
000000a0: 7bcc 183e bc07 603d 4e0e e43d a07f 04bd
000000b0: 56fb 2abe 27f3 213e c07a 22bd 6cf7 4f3d
000000c0: 1c54 6d3d d4c7 33bd 32fa dd3d d247 c33d
000000d0: 70fd 953c fa9e d3bd 9319 9bbd da84 83bd
000000e0: 2a5b e9bd 2005 a2bd 0995 223e d01d 593c
000000f0: 5afa 44be 9644 f43d 737b 45be 5246 13be
00000100: ac58 1abd a066 91bd 9085 98bc 3082 20bc
00000110: 6203 46be b5c5 3f3e 8dd3 153e 2051 7cbd
00000120: d1af 403e 2785 eebd 00d4 0b39 1e94 1cbe
00000130: b07b 1e3c f660 24be 607f 0e3d 77bd 2c3e
00000140: b0fc 03bc 70d1 bd3c d01a 8bbd f0ef 8cbc
00000150: 52ef 873d 3d21 4abe c03c ab3c 8085 043c
00000160: 8036 ab3a 92d5 9f3d 9809 02be 0015 1d3a
00000170: 9404 30bd 9aaa fe3d 7262 963d 87e6 4b3e
00000180: ac47 62bd 28bf ff3c da58 983d 9dca 36be
00000190: 5af6 ef3d 2d7d d0bd d0d5 6fbc e14f 403e
000001a0: 115e 173e e38b 103e d03b 45be ad77 9cbd
000001b0: 2bc9 43be 708a 25be 3a57 e0bd 1e0f 02be
000001c0: 2072 c9bd edbf 063e 41d3 183e 93f2 fabd
000001d0: 1a1c cf3d 6047 5e3c 180b 9fbc 2134 413e
000001e0: e193 273e c0c6 36bd 50c4 dfbc ef90 2c3e
000001f0: 4fb3 43be 9277 af3d 49af 4a3e 53e4 43be
00000200: 5334 2abe 3d64 333e c97d 1f3e b04a 803c
00000210: 6559 1abe e0a9 36bd 13e7 47be dda0 323e
00000220: d608 1bbe d960 433e a972 0d3e ccf9 8dbd
00000230: f047 abbd f2aa 883d 28f1 09be 90df 0fbe
00000240: ff3a 3c3e 8d7f 0cbe 8a3d dd3d c517 423e
00000250: cb34 253e 9691 9a3d 865f b63d ca98 25be
00000260: 4099 83bd 8889 373d d819 903c 016a 3f3e
00000270: 2ce4 603d 6141 4b3e 78e4 3abe f7a9 ebbd
00000280: 2393 e1bd 079a 9cbd 80a6 5f3c 102a f6bd
00000290: 6a37 e0bd f63c 1ebe 2c1b 5bbd 42ae ea3d
000002a0: 5805 9f3c 7274 30be 5803 d43c fd79 3ebe
000002b0: f08b a23c 9308 26be 1dad 2cbe cd30 afbd
000002c0: 82f6 e53d 6c4a 273d de8e ff3d c07b 153d
000002d0: b2e8 1ebe 97e6 173e 67c5 433e 8e63 fd3d
000002e0: 6b76 053e 7c1e 06be 7a73 e73d 1275 bf3d
000002f0: ee2f 0ebe 20e9 41bc 742f 1cbd 03f6 0e3e
00000300: e0bf 1c3c 827f 49be 7b13 243e 80bf ca3c
00000310: 2089 2dbc 2090 5abd 8751 a0bd 06e0 8d3d
00000320: 6111 2c3e 98b9 ed3c 8c60 77bd 5765 4abe
00000330: 7ae9 853d 5625 8bbd 8027 2dbe dc48 613d
00000340: d086 85bd 9154 273e 0053 023a 2a83 d5bd
00000350: ab9e 193e dd70 b1bd 700b 85bc 47e9 cdbd
00000360: 5720 0c3e 17e2 193e 30ca bc3c 38bb 7ebd
00000370: 772d ffbd 2175 423e 80a6 dcbd a001 223c
00000380: 0335 d3bd 3bfb 273e c0f7 cfbb d0b9 cabc
00000390: 914c 453e d8e4 29be 7bcb 063e bfdf 0e3e
000003a0: bcc3 98bd 1311 4a3e f7ce dbbd b08f 57bc
000003b0: 5a0c b6bd c18a 363e 8c01 5ebd 5123 1d3e
000003c0: 4a80 21be 29b0 3b3e 40fd 05bb 0243 49be
000003d0: 091a 1e3e c399 b1bd 9e2e 853d e9d4 193e
000003e0: 00a3 053c 68ae bd3c 7812 24bd b0c1 43bc
000003f0: 75b5 17be f92a 073e 62b7 ec3d fa77 a33d

bias f4 [25]
-0.061905265 0.10549615 0.015611693 -0.08909219 0.16832592 0.00015124679 -0.10830567 -0.10477453
0.027734086 -0.15992472 -0.12747045 0.09549077 0.021208912 0.16642435 -0.031204492 0.13520144
0.06703772 0.0290806 -0.11661842 -0.16029187 0.17219733 -0.16590032 0.023568437 -0.09816267
0.043980718
00000000: 6090 7dbd 5e0e d83d 30c8 7f3c f775 b6bd
00000010: a15d 2c3e 0098 1e39 5dcf ddbd 0794 d6bd
00000020: 9832 e33c 4ec3 23be 9d87 02be aa90 c33d
00000030: 50be ad3c 256b 2a3e 90a0 ffbc 3f72 0a3e
00000040: 124b 893d 703a ee3c a3d5 eebd 8d23 24be
00000050: 7f54 303e c6e1 29be 9812 c13c 8309 c9bd
00000060: 2025 343d

weight f4 [25, 25]
0.037477255 -0.019112512 -0.19866998 0.19583116 -0.19204009 -0.0047133267 0.16035946 0.00866206
-0.13928525 0.17117812 0.016669199 0.03259763 0.14628251 0.08559446 0.12397562 0.13725464
0.13466139 -0.15335937 -0.11437857 0.11900838 -0.020804673 -0.1470964 -0.06398657 -0.110913016
0.15249006 -0.10860145 -0.011700913 0.0956489 -0.021363303 0.11095871 -0.039344907 0.13759066
0.017115146 0.12101956 0.05525796 -0.05589077 0.03348799 0.054264948 -0.18611248 -0.04883933
0.0637563 0.07943861 -0.0068320036 -0.010592014 0.08658795 -0.19228601 0.06308152 -0.16855569
0.11490269 -0.013264701 0.060920432 0.10797177 -0.01312907 0.17489086 0.033932775 0.14976718
-0.12531227 0.13628264 0.1618898 -0.07560618 0.13288619 -0.04213488 -0.18249594 0.08028518
-0.16114792 -0.09151802 -0.039192796 -0.093537405 0.05046858 0.16730542 -0.09858809 -0.13689718
-0.11300106 0.18688561 -0.19757576 0.14090191 -0.17355478 -0.026049495 0.10225074 0.11361419
0.1987348 0.02510731 0.14951651 0.10175653 -0.122504376 0.0033864677 0.14631565 0.14239638
-0.07149954 0.1257432 0.03388691 0.093662396 -0.09785996 0.13039054 -0.15060405 -0.054498106
0.12329157 -0.16354457 -0.0024317205 0.1922368 0.0438399 0.18578278 0.038014293 0.16541947
-0.03780444 0.0105166435 -0.17761171 0.17390873 0.1129023 0.10250355 -0.0005580485 0.13543059
-0.07407181 -0.036847442 -0.03093481 -0.016987175 -0.019501999 0.18703376 0.16392265 -0.13041964
0.06762959 -0.15017149 0.106153354 0.04670477 0.0564536 0.06562604 0.043223023 -0.031797558
-0.11173246 0.18298726 -0.024719879 0.004987508 0.13565235 0.16962506 -0.078579 -0.043342903
0.08530502 -0.017450884 -0.058009192 -0.08641589 -0.11661925 -0.03083691 -0.19107309 -0.1488008
-0.025487706 -0.15195799 -0.07193956 0.009400517 -0.15372701 0.046183392 0.09044291 0.0638379
-0.04111609 0.16501017 -0.011869833 -0.19432206 0.18837811 0.09496243 -0.12408664 0.006618902
0.07013233 0.10470815 -0.15120383 -0.15241165 0.18533705 -0.037748784 -0.07967591 0.14823915
0.09983273 0.0276483 0.0773408 0.057740405 -0.09075775 -0.036407307 0.17914511 -0.018392846
-0.12818487 0.14828207 0.19766496 -0.14935389 -0.17763722 0.029767677 -0.044342905 0.1471401
0.040527225 -0.13461155 -0.058701128 0.13133346 0.06932427 -0.18647937 -0.014375165 0.05668567
0.025620848 -0.030558899 0.1115983 0.023088455 0.17807476 -0.11052394 -0.16278692 -0.186154
-0.13508382 -0.14243016 0.1461414 0.033971503 0.17604573 0.101610824 -0.032875538 0.0831597
-0.08442018 0.0716822 0.19059934 0.074796334 -0.10805418 0.08421014 0.039994076 0.11531876
0.07817413 -0.061206177 -0.10509636 -0.12466116 -0.17083417 0.019985631 -0.022862792 -0.15872392
0.026094869 -0.13524182 -0.1830256 -0.0149375945 -0.04032843 -0.15465434 0.04644382 -0.021177843
0.10400097 0.19821028 -0.1284376 -0.17530838 -0.104118064 -0.17267816 -0.007320553 -0.13751641
0.118431106 0.17688058 0.18265189 -0.07956064 0.059377924 -0.05682142 -0.0119891465 0.1534019
0.06273188 0.15730383 0.18065716 -0.10798591 -0.067065835 0.05937715 0.051724747 -0.12316544
00000000: c081 193d d891 9cbc 2570 4bbe f787 483e
00000010: 28a6 44be 4072 9abb 4535 243e 50eb 0d3c
00000020: cba0 0ebe 5149 2f3e d88d 883c 1885 053d
00000030: 15cb 153e 264c af3d eee6 fd3d 7b8c 0c3e
00000040: ade4 093e 3d0a 1dbe 503f eabd aaba f33d
00000050: 906e aabc 70a0 16be 640b 83bd 5d26 e3bd
00000060: 5b26 1c3e 706a debd 30b5 3fbc 92e3 c33d
00000070: 1802 afbc 523e e33d 2028 21bd 91e4 0c3e
00000080: 1035 8c3c 1ad9 f73d 2c56 623d b8ed 64bd
00000090: b42a 093d ec44 5e3d 4594 3ebe c00b 48bd
000000a0: aa92 823d b6b0 a23d 00df dfbb 208a 2dbc
000000b0: 0655 b13d a0e6 44be e230 813d dd99 2cbe
000000c0: 1a52 eb3d 3054 59bc b487 793d 4e20 dd3d
000000d0: 501b 57bc 9716 333e 18fd 0a3d 915c 193e
000000e0: dc51 00be ad8d 0b3e 71c6 253e 6ad7 9abd
000000f0: 5113 083e a095 2cbd 37e0 3abe 8e6c a43d
00000100: f603 25be cd6d bbbd a088 20bd 8a90 bfbd
00000110: 24b8 4e3d 1d52 2b3e 8de8 c9bd c62e 0cbe
00000120: 1a6d e7bd f15e 3f3e 4d51 4abe 9748 103e
00000130: 58b8 31be c065 d5bc d668 d13d 8eae e83d
00000140: 2381 4b3e d8ad cd3c db1a 193e ba65 d03d
00000150: 93e3 fabd 80ef 5d3b c5d3 153e 5bd0 113e
00000160: 5a6e 92bd d3c2 003e 00cd 0a3d 12d2 bf3d
00000170: cd6a c8bd 1985 053e f337 1abe 6839 5fbd
00000180: 4a80 fc3d 3a78 27be 805d 1fbb b9d9 443e
00000190: 7891 333d d73d 3e3e e0b4 1b3d b963 293e
000001a0: d4d8 1abd 004e 2c3c d8df 35be 2115 323e
000001b0: 5239 e73d 62ed d13d 004a 12ba 51ae 0a3e
000001c0: f6b2 97bd 58ed 16bd 006b fdbc b028 8bbc
000001d0: a8c2 9fbc c785 3f3e 57db 273e ba8c 05be
000001e0: 6281 8a3d 8ec6 19be ee66 d93d 804d 3f3d
000001f0: e43b 673d f266 863d a00a 313d 283e 02bd
00000200: fdd3 e4bd 0361 3b3e 5881 cabc 406e a33b
00000210: 73e8 0a3e 31b2 2d3e 07ee a0bd 5488 31bd
00000220: 66b4 ae3d 28f5 8ebc 0c9b 6dbd d0fa b0bd
00000230: 13d6 eebd b09d fcbc aaa8 43be 3d5f 18be
00000240: 98cb d0bc e09a 1bbe 0c55 93bd a004 1a3c
00000250: 9d6a 1dbe cc2a 3d3d 223a b93d 72bd 823d
00000260: 5869 28bd 6df8 283e b079 42bc 5dfc 46be
00000270: 31e6 403e aa7b c23d 2321 febd 60e3 d83b
00000280: 8aa1 8f3d 3a71 d63d 2dd5 1abe cd11 1cbe
00000290: ffc8 3d3e 789e 1abd 202d a3bd 01cc 173e
000002a0: 1a75 cc3d b07e e23c da64 9e3d 3481 6c3d
000002b0: 33df b9bd d41f 15bd d171 373e 98ac 96bc
000002c0: e542 03be 41d7 173e af68 4a3e 3af0 18be
000002d0: 88e6 35be 58db f33c e8a0 35bd e5ab 163e
000002e0: e0ff 253d 9cd7 09be 9870 70bd 477c 063e
000002f0: e2f9 8d3d 73f4 3ebe d085 6bbc 3c2f 683d
00000300: d0e2 d13c a856 fabc a68d e43d 0024 bd3c
00000310: 3b59 363e 605a e2bd 9db1 26be 279f 3ebe
00000320: 6a53 0abe 36d9 11be 17a6 153e b425 0b3d
00000330: 5545 343e 5619 d03d 80a8 06bd a24f aa3d
00000340: 7de4 acbd 1ece 923d 792c 433e d22e 993d
00000350: 834b ddbd 5e76 ac3d d4d0 233d 3e2c ec3d
00000360: c219 a03d 54b3 7abd c33c d7bd 5a4e ffbd
00000370: 27ef 2ebe e8b8 a33c c04a bbbc 8688 22be
00000380: e8c4 d53c d57c 0abe 106b 3bbe d0bc 74bc
00000390: 6c2f 25bd b55d 1ebe e03b 3e3d 287d adbc
000003a0: 76fe d43d a3f7 4a3e 2585 03be 0a84 33be
000003b0: da3b d5bd 8bd2 30be 40e1 efbb 1ad1 0cbe
000003c0: 028c f23d 2f20 353e 1909 3b3e b0f0 a2bd
000003d0: 4436 733d 94bd 68bd 206e 44bc 6315 1d3e
000003e0: 9279 803d 4114 213e 31fe 383e b727 ddbd
000003f0: d059 89bd 7435 733d 54dd 533d 2a3e fcbd

bias f4 [25]
-0.14066836 -0.08039117 -0.15177909 -0.02951534 0.14134936 -0.18547784 0.015973732 -0.0773768
-0.0346127 -0.03003724 -0.1267916 0.09381504 -0.011172295 -0.18275154 0.08418657 0.18047608
-0.0735174 -0.031462386 -0.1939955 0.13638069 0.039362162 0.011261672 -0.06288257 0.17637421
0.09158601
00000000: 5e0b 10be 20a4 a4bd fa6b 1bbe 28ca f1bc
00000010: e3bd 103e e7ed 3dbe 58db 823c ba77 9ebd
00000020: 0cc6 0dbd a810 f6bc a8d5 01be 1a22 c03d
00000030: 000c 37bc 3823 3bbe 026a ac3d b9ce 383e
00000040: 4a90 96bd b4de 00bd c2a6 46be 61a7 0b3e
00000050: 383a 213d e082 383c 94c8 80bd 719b 343e
00000060: 7291 bb3d

weight f4 [4, 25]
-0.16712208 -0.12595613 -0.19953509 -0.045660526 0.092216805 -0.114417456 0.118159965 -0.103849106
-0.0330344 -0.18014915 0.11692025 -0.10470014 0.0027626306 -0.19493137 -0.021848321 0.16195424
0.1341029 0.19493432 -0.055024385 -0.072940946 -0.12858361 -0.13219841 -0.003143236 0.07105015
0.12799074 -0.16693847 0.16028465 -0.12622762 0.032527834 0.17137529 0.19533573 -0.16067219
-0.0075541735 -0.045301035 -0.17006998 0.008375093 0.0010475814 0.17586522 0.14965926 0.1820345
0.07121645 -0.08505535 -0.019281909 0.19205083 0.060358807 -0.17405963 0.08101119 0.048562378
-0.07937532 -0.1681389 -0.15321462 -0.06100793 -0.025473282 -0.18161638 -0.121088915 0.12721066
0.09572776 0.17152359 -0.034786463 0.08602752 -0.064494014 0.11901899 0.1645148 -0.07879472
-0.1529239 -0.10633393 -0.093524314 -0.1695292 -0.17083693 0.1696483 -0.14646359 -0.09211226
-0.095114164 -0.05477245 -0.12403839 -0.16285732 -0.17222829 0.07693975 0.16305985 -0.01736319
0.117532685 -0.12265678 -0.016901657 0.03927104 0.0034567863 0.17563294 0.15006734 -0.10710921
0.03220968 -0.059933543 -0.14670725 0.1437342 0.023033142 0.12739547 0.15511207 -0.02613172
-0.13567877 0.13594036 0.16109987 0.043261215
00000000: 0d22 2bbe a5fa 00be ed52 4cbe 8806 3bbd
00000010: 2adc bc3d b353 eabd dafd f13d d7ae d4bd
00000020: 144f 07bd 0579 38be e273 ef3d 076d d6bd
00000030: 400d 353b 179c 47be 40fb b2bc 55d7 253e
00000040: 4552 093e dd9c 473e 4061 61bd 1062 95bd
00000050: 6cab 03be 055f 07be c0fe 4dbb be82 913d
00000060: 0110 033e ebf1 2abe a921 243e d041 01be
00000070: e83b 053d 017d 2f3e 1706 483e 4087 24be
00000080: 0089 f7bb 948d 39bd d326 2ebe b037 093c
00000090: 004f 893a 0316 343e 4740 193e 4167 3a3e
000000a0: eed9 913d 8031 aebd 18f5 9dbc f9a8 443e
000000b0: cc3a 773d b03c 32be 32e9 a53d 58e9 463d
000000c0: 878f a2bd 9b2c 2cbe 4be4 1cbe 74e3 79bd
000000d0: 58ad d0bc a5f9 39be 77fd f7bd 8343 023e
000000e0: ea0c c43d e1a3 2f3e 407c 0ebd 322f b03d
000000f0: 7015 84bd 3ac0 f33d 9176 283e 205f a1bd
00000100: 1598 1cbe 9ac5 d9bd ad89 bfbd 1099 2dbe
00000110: e0ef 2ebe 49b8 2d3e 8dfa 15be 5aa5 bcbd
00000120: 37cb c2bd 1459 60bd d707 febd 12c4 26be
00000130: 9d5c 30be 9692 9d3d 29f9 263e 403d 8ebc
00000140: fab4 f03d 7a33 fbbd 5875 8abc acda 203d
00000150: 408b 623b 1fd9 333e 41ab 193e 135c dbbd
00000160: 4cee 033d e07c 75bd 6d3a 16be 0f2f 133e
00000170: 00b0 bc3c f573 023e b3d5 1e3e 3012 d6bc
00000180: 60ef 0abe f333 0b3e 5df7 243e ac32 313d

bias f4 [4]
0.03401096 0.034432843 -0.11997924 0.120255604
00000000: 144f 0b3d 7409 0d3d adb7 f5bd 9248 f63d
