models/_brain_244.pt (torch, 14593 bytes, 12 tensors)

weight f4 [14]
1.0 1.0 1.0 1.0 1.0 1.0 1.0 1.0
1.0 1.0 1.0 1.0 1.0 1.0
00000000: 0000 803f 0000 803f 0000 803f 0000 803f
00000010: 0000 803f 0000 803f 0000 803f 0000 803f
00000020: 0000 803f 0000 803f 0000 803f 0000 803f
00000030: 0000 803f 0000 803f

bias f4 [14]
0.0 0.0 0.0 0.0 0.0 0.0 0.0 0.0
0.0 0.0 0.0 0.0 0.0 0.0
00000000: 0000 0000 0000 0000 0000 0000 0000 0000
00000010: 0000 0000 0000 0000 0000 0000 0000 0000
00000020: 0000 0000 0000 0000 0000 0000 0000 0000
00000030: 0000 0000 0000 0000

weight f4 [25, 14]
-0.14625734 0.12662426 -0.1513489 0.15644291 -0.25505373 -0.21801858 0.13914645 -0.24649322
-0.044567972 -0.12997386 0.14184675 0.20899624 -0.12541908 -0.24679631 -0.04000874 0.23491588
0.17658201 -0.19331887 -0.21391676 0.23728082 0.13534799 0.025585502 -0.26394448 0.1666044
-0.07970849 -0.07834832 -0.05230616 0.17894587 -0.20694725 0.14741603 0.14019632 -0.14811221
-0.22921167 -0.17464472 -0.16803351 -0.10660313 -0.1315341 -0.14742598 -0.017599449 -0.17298084
-0.08706021 0.07868084 -0.22251004 -0.12347925 0.17354822 -0.22481066 -0.054780826 -0.016035736
-0.24963835 -0.11741915 -0.06365085 -0.26594484 0.19931015 -0.10939333 -0.045203835 -0.036792174
0.25944367 0.06982234 -0.00058043003 0.14752242 0.2509366 0.038705945 -0.07875654 -0.03666362
0.2530637 -0.03188525 0.1126571 -0.10627487 0.2395843 -0.13344748 0.16420701 -0.20025197
0.01200375 -0.055290267 0.13559106 -0.24341302 -0.08569926 0.19899043 0.06367707 -0.05110538
0.17401597 0.13418153 0.15532893 0.25873193 0.23779657 0.21653914 -0.19085327 -0.13213989
0.08666366 -0.009395719 0.14507297 -0.22134744 0.1425682 0.0959467 -0.08947247 0.13813636
0.18967134 -0.24274947 -0.09032619 -0.08871493 -0.07001278 0.26119187 -0.051390782 0.25780442
-0.07349023 -0.14746103 -0.21188103 -0.22059307 0.13724175 -0.22187221 -0.23227753 -0.031183511
0.07205951 -0.055453673 -0.24287488 -0.19680282 -0.17009145 0.10192606 -0.25280246 -0.12158804
0.097505 -0.20484217 -0.24819958 0.042594373 0.16414309 -0.044272885 -0.0011163652 -0.2248617
0.17296088 0.06518245 0.08295649 -0.25133702 0.14083242 -0.24818867 -0.035262063 0.15701187
0.12672019 0.21793151 0.26237383 0.25124392 -0.21454194 -0.21009779 0.079044074 -0.043263584
0.18351871 -0.06766489 0.24289462 0.22902215 -0.13219893 -0.17979346 0.26568845 -0.23438
0.02409792 -0.1344456 -0.06486462 -0.0032069087 -0.25882673 -0.2516482 0.003107518 -0.051358476
0.24584839 0.21732467 0.0029515326 0.23954543 -0.13249035 0.12675661 -0.22675556 0.08598024
0.13705397 -0.10821958 0.13924065 -0.19613951 -0.0870145 0.24312767 -0.25774586 0.26497874
-0.012319446 0.13640252 0.07736355 0.2562987 0.094525725 0.06187123 -0.19952285 0.11316702
-0.21729854 -0.253907 0.05226952 -0.22879568 -0.03916508 -0.11120017 -0.23701562 -0.18367481
0.064445585 -0.09667526 -0.012409389 0.05521965 -0.15712942 -0.04328847 0.0012538433 -0.14912736
-0.071254626 0.048947453 -0.1757353 -0.21960789 0.032502413 0.11208412 0.16000709 0.18460214
-0.11692156 0.2525839 -0.019149408 0.22149783 0.14043117 -0.07646288 -0.113600865 0.2221255
0.06910339 0.024199277 0.17540279 -0.06262113 -0.005286753 -0.11444022 -0.1439022 -0.09924671
-0.19757222 0.2661135 -0.23165148 0.059738755 -0.04880455 0.078923106 0.16297314 0.11631957
-0.047674835 -0.25462255 -0.17918488 -0.16205992 -0.16525063 -0.15195507 -0.060751066 0.24167934
-0.006373048 0.1554246 0.21156645 -0.011171758 -0.19170648 0.21532279 -0.22911943 -0.089127645
-0.067869365 -0.046231955 0.065754265 -0.10639937 0.06886619 0.01894331 -0.0053093135 0.050341874
00000000: 7cc4 15be caa9 013e 35fb 1abe 9232 203e
00000010: 6796 82be 4340 5fbe 687c 0e3e b868 7cbe
00000020: e88c 36bd de17 05be 4640 113e 1c03 563e
00000030: dc6d 00be 2cb8 7cbe 34e0 23bd ca8d 703e
00000040: ead1 343e 62f5 45be ff0c 5bbe bef9 723e
00000050: aa98 0a3e b098 d13c bb23 87be 589a 2a3e
00000060: 343e a3bd 1675 a0bd fc3e 56bd 963d 373e
00000070: fbe9 53be 3af4 163e a08f 0f3e baaa 17be
00000080: 77b6 6abe 11d6 32be fa10 2cbe be52 dabd
00000090: e0b0 06be d6f6 16be b82c 90bc e421 31be
000000a0: a04c b2bd 6c23 a13d acd9 63be b0e2 fcbd
000000b0: a0b6 313e c434 66be dc61 60bd 605d 83bc
000000c0: 32a1 7fbe 7479 f0bd 605b 82bd ec29 88be
000000d0: f617 4c3e 9c09 e0bd a827 39bd 64b3 16bd
000000e0: cdd5 843e 04ff 8e3d 0028 18ba 1e10 173e
000000f0: c37a 803e 208a 1e3d 1c4b a1bd 982c 16bd
00000100: 9191 813e 1c9a 02bd c4b8 e63d a4a6 d9bd
00000110: 9655 753e 75a6 08be e225 283e da0e 4dbe
00000120: 60ab 443c 0c78 62bd 62d8 0a3e 4341 79be
00000130: 1883 afbd 26c4 4b3e 2069 823d e053 51bd
00000140: 3e31 323e e266 093e 8c0e 1f3e 8378 843e
00000150: f280 733e 70bc 5d3e 0a6f 43be ae4f 07be
00000160: b87c b13d 80f0 19bc 028e 143e e7a8 62be
00000170: 66fd 113e b47f c43d 583d b7bd 9e73 0d3e
00000180: 3439 423e 5193 78be f0fc b8bd 2cb0 b5bd
00000190: dc62 8fbd f1ba 853e 247f 52bd f1fe 833e
000001a0: 0c82 96bd 0600 17be 57f7 58be 26e3 61be
000001b0: 1a89 0c3e 7832 63be 29da 6dbe 9074 ffbc
000001c0: f093 933d 6423 63bd 31b4 78be ae86 49be
000001d0: 742c 2ebe 9cbe d03d 536f 81be 2603 f9bd
000001e0: b4b0 c73d 25c2 51be 0828 7ebe 7077 2e3d
000001f0: 2015 283e 7c57 35bd 0053 92ba 2542 66be
00000200: a81c 313e 607e 853d 18e5 a93d 3faf 80be
00000210: 6036 103e 2c25 7ebe f46e 10bd b8c7 203e
00000220: f0c2 013e 7029 5f3e dd55 863e 0ba3 803e
00000230: e2b0 5bbe e023 57be dce1 a13d 2835 31bd
00000240: 54ec 3b3e e493 8abd 5eb9 783e c884 6a3e
00000250: 285f 07be c71b 38be 5108 883e 5001 70be
00000260: 0069 c53c 1bac 09be bed7 84bd 002b 52bb
00000270: f084 84be 08d8 80be 80a7 4b3b 445d 52bd
00000280: aebf 7b3e 5c8a 5e3e 806e 413b 664b 753e
00000290: 8dab 07be 7ccc 013e 9c32 68be 6816 b03d
000002a0: e057 0c3e 3aa2 ddbd 1a95 0e3e ccd8 48be
000002b0: a834 b2bd 76f6 783e 44f7 83be 4bab 873e
000002c0: 80d7 49bc 1aad 0b3e c870 9e3d 9539 833e
000002d0: b496 c13d b06c 7d3d b84f 4cbe 1cc4 e73d
000002e0: 8283 5ebe 1900 82be 9018 563d 6a49 6abe
000002f0: 906b 20bd eabc e3bd 39b4 72be 4015 3cbe
00000300: 0cfc 833d aefd c5bd c050 4bbc 002e 623d
00000310: 89e6 20be 404f 31bd 0058 a43a d8b4 18be
00000320: f2ed 91bd 207d 483d f4f3 33be e4e0 60be
00000330: 4021 053d 5c8c e53d e6d8 233e 5808 3d3e
00000340: 9274 efbd ad52 813e 38df 9cbc 54d0 623e
00000350: 30cd 0f3e 9298 9cbd 92a7 e8bd de74 633e
00000360: 1486 8d3d 903d c63c ca9c 333e 823f 80bd
00000370: 803c adbb a25f eabd 195b 13be dc41 cbbd
00000380: 5f50 4abe 0740 883e 0c36 6dbe a0b0 743d
00000390: 48e7 47bd 70a2 a13d 6ee2 263e f438 ee3d
000003a0: b046 43bd e35d 82be 3e7c 37be 09f3 25be
000003b0: 7637 29be 1c9a 1bbe 1cd6 78bd ca7a 773e
000003c0: 00d5 d0bb a027 1f3e e0a4 583e c009 37bc
000003d0: b44e 44be 947d 5c3e 499e 6abe 8e88 b6bd
000003e0: 18ff 8abd b85d 3dbd 2caa 863d eae7 d9bd
000003f0: b809 8d3d 002f 9b3c c0f9 adbb 4833 4e3d

bias f4 [25]
0.0060617626 -0.18399672 0.25550488 -0.0725532 0.18419406 -0.21827129 0.175926 0.01732701
-0.22860888 -0.16503985 0.19415367 -0.19652587 0.18908483 0.24835297 -0.2161581 0.20283183
-0.045155585 0.17453778 0.17183772 0.23311368 0.07056421 -0.06084168 0.17855108 -0.017764136
0.17851856
00000000: c0a1 c63b a369 3cbe 89d1 823e c696 94bd
00000010: 5e9d 3c3e 8282 5fbe f225 343e 60f1 8d3c
00000020: 7218 6abe 3500 29be 38d0 463e 143e 49be
00000030: 749f 413e 3e50 7e3e 8d58 5dbe 26b3 4f3e
00000040: 10f5 38bd 08ba 323e 3af6 2f3e 5ab5 6e3e
00000050: f883 903d 2035 79bd 18d6 363e 1886 91bc
00000060: 92cd 363e

weight f4 [25, 25]
-0.15797803 0.021882936 -0.11778083 0.025288671 -0.1714439 -0.08895407 -0.07487321 0.1191539
0.061686322 0.16584893 0.05147539 0.056710616 -0.19418399 0.047710776 -0.13016637 0.04708743
-0.07536721 0.18788148 -0.19403513 0.12918533 -0.0023343563 -0.054490805 -0.10225351 -0.12589258
0.029362947 0.04138951 0.080772266 0.13561557 0.07940872 -0.037987873 -0.09554958 -0.13606472
0.098876044 0.10317327 -0.1697506 0.0796438 -0.027831271 0.118474856 -0.060069486 -0.10428017
0.15789105 0.029364064 0.007360965 0.13959186 0.114509 0.14769863 0.18202265 0.09117682
0.143813 0.18183877 -0.15104851 0.06414275 0.14534701 0.10040419 -0.0070397407 -0.0729073
0.076786205 -0.1872431 0.042021796 0.052016422 0.16451998 0.13002245 0.105063334 -0.053691715
0.12723379 -0.061401322 6.835163e-05 -0.08016634 0.18616803 0.03913772 -0.19399126 0.077083096
-0.12769184 -0.049071223 0.110100195 -0.048987478 0.17694421 0.12998836 -0.12213836 0.02083166
-0.057092518 -0.13679016 0.15988983 -0.06899281 -0.1600326 0.012839586 -0.12913044 0.022755712
0.1614845 0.13004841 -0.06619103 -0.02470538 0.16077833 -0.04496345 0.10584904 -0.15579417
-0.15769069 0.08872853 0.11805533 0.028358072 -0.17564976 -0.13490394 0.03565252 0.0076797754
0.14979555 0.042291924 -0.10210631 0.055943236 0.037012607 0.18885247 0.049251944 0.11413832
0.10824694 -0.1367547 -0.047082707 0.09577365 0.025445536 0.04878974 0.110371456 -0.17943743
-0.18083099 -0.14839311 -0.09441741 0.15682055 -0.16011202 0.14440133 0.081643835 -0.17602482
0.13116981 -0.1335029 0.109403506 0.14361362 0.19942732 -0.0052406043 -0.06421113 -0.031473547
-0.16957293 -0.0032304227 0.12979628 0.15859242 -0.021924525 -0.045645043 0.00765869 0.13356064
-0.11940122 -0.16030562 0.17027713 -0.122747116 0.17331661 -0.038607687 -0.0004669726 -0.04788585
-0.14088817 -0.16005135 0.06092973 0.15238656 -0.1958854 -0.1066072 -0.19322987 0.1235943
0.057447985 0.1477939 0.03829667 0.03576894 0.046393037 0.056377307 -0.18680708 0.16602127
-0.07239255 0.08933915 0.13161255 -0.19575432 0.08543007 -0.11423712 -0.051459312 0.122058526
-0.13869193 -0.031942368 0.19370295 0.06176211 -0.12544045 0.13334309 0.17866199 0.108040586
-0.010843605 -0.067650706 -0.008184075 -0.09231229 0.059489742 -0.14954841 0.13124786 -0.0031410903
0.08624299 -0.029271811 -0.003941223 0.17447175 0.17651273 -0.18364935 0.07986842 -0.079407215
0.10887195 -0.059464663 -0.08823588 -0.0424262 0.06448604 0.16545762 0.089905605 -0.09491251
0.08713783 -0.0012537241 -0.13324875 -0.0015985072 -0.07190244 -0.099259354 -0.17803721 0.14991452
0.14076151 -0.11135071 0.078156605 0.039519668 0.13595201 0.064030394 0.13007207 0.05466725
-0.119676806 0.1309451 0.1276033 -0.040492773 -0.07444294 -0.09916067 -0.16534212 0.1690966
-0.08228989 -0.16712806 -0.046312302 0.026923016 0.11160757 0.044118285 -0.030561134 0.11420311
0.07627772 -0.033714145 0.15181805 0.05068554 0.114374205 0.16786338 0.071361974 -0.16135883
-0.11333165 0.053164974 0.13853432 -0.100417495 0.0702153 0.11155833 -0.041845724 -0.058422685
00000000: fec4 21be d843 b33c 1337 f1bd 302a cf3c
00000010: fd8e 2fbe 8d2d b6bd 2057 99bd f606 f43d
00000020: ccaa 7c3d 4dd4 293e dcd7 523d 6449 683d
00000030: 2bd8 46be 606c 433d 554a 05be c0de 403d
00000040: 205a 9abd 0164 403e 25b1 46be 2949 043e
00000050: 00fc 18bb c031 5fbd 4a6a d1bd fce9 00be
00000060: 908a f03c 0c88 293d ee6b a53d cfde 0a3e
00000070: 0aa1 a23d 2c99 1bbd 80af c3bd 8d54 0bbe
00000080: 867f ca3d 824c d33d 1ad3 2dbe 4a1c a33d
00000090: 68fe e3bc f2a2 f23d 6c0b 76bd d790 d5bd
000000a0: 31ae 213e e88c f03c 4034 f13b 2bf1 0e3e
000000b0: b283 ea3d 4f3e 173e 2564 3a3e eaba ba3d
000000c0: b743 133e f133 3a3e 76ac 1abe 465d 833d
000000d0: d9d5 143e b6a0 cd3d a0ad e6bb 6c50 95bd
000000e0: 1642 9d3d a8bc 3fbe 0c1f 2c3d 2c0f 553d
000000f0: ed77 283e 9b24 053e 722b d73d d8eb 5bbd
00000100: 9349 023e f47f 7bbd 0058 8f38 402e a4bd
00000110: d5a2 3e3e e04e 203d a5a5 46be bedd 9d3d
00000120: a6c1 02be e8fe 48bd 367c e13d 18a7 48bd
00000130: dd30 353e ab1b 053e ad23 fabd 28a7 aa3c
00000140: d8d9 69bd b812 0cbe 29ba 233e 1a4c 8dbd
00000150: 96df 23be 205d 523c c53a 04be 306a ba3c
00000160: 315c 253e 692b 053e 2a8f 87bd f062 cabc
00000170: 13a3 243e 982b 38bd 62c7 d83d 8288 1fbe
00000180: ab79 21be 4eb7 b53d fec6 f13d 304f e83c
00000190: 88dd 33be 4224 0abe 6008 123d a0a6 fb3b
000001a0: 0164 193e 4c3a 2d3d 1d1d d1bd bc24 653d
000001b0: 889a 173d 8b62 413e 68bc 493d 5ac1 e93d
000001c0: 92b0 dd3d 6d09 0cbe ccd9 40bd fa24 c43d
000001d0: 2873 d03c c0d7 473d 6e0a e23d 72be 37be
000001e0: c22b 39be 5df4 17be ea5d c1bd 9195 203e
000001f0: 68f4 23be f1dd 133e e234 a73d da3f 34be
00000200: 6151 063e fcb4 08be f20e e03d 730f 133e
00000210: ad36 4c3e 60b9 abbb 2081 83bd 68ea 00bd
00000220: 87a4 2dbe 80b5 53bb 51e9 043e 0d66 223e
00000230: 109b b3bc 4cf6 3abd c0f5 fa3b 1fc4 083e
00000240: a088 f4bd 2827 24be 215d 2e3e d762 fbbd
00000250: e979 313e 1823 1ebd 00d4 f4b9 f423 44bd
00000260: fd44 10be 80e4 23be 7491 793d 390b 1c3e
00000270: 2f96 48be e054 dabd 0dde 45be 021f fd3d
00000280: 944e 6b3d 4957 173e f8dc 1c3d 7482 123d
00000290: a006 3e3d e4eb 663d 5b4a 3fbe 7b01 2a3e
000002a0: 8c42 94bd 72f7 b63d 71c5 063e d273 48be
000002b0: f6f5 ae3d 27f5 e9bd 00c7 52bd d2f9 f93d
000002c0: 4205 0ebe 00d6 02bd 115a 463e 44fa 7c3d
000002d0: 7673 00be 178b 083e 2bf3 363e 6244 dd3d
000002e0: 60a9 31bc 748c 8abd 8016 06bc 3a0e bdbd
000002f0: 84ab 733d 3823 19be d765 063e c0da 4dbb
00000300: 2aa0 b03d 70cb efbc 6025 81bb b9a8 323e
00000310: c1bf 343e 930e 3cbe 0e92 a33d 40a0 a2bd
00000320: 42f8 de3d 3891 73bd 03b5 b4bd 18c7 2dbd
00000330: 4211 843d b96d 293e 6e20 b83d 7d61 c2bd
00000340: 5275 b23d 0054 a4ba 5c72 08be 0085 d1ba
00000350: 9641 93bd 7d48 cbbd 634f 36be 3183 193e
00000360: c923 103e d70b e4bd 9210 a03d 60df 213d
00000370: 0137 0b3e 5e22 833d 9d31 053e c4ea 5f3d
00000380: 1d19 f5bd 7916 063e 71aa 023e c0db 25bd
00000390: 8a75 98bd c014 cbbd 724f 29be a927 2d3e
000003a0: 9a87 a8bd 9e23 2bbe f8b1 3dbd a88d dc3c
000003b0: 8292 e43d 60b5 343d 585b fabc 52e3 e93d
000003c0: 7e37 9c3d d817 0abd 3176 1b3e a49b 4f3d
000003d0: 063d ea3d 61e4 2b3e 3a26 923d 403b 25be
000003e0: 6d1a e8bd 84c3 593d f1db 0d3e b0a7 cdbd
000003f0: 0acd 8f3d b278 e43d 6c66 2bbd a04c 6fbd

bias f4 [25]
-0.1397891 -0.19697061 0.19204761 0.07875566 -0.068886966 0.18369909 -0.1401108 -0.14183824
-0.08537083 0.1324931 -0.13560069 -0.092358425 0.0059138983 -0.00093595684 0.032816336 0.083321854
-0.07330842 -0.14993115 -0.15849237 -0.17152022 0.17197038 0.13914414 -0.11747179 -0.0718656
0.0531805
00000000: e024 0fbe aab2 49be 21a8 443e a64a a13d
00000010: 9c14 8dbd 9d1b 3c3e 3579 0fbe 0b3e 11be
00000020: e7d6 aebd 45ac 073e e8da 0abe 6a26 bdbd
00000030: 60c9 c13b 005b 75ba 6c6a 063d a6a4 aa3d
00000040: ba22 96bd 8d87 19be d34b 22be ffa2 2fbe
00000050: 0119 303e cd7b 0e3e 0d95 f0bd 462e 93bd
00000060: ccd3 593d

weight f4 [25, 25]
-0.078903936 -0.18847619 -0.1748307 -0.10815742 0.1436968 -0.05310619 -0.051698536 0.16789167
-0.14586699 0.12110619 0.15946166 0.02076459 0.058343664 0.12880056 0.08265279 0.17277081
0.14097823 -0.1889381 -0.14695673 -0.010861799 -0.0016302168 -0.037777036 0.1367131 -0.19766243
0.023532897 -0.19992521 -0.05585952 0.035293534 0.005299613 -0.1731932 0.16782047 -0.07949486
-0.12396536 -0.10301115 -0.032612607 -0.08169987 0.0019940138 -0.012357354 0.00093750656 0.19964708
0.14740281 -0.1797976 0.15791424 -0.14561729 -0.17268911 -0.11862619 -0.04336521 0.13740335
0.03606358 0.054920062 -0.08323421 -0.1815557 -0.17421196 0.10845335 -0.115807794 -0.06715067
-0.0618736 -0.11264949 -0.038885027 0.017031267 -0.1348589 -0.07418874 0.09429826 -0.07307224
-0.13434252 -0.009120345 0.1705894 0.1410314 -0.094038464 0.13243498 0.15029351 0.17279215
-0.1280864 0.115274444 -0.19140688 -0.14014931 -0.123231724 0.087434486 -0.14303851 -0.0950964
-0.19771071 -0.04035802 0.12057544 -0.16065498 0.016378373 0.1369182 -0.17466517 0.120129034
-0.18591368 -0.115278244 0.18133621 0.0571623 0.128621 0.1845992 -0.053163365 0.018691614
-0.11226542 -0.12888205 -0.13140568 -0.068461135 -0.071212605 0.02592209 -0.10553675 -0.112021856
-0.0032797605 0.061258003 0.16432707 -0.03550522 0.10067679 0.19266428 -0.08300026 0.01086238
-0.115050316 0.069287196 0.05674301 -0.09187591 -0.10854309 0.040354773 0.0147514045 0.121740565
0.16142626 -0.12613614 0.10197048 0.12361555 -0.1799984 0.17962886 0.07103486 0.07128893
0.11426313 -0.12139757 0.14151348 0.0207977 0.07001047 0.0045062304 0.10090412 0.148068
-0.11081641 -0.11534708 0.17864944 0.090971515 -0.15175383 -0.19658576 0.16992714 -0.03050378
-0.1310845 -0.19153951 -0.094810225 -0.01562664 -0.021297425 0.06714974 0.18233527 0.10537867
-0.006436795 -0.13428167 0.1156946 -0.02303569 0.008879736 0.122159526 0.19907428 0.090912834
0.027052075 0.16382293 0.1870607 0.1994207 -0.044225544 -0.09429798 -0.12436628 -0.008933336
0.120181724 0.032380223 0.16083579 0.15800919 -0.18087201 0.02757597 -0.05216983 0.15263958
0.0695696 -0.11791783 0.11715467 -0.12793458 -0.124760225 0.0777304 -0.14997852 0.16230349
-0.054281592 0.097995594 -0.061559916 0.0018596351 -0.10587873 0.013919026 0.031453803 0.1961992
-0.12668452 -0.033642024 -0.018784553 0.045657843 -0.036221147 0.05151607 0.015895173 -0.11766634
0.03468612 0.032992274 0.06531669 -0.17118557 -0.063489944 -0.027410433 -0.05434379 0.12000714
0.13496895 0.10802661 -0.16436696 0.0060828477 -0.030943036 0.1791233 -0.10603469 -0.05177851
-0.06473151 -0.0060005486 -0.091178894 0.1921658 -0.08462546 -0.07180402 0.019049332 -0.113614775
0.13088052 -0.12463956 0.13160725 -0.15692182 -0.122496895 -0.02203837 -0.096047975 0.111473694
-0.11267588 0.04453078 -0.031048387 -0.124405526 -0.130238 0.088417664 -0.15471983 -0.06383005
0.18319927 0.072822765 0.12832369 -0.17063604 0.17524193 0.16954698 -0.04478717 -0.10387464
0.18435858 0.19452803 0.007705003 0.023874924 0.18806513 0.19289826 0.054860696 -0.1911569
00000000: 6398 a1bd e7ff 40be d206 33be a381 ddbd
00000010: 4125 133e e085 59bd d8c1 53bd cbeb 2b3e
00000020: 285e 15be 8606 f83d eb49 233e 801a aa3c
00000030: c4f9 6e3d 4be4 033e de45 a93d d5ea 303e
00000040: 995c 103e fd78 41be d37b 16be b0f5 31bc
00000050: 00ad d5ba 18bc 1abd 85fe 0b3e 0568 4abe
00000060: 10c8 c03c 32b9 4cbe f4cc 64bd f48f 103d
00000070: 60a8 ad3b 8f59 31be 21d9 2b3e 33ce a2bd
00000080: 8de1 fdbd 83f7 d2bd cc94 05bd 4352 a7bd
00000090: 00ae 023b 8076 4abc 00c3 753a 4970 4c3e
000000a0: c3f0 163e dd1c 38be 45b4 213e b31c 15be
000000b0: 6ad5 30be 4af2 f2bd b89f 31bd 77b3 0c3e
000000c0: 68b7 133d dcf3 603d b376 aabd bde9 39be
000000d0: 9f64 32be ca1c de3d a32c edbd 4a86 89bd
000000e0: 2c6f 7dbd c7b4 e6bd e845 1fbd 2885 8b3c
000000f0: 7418 0abe 44f0 97bd 721f c13d e6a6 95bd
00000100: 1691 09be 806d 15bc fdae 2e3e 896a 103e
00000110: 3d97 c0bd 099d 073e 8be6 193e 6df0 303e
00000120: 1529 03be 0215 ec3d 2a00 44be 4d83 0fbe
00000130: ea60 fcbd da10 b33d b078 12be e7c1 c2bd
00000140: ad74 4abe 744e 25bd 42f0 f63d bd82 24be
00000150: f02b 863c 4934 0c3e 6ddb 32be 3606 f63d
00000160: 2860 3ebe 0017 ecbd 33b0 393e 0423 6a3d
00000170: 39b5 033e 9307 3d3e d4c1 59bd 281f 993c
00000180: 6aeb e5bd a8f9 03be 368f 06be 5a35 8cbd
00000190: ead7 91bd 905a d43c a723 d8bd b76b e5bd
000001a0: 40f1 56bb ace9 7a3d 5b45 283e ec6d 11bd
000001b0: a22f ce3d c949 453e 0afc a9bd 20f8 313c
000001c0: 809f ebbd 72e6 8d3d 5c6b 683d 7029 bcbd
000001d0: d74b debd 0c4b 253d e0af 713c 1e53 f93d
000001e0: ed4c 253e d529 01be e6d5 d03d 262a fd3d
000001f0: 8051 38be a1f0 373e ba7a 913d eeff 913d
00000200: ca02 ea3d 4a9f f8bd e9e8 103e f05f aa3c
00000210: a661 8f3d 00a9 933b d2a6 ce3d 239f 173e
00000220: b7f3 e2bd 173b ecbd e1ef 363e 464f ba3d
00000230: 5b65 1bbe c74d 49be 6101 2e3e 10e3 f9bc
00000240: 043b 06be ef22 44be dd2b c2bd 7003 80bc
00000250: f077 aebc ce85 893d 19b6 3a3e c6d0 d73d
00000260: c0eb d2bb 2281 09be 4af1 ec3d 58b5 bcbc
00000270: 507c 113c c62e fa3d 21da 4b3e 8230 ba3d
00000280: 509c dd3c 33c1 273e d78c 3f3e f134 4c3e
00000290: d825 35bd 4d1f c1bd c0b3 febd 205d 12bc
000002a0: d621 f63d 20a1 043d 23b2 243e 29cd 213e
000002b0: 8336 39be 00e7 e13c 08b0 55bd 8d4d 1c3e
000002c0: 827a 8e3d e77e f1bd caee ef3d 4801 03be
000002d0: 4a82 ffbd 1e31 9f3d f893 19be e332 263e
000002e0: 6056 5ebd eab1 c83d 4026 7cbd 00bf f33a
000002f0: f3d6 d8bd a00c 643c b4d5 003d 71e8 483e
00000300: 96b9 01be 38cc 09bd 10e2 99bc b803 3b3d
00000310: a05c 14bd 8402 533d 9836 823c 0dfb f0bd
00000320: 0813 0e3d e822 073d c2c4 853d 454b 2fbe
00000330: 0407 82bd d88b e0bc 9897 5ebd 4ec6 f53d
00000340: 4d35 0a3e 0e3d dd3d d04f 28be a052 c73b
00000350: 407c fdbc 196c 373e b728 d9bd b415 54bd
00000360: f491 84bd 40a0 c4bb 00bc babd 1dc7 443e
00000370: 1d50 adbd fc0d 93bd 580d 9c3c ddae e8bd
00000380: 8b05 063e 0743 ffbd 0dc4 063e 1db0 20be
00000390: a7df fabd d089 b4bc cdb4 c4bd 524c e43d
000003a0: 9dc2 e6bd e865 363d 3059 febc 53c8 febd
000003b0: 1c5d 05be 5214 b53d e06e 1ebe 54b9 82bd
000003c0: 9798 3b3e 1a24 953d 4967 033e 37bb 2ebe
000003d0: 9f72 333e b99d 2d3e c072 37bd 3abc d4bd
000003e0: 7fc8 3c3e 5b32 473e 407a fc3b 5895 c33c
000003f0: 2594 403e 1f87 453e 9cb5 603d a2be 43be

bias f4 [25]
-0.021387383 -0.08224354 0.046788186 -0.044839382 -0.16907716 -0.14569125 -0.09711192 -0.028574467
0.07615639 -0.082839824 -0.17850783 0.103026405 0.024393007 -0.034451872 0.1812612 -0.04975441
0.12979068 -0.112123825 -0.0612531 -0.06507178 -0.16951595 -0.090259075 -0.09503188 0.118343964
0.08084692
00000000: 9834 afbc 4d6f a8bd f8a4 3f3d 80a9 37bd
00000010: 9022 2dbe 1630 15be 9de2 c6bd 0015 eabc
00000020: e2f7 9b3d eda7 a9bd c2ca 36be 82ff d23d
00000030: d8d3 c73c 681d 0dbd 899c 393e 48cb 4bbd
00000040: d9e7 043e 2da1 e5bd 88e4 7abd 5a44 85bd
00000050: 9795 2dbe c0d9 b8bd 13a0 c2bd 525e f23d
00000060: 1293 a53d

weight f4 [25, 25]
-0.092826344 -0.020867556 0.06301837 -0.022995189 0.060380504 0.08171673 -0.016367033 -0.1870187
0.16436426 0.06400658 -0.18273604 0.016898915 -0.13696912 0.10155256 0.12852518 -0.04890184
0.004510835 -0.13392717 -0.03904791 -0.16496739 0.09299515 0.09301646 0.094847724 0.1745763
-0.012072042 0.034974337 -0.13054508 -0.19396949 0.08318584 -0.18326877 0.19801034 0.017924458
-0.022372931 0.04131326 -0.059614897 -0.07901082 0.061702415 -0.034668773 0.10462345 -0.07275398
-0.033343107 -0.032576054 -0.05074358 0.17984776 0.13971294 -0.033206537 -0.055452704 -0.03902617
-0.14114264 -0.13807099 -0.050025076 0.18154036 -0.10406356 0.14544089 0.017254263 -0.097328685
-0.08265882 -0.03177452 0.082566425 0.08200078 0.19315855 0.15131079 -0.033608243 -0.14875352
0.02756834 -0.09240098 -0.08383594 -0.17370792 -0.032780603 0.18770827 -0.11900251 -0.050670832
0.009369642 0.14284234 0.15208758 0.18482177 -0.08374615 0.15296917 0.081119105 0.119034514
-0.034605145 -0.04027462 0.14804892 -0.10872443 0.034428403 -0.14207911 0.19982107 0.008596346
-0.19201596 -0.08729565 -0.102272324 -0.0090480745 0.09869258 0.16589029 -0.19777279 -0.11226132
0.018432409 0.053167716 -0.028053522 -0.11070621 -0.001242131 0.14960538 -0.009406656 -0.14443198
-0.15580872 -0.1475912 -0.0025873482 0.15811984 0.055795893 -0.15425453 -0.039316267 0.13232796
-0.103448585 -0.015432 0.09074731 0.020325392 -0.056782678 -0.0937917 -0.10939934 -0.17470956
-0.13565326 -0.083096646 -0.10744288 -0.11112433 -0.06256735 0.013351411 0.14336716 0.09817891
0.19993578 -0.18660645 -0.07189861 0.16909258 0.0846888 -0.09771824 0.089438334 -0.00469923
0.08905639 -0.037702277 0.014157981 -0.040731877 -0.15686567 -0.08376141 0.1323374 -0.1632789
0.110184565 0.17382933 -0.06388788 -0.071970135 0.19882955 -0.09431048 -0.08336802 -0.18910018
-0.029959112 0.03733091 0.06998317 0.10898806 0.07797901 -0.025411919 0.19292898 0.15837963
-0.19049194 0.19689299 0.08001275 -0.115682386 0.104919955 0.17319576 -0.0007174462 -0.065603524
0.12832011 0.015765592 0.06856112 0.11451803 -0.012451842 -0.022666737 0.041097358 0.05444561
-0.14785767 -0.038726002 0.03361973 -0.001912564 0.032526493 -0.064832956 -0.020293444 -0.17308421
-0.12038169 0.04874313 0.002932027 0.18740739 -0.024428397 -0.055268854 0.13213797 -0.041274905
-0.1902639 0.11558436 -0.09762316 -0.080868624 0.14766757 -0.16097263 0.12963386 0.013042763
0.1826414 0.093446776 0.17034365 -0.09312699 0.15684389 -0.120619945 -0.18420915 0.113347664
0.093115345 0.16368558 0.10289194 0.026375026 -0.0153505355 0.13927723 0.03876403 0.07972057
-0.12704642 0.108514294 0.19342698 0.16485183 0.109682366 -0.07040033 -0.19262151 -0.0056908876
-0.107092835 -0.1465142 0.16383086 0.013975024 -0.19723609 -0.04548545 0.05182384 0.1318679
0.109237775 -0.09670367 -0.049442217 0.022017047 0.15679313 0.0684223 -0.1705871 -0.101498485
0.11378659 -0.16454129 -0.012500837 -0.023924857 -0.111681245 -0.050726846 0.12792762 0.08818953
0.099655375 -0.14232063 0.15748422 0.1854832 -0.10271952 -0.18491386 0.153161 -0.10821052
00000000: bd1b bebd 70f2 aabc c60f 813d 6860 bcbc
00000010: 8c51 773d 1a5b a73d 2814 86bc d581 3fbe
00000020: 1b4f 283e e215 833d 281f 3bbe 986f 8a3c
00000030: a241 0cbe cafa cf3d 1b9c 033e 4c4d 48bd
00000040: a0cf 933b 3424 09be b4f0 1fbd 36ed 28be
00000050: 3e74 be3d 6a7f be3d 863f c23d 21c4 323e
00000060: d0c9 45bc 4041 0f3d 9cad 05be f09f 46be
00000070: 565d aa3d cfaa 3bbe 39c3 4a3e 50d6 923c
00000080: 7047 b7bc 1838 293d c02e 74bd 6dd0 a1bd
00000090: acbb 7c3d d800 0ebd d244 d63d 0a00 95bd
000000a0: c892 08bd 786e 05bd 80d8 4fbd 032a 383e
000000b0: e910 0f3e 9403 08bd 6022 63bd e8d9 1fbd
000000c0: b287 10be 7b62 0dbe 18e7 4cbd b7e5 393e
000000d0: 471f d5bd 75ee 143e d058 8d3c 4354 c7bd
000000e0: 0749 a9bd 0026 02bd 9618 a93d 06f0 a73d
000000f0: 5bcb 453e 37f1 1a3e cca8 09bd d852 18be
00000100: 00d7 e13c ba3c bdbd 2db2 abbd 7de0 31be
00000110: f444 06bd 9936 403e 97b7 f3bd 388c 4fbd
00000120: 2083 193c 4345 123e d9bc 1b3e eb41 3d3e
00000130: 1a83 abbd f3a3 1c3e c621 a63d 5ec8 f33d
00000140: 20be 0dbd 00f7 24bd 239a 173e eaaa debd
00000150: cc04 0d3d 307d 11be e59d 4c3e b0d7 0c3c
00000160: d59f 44be 10c8 b2bd 2774 d1bd 603e 14bc
00000170: 561f ca3d 25df 293e f384 4abe 43e9 e5bd
00000180: 90ff 963c 64c6 593d 80d0 e5bc f0b9 e2bd
00000190: 00cf a2ba 2732 193e 601e 1abc fae5 13be
000001a0: 528c 1fbe 2622 17be 8090 29bb 2bea 213e
000001b0: 3c8a 643d e6f4 1dbe 180a 21bd fb80 073e
000001c0: dadc d3bd 80d6 7cbc bad9 b93d 7081 a63c
000001d0: f494 68bd dd15 c0bd c30c e0bd 10e7 32be
000001e0: b0e8 0abe 932e aabd 030b dcbd 2795 e3bd
000001f0: 5023 80bd e0bf 5a3c d7ce 123e 0612 c93d
00000200: f7bb 4c3e c315 3fbe 943f 93bd 9b26 2d3e
00000210: 5271 ad3d 8020 c8bd 722b b73d 00fc 99bb
00000220: 3263 b63d b46d 1abd e0f6 673c 78d6 26bd
00000230: 65a1 20be 1a8b abbd 7583 073e 9532 27be
00000240: 72a8 e13d 5100 323e a6d7 82bd 1465 93bd
00000250: f999 4b3e da25 c1bd dabc aabd 7aa3 41be
00000260: d06c f5bc 4ce8 183d 5653 8f3d 2235 df3d
00000270: 76b3 9f3d a82c d0bc 2d8f 453e 452e 223e
00000280: 5210 43be 519e 493e badd a33d e3ea ecbd
00000290: 46e0 d63d 3b5a 313e 0013 3cba 245b 86bd
000002a0: 5966 033e d826 813c c669 8c3d 6e88 ea3d
000002b0: d002 4cbc 98af b9bc b455 283d 5c02 5f3d
000002c0: 0068 17be 289f 1ebd d8b4 093d 00af faba
000002d0: 803a 053d 24c7 84bd 703e a6bc fd3c 31be
000002e0: ad8a f6bd e0a6 473d 4027 403b b9e7 3f3e
000002f0: 101e c8bc 9861 62bd 2d4f 073e e00f 29bd
00000300: 8ad4 42be 7eb7 ec3d a7ee c7bd 739e a5bd
00000310: 2b36 173e 02d6 24be bdbe 043e 50b1 553c
00000320: 5906 3b3e 0661 bf3d 916e 2e3e 5db9 bebd
00000330: af9b 203e 9707 f7bd 53a1 3cbe d222 e83d
00000340: 42b3 be3d 319d 273e 02b9 d23d 7010 d83c
00000350: d080 7bbc b19e 0e3e 08c7 1e3d 8a44 a33d
00000360: 7518 02be be3c de3d b911 463e ebce 283e
00000370: 26a1 e03d 0c2e 90bd 933e 45be a07a babb
00000380: 7d53 dbbd d207 16be 47c3 273e 80f7 643c
00000390: 42f8 49be f44e 3abd 3c45 543d 6108 073e
000003a0: 0eb8 df3d 930c c6bd ec83 4abd 185d b43c
000003b0: 618e 203e fe20 8c3d 62ae 2ebe 70de cfbd
000003c0: f208 e93d 837d 28be 50d0 4cbc 10fe c3bc
000003d0: 23b9 e4bd f4c6 4fbd 75ff 023e b69c b43d
000003e0: 1e18 cc3d 80bc 11be 8b43 213e 4fef 3d3e
000003f0: 9d5e d2bd 0f5a 3dbe 3dd6 1c3e 7a9d ddbd

bias f4 [25]
-0.148446 -0.052095935 -0.036126092 -0.083292894 0.122462824 -0.110725954 0.075798824 -0.091607146
-0.1838123 0.027250722 0.16413428 0.09102447 0.19316952 0.11577247 0.029599637 0.03928657
0.032529905 -0.10084007 -0.19328868 -0.12979239 0.16531254 0.18786313 -0.19040291 -0.15238638
0.013967842
00000000: 3a02 18be 8c62 55bd f4f8 13bd 7795 aabd
00000010: cacd fa3d 4ac4 e2bd 6a3c 9b3d 879c bbbd
00000020: 4b39 3cbe e83c df3c d112 283e 0a6b ba3d
00000030: 3bce 453e 1e1a ed3d f07a f23c f4ea 203d
00000040: 143e 053d 3d85 cebd 78ed 45be 4ce8 04be
00000050: b147 293e 315f 403e fbf8 42be 2d0b 1cbe
00000060: 60d9 643c

weight f4 [4, 25]
0.13413604 0.19438009 -0.033376783 0.009230897 0.0156807 -0.17479561 -0.07500251 -0.14866619
0.05012308 -0.07291511 -0.011774093 -0.14705583 -0.17755058 -0.17213821 -0.08780529 -0.09499671
-0.19217847 0.08787216 -0.04186675 0.16641428 0.08364211 -0.1936752 -0.17781161 -0.13923065
-0.1518565 -0.16382936 -0.06348857 0.040888354 -0.11427426 0.12144293 0.0390822 -0.0757098
-0.043460816 -0.096900515 0.17694066 0.013942525 0.03406532 -0.07146303 0.065559134 0.10985254
0.025429651 -0.017952591 0.054572836 0.010150641 -0.092490196 -0.10287857 0.12115435 0.0037419796
0.11206366 0.14922933 0.11278094 0.17603077 -0.17062087 -0.050821573 0.009510085 -0.10784066
-0.03440121 -0.06333609 0.14254598 0.04099734 0.089418754 -0.03289655 0.11193703 0.07474662
0.019536182 -0.15761659 0.14175926 -0.035394162 -0.06746073 0.07951878 0.11192559 -0.15781431
-0.14114666 0.17644314 0.11872657 0.07202925 0.19866814 0.103022054 -0.18997227 -0.07182422
-0.17863849 0.10327388 0.14490862 0.037465215 0.06189911 -0.000649482 -0.10074969 0.18388344
-0.10220754 -0.054832056 -0.11034518 0.08479665 -0.19270527 -0.12951627 -0.16521561 0.11564441
-0.11096495 -0.03899333 0.061890498 -0.040816143
00000000: f55a 093e 930b 473e 18b6 08bd 303d 173c
00000010: d074 803c 9ffd 32be ea9a 99bd f33b 18be
00000020: dc4d 4d3d 8454 95bd 20e8 40bc ce95 16be
00000030: d2cf 35be 0045 30be 43d3 b3bd a38d c2bd
00000040: 6fca 44be 52f6 b33d 787c 2bbd 8168 2a3e
00000050: 8e4c ab3d cb52 46be 3f14 36be 7b92 0ebe
00000060: 4580 1bbe e2c2 27be 4c06 82bd 8c7a 273d
00000070: a008 eabd 12b7 f83d a814 203d bd0d 9bbd
00000080: f803 32bd c773 c6bd ef2f 353e 306f 643c
00000090: 1488 0b3d 365b 92bd de43 863d 5efa e03d
000000a0: d851 d03c 5011 93bc c487 5f3d e04e 263c
000000b0: 806b bdbd 00b2 d2bd c61f f83d 003c 753b
000000c0: a281 e53d 93cf 183e b2f9 e63d 6941 343e
000000d0: 3db7 2ebe 482a 50bd 30d0 1b3c 90db dcbd
000000e0: 48e8 0cbd 5ab6 81bd 93f7 113e d4ec 273d
000000f0: 2e21 b73d 88be 06bd 3e3f e53d c214 993d
00000100: 580a a03c 3e66 21be 5729 113e 78f9 10bd
00000110: da28 8abd beda a23d 3e39 e53d 139a 21be
00000120: c088 10be 83ad 343e ea26 f33d 1284 933d
00000130: a96f 4b3e 3afd d23d 1788 42be 9418 93bd
00000140: 02ed 36be 4281 d33d ed62 143e 2075 193d
00000150: ec89 7d3d 0042 2aba da55 cebd f14b 3c3e
00000160: 3052 d1bd 9497 60bd a7fc e1bd dea9 ad3d
00000170: 8854 45be ea9f 04be 482e 29be fad6 ec3d
00000180: 9741 e3bd 78b7 1fbd e480 7d3d d42e 27bd

bias f4 [4]
-0.12357457 -0.004027799 -0.07843774 -0.08368063
00000000: aa14 fdbd a0fb 83bb f7a3 a0bd c060 abbd
