models/_brain_149.pt (torch, 14593 bytes, 12 tensors)

weight f4 [14]
0	0x3f800000	1.0
1	0x3f800000	1.0
2	0x3f800000	1.0
3	0x3f800000	1.0
4	0x3f800000	1.0
5	0x3f800000	1.0
6	0x3f800000	1.0
7	0x3f800000	1.0
8	0x3f800000	1.0
9	0x3f800000	1.0
10	0x3f800000	1.0
11	0x3f800000	1.0
12	0x3f800000	1.0
13	0x3f800000	1.0

bias f4 [14]
0	0x00000000	0.0
1	0x00000000	0.0
2	0x00000000	0.0
3	0x00000000	0.0
4	0x00000000	0.0
5	0x00000000	0.0
6	0x00000000	0.0
7	0x00000000	0.0
8	0x00000000	0.0
9	0x00000000	0.0
10	0x00000000	0.0
11	0x00000000	0.0
12	0x00000000	0.0
13	0x00000000	0.0

weight f4 [25, 14]
0	0x3d767488	0.060169727
1	0x3e278b5e	0.16361758
2	0x3e3e660a	0.18593612
3	0x3ca757c0	0.020427585
4	0xbd35af14	-0.04435642
5	0xbe5c6ede	-0.21526667
6	0x3cb6af30	0.022300333
7	0x3e1a887e	0.1509113
8	0x3dab16dc	0.083539695
9	0xbde5faa0	-0.112294436
10	0x3da75508	0.08170515
11	0x3e1a5bb6	0.15074047
12	0x3d265cc8	0.040615827
13	0x3d84e198	0.06488341
14	0xbe5b8fc3	-0.2144156
15	0x3e567c3a	0.20945826
16	0xbc4c59c0	-0.01247257
17	0x3dcf43d4	0.10120359
18	0xbe834db4	-0.2564522
19	0x3e65c3b2	0.22437933
20	0xbe2f7594	-0.17134696
21	0x3df41220	0.119175196
22	0x3e67af14	0.22625381
23	0x3e67ed9e	0.22649238
24	0x3d247fa8	0.040160805
25	0xbe501988	-0.2032224
26	0x3e801367	0.25014803
27	0xbe1b5d42	-0.15172294
28	0xbd5d6c78	-0.054058522
29	0xbdb46b62	-0.08809544
30	0x3d2c2c30	0.042034328
31	0xbe36ed06	-0.17863855
32	0xbe6baa26	-0.23014125
33	0x3e465d44	0.19371516
34	0xbd7f98dc	-0.062401637
35	0xbd91011a	-0.07080288
36	0xbc981288	-0.018563524
37	0x3e85767d	0.26066962
38	0xbe162073	-0.14660816
39	0xbd9d57a8	-0.07682735
40	0x3e6a8eb0	0.22905993
41	0xbe47d318	-0.1951412
42	0x3b4bec00	0.0031116009
43	0xbe61bb28	-0.2204405
44	0x3d0213a8	0.031757027
45	0xbe45f17e	-0.19330403
46	0xbe45f600	-0.19332123
47	0x3e6a1004	0.22857672
48	0x3d07a718	0.033118337
49	0x3e883c1f	0.2660837
50	0xbe7cce58	-0.24688089
51	0x3da4ac7c	0.08040711
52	0xbe76df9b	-0.24108736
53	0x3d13fff8	0.036132783
54	0xbe3cef49	-0.18450655
55	0x3e529910	0.20566201
56	0x3dec1994	0.11528316
57	0xbe858c54	-0.26083624
58	0xbde39ca6	-0.11113863
59	0x3e4c758e	0.19966719
60	0x3c9a1c70	0.018812388
61	0x3dced3bc	0.10098979
62	0xbe83563a	-0.25651723
63	0x3e26e3d8	0.16297853
64	0xbe237fe8	-0.15966761
65	0xbe1d6b18	-0.15372884
66	0x3db21e48	0.08697182
67	0xbd073660	-0.03301084
68	0x3d976964	0.073931485
69	0xbe56dbfe	-0.20982358
70	0xbd9e845c	-0.07740089
71	0xbdb02f2c	-0.08602747
72	0x3e730ada	0.23734608
73	0xbd7b9340	-0.061419725
74	0x3e5c4bda	0.2151331
75	0x3d2558f8	0.04036805
76	0x3e4bb00a	0.19891372
77	0xbd76ffe8	-0.060302645
78	0xbe6f8757	-0.23391472
79	0xbe57b5da	-0.21065465
80	0xbe322ab8	-0.17399108
81	0xbe032a7c	-0.12809175
82	0x3e564678	0.20925319
83	0x3db45050	0.08804381
84	0x3e157b2c	0.14597768
85	0xbd8b58dc	-0.06804058
86	0x3e889609	0.26676968
87	0x3e75911a	0.23981133
88	0xbe375901	-0.17905046
89	0x3dfd5604	0.12369922
90	0xbd4c3a68	-0.049860388
91	0x3e470806	0.19436654
92	0x3c92d190	0.017922193
93	0x3dcfc274	0.10144511
94	0x3d5e0fd0	0.0542143
95	0xbe6544a6	-0.22389469
96	0x3de3f67c	0.111309975
97	0xbd8aef5c	-0.067839354
98	0xba49ac00	-0.00076931715
99	0xbd5d2a54	-0.053995445
100	0xbe7e53eb	-0.248367
101	0x3e049544	0.12947565
102	0x3d3f9148	0.04676941
103	0xbdd89fac	-0.1057733
104	0x3e5c3bf8	0.21507251
105	0xbd05bc5c	-0.032650337
106	0x3dff913c	0.12478873
107	0x3e19ed52	0.15031937
108	0x3e81e597	0.25370476
109	0x3e0c512e	0.13702843
110	0x3e60e1b0	0.21961093
111	0xbdfcf20e	-0.12350856
112	0x3d093370	0.03349632
113	0xbe6cef5b	-0.23138182
114	0x3d740228	0.05957237
115	0x3e21bb5a	0.15794125
116	0x3dfb9c80	0.122857094
117	0x3db0ea2c	0.08638415
118	0xbe4226fe	-0.18960187
119	0x3d30a120	0.04312241
120	0xbca88780	-0.020572424
121	0x3e49b3ae	0.19697449
122	0x3e490ee0	0.1963458
123	0xbe6d5895	-0.23178323
124	0xbac98800	-0.0015375614
125	0x3dea04f0	0.11426723
126	0x3d1c5230	0.038164318
127	0xbe2836fe	-0.16427228
128	0x3df4db70	0.11955917
129	0xbe07e121	-0.13269474
130	0xbe5523d8	-0.20814455
131	0xbe2fab1d	-0.17155118
132	0xbe84c314	-0.25930083
133	0xbe6bf8a2	-0.23044065
134	0x3e2c925c	0.16852707
135	0xbbd255c0	-0.0064189136
136	0xbd423074	-0.04740949
137	0x3e78023e	0.24219605
138	0x3e74ccba	0.23906222
139	0xbdcf7aea	-0.10130866
140	0x3d267c08	0.04064563
141	0xbe14f330	-0.14545894
142	0xbdf7e3b6	-0.12103979
143	0x3e774572	0.24147585
144	0x3b9432c0	0.0045226514
145	0x3da89090	0.08230698
146	0xbe42298c	-0.18961161
147	0xbddc49f6	-0.107562944
148	0xbdadff88	-0.08496004
149	0x3db79cec	0.08965477
150	0xbc6f1040	-0.014591277
151	0x3d6e6e98	0.05821094
152	0xbd8e4b02	-0.069479
153	0xbe3ad62e	-0.18245766
154	0x3cdfe6d0	0.02733174
155	0x3e647de0	0.22313643
156	0x3d678d48	0.05653122
157	0x3e36c4f0	0.17848563
158	0x3d7983a0	0.060916543
159	0xbe22ed6c	-0.15910882
160	0x3e79037e	0.24317738
161	0xbe58b026	-0.21160945
162	0x3dd51b8c	0.10405645
163	0xbe51a574	-0.20473272
164	0x3dacdfec	0.08441147
165	0x3dda4740	0.10658121
166	0xbd62e3d0	-0.05539304
167	0x3d2c92f0	0.042132318
168	0x3d689fc0	0.056792974
169	0xbe22af6b	-0.15887229
170	0xbe8620f1	-0.26197007
171	0xbe2a9fde	-0.16662547
172	0xbd1321c4	-0.035920873
173	0x3e1ca5f8	0.15297687
174	0xbdc0a30c	-0.09406099
175	0x3e5954f4	0.21223813
176	0xbe57c09a	-0.21069565
177	0x3e70f716	0.23531756
178	0xbd5d1178	-0.053971738
179	0x3e5a8238	0.21338737
180	0x3dcf58d4	0.101243645
181	0x3d7f7ce0	0.06237495
182	0xbda50648	-0.08057839
183	0x3d221240	0.039568186
184	0x3e58e6c2	0.21181777
185	0x3dd2a5c4	0.102855235
186	0x3e5b3f9e	0.21410987
187	0x3cdd48b0	0.0270122
188	0x3e7c58be	0.24643227
189	0x3e03bc66	0.12864837
190	0xbda517e0	-0.080611944
191	0x3e83414f	0.25635764
192	0x3e60ab0e	0.21940252
193	0xbe4d0b4d	-0.20023842
194	0xbe52cbda	-0.20585576
195	0xbd720600	-0.059087753
196	0x3e5f6f42	0.21819785
197	0x3e3f358a	0.18672767
198	0xbe5e994a	-0.21738163
199	0x3e4d50f6	0.20050415
200	0xbd3c6338	-0.04599306
201	0xbe1701ad	-0.14746733
202	0x3e025254	0.12726718
203	0x3dc40cc0	0.09572744
204	0x3e363606	0.17794046
205	0x3d140410	0.036136687
206	0xbbbdbfc0	-0.0057906806
207	0x3e08219a	0.13294068
208	0xbdef5cbc	-0.116876096
209	0xbd4e2064	-0.05032386
210	0x3e7da182	0.24768642
211	0x3e7bf65a	0.24605694
212	0xbe810ebf	-0.25206563
213	0xbc828620	-0.015933096
214	0xbe1bf295	-0.15229256
215	0x3dfb1ff8	0.12261957
216	0x3cf80ca0	0.030279458
217	0x3e322a08	0.17398846
218	0x3e5ee830	0.2176826
219	0x3e1a9dba	0.1509923
220	0x3e3986d0	0.18117833
221	0x3e3402cc	0.17579192
222	0x3d02c988	0.031930476
223	0xbccabb30	-0.024747461
224	0xbe5818bf	-0.2110319
225	0xbe2f2562	-0.17104104
226	0x3d42c398	0.047549814
227	0xbe26b9a3	-0.16281752
228	0x3ce3c380	0.027803183
229	0x3e297440	0.16548252
230	0xbe193814	-0.14962798
231	0x3e2476d2	0.16060951
232	0x3dda26d8	0.1065194
233	0x3db87790	0.0900718
234	0x3d657148	0.056016237
235	0xbe88865e	-0.26665014
236	0x3e26c2ae	0.16285202
237	0x3e319a32	0.17343977
238	0xbe59cc68	-0.21269381
239	0x3e6412a0	0.2227273
240	0xbe5355c2	-0.20638183
241	0xbe5c17d9	-0.21493472
242	0xbe847d91	-0.2587705
243	0xbda4cc86	-0.08046822
244	0x3dda2f28	0.106535256
245	0xbe00c3eb	-0.12574737
246	0xbe66f1fe	-0.2255325
247	0xbdddb49a	-0.10825463
248	0xbdb3ead0	-0.08785021
249	0xbd9240f6	-0.071412966
250	0xbdbe42dc	-0.09290096
251	0xbe498a59	-0.19681682
252	0xbe53da3f	-0.20688723
253	0x3e58389c	0.21115345
254	0x3e6f7452	0.23384216
255	0xbe05f76a	-0.13082662

bias f4 [25]
0	0x3d5f32f8	0.054491967
1	0x3a597a00	0.00082960725
2	0x3d323408	0.043506652
3	0x3e36e8e8	0.17862284
4	0x3df2003c	0.11816451
5	0xbbc6e740	-0.0060700476
6	0xbd854876	-0.065079615
7	0xbe85d2bc	-0.2613734
8	0xbe87eb61	-0.26546767
9	0xbe2f1594	-0.17098075
10	0xbe07381e	-0.13205001
11	0x3da45f18	0.0802595
12	0xbe2eba27	-0.17063199
13	0x3e831595	0.25602403
14	0xbdd7ccc4	-0.10537103
15	0x3e6a4a6c	0.22879952
16	0xbd62c19c	-0.05536042
17	0xba2b5200	-0.0006535351
18	0xbd260c90	-0.040539324
19	0x3e58ff46	0.21191129
20	0xbcde0ed0	-0.027106673
21	0xbe37150b	-0.17879121
22	0x3e086454	0.13319522
23	0xbd1fa6d4	-0.03897746
24	0x3e501994	0.20322257

weight f4 [25, 25]
0	0xbd32270c	-0.04349427
1	0x3e01fe1b	0.1269459
2	0x3e46b799	0.19405974
3	0xbbe53e40	-0.006995946
4	0xbe2ca285	-0.16858871
5	0x3de383c6	0.11109118
6	0x3e39af11	0.18133189
7	0xbddbca40	-0.107319355
8	0x3e32019d	0.17383428
9	0xbdf50137	-0.11963122
10	0xbdbe9f6d	-0.09307752
11	0xbd667be0	-0.05627048
12	0x3d997ec2	0.0749488
13	0xbc866100	-0.016403675
14	0x3df9fc1a	0.12206288
15	0xbe3a60da	-0.18201008
16	0x3c9a36f0	0.018825024
17	0x3e3b4d77	0.18291269
18	0x3de2dbb2	0.1107706
19	0xbc735c80	-0.014853597
20	0xbe3421b2	-0.17590979
21	0xbdd86aed	-0.105672695
22	0x3d80a3ae	0.062812194
23	0x3ddc8f2a	0.10769494
24	0xbda4beea	-0.080442265
25	0x3d15ae74	0.036543325
26	0x3da5020e	0.080570325
27	0x3d506194	0.050874308
28	0xbe3e243a	-0.18568507
29	0x3e114aab	0.1418864
30	0x3db9441e	0.090461954
31	0x3e00ff03	0.12597279
32	0xbe3c0c72	-0.18364123
33	0x3e12848f	0.1430838
34	0xbdc422f0	-0.09576976
35	0x3c1617a0	0.009160906
36	0x3d2be46c	0.041965887
37	0xbe4ad0b8	-0.19806182
38	0xbd59320c	-0.053026244
39	0xbe2079c6	-0.15671453
40	0x3e22f0c9	0.15912165
41	0xbd8473b0	-0.06467378
42	0x3e3502df	0.17676876
43	0xbdb78240	-0.0896039
44	0xbe0d3a28	-0.13791716
45	0x3e3a8075	0.18213065
46	0x3d76628c	0.060152575
47	0xbe315f52	-0.17321518
48	0x3deccdf2	0.115627185
49	0xbc6cabe0	-0.014445275
50	0x3df91e32	0.121639624
51	0x3d238960	0.039925933
52	0x3e19f065	0.1503311
53	0x3dde07aa	0.108413056
54	0xbd9883f0	-0.0744704
55	0x3d71fd34	0.059079364
56	0x3daa9d1e	0.08330749
57	0x3e3b553d	0.18294235
58	0x3e45d0f9	0.19317998
59	0xbde08e43	-0.10964634
60	0xbd1ff62c	-0.039053127
61	0xbe2705f8	-0.1631087
62	0xbe2279be	-0.15866753
63	0xbdf700ea	-0.12060721
64	0xbd82fc7a	-0.06395812
65	0xbd2275e8	-0.039663225
66	0x3dbe1a9a	0.092824176
67	0xbd4e90e8	-0.050431162
68	0x3d496fac	0.049178764
69	0x3c3c9d80	0.01151216
70	0x3e3f6c0f	0.18693565
71	0xbdb21d47	-0.086969905
72	0x3e1ec835	0.1550606
73	0x3e08b3cd	0.13349839
74	0x3e406dc9	0.1879188
75	0x3dfff936	0.12498705
76	0x3dd218a2	0.102586046
77	0x3e1f2c61	0.15544273
78	0x3d321df4	0.043485597
79	0xbdc6a38d	-0.096991636
80	0x3e4b24a7	0.198382
81	0xbe483550	-0.19551587
82	0xbbe8a360	-0.007099554
83	0xbd8e1e00	-0.06939316
84	0xbe37d3fd	-0.17951961
85	0x3cfebeb0	0.031096786
86	0x3e017fd3	0.12646417
87	0xbd88ee94	-0.0668613
88	0x3dcba112	0.09942831
89	0x3cefa770	0.029254645
90	0xbd45dbf4	-0.048305467
91	0x3de603b6	0.112311766
92	0x3d00d414	0.031452253
93	0x3d517fb4	0.051147178
94	0xbddacaca	-0.1068321
95	0x3e12b981	0.14328577
96	0x3c844eb0	0.016150802
97	0xbe179163	-0.14801554
98	0x3d26f4ec	0.04076092
99	0xbd7c4dac	-0.06159751
100	0x3c2d5e00	0.010581493
101	0x3e33b84f	0.17550777
102	0x3bf5b440	0.007498294
103	0xbe199860	-0.14999533
104	0x3d559ad4	0.05214961
105	0x3e2e6641	0.17031194
106	0x3d3036f8	0.043021172
107	0x3de2c646	0.11072974
108	0x3dd0d36a	0.10196574
109	0x3cc71428	0.024301603
110	0xbd9c9b53	-0.07646813
111	0xbe342f72	-0.17596224
112	0x3e2de66f	0.16982435
113	0xbc64eb80	-0.013972163
114	0x3c614b80	0.013750911
115	0xbd85e33a	-0.06537481
116	0xbdb7b9bd	-0.08970974
117	0xbdcef927	-0.10106116
118	0x3d24ed0c	0.040265128
119	0x3e260373	0.16212253
120	0x3e2c67a9	0.16836418
121	0xbdb205ed	-0.086925365
122	0xbd26d628	-0.04073158
123	0xbcee4cc0	-0.029089332
124	0xbe2cd4c2	-0.16878036
125	0xbe09c33d	-0.13453384
126	0x3deb8596	0.11500089
127	0xbdbff660	-0.09373164
128	0xbe242dca	-0.16033092
129	0xbe23b550	-0.15987134
130	0x3c43cdd0	0.011950925
131	0xbcfaa3b0	-0.03059563
132	0x3e1aa527	0.15102063
133	0xbd3c7734	-0.04601212
134	0xbd54fef8	-0.05200097
135	0x3da253ba	0.07926126
136	0x3b8188c0	0.0039530694
137	0xbcb5cf80	-0.02219367
138	0x3d6ad564	0.05733241
139	0x3e46d6c9	0.19417872
140	0x3e42e769	0.19033588
141	0xbabc7180	-0.0014377087
142	0x3e427aad	0.1899211
143	0x3de7345e	0.11289285
144	0x3e262651	0.16225554
145	0xbd2e8288	-0.042604953
146	0xbe191be5	-0.14952047
147	0xbe2b7d0e	-0.16746923
148	0x3d23e278	0.0400109
149	0xbe45e388	-0.19325078
150	0xbc447e60	-0.011993021
151	0xbb2e9200	-0.0026637316
152	0x3dab197e	0.083544716
153	0x3e029319	0.12751426
154	0x3d9ee4ca	0.07758482
155	0x3dbc13c6	0.09183459
156	0x3e09eb15	0.13468583
157	0xbe42fe25	-0.19042261
158	0x3c631a00	0.013861179
159	0xbdd49937	-0.10380786
160	0xbda1e947	-0.07905822
161	0x3d135e58	0.035978645
162	0x3d07b5c8	0.033132344
163	0x3db5a6a6	0.08869676
164	0xbe0d747d	-0.13813968
165	0xbdef98d0	-0.116990685
166	0x3d11fb2c	0.035639927
167	0x3d82b336	0.06381838
168	0x3c602700	0.013681173
169	0x3dc2aaa2	0.09505202
170	0x3c2b3ae0	0.010451049
171	0xbde33edd	-0.110959746
172	0x3e068489	0.13136496
173	0xbdd9b5e0	-0.10630393
174	0xbdd5df3a	-0.10442968
175	0x3dd9e9ae	0.10640274
176	0xbe30e8f8	-0.1727637
177	0x3da06d82	0.07833387
178	0x3d24b698	0.040213197
179	0x3d871912	0.06596579
180	0x3e1bb4a3	0.15205626
181	0x3ce54728	0.027988032
182	0x3cf7f530	0.030268282
183	0x3e02507d	0.12726016
184	0x3e3b4a97	0.18290173
185	0xbdbb4a80	-0.09145069
186	0x3e43586f	0.19076703
187	0xbd05f1e0	-0.032701373
188	0x3da19f22	0.0789168
189	0xbe0138c8	-0.12619317
190	0x3e3f9e59	0.18712749
191	0x3df0f6ce	0.11765824
192	0xbdcfff97	-0.10156172
193	0xbd38ff6c	-0.045165464
194	0x3dbe722a	0.09299119
195	0x3e40aa1d	0.18814893
196	0xbdb16343	-0.08661511
197	0xbc96f990	-0.018429548
198	0xbb88dba0	-0.004176572
199	0x3cfe2868	0.031025127
200	0x3e45bde1	0.19310714
201	0xbe231552	-0.15926102
202	0x3c826c28	0.015920714
203	0x3af31d80	0.001854822
204	0x3b2ed680	0.0026678145
205	0xbdc181a0	-0.09448552
206	0xbe30e287	-0.17273913
207	0x3e1d41af	0.15357088
208	0x3e32e8ed	0.17471667
209	0xbd95469c	-0.07288858
210	0xbd945284	-0.07242301
211	0x3dfe5da6	0.12420206
212	0x3caabc10	0.020841628
213	0xbe3c9190	-0.18414903
214	0xbe430838	-0.19046104
215	0x3d5e7ac4	0.054316297
216	0x3d7e1c9c	0.062039003
217	0xbc853b98	-0.016263768
218	0x3b542740	0.0032372028
219	0xbe1f052a	-0.15529314
220	0x3d3b9f20	0.04580605
221	0xbdac654a	-0.08417757
222	0x3c8fafd0	0.017539889
223	0xbe237d15	-0.15965684
224	0xbd8e9a2a	-0.06962998
225	0xbc8ba070	-0.017044276
226	0xbb897aa0	-0.0041955262
227	0x3e0b7bfd	0.13621517
228	0xbe1c974d	-0.15292092
229	0x3b43b6c0	0.0029863566
230	0xbe166fd6	-0.146911
231	0xbe407267	-0.18793641
232	0x3e32af9d	0.17449804
233	0xbd9d1840	-0.07670641
234	0xbdc18c97	-0.094506435
235	0x3daa8b3e	0.083273396
236	0xbe200933	-0.15628509
237	0x3c812a70	0.015767306
238	0x3d718754	0.05896695
239	0xbcd26fe8	-0.025688127
240	0x3db5a906	0.08870129
241	0xbdf6e7fa	-0.12055965
242	0xbcd740c0	-0.026275992
243	0xbe27fa7b	-0.16404144
244	0xbdbd9e2d	-0.09258685
245	0x3dbd79e6	0.09251766
246	0xbd46a1b4	-0.048494056
247	0xbc8bd470	-0.017069072
248	0x3da7e85e	0.081986174
249	0xbd46ed60	-0.048566222
250	0xbd88b794	-0.0667564
251	0xbde9d1ba	-0.11416955
252	0x3e024181	0.127203
253	0x3de9ac66	0.114098355
254	0x3dd41fba	0.10357614
255	0xbab86280	-0.0014067441

bias f4 [25]
0	0xbd81b3d4	-0.063331276
1	0xbdd722e7	-0.10504704
2	0x3c9c2830	0.019062132
3	0x3c1ac160	0.009445518
4	0x3e3dcabd	0.1853437
5	0x3e3ffe01	0.18749239
6	0x3d77988c	0.060448214
7	0x3e4869a7	0.19571553
8	0xbe06f73d	-0.13180251
9	0xbe31b577	-0.1735438
10	0xbdbe6c43	-0.09297993
11	0xbde93767	-0.1138752
12	0x3e49d3d7	0.19709717
13	0x3df651d6	0.12027328
14	0x3d829dfe	0.06377791
15	0xbddc3000	-0.10751343
16	0x3d19d728	0.037558705
17	0xbe1ae51b	-0.1512646
18	0xbe4295a3	-0.19002394
19	0xbc4c3220	-0.012463123
20	0x3dfb5572	0.12272157
21	0xbd198028	-0.037475735
22	0xbe26055a	-0.16212979
23	0xbd80b4ca	-0.06284483
24	0x3d1994f8	0.037495583

weight f4 [25, 25]
0	0x39e11a00	0.00042934716
1	0x3e24f635	0.16109546
2	0xbe40f0f5	-0.18841918
3	0x3c7ea6a0	0.015542656
4	0xbe386c07	-0.18009959
5	0x3d611244	0.05494906
6	0xbdfa4c7a	-0.12221618
7	0xbdeb5e9d	-0.114926554
8	0xbd8c3834	-0.068466574
9	0x3e1d99a9	0.15390648
10	0x3e1c348b	0.15254419
11	0xbc1d98e0	-0.009618968
12	0x3d760624	0.06006445
13	0x3dc192c6	0.09451823
14	0xbd5f7038	-0.05455038
15	0x3c388fd0	0.011264756
16	0xbde4ef9d	-0.11178515
17	0x3e04560f	0.12923454
18	0x3de8a202	0.113590255
19	0x3e313079	0.17303647
20	0xbd6b66d4	-0.05747111
21	0x3e1c6159	0.1527151
22	0x3da46102	0.08026315
23	0x3dc0aed2	0.09408344
24	0xbe44cb7a	-0.19218245
25	0x3e192111	0.1495402
26	0x3dff5486	0.124672934
27	0xbe0a3590	-0.13496995
28	0x3e346b51	0.17619063
29	0x3bd1f260	0.006407067
30	0xbe031620	-0.12801409
31	0xbd9928c6	-0.0747848
32	0xbe274748	-0.16335785
33	0xbe01c7e5	-0.1267391
34	0x3e0dd951	0.13852431
35	0xbda2d83d	-0.079514004
36	0x3c8181c0	0.01580894
37	0x3db05f7a	0.08611961
38	0xbd99d327	-0.07510977
39	0x3d324df4	0.043531373
40	0xbdc7ba97	-0.09752386
41	0x3dc3ae42	0.095547214
42	0xbd1fa76c	-0.038978025
43	0x3dc1878a	0.0944968
44	0x3c2c7860	0.0105267465
45	0x3e01fdc1	0.12694456
46	0xbcc788d8	-0.024357244
47	0xbd8ef2e0	-0.069799185
48	0xbca35018	-0.019935653
49	0x3d82eb12	0.06392492
50	0xbc594be0	-0.013262719
51	0x3e295001	0.16534425
52	0xbd95b0a0	-0.07309079
53	0x3c419e30	0.0118175
54	0xbdf5d4da	-0.12003489
55	0xbe1851d6	-0.14874968
56	0x3dc60d5e	0.09670518
57	0xbe3fe873	-0.18741016
58	0x3d08e168	0.03341809
59	0xbd7d56e8	-0.06185046
60	0x3d9186da	0.07105799
61	0xbe12ca82	-0.14335063
62	0x3e30b3b5	0.17256053
63	0x3db454aa	0.08805211
64	0x3e042723	0.12905554
65	0x3dd7c806	0.10536198
66	0xbe0a569d	-0.13509603
67	0x3db5c276	0.08874981
68	0x3d173f74	0.036925748
69	0xbe24c736	-0.16091618
70	0xbd65d880	-0.056114674
71	0x3e01c25d	0.126718
72	0xbbf6a5a0	-0.0075270683
73	0xbe21b9bb	-0.15793507
74	0x3e0ac5ab	0.13551967
75	0x3ce84f18	0.028358027
76	0xbd6b9018	-0.057510465
77	0xbe319992	-0.17343739
78	0xbdc0b48d	-0.09409437
79	0xbd961b3c	-0.07329413
80	0xbdf64160	-0.12024188
81	0x3db0b066	0.08627395
82	0x3d65006c	0.055908605
83	0xbe4bf895	-0.19919045
84	0x3dd3e06a	0.10345538
85	0x3cb97bd0	0.022642046
86	0x3d819ad6	0.06328361
87	0x3d820132	0.06347884
88	0x3d44aa40	0.048013926
89	0x3c97b058	0.018516704
90	0x3e41476b	0.188749
91	0xbc4f3b80	-0.012648463
92	0x3e000389	0.12501349
93	0xbc0c93a0	-0.008580118
94	0xbd9f0170	-0.07763946
95	0xbe00a7b5	-0.12563975
96	0x3cab8530	0.020937532
97	0xbe31559f	-0.17317818
98	0xbd5ace0c	-0.053419158
99	0x3e4cb339	0.19990243
100	0x3d220c08	0.039562255
101	0x3db9afea	0.09066756
102	0x3de62992	0.11238398
103	0xbddb5060	-0.1070869
104	0x3e48eec9	0.1962234
105	0x3dc57802	0.0964203
106	0xbda61dd0	-0.08111155
107	0xbe38ed00	-0.18059158
108	0xbd2d9834	-0.04238148
109	0xbe462a92	-0.19352177
110	0x3e0fb2bd	0.14033027
111	0xbe1438d6	-0.14474806
112	0xbd8b4316	-0.06799905
113	0xbd696778	-0.05698344
114	0xbde62300	-0.112371445
115	0x3daad85e	0.0834205
116	0x3e15df33	0.14635925
117	0x3e022e17	0.12712894
118	0x3e0ab861	0.13546897
119	0x3d931036	0.07180826
120	0xbe1f2f18	-0.15545309
121	0xbe4a0140	-0.1972704
122	0xbca186d0	-0.019717604
123	0xbdaa7730	-0.083235145
124	0x3dd8e8d2	0.10591282
125	0x3d7ca6f4	0.061682656
126	0x3e16012f	0.14648889
127	0xbe23b998	-0.15988767
128	0x3ccfa5d8	0.025347635
129	0x3d350e4c	0.044203088
130	0x3c201fd0	0.00977321
131	0x3db5b956	0.08873241
132	0xbe2e0a1b	-0.16996042
133	0xbe11faea	-0.14255872
134	0xbd46a8b4	-0.04850073
135	0xbcb2d240	-0.02182877
136	0x3e06b009	0.1315309
137	0xbe246fea	-0.16058317
138	0x3e48ebc7	0.19621192
139	0x3d1c1068	0.038101584
140	0xbe09b1cc	-0.1344673
141	0xbe13a2e3	-0.14417605
142	0x3dbad03e	0.0912175
143	0x3d8233c6	0.06357531
144	0x3e0da92f	0.1383407
145	0x3e34725b	0.17621748
146	0x3c1d6b20	0.00960806
147	0x3e227bc9	0.15867533
148	0xbe4143b5	-0.18873484
149	0x3e16e401	0.14735414
150	0x3e19f995	0.15036614
151	0x3de3e43e	0.11127518
152	0xbda6f8fa	-0.08152957
153	0xbe269242	-0.1626673
154	0xbcd170a8	-0.025566414
155	0x3e0e58cb	0.1390106
156	0xbdab10ba	-0.083528
157	0x3d21ddcc	0.039518163
158	0x3cfbfec0	0.030761123
159	0xbe18ce22	-0.14922383
160	0x3e43b909	0.19113554
161	0xbe440cad	-0.1914546
162	0xbdb7f4f3	-0.08982267
163	0xbcc199d0	-0.023632914
164	0xbdf7aa07	-0.12092977
165	0x3c889ec0	0.01667726
166	0xbdac3947	-0.08409362
167	0x3e4c53cb	0.1995384
168	0x3cc9ee70	0.024649829
169	0xbe21d1d5	-0.15802701
170	0xbe33a1b8	-0.1754216
171	0xbd000dc8	-0.031263143
172	0xbba05b60	-0.0048937052
173	0x3de61972	0.11235322
174	0x3e1a69cb	0.1507942
175	0xbc97efa8	-0.018546894
176	0x3e033a71	0.12815262
177	0xbdc73c70	-0.097283244
178	0xbe3a523d	-0.18195434
179	0x3ccb0290	0.024781495
180	0xbdf967b3	-0.12177982
181	0x3e3b511b	0.18292658
182	0xbdcf597d	-0.101244904
183	0x3df3c112	0.119020596
184	0xbded4eb7	-0.11587279
185	0x3db03f4e	0.086058244
186	0x3d8f1696	0.0698673
187	0x3dc7686e	0.09736715
188	0x3d938132	0.072023764
189	0xbcf35f40	-0.029708505
190	0x3c347c60	0.011015981
191	0xbdd62513	-0.1045629
192	0x3e257a71	0.16159989
193	0xbe19a836	-0.15005574
194	0xbd588348	-0.052859575
195	0xbd1459d4	-0.03621848
196	0x3abd7100	0.0014453232
197	0x3bc2a2a0	0.0059397966
198	0xbd2e324c	-0.042528436
199	0x3daff066	0.08590774
200	0x3d9ed956	0.07756297
201	0xbdea3620	-0.11436105
202	0x3cea7680	0.028620958
203	0xb84f3000	-4.939735e-05
204	0xbe0c4d60	-0.13701391
205	0xbd996c3a	-0.07491346
206	0x3da91182	0.082552925
207	0xbc9f6c68	-0.019460872
208	0xbe1143fe	-0.14186093
209	0x3d02d498	0.031941026
210	0x3d468cf8	0.048474282
211	0x3e0e7137	0.13910376
212	0xbd49d638	-0.04927656
213	0x3e430187	0.19043551
214	0x3d8df6aa	0.06931813
215	0x3d8f6716	0.07002084
216	0x3e06daf9	0.13169469
217	0xbb9dce40	-0.0048158467
218	0x3d079394	0.033099726
219	0xbdda1c0a	-0.10649879
220	0xbd881e7a	-0.06646438
221	0xbe308dcd	-0.17241593
222	0xbd9cac60	-0.076500654
223	0xbdd41027	-0.10354643
224	0x3e418407	0.1889802
225	0x3bbc1300	0.0057395697
226	0x3d2a0ce8	0.041516215
227	0xbe37ef77	-0.17962442
228	0x3c930650	0.017947346
229	0xbe02866d	-0.12746592
230	0x3e29f367	0.16596757
231	0xbe176d9a	-0.14787903
232	0xbe032156	-0.12805685
233	0xbe24a5c3	-0.16078858
234	0x3e454a7f	0.19266699
235	0x3e0223f3	0.12709026
236	0x3e254cc3	0.16142564
237	0x3d09fe54	0.03368981
238	0xbb55bd80	-0.0032614172
239	0xbc1277a0	-0.008939654
240	0xbd90d60c	-0.07072076
241	0x3e2df559	0.16988124
242	0xbd8af47c	-0.06784913
243	0xbdcc1f37	-0.09966891
244	0x3e1a0883	0.1504231
245	0x3d92c8aa	0.0716718
246	0xbbc22ba0	-0.0059256107
247	0xbe19a902	-0.15005878
248	0xbd8987e0	-0.06715369
249	0x3e2b993f	0.16757677
250	0x3ca3c118	0.019989535
251	0xbe37b9f7	-0.17942034
252	0xbcc53110	-0.024071246
253	0x3e2e57d1	0.17025687
254	0xbdf01b00	-0.117239
255	0x3e35bb8d	0.17747326

bias f4 [25]
0	0x3c7e1230	0.015507266
1	0x3d17e800	0.037086487
2	0x3e470e59	0.19439067
3	0xbd8d1a16	-0.06889741
4	0x3dbb7512	0.09153189
5	0x3e1a766b	0.15084235
6	0xbdb74087	-0.089478545
7	0x3d3305c0	0.043706656
8	0x3d9c62be	0.07636021
9	0xbe1cec52	-0.15324524
10	0xbe2a537e	-0.16633412
11	0xbc839ba8	-0.016065434
12	0x3b7a3140	0.0038176328
13	0xbe320657	-0.17385231
14	0xbd9882aa	-0.07446797
15	0xbde312b3	-0.11087551
16	0x3cdbb268	0.02681847
17	0x3db64462	0.08899762
18	0xbe1dce80	-0.15410805
19	0xbe0f28d5	-0.1398042
20	0x3e43f7fd	0.19137569
21	0xbe49c6ab	-0.19704692
22	0x3d65d5bc	0.056112036
23	0x3ce65728	0.028117731
24	0x3e149911	0.14511515

weight f4 [25, 25]
0	0xbc490d00	-0.012271166
1	0x3dfbde66	0.122982785
2	0xbd608588	-0.054814845
3	0x3ddb35ca	0.10703619
4	0x3e08b15d	0.13348909
5	0xbe21647e	-0.15760991
6	0x3da9eeae	0.08297478
7	0x3e28abe1	0.16471817
8	0xbe0bd610	-0.13655877
9	0x3e2b47f1	0.16726662
10	0xbd939a3a	-0.07207151
11	0x3dad000a	0.08447273
12	0xbd4ed5c8	-0.050496846
13	0x3dcd3af2	0.100210086
14	0x3e0070e9	0.12543072
15	0xbba6a060	-0.005085036
16	0xbe4756fd	-0.19466777
17	0x3e1189b9	0.14212693
18	0x3e0fed85	0.1405545
19	0xbe424e18	-0.18975103
20	0xbe2142eb	-0.15748183
21	0xbc800a18	-0.015629813
22	0xbe2d58d7	-0.16928421
23	0x3e49b70f	0.19698738
24	0x3c70e700	0.014703512
25	0x3e0c0dc1	0.13677122
26	0x3e28a99f	0.16470955
27	0x3e3af199	0.18256225
28	0xbe3eb55f	-0.18623875
29	0x3d6e920c	0.05824475
30	0xbc338530	-0.010957047
31	0xbe342b63	-0.17594676
32	0xbdc083a7	-0.09400111
33	0x3d9cfb46	0.07665114
34	0x3d8b8d0a	0.068140104
35	0x3ded8206	0.11597066
36	0x3e0df5fb	0.13863365
37	0xbdc44f77	-0.09585469
38	0xbe172c40	-0.14762974
39	0x3e479e53	0.1949399
40	0x3d1e9840	0.038719416
41	0xbd9e95f7	-0.07743447
42	0xbbe709c0	-0.007050723
43	0xbe15b140	-0.14618397
44	0xbdcca570	-0.09992492
45	0xbd897dcc	-0.06713447
46	0x3e124d7b	0.14287369
47	0xbdfa460a	-0.1222039
48	0xbd7ced2c	-0.061749622
49	0x3dee58ca	0.11638029
50	0x3da7be06	0.08190541
51	0xbd883934	-0.06651536
52	0x3e33f5f1	0.17574288
53	0xbe0194f0	-0.12654471
54	0xbe415c45	-0.18882854
55	0xbe0318f6	-0.1280249
56	0xbd607580	-0.054799557
57	0x3e051811	0.12997462
58	0x3deaef9a	0.114714816
59	0xbd621b20	-0.05520165
60	0x3dafe89a	0.08589287
61	0x3d364c8c	0.044506595
62	0x3e131b8b	0.14365976
63	0xbc1db9e0	-0.009626836
64	0x3d315ae0	0.043299556
65	0x3e2e40b5	0.17016871
66	0xbc9ca250	-0.019120365
67	0x3e282671	0.16420914
68	0xbe430a95	-0.19047005
69	0xbe413c9a	-0.18870774
70	0xbd929cda	-0.07158823
71	0xbdbd8c27	-0.092552476
72	0x3bcdf840	0.006285697
73	0x3de48eb2	0.111600295
74	0xbd0a7d6c	-0.033811018
75	0xbdeeda47	-0.11662727
76	0x3ce37368	0.02776499
77	0xbc249fa0	-0.010047823
78	0x3db74962	0.089495435
79	0xbdd5aa4a	-0.10432871
80	0xbd9a9d5a	-0.07549544
81	0x3d8b998e	0.068163976
82	0x3c2d9f60	0.01059708
83	0xbd0e48e8	-0.034737498
84	0xbe2c5b08	-0.168316
85	0x3c68cc00	0.014208794
86	0x3d63f2c4	0.05565144
87	0x3d2c80c0	0.042114973
88	0x3bc3abc0	0.005971402
89	0xbe1e0cfd	-0.15434642
90	0x3cfaee90	0.030631334
91	0x3e2f91c1	0.17145444
92	0xbe41b0fb	-0.18915169
93	0x3d1b7434	0.037952617
94	0xbdc2b467	-0.09507065
95	0x3deaca3e	0.11464356
96	0xbde32a27	-0.11092024
97	0x3e3bb351	0.18330123
98	0x3c0432b0	0.0080687255
99	0xbdb1ae7a	-0.08675857
100	0x3d84b132	0.0647911
101	0xbd963ee0	-0.07336211
102	0x3d70c41c	0.058780774
103	0xbe2dd94b	-0.16977422
104	0x3e091a8f	0.13389038
105	0x3d34bfa8	0.04412809
106	0x3dfae362	0.12250401
107	0x3cfcbda8	0.030852154
108	0x3d4dfc64	0.050289527
109	0x3daa8022	0.08325221
110	0x3c865e40	0.016402364
111	0x3db53696	0.08848302
112	0xbda78cba	-0.08181138
113	0xbe29c296	-0.16578135
114	0xbdb6040a	-0.08887489
115	0x3d86e7ce	0.06587182
116	0xbe4afa23	-0.19821982
117	0xbdf2810a	-0.118410185
118	0xbc038330	-0.008026883
119	0x3d245b54	0.04012616
120	0x3cdb5bc0	0.026777148
121	0x3e0ab851	0.13546874
122	0x3d46aa54	0.04850228
123	0xbdca8a17	-0.0988962
124	0x3e01aa6d	0.12662669
125	0xbe123aed	-0.14280291
126	0x3d3912d8	0.045183986
127	0x3dcb568e	0.09928618
128	0xbd6e02d4	-0.058108166
129	0xbd788ea0	-0.060682893
130	0x3dee4796	0.11634748
131	0xbe326c0b	-0.17424028
132	0x3da5ec8a	0.08101757
133	0xbe3d035d	-0.18458314
134	0xbd19de6c	-0.037565634
135	0xbd7b14a0	-0.061298966
136	0xbe21f1b0	-0.15814853
137	0xbdeffda0	-0.11718297
138	0xbdd72df7	-0.10506814
139	0xbe0714f4	-0.13191587
140	0x3e368969	0.17825855
141	0xbd935e26	-0.07195692
142	0x3e27cd45	0.16386898
143	0xbba12340	-0.004917532
144	0x3df3de72	0.119076625
145	0xbda34cd7	-0.079736404
146	0x3cdd2340	0.026994348
147	0xbba90200	-0.005157709
148	0xbda0a11a	-0.07843228
149	0xbe232e83	-0.15935712
150	0xbdc53657	-0.09629505
151	0x3d313840	0.043266535
152	0x3de78f32	0.11306609
153	0x3de42fb6	0.11141913
154	0xbd5e9674	-0.054342702
155	0x3e21b1c1	0.15790464
156	0x3d750dd4	0.05982764
157	0xbd9279bc	-0.07152125
158	0x3e3382d1	0.17530371
159	0x3cbcf300	0.02306509
160	0x3deffa12	0.11717619
161	0xbdeb2983	-0.11482527
162	0xbe03d058	-0.12872446
163	0x3e1823a9	0.14857353
164	0xbdae4ae3	-0.08510377
165	0xbd0ff4f8	-0.03514573
166	0xbe368845	-0.1782542
167	0xbcd046c0	-0.025424361
168	0x3d86b0f2	0.065767184
169	0x3c4e1080	0.012577176
170	0xbe23961d	-0.15975232
171	0x3d98bffa	0.074584916
172	0x3cc91980	0.024548292
173	0x3dc280ee	0.09497248
174	0x3cdd3870	0.02700445
175	0x3d7fa4b4	0.062412933
176	0xbcf63098	-0.030052468
177	0xbda1edd7	-0.079066925
178	0x3e1e0689	0.1543218
179	0xbc9e3e68	-0.019316867
180	0xbb8525c0	-0.004063338
181	0xbdecd243	-0.11563542
182	0x3df4056e	0.11915098
183	0xbe08d0ed	-0.13360949
184	0xbd60c0d8	-0.05487141
185	0xbd2eb254	-0.042650536
186	0xbda2193a	-0.07914968
187	0x3e21b061	0.1578994
188	0xbdd633f0	-0.10459125
189	0xbdf12ac3	-0.11775734
190	0xbd8a9f9a	-0.06768723
191	0x3e281ac5	0.16416462
192	0x3e2db6bb	0.16964237
193	0xbdf949ed	-0.12172303
194	0xbd37a3b4	-0.044833854
195	0x3defe922	0.117143884
196	0xbcceaf30	-0.02523002
197	0xbd573bc0	-0.052547216
198	0x3d8e86ea	0.069593266
199	0xbcf12918	-0.02943854
200	0xbe2793b6	-0.16364941
201	0xbd6a5698	-0.05721149
202	0xbd33d6a0	-0.043905854
203	0x3d452df8	0.048139542
204	0x3e1bd2e9	0.15217175
205	0x3e0b0d0d	0.13579197
206	0xbe301b92	-0.17198017
207	0xbe07f825	-0.13278253
208	0xbdef61da	-0.116885856
209	0xbdd36b1d	-0.103231646
210	0xbcb91418	-0.02259259
211	0x3cc65110	0.024208575
212	0xbdc9effd	-0.09860227
213	0x3e0211b9	0.12702073
214	0xbdd2bb23	-0.102896
215	0x3bce8660	0.00630264
216	0x3d83e86e	0.06440817
217	0xbe34ed3f	-0.17668627
218	0x3aa99580	0.0012938231
219	0xbe225188	-0.15851414
220	0xbe01e74d	-0.1268589
221	0x3ddc2daa	0.10750897
222	0x3d52495c	0.051339492
223	0x3e3b79f9	0.18308248
224	0x3d63cc5c	0.055614814
225	0x3e452fd9	0.19256534
226	0xbe3dd93b	-0.18539898
227	0x3e0e2ce9	0.1388432
228	0xbdde55ba	-0.10856195
229	0x3cb220c0	0.021744132
230	0x3e338723	0.1753202
231	0xbd08512c	-0.033280537
232	0x3e3e294d	0.18570442
233	0x3d3b0a54	0.045664147
234	0x3da09de2	0.07842614
235	0x3b19a540	0.0023444444
236	0x3de949a2	0.113909975
237	0xbda28113	-0.07934775
238	0xbe468d27	-0.19389783
239	0xbc8b2870	-0.016987056
240	0x3e052c21	0.13005115
241	0xbdf298d3	-0.11845555
242	0x3e1481c9	0.14502634
243	0x3e096101	0.1341591
244	0xbde24113	-0.11047568
245	0xbe2894b0	-0.1646297
246	0xbe24cc13	-0.16093473
247	0xbda2af0d	-0.079435445
248	0x3e1ab55f	0.1510825
249	0x3dc79e36	0.09746973
250	0x3e341d55	0.17589314
251	0xbd903134	-0.07040635
252	0xbe303217	-0.17206608
253	0x3e07956b	0.13240592
254	0xbcefde98	-0.029280946
255	0xbe20c946	-0.1570178

bias f4 [25]
0	0x3e3f1de9	0.18663754
1	0xbcd90f70	-0.026496619
2	0x3d71d0cc	0.059037015
3	0xbd29b02c	-0.041427776
4	0xbdd28e97	-0.10281103
5	0x3e3dac1d	0.18522687
6	0x3d399828	0.045311123
7	0x3e001fbf	0.1251211
8	0xbcc2a140	-0.02375853
9	0x3d898716	0.06715219
10	0x3e469b2b	0.1939513
11	0xbe1cc19d	-0.15308233
12	0x3dcec982	0.10097028
13	0x3bba3160	0.0056821555
14	0x3e260cc3	0.16215806
15	0xbcca6f00	-0.024711132
16	0xbdc879ea	-0.09788878
17	0x3ddf9622	0.109173074
18	0xbb90d100	-0.004419446
19	0xbe1e6ae2	-0.1547046
20	0x3e001ef9	0.12511815
21	0xbd8c3114	-0.068452984
22	0xbd86904c	-0.06570491
23	0xbe4bf7c3	-0.19918732
24	0x3ad50b00	0.0016253889

weight f4 [4, 25]
0	0x3e44c6b3	0.19216423
1	0xbdebe44a	-0.11518152
2	0x3e109eb3	0.14123039
3	0xbe4511c2	-0.19245055
4	0xbdb3cda3	-0.087794565
5	0xbe25d65d	-0.16195054
6	0xbdd636c3	-0.10459664
7	0x3b873100	0.0041257143
8	0x3e1b581b	0.15170328
9	0x3c7fd8e0	0.015615672
10	0xbe2a3b80	-0.1662426
11	0xbd40ff6c	-0.04711859
12	0x3e27a051	0.1636975
13	0xbc2cb780	-0.010541797
14	0x3dada9b2	0.084796324
15	0x3e20d189	0.15704931
16	0xbddf43bd	-0.10901592
17	0xbda24607	-0.07923513
18	0xbdfa00d7	-0.122071914
19	0x3e4616cd	0.19344635
20	0x3e336aab	0.1752116
21	0xbae94180	-0.001779601
22	0x3d035ccc	0.03207092
23	0xbc6378b0	-0.013883755
24	0x3de85faa	0.113463715
25	0xbd68e5cc	-0.056859776
26	0x3dc16fa2	0.094451204
27	0x3e258bf9	0.16166677
28	0xbdae90e0	-0.085237265
29	0xbe220650	-0.1582272
30	0xbda5187a	-0.08061309
31	0x3dd39932	0.10331954
32	0xbe25144b	-0.16121022
33	0xbd0abdac	-0.03387229
34	0x3a157300	0.0005701035
35	0x3dd25006	0.102691695
36	0xbe3b12ab	-0.1826884
37	0x3cc05c10	0.023481399
38	0xbe3cbffa	-0.18432608
39	0x3e00a335	0.12562259
40	0x3d950fce	0.07278405
41	0xbde1dfc3	-0.11029007
42	0xbd77c1e0	-0.060487628
43	0x3dd9a982	0.10628034
44	0xbc10ef20	-0.008846074
45	0x3c8c7258	0.017144367
46	0x3e26f14f	0.1630299
47	0x3c997f58	0.01873748
48	0x3c8734d8	0.01650469
49	0xbd8d2cb4	-0.06893292
50	0x3d9c0116	0.076173946
51	0x3d9aa16a	0.075503185
52	0x3cfcd1a8	0.03086169
53	0xbd633594	-0.055471018
54	0xbda16c9d	-0.078820445
55	0xbd083054	-0.033249214
56	0x3e429aa1	0.19004299
57	0xbdebebad	-0.11519561
58	0xbdc8f8b0	-0.098130584
59	0xbb2a3480	-0.0025971234
60	0x3e02a7b1	0.12759282
61	0x3d433d48	0.047665864
62	0xbe4afb3f	-0.19822405
63	0xbe2e594a	-0.17026249
64	0xbe1a75a0	-0.15083933
65	0x3e0f2513	0.13978986
66	0xbd9e0af0	-0.0771693
67	0xbe1a19b8	-0.15048873
68	0x3c0a2e50	0.008433893
69	0x3dddb792	0.10826029
70	0xbe1ccf9a	-0.15313569
71	0xbbfe98a0	-0.007769659
72	0x3d5df7a4	0.054191247
73	0x3cc6adb0	0.024252743
74	0x3b5e4740	0.003391698
75	0x3e455cdb	0.19273703
76	0xbde2cc70	-0.110741496
77	0xbd274678	-0.04083869
78	0xbdbfb25a	-0.0936019
79	0xbdec86d7	-0.11549156
80	0x3e2370f1	0.15961052
81	0x3d1bb954	0.03801854
82	0x3d4bc6d8	0.04975018
83	0x3e4c2689	0.19936575
84	0x3c3ffdd0	0.011718228
85	0xbe1a1380	-0.15046501
86	0x3e1306e3	0.14358096
87	0x3e137f4b	0.14404027
88	0x3dc18bd6	0.094505
89	0xbd84c460	-0.06482768
90	0xbca19ef0	-0.019729108
91	0x3dde7db2	0.10863818
92	0xbdcd4a47	-0.10023933
93	0xbdd1123d	-0.10208557
94	0x3c96ad00	0.01839304
95	0x3dfe40e2	0.12414719
96	0x3da1329e	0.078709826
97	0x3d95970e	0.07304202
98	0xbd8cdce4	-0.06878069
99	0x3e3a171d	0.1817288

bias f4 [4]
0	0x3c81e3e8	0.015855744
1	0x3e41fbdb	0.18943731
2	0xbdde4253	-0.10852494
3	0xbe1a638e	-0.1507704
