models/_brain_227.pt (torch, 14593 bytes, 12 tensors)

weight f4 [14]
0	0x3f800000	1.0
1	0x3f800000	1.0
2	0x3f800000	1.0
3	0x3f800000	1.0
4	0x3f800000	1.0
5	0x3f800000	1.0
6	0x3f800000	1.0
7	0x3f800000	1.0
8	0x3f800000	1.0
9	0x3f800000	1.0
10	0x3f800000	1.0
11	0x3f800000	1.0
12	0x3f800000	1.0
13	0x3f800000	1.0

bias f4 [14]
0	0x00000000	0.0
1	0x00000000	0.0
2	0x00000000	0.0
3	0x00000000	0.0
4	0x00000000	0.0
5	0x00000000	0.0
6	0x00000000	0.0
7	0x00000000	0.0
8	0x00000000	0.0
9	0x00000000	0.0
10	0x00000000	0.0
11	0x00000000	0.0
12	0x00000000	0.0
13	0x00000000	0.0

weight f4 [25, 14]
0	0x3da96e00	0.08272934
1	0x3e25c950	0.16190076
2	0xbe56902c	-0.20953435
3	0xbe80fc3b	-0.25192437
4	0x3d38fcd0	0.045162976
5	0xbde15f70	-0.110045314
6	0x3d89bc9c	0.067254275
7	0xbc996228	-0.018723562
8	0x3e587416	0.21138033
9	0xbe4fcb4d	-0.20292397
10	0x3e433f9c	0.19067234
11	0x3d3036e0	0.043021083
12	0xbd86fc76	-0.06591122
13	0xbc97de48	-0.01853861
14	0x3e82dbcd	0.2555832
15	0xbe6263eb	-0.22108428
16	0x3e650de2	0.22368577
17	0xbe591003	-0.21197514
18	0xbdbd2ef2	-0.0923747
19	0xbdef49a0	-0.11683965
20	0x3df284bc	0.11841723
21	0x3e78b262	0.24286798
22	0xbe6fcb89	-0.23417486
23	0xbdf53a14	-0.11973968
24	0xbe46e3f8	-0.194229
25	0x3d8c55ac	0.06852278
26	0x3e703e0e	0.23461172
27	0xbd28fa54	-0.041254357
28	0x3e59d770	0.21273589
29	0xbe872c27	-0.26400873
30	0x3db3aafc	0.08772847
31	0xbe31d034	-0.1736458
32	0xbda6948a	-0.081338
33	0x3e7252b2	0.23664358
34	0xbbe5a900	-0.0070086718
35	0x3c313800	0.010816574
36	0xbe08a6bc	-0.13344854
37	0x3e5b4300	0.21412277
38	0x3e686598	0.22695005
39	0x3e391914	0.18075973
40	0xbe52c219	-0.20581855
41	0x3ccac250	0.024750859
42	0x3e6ba4cc	0.23012084
43	0xbe097a45	-0.13425548
44	0x3c862660	0.01637572
45	0xbe4ce7b0	-0.20010257
46	0x3d620608	0.055181533
47	0x3cf59d90	0.029982358
48	0x3bb84740	0.005623728
49	0xbe78c4ae	-0.24293777
50	0x3cb09d00	0.021559238
51	0xbe4420a6	-0.1915308
52	0x3e6562c4	0.22400957
53	0xbdf0ecb2	-0.11763896
54	0x3cbf6ad0	0.023366362
55	0x3d3ac7f8	0.04560086
56	0x3e220ca4	0.15825135
57	0xbe0149c8	-0.12625802
58	0x3d80bb88	0.06285769
59	0x3d807378	0.06272024
60	0xbe534c43	-0.2063456
61	0x3c7cad40	0.015422165
62	0x3e165eda	0.1468462
63	0x3a656a00	0.0008751452
64	0xbd575938	-0.05257532
65	0xbe0b65e8	-0.13613093
66	0xbe37f4e6	-0.17964515
67	0xba805100	-0.0009789765
68	0xbde66838	-0.11250347
69	0xbd4f1a0c	-0.05056195
70	0x3e5e6c7c	0.21721071
71	0x3e13045e	0.14357135
72	0xbe536889	-0.20645346
73	0xbcf5f010	-0.030021697
74	0x3d5d91e0	0.054094195
75	0xbe1d69e4	-0.15372425
76	0x3d59e4f8	0.053196877
77	0x3cc01c80	0.02345109
78	0xbe4e769e	-0.20162436
79	0x3df0a5dc	0.11750385
80	0xbdf22f3e	-0.11825417
81	0x3e2f6a2c	0.17130345
82	0xbd041124	-0.03224291
83	0x3db5d618	0.08878726
84	0x3ccf49c0	0.025303721
85	0x3e764a1e	0.24051711
86	0x3e50d1ae	0.20392486
87	0xbe6800e6	-0.22656593
88	0xbdf91ebe	-0.12164067
89	0x3d0c6038	0.03427145
90	0xbe884e74	-0.26622355
91	0x3e68cf36	0.22735295
92	0x3e2090ee	0.15680286
93	0x3e6c9e0e	0.23107168
94	0xbd962ba0	-0.073325396
95	0xbe4b8914	-0.1987651
96	0x3d85e7d8	0.06538361
97	0xbd56c1e0	-0.052430987
98	0x3e4842fe	0.19556805
99	0x3d5e1288	0.05421689
100	0xbd533764	-0.051566496
101	0x3e061794	0.13094932
102	0x3c471b60	0.012152523
103	0x3e44e10a	0.1922647
104	0x3e7870f2	0.24261835
105	0xbdff8412	-0.12476362
106	0xbd4965d4	-0.049169376
107	0xbe50ca7e	-0.20389745
108	0xbe801386	-0.25014895
109	0x3e33506c	0.17511147
110	0xbdeb00e0	-0.11474776
111	0x3e4c6466	0.19960174
112	0xbe1ed996	-0.1551269
113	0xbd9dd35a	-0.07706328
114	0xbc69afe0	-0.014263123
115	0x3e3dda84	0.18540388
116	0x3e5336a2	0.2062631
117	0x3e2bc6bc	0.1677503
118	0x3e66411e	0.22485778
119	0xbdc4426c	-0.095829815
120	0xbe3b5f2c	-0.18298024
121	0x3dcccba0	0.09999776
122	0xbe80f0a6	-0.251836
123	0x3e86e5b9	0.2634714
124	0x3d322d60	0.043500304
125	0x3e34d6ac	0.17660016
126	0xbe060f9a	-0.13091889
127	0x3c2f9300	0.0107162
128	0x3e63ee26	0.22258815
129	0x3c571c40	0.013129294
130	0xbddbc9d2	-0.107318535
131	0xbe0434a5	-0.12910707
132	0xbdfe9e72	-0.12432565
133	0x3c87e4e0	0.016588628
134	0xbe24ea68	-0.16105044
135	0x3dbb1fe8	0.09136945
136	0x3d0e3c68	0.034725577
137	0xbe782899	-0.24234237
138	0x3e486816	0.19570956
139	0x3e0fef02	0.14056018
140	0x3e721372	0.2364023
141	0x3e61ffb8	0.22070205
142	0x3d05f220	0.03270161
143	0xbe4ab7f8	-0.19796741
144	0x3d96f724	0.07371357
145	0xbdd10904	-0.10206798
146	0xbc73eb00	-0.014887571
147	0x3d7581b8	0.059938163
148	0x3e822109	0.2541583
149	0xbd6d7a24	-0.05797781
150	0x3e840fe9	0.25793388
151	0xbe4052d3	-0.18781595
152	0xbdfb744e	-0.12278043
153	0x3db6f2c0	0.0893302
154	0x3db2cb34	0.08730164
155	0xbe4c3d38	-0.19945228
156	0x3e7e5de6	0.24840507
157	0xbd941288	-0.07230097
158	0x3d027f00	0.031859398
159	0xbdaf0e80	-0.085476875
160	0xbd23be90	-0.039976656
161	0xbdda2546	-0.106516406
162	0x3c9e9960	0.019360244
163	0xbcc5ec98	-0.024160668
164	0x3d3103a0	0.043216348
165	0x3bc12ac0	0.005894989
166	0xbd285ad0	-0.04110223
167	0xbde18660	-0.11011958
168	0xbe46d3a7	-0.19416676
169	0xbe71e2c8	-0.23621666
170	0xbda472f4	-0.08029738
171	0x3e349590	0.17635179
172	0xbe22c1f0	-0.15894294
173	0x3dbad7b4	0.09123173
174	0x3ddd3b94	0.10802379
175	0xbcae7950	-0.02129808
176	0x3e6c6ab0	0.23087573
177	0x3d3e7e80	0.04650736
178	0x3cd72110	0.026260883
179	0x3cb15b80	0.021650076
180	0x3db98870	0.090592265
181	0x3e35f8bc	0.17770666
182	0xbe0cf7a0	-0.13766336
183	0x3db91360	0.090368986
184	0xbe720a10	-0.23636651
185	0xbd8a5432	-0.0675434
186	0x3e661abc	0.22471136
187	0x3d878460	0.066170454
188	0xbba248c0	-0.00495252
189	0xbe55c71a	-0.20876732
190	0x3de4b758	0.111677825
191	0xbd819dd2	-0.0632893
192	0xbe5a7dd2	-0.21337059
193	0x3e6d3ff0	0.23168921
194	0x3e53ee04	0.20696265
195	0xbe6b0235	-0.2295006
196	0xbe4e2b60	-0.20133734
197	0x3e049fac	0.12951535
198	0x3e3eeca2	0.18644956
199	0x3e723412	0.23652676
200	0x3dfc02f4	0.12305251
201	0xbe1f64e5	-0.15565832
202	0x3d506ca8	0.050884873
203	0x3dd8b538	0.1058144
204	0xbe3e8de6	-0.18608817
205	0xbe2fbefa	-0.17162696
206	0xbc48d8e0	-0.012258738
207	0x3e289116	0.16461596
208	0xbe2478b2	-0.16061667
209	0xbe02e58a	-0.12782875
210	0xbe8162e5	-0.25270763
211	0xbe737c8c	-0.2377798
212	0xbd389f74	-0.04507394
213	0xbbfac500	-0.0076528788
214	0x3e0e1314	0.13874465
215	0x3e56e220	0.20984697
216	0x3e23f83c	0.16012663
217	0xbd91d082	-0.07119848
218	0x3df661bc	0.1203036
219	0xbc371c20	-0.011176139
220	0x3d0ac410	0.033878386
221	0xbe736eb5	-0.237727
222	0xbe17b627	-0.1481558
223	0xbe7a1c4d	-0.24424858
224	0x3e16c1f4	0.14722425
225	0x3e69f0f2	0.2284582
226	0x3d92d148	0.071688235
227	0xbd073644	-0.033010736
228	0x3e39658c	0.18105143
229	0xbd3917d0	-0.045188725
230	0x3dc37d94	0.095454365
231	0x3e4b3d10	0.19847512
232	0xbe170929	-0.14749588
233	0x3e747cfe	0.23875806
234	0xbe293cc2	-0.16527084
235	0xbcbcb3d0	-0.02303496
236	0xbdf19318	-0.11795634
237	0x3e5f8cc0	0.21831036
238	0xbdee31ce	-0.11630593
239	0x3e1b9cc2	0.15196517
240	0xbd3d03fc	-0.046146378
241	0x3e58f242	0.21186164
242	0xbe3ec9ac	-0.18631619
243	0xbdbe5e62	-0.09295346
244	0x3e46615c	0.19373077
245	0x3e0acdf6	0.1355513
246	0xbdfff1b6	-0.124972746
247	0x3e6a926a	0.22907415
248	0xbe39fd8d	-0.18163128
249	0x3c517b00	0.012785673
250	0x3bb73540	0.0055910647
251	0x3e13c0bc	0.14428991
252	0xbd058a50	-0.03260261
253	0x3e1434da	0.14473286
254	0xbe2eca9f	-0.17069481
255	0xbe06e7f1	-0.13174416

bias f4 [25]
0	0x3d33c9e8	0.043893725
1	0xbdbe60ce	-0.09295808
2	0x3c5e1ec0	0.013557136
3	0xbaabc900	-0.0013106167
4	0xbe3cd1a9	-0.18439354
5	0xbe840a5a	-0.25789148
6	0x3e4c6a96	0.19962534
7	0x3e65964e	0.22420618
8	0xbe65fdfa	-0.22460166
9	0x3e7a5ad2	0.24448708
10	0xbd34a0e8	-0.044098765
11	0x3e08380c	0.1330263
12	0xbe7ff2b1	-0.24994923
13	0x3e051150	0.12994885
14	0x3e084a0a	0.13309494
15	0x3e10ffd6	0.14160094
16	0x3e76de66	0.24108276
17	0x3c228480	0.009919286
18	0x3e0eee70	0.13958144
19	0xbdc02662	-0.09382321
20	0x3e66bfbc	0.22534078
21	0xbdc9f444	-0.09861043
22	0xbde431d8	-0.111423194
23	0x3dd41a94	0.10356632
24	0x3ca1e5c0	0.019762874

weight f4 [25, 25]
0	0xbda8b5cd	-0.08237801
1	0xbda71640	-0.08158541
2	0xbe258c4a	-0.16166797
3	0xbd8e458c	-0.06946859
4	0xbc916840	-0.017749906
5	0xbe0fa6a0	-0.14028406
6	0x3e373cc3	0.17894273
7	0x3d984fba	0.07437082
8	0xbe391dfa	-0.18077841
9	0xbd2ea18c	-0.04263453
10	0xbd9f4b60	-0.077780485
11	0x3e02fde7	0.12792169
12	0xbdddc4f7	-0.10828584
13	0x3ca06f80	0.019584417
14	0x3e22a791	0.15884234
15	0x3d34e58c	0.044164225
16	0xbd587b94	-0.05285223
17	0xbe37dd32	-0.17955473
18	0xbe27b38a	-0.16377082
19	0x3e43dda9	0.19127525
20	0x3deea8c2	0.11653282
21	0xbdf8522d	-0.12125049
22	0xbcf87de8	-0.030333474
23	0x3e31d7e3	0.1736751
24	0xbd53b160	-0.05168283
25	0xbdb45a2d	-0.08806262
26	0x3d8b330a	0.06796844
27	0x3d4f31bc	0.05058454
28	0x3ddafd2e	0.106928214
29	0x3d886566	0.06659965
30	0xbd5cc7a0	-0.053901315
31	0xbcfb9730	-0.03071174
32	0x3cb0b018	0.021568343
33	0xbd860e36	-0.06545679
34	0x3ddbfcfe	0.10741614
35	0x3dd0a0b2	0.101869
36	0x3de9af32	0.11410369
37	0x3dec583e	0.11540268
38	0x3e433361	0.19062568
39	0x3d136e08	0.035993606
40	0xbe3d0f30	-0.18462825
41	0xbdf314da	-0.118692115
42	0xbe0e681b	-0.139069
43	0x3b2af180	0.0026083887
44	0xbdcb9fba	-0.09942575
45	0xbd0accf8	-0.03388688
46	0xbe1b7ad3	-0.15183572
47	0xbdf1f173	-0.11813631
48	0xbe410650	-0.18850064
49	0x3e3be6c7	0.18349753
50	0x3d84931e	0.06473373
51	0xbdb1eac0	-0.08687353
52	0xbe2b674e	-0.16738626
53	0x3d01ccb8	0.031689376
54	0x3d514554	0.051091507
55	0x3d108a18	0.035287946
56	0xbe3cb3f0	-0.18428016
57	0x3e3bd481	0.18342783
58	0x3d98489e	0.07435726
59	0xbe3d4e8b	-0.18486993
60	0xbd3d9208	-0.046281844
61	0x3e0b7e07	0.13622294
62	0xbcc28918	-0.023747012
63	0x3c97ba18	0.018521354
64	0xbe3a0a78	-0.18168056
65	0x3d0997ec	0.03359215
66	0xbdc175b7	-0.094462804
67	0x3c89da50	0.016827732
68	0x3dde61b6	0.10858481
69	0xbd9d0657	-0.07667225
70	0x3d8ebf5a	0.06970091
71	0x3c26d150	0.01018174
72	0xbcd01258	-0.025399372
73	0x3b3426c0	0.0027488917
74	0xbd6622a8	-0.056185395
75	0x3bc61100	0.006044507
76	0x3cf16ec0	0.029471755
77	0x3df5c8f2	0.12001218
78	0x3d480c00	0.04883957
79	0x3e196ba9	0.14982475
80	0x3e4be633	0.19912033
81	0x3ce084e8	0.027407125
82	0xbcd70228	-0.026246145
83	0xbcbd1740	-0.023082376
84	0xbd9fbcdd	-0.07799695
85	0xbd3e4268	-0.04645005
86	0xbe3213d3	-0.17390375
87	0x3df8251a	0.121164516
88	0x3dc15cc2	0.0944152
89	0xbda97793	-0.0827476
90	0xbc942e00	-0.01808834
91	0xbd8fc350	-0.07019675
92	0xbe0a9658	-0.13533914
93	0x3c8291e8	0.015938714
94	0x3e0ecae9	0.13944592
95	0x3e0fb317	0.14033161
96	0x3e30ae17	0.1725391
97	0x3e447cdd	0.19188257
98	0xbdabf1ed	-0.08395753
99	0x3e0df811	0.13864161
100	0x3e1978f1	0.14987542
101	0x3db65b46	0.08904128
102	0x3df92172	0.12164582
103	0xbe03e8e2	-0.12881806
104	0x3e313eef	0.17309164
105	0xbd3b2298	-0.045687288
106	0x3d91c02e	0.071167335
107	0x3ca36268	0.019944385
108	0xbe087904	-0.13327414
109	0xbe2facd3	-0.17155771
110	0x3e2fb4a5	0.17158754
111	0x3e16b7b3	0.14718513
112	0x3c9f41d0	0.019440562
113	0x3e14e3e9	0.14540066
114	0xbc82a3d0	-0.015947253
115	0xbe0f9c20	-0.140244
116	0xbd29b700	-0.041434288
117	0x3db3c6f2	0.0877818
118	0x3d52dca4	0.05147995
119	0xbe381502	-0.17976764
120	0xbca8e658	-0.020617649
121	0xbc8c7f80	-0.01715064
122	0xbddef6aa	-0.10886891
123	0xbcd6f300	-0.026238918
124	0xbdca697a	-0.09883399
125	0x3cda4ff0	0.026649445
126	0xbdf1379a	-0.11778183
127	0x3d1edd54	0.038785294
128	0xbd363f78	-0.044494122
129	0x3d018d28	0.031628758
130	0x3dd32366	0.10309486
131	0xbd83212a	-0.0640281
132	0xbde64d5a	-0.112452224
133	0xbe337e97	-0.17528759
134	0xbd81447c	-0.063118905
135	0xbcea5c98	-0.028608605
136	0x3e1cf579	0.15328015
137	0x3e2bd61d	0.16780896
138	0x3ccc7040	0.024955869
139	0xbe2330d3	-0.15936594
140	0x3df19bea	0.11797316
141	0xbdbba96a	-0.091631725
142	0xbbbb21c0	-0.0057108104
143	0x3d3597ac	0.0443341
144	0x3da42842	0.08015491
145	0x3e0fbf39	0.1403779
146	0xbdcc2d80	-0.09969616
147	0x3e14b9d9	0.1452402
148	0xbdbc554d	-0.09195957
149	0xbe307c3d	-0.17234893
150	0xbe2f7ca8	-0.17137396
151	0x3dc41662	0.09574582
152	0x3e07a443	0.13246255
153	0xba604000	-0.00085544586
154	0x3df505ca	0.11963995
155	0xbd554e28	-0.05207649
156	0xbe3805ea	-0.17971006
157	0xbdd689e0	-0.10475516
158	0xbe0f725a	-0.14008465
159	0x3e37fcd9	0.17967547
160	0xbe241485	-0.16023453
161	0x3e07f0bf	0.13275431
162	0xbcbb1240	-0.02283585
163	0xbe48be2f	-0.196038
164	0xbd7f304c	-0.06230192
165	0xbe26de46	-0.16295728
166	0x3e04d1e5	0.12970693
167	0xbdaffb9a	-0.08592911
168	0xbdb0ea43	-0.08638432
169	0x3cf93e80	0.03042531
170	0x3df8b64e	0.12144147
171	0xbe470752	-0.19436386
172	0x3d9ced9a	0.076625064
173	0x3e26f60d	0.16304798
174	0xbd780368	-0.060550123
175	0xbe2168d5	-0.15762646
176	0x3d5fc70c	0.054633185
177	0xbbaaee40	-0.00521639
178	0xba36f800	-0.0006979704
179	0xbcab8090	-0.020935327
180	0xbdb20a50	-0.08693373
181	0x3e3cea9d	0.18448873
182	0xbc11c080	-0.008895993
183	0x3da2f9ee	0.079578266
184	0xbdad5e7a	-0.084652856
185	0x3e27e6b9	0.16396607
186	0xbe30730f	-0.17231391
187	0xbe1c136b	-0.15241782
188	0x3e43b3a9	0.19111504
189	0x3d8ff4ca	0.07029112
190	0xbe43d3af	-0.1912372
191	0xbdd13b4d	-0.10216389
192	0xbdc39c63	-0.09551313
193	0xbe20284e	-0.15640375
194	0x3dd656f2	0.10465802
195	0xbe1aa26a	-0.15101019
196	0xbbd15900	-0.0063887835
197	0xbd47edec	-0.048810884
198	0xbd5b0c88	-0.053478748
199	0xbd0578a0	-0.03258574
200	0xbe3ecf6f	-0.18633817
201	0xbe21bbe6	-0.15794334
202	0xbe4998ef	-0.19687246
203	0x3da14986	0.078753516
204	0x3ccac558	0.024752304
205	0xbe03f656	-0.12886938
206	0xbe0c8b40	-0.13724995
207	0x3e45dbf3	0.19322185
208	0xbe119ae0	-0.14219236
209	0xbd6af988	-0.057366878
210	0x3e41224b	0.18860738
211	0x3e33dc4b	0.17564504
212	0x3df41c56	0.11919467
213	0xbdb3852a	-0.087656334
214	0xbe1010ea	-0.14068952
215	0x3d9218d2	0.0713364
216	0xbdf597fa	-0.11991878
217	0x3d0748f4	0.033028558
218	0x3db7319a	0.089450076
219	0x3e3cd8b1	0.18442036
220	0xbe2a5e6a	-0.16637579
221	0x3dab47b6	0.08363287
222	0x3e11b8b5	0.14230616
223	0x3e222419	0.15834083
224	0xbe0e12ca	-0.13874355
225	0xbd969676	-0.07352917
226	0x3cf7c170	0.030243605
227	0xbe1a0dbd	-0.15044303
228	0xbe473abd	-0.19456
229	0x3d525204	0.051347747
230	0xbb545880	-0.0032401383
231	0x3dd2c96a	0.10292323
232	0x3e13eb93	0.14445333
233	0xbdfdf2ba	-0.12399812
234	0xbcd93880	-0.0265162
235	0xbe4355d8	-0.19075716
236	0xbd9eef03	-0.077604316
237	0xbdeb5ff0	-0.11492908
238	0xbd46a66c	-0.048498556
239	0xbd2978a8	-0.041374832
240	0xbcd4a610	-0.025958091
241	0xbdaa1f97	-0.083068065
242	0xbd4787c8	-0.048713475
243	0xbd980170	-0.07422149
244	0x3d1a1c00	0.03762436
245	0xbde990ba	-0.114045575
246	0xbcd415a8	-0.025889233
247	0x3d17ac28	0.037029415
248	0x3cfbafc0	0.030723453
249	0xbe0ca8e8	-0.13736308
250	0xbd59bf68	-0.053161055
251	0x3d258a74	0.040415242
252	0x3dc7b652	0.09751572
253	0x3cea7eb0	0.028624862
254	0x3d3163f8	0.04330823
255	0xbe4ccb5b	-0.19999449

bias f4 [25]
0	0x3e3dfbff	0.1855316
1	0x3d6c9f7c	0.057769284
2	0x3e47a669	0.19497074
3	0x3dec337a	0.11533256
4	0x3e29b7f5	0.1657408
5	0xbdc655da	-0.09684344
6	0x3c988a98	0.018620774
7	0x3e051731	0.12997128
8	0x3e246b7d	0.16056629
9	0xbe424e25	-0.18975122
10	0x3db265a6	0.08710794
11	0xbe2bf33b	-0.16792004
12	0x3e1a7f3f	0.15087603
13	0xbbd82100	-0.006595731
14	0xbdc39897	-0.095505886
15	0x3d07cdb8	0.033155173
16	0xbde3cefa	-0.11123462
17	0xbd8a0ba6	-0.06740503
18	0x3e2d0c6b	0.16899268
19	0x3d1bc538	0.03802988
20	0x3cd92398	0.02650623
21	0xbdd96ed7	-0.10616844
22	0xbe05885c	-0.13040298
23	0x3e128881	0.14309885
24	0xbdca24a3	-0.09870269

weight f4 [25, 25]
0	0xbd4ae0a8	-0.049530655
1	0xbdb91f77	-0.090392046
2	0x3dc07d56	0.09398906
3	0x3d18c74c	0.03729944
4	0xbd708358	-0.05871901
5	0x3bf14ea0	0.007364109
6	0xbe134576	-0.14381966
7	0xbe22c2b5	-0.15894587
8	0xbdff2d50	-0.124598145
9	0x3e12e111	0.14343669
10	0x3e26f7b1	0.16305424
11	0xbe2da762	-0.16958383
12	0xbd134ca8	-0.035961777
13	0xbcb48c50	-0.022039562
14	0xbcf52f50	-0.029929787
15	0xbdb285bd	-0.08716915
16	0xbe3e2de7	-0.18572198
17	0xbe14fd36	-0.14549717
18	0x3d9f81e2	0.07788445
19	0x3e02f8db	0.12790243
20	0xbe2cb87b	-0.16867249
21	0x3d8c292e	0.06843792
22	0xbd363dc8	-0.044492513
23	0x3e109847	0.14120589
24	0x3dbe5902	0.09294321
25	0x3dcb18e2	0.099168554
26	0xbd62d4ec	-0.05537884
27	0x3deaf59a	0.11472626
28	0xbe3139f5	-0.17307265
29	0xbe1e18ed	-0.15439196
30	0x3de8586e	0.113449916
31	0xbddb906d	-0.107209064
32	0x3dae8752	0.08521904
33	0x3e1bf523	0.15230231
34	0x3b99f9a0	0.004698947
35	0x3df77b32	0.120840445
36	0xbe3927d5	-0.18081601
37	0xbbe6d5c0	-0.007044524
38	0x3dcdce2a	0.10049088
39	0xbe44d60b	-0.19222276
40	0x3e06a3eb	0.13148467
41	0x3a157e00	0.00057026744
42	0x3e1dad91	0.15398242
43	0xbdad7460	-0.084694624
44	0xbe4adbf3	-0.19810466
45	0xbe0e6d35	-0.13908847
46	0x3e3a6d0d	0.18205662
47	0xbda347fa	-0.07972713
48	0x3d83bd16	0.0643255
49	0x3cdbacf0	0.026815861
50	0xbbdbc860	-0.006707236
51	0xbd82cdaa	-0.063868836
52	0xbe02cce5	-0.12773474
53	0x3cc4d5f0	0.024027795
54	0x3cf5bd70	0.029997557
55	0x3d115a34	0.035486415
56	0xbe10f4e5	-0.1415592
57	0xbdd89e27	-0.1057704
58	0xbde3148a	-0.11087902
59	0xbd6b63f4	-0.05746837
60	0x3dcb35a2	0.09922339
61	0xbdec3190	-0.11532891
62	0xbd268020	-0.040649533
63	0x3e15a717	0.14614521
64	0xbe0f368a	-0.13985649
65	0xbd2a8b88	-0.041636974
66	0x3e050397	0.1298965
67	0xbd96c9c6	-0.07362704
68	0xbd6c18a0	-0.05764067
69	0x3dff8e42	0.124783054
70	0xbe1ad7ed	-0.15121432
71	0xbd227780	-0.039664745
72	0xbe09130c	-0.13386172
73	0x3e038fa9	0.12847771
74	0xbc72eeb0	-0.014827415
75	0xbd228eec	-0.039687082
76	0xbdc1d93a	-0.09465261
77	0xbd9cfc90	-0.0766536
78	0x3e3f348f	0.18672393
79	0xbe4b683d	-0.19863982
80	0x3e2aeb0f	0.1669123
81	0xbd18894c	-0.03724031
82	0xbcd4cec0	-0.025977492
83	0x3e07f51d	0.13277097
84	0xbe2f5192	-0.1712096
85	0xbd406d60	-0.046979308
86	0x3da5418e	0.08069144
87	0xbde171fa	-0.110080674
88	0xbdfe4a5a	-0.12416525
89	0x3dbee312	0.09320654
90	0x3c823140	0.015892625
91	0x3e2acd73	0.16679935
92	0xbe2bf480	-0.16792488
93	0x3cdfa600	0.027300835
94	0xbde6d7b3	-0.1127161
95	0xbddd388d	-0.10801802
96	0xbdc0d443	-0.09415486
97	0xbe467942	-0.19382194
98	0xbcc8b998	-0.02450256
99	0xbe39e6e0	-0.18154478
100	0x3e142161	0.14465858
101	0x3e14a899	0.1451744
102	0x3e42d38d	0.19026013
103	0x3ca8b170	0.020592421
104	0xbe3e186a	-0.18564
105	0x3e2994d5	0.16560681
106	0x3e25d933	0.16196136
107	0x3e2f91ad	0.17145415
108	0x3d6b92c4	0.057513013
109	0xbdcd3160	-0.10019183
110	0xbdb90983	-0.09035017
111	0xbe122e7d	-0.14275546
112	0x3d80eae6	0.06294803
113	0x3cc2ab28	0.023763254
114	0x3e3b748f	0.18306182
115	0xbb348380	-0.00275442
116	0x3d0112ec	0.031512186
117	0x3e0927c9	0.13394083
118	0x3d855c9a	0.06511803
119	0x3c8a7be8	0.016904786
120	0x3dc0b71a	0.09409924
121	0x3e1a353d	0.15059371
122	0xbe4c6b27	-0.1996275
123	0xbe1157d0	-0.14193654
124	0x3d820092	0.06347765
125	0x3bd889a0	0.006608203
126	0xbe45444a	-0.19264331
127	0xbe230e00	-0.1592331
128	0x3e3f3513	0.1867259
129	0x3e2f9381	0.17146112
130	0xbd61cccc	-0.05512695
131	0x3d580fbc	0.05274938
132	0xbe3ba9c7	-0.18326484
133	0xbe0a7442	-0.13520911
134	0xbe433252	-0.19062164
135	0xbe4b82bd	-0.19874091
136	0xbe138806	-0.14407358
137	0xba80e580	-0.0009834021
138	0x3e48a16d	0.19592829
139	0x3d9a8696	0.075452015
140	0xbe267838	-0.16256797
141	0x3e4bba81	0.19895364
142	0xbe02f13e	-0.12787339
143	0x3de3e55a	0.1112773
144	0xbdda9567	-0.106730275
145	0xbe14c0c0	-0.14526653
146	0x3db35de2	0.08758141
147	0x3e0284e9	0.12746014
148	0x3e0f4a21	0.13993122
149	0xbdce1c23	-0.100639604
150	0xbda2511d	-0.079256274
151	0x3e437c0b	0.19090287
152	0x3dbca952	0.09211983
153	0x3dc1bd52	0.09459938
154	0x3e2b1d31	0.16710354
155	0xbe133c38	-0.1437844
156	0xbd872ddc	-0.06600544
157	0xbc85dd30	-0.016340822
158	0xbc8371b0	-0.016045421
159	0xbe370dcb	-0.17876355
160	0xbcac3468	-0.021021083
161	0xbe27e53b	-0.16396038
162	0xbd8a5250	-0.06753981
163	0xbdbbef7d	-0.09176538
164	0x3d583414	0.05278404
165	0xbe163438	-0.14668357
166	0x3dcd7a6a	0.10033114
167	0x3e48573d	0.19564529
168	0x3d2fa474	0.042881444
169	0x3dba3386	0.090918586
170	0xbd9bc32a	-0.07605584
171	0x3df07c96	0.11742513
172	0x3da83a9a	0.08214302
173	0x3d2ce5ac	0.04221122
174	0xbe1406da	-0.14455739
175	0x3e0afedf	0.13573788
176	0x3d503c54	0.050838783
177	0xbe09cd26	-0.13457164
178	0xbe30ce5d	-0.17266221
179	0x3e16f4b9	0.14741792
180	0x3e139723	0.14413123
181	0xba8fb680	-0.0010964423
182	0x3d259ed4	0.040434673
183	0xbbbff800	-0.0058584213
184	0x3dd90f22	0.105985895
185	0xbd944396	-0.072394535
186	0xbc9300d8	-0.017944738
187	0x3d50c9dc	0.050973758
188	0xbd9050b4	-0.07046643
189	0x3e0ce529	0.13759293
190	0xbdfbfec0	-0.12304449
191	0x3d0623ec	0.0327491
192	0x3d3d85a8	0.046270043
193	0x3e0bb741	0.13644125
194	0x3e4c13a7	0.19929372
195	0xbda3687d	-0.07978914
196	0x3da270d2	0.07931675
197	0xbe3b25a3	-0.18276076
198	0x3b2e18c0	0.0026565045
199	0xbd006458	-0.031345695
200	0x3da8f88e	0.08250533
201	0x3e37e489	0.17958273
202	0x3da1a83a	0.07893415
203	0xbdfe2c7d	-0.12410829
204	0x3cb34ca8	0.021887138
205	0x3e15d823	0.14633231
206	0x3ccba168	0.024857238
207	0xbd2cf654	-0.042227104
208	0x3c39ec50	0.011347845
209	0x3e1f1061	0.15533592
210	0x3e190539	0.14943399
211	0xbd28b4c0	-0.041188
212	0xbdc5b253	-0.09653153
213	0x3dc0a1fe	0.094058976
214	0x3cff2818	0.031147048
215	0x3e093ac1	0.13401319
216	0x3deb2b12	0.114828244
217	0xbe094525	-0.13405283
218	0x3e17370b	0.14767091
219	0xbd41d38c	-0.047320887
220	0x3e264267	0.16236268
221	0x3d0644b8	0.03278038
222	0xbe1a4cd8	-0.15068376
223	0xbd2388ac	-0.039925262
224	0xbd959614	-0.07304016
225	0x3d0fcf38	0.03510973
226	0xbd031640	-0.03200364
227	0x3d57e6a4	0.05271019
228	0x3a978000	0.0011558533
229	0x3db9be6a	0.09069522
230	0xbd3cda20	-0.046106458
231	0x3ded2db2	0.11580981
232	0x3e308ff9	0.17242421
233	0xbe43db82	-0.19126704
234	0x3da41462	0.080117
235	0x3bae5440	0.005320102
236	0x3d57de6c	0.052702352
237	0xbb4d2080	-0.003129989
238	0xbe2655b8	-0.16243637
239	0xbdd6a74d	-0.10481129
240	0x3d077eec	0.033080027
241	0x3e40cc39	0.18827905
242	0x3c795d80	0.015220046
243	0xbd0156e8	-0.03157702
244	0x3e024a89	0.12723745
245	0xbe0d9a55	-0.13828404
246	0xbc9dfc00	-0.019285202
247	0x3d9d5566	0.07682304
248	0x3b2f3980	0.0026737154
249	0xbdf76f43	-0.12081768
250	0x3d3c9b54	0.04604657
251	0xbcbab430	-0.022790998
252	0xbdd8eebd	-0.10592411
253	0x3d51bc8c	0.051205203
254	0x3e296267	0.16541444
255	0x3deda9f2	0.1160468

bias f4 [25]
0	0x3dabfcf2	0.08397855
1	0xbcefcbd0	-0.02927199
2	0xbcecb290	-0.028893739
3	0x3e0a6729	0.13515915
4	0xbe21d542	-0.15804008
5	0xbe26a943	-0.16275506
6	0x3d3d3c2c	0.046199962
7	0xbe458a1a	-0.19290963
8	0xbdcfd8a0	-0.1014874
9	0x3d8b693e	0.06807183
10	0x3e40a43b	0.18812649
11	0xbd30ad58	-0.043134063
12	0x3dc2acce	0.09505616
13	0xbcb67a40	-0.02227509
14	0xbdd6ad63	-0.1048229
15	0xbe074272	-0.1320894
16	0x3e2f2ecf	0.171077
17	0xbd810f2a	-0.063017204
18	0xbd10a154	-0.035310104
19	0xbd7a2cf8	-0.06107804
20	0x3cd2eed0	0.02574864
21	0xbe0ab0e8	-0.13544047
22	0x3d3b3728	0.045706898
23	0x3d264e8c	0.040602252
24	0x3ab4f400	0.0013805628

weight f4 [25, 25]
0	0x3b267c00	0.00254035
1	0xbe2cbe5a	-0.16869488
2	0xbd8326b0	-0.064038634
3	0x3b903860	0.0044012517
4	0x3df85602	0.1212578
5	0xbad72580	-0.0016414374
6	0x3d1380d8	0.036011547
7	0xbc3cd360	-0.011525005
8	0x3d75ff5c	0.060057983
9	0x3d73008c	0.059326693
10	0x3e1ab5dd	0.15108438
11	0x3bfa6340	0.007641226
12	0xbddb4acd	-0.107076265
13	0xbd9d7757	-0.07688778
14	0xbd6c5728	-0.057700306
15	0x3d9d8b7a	0.07692619
16	0x3c32c160	0.010910362
17	0x3e0d8941	0.1382189
18	0x3e234c61	0.15947105
19	0xbe3248e0	-0.17410612
20	0xbdf2ae7d	-0.11849687
21	0x3e0dd7b5	0.13851817
22	0xbe0c8a5c	-0.13724655
23	0xbbec9440	-0.007219821
24	0x3d63e124	0.055634633
25	0x3e498773	0.19680576
26	0xbe2b6bb2	-0.16740301
27	0x3cb7c2e8	0.022431806
28	0x3e0be7a7	0.13662587
29	0xbbed6540	-0.007244736
30	0xbe0799b2	-0.13242224
31	0xbe274dc6	-0.16338262
32	0x3d85be26	0.065304086
33	0xbdd5fb7a	-0.10448356
34	0x3e0f13ad	0.1397235
35	0xbe11a51e	-0.14223143
36	0xbdcf7197	-0.101290874
37	0xbd4ebde0	-0.050474048
38	0xbdea3ead	-0.11437736
39	0xbda7a393	-0.08185496
40	0xbcfe76e8	-0.031062558
41	0x3e002af9	0.12516393
42	0x3d0feec0	0.0351398
43	0xbcec8d90	-0.028876096
44	0xbdf3beb3	-0.11901607
45	0xbe0b9240	-0.13630009
46	0x3e47bf09	0.19506468
47	0xbe3b8350	-0.1831181
48	0xbdfa559d	-0.12223361
49	0xbe007cfc	-0.12547678
50	0xbe2b2455	-0.16713078
51	0x3e2a041d	0.16603132
52	0xbcaa35d0	-0.020777613
53	0x3d7e31c4	0.06205918
54	0x3dfc9802	0.12333681
55	0x3e410dc9	0.18852915
56	0x3e0da379	0.13831891
57	0xbe151cb0	-0.14561725
58	0xbc94a6e8	-0.018145993
59	0x3df4abca	0.11946829
60	0xbe16f4d0	-0.14741826
61	0x3e3d88cb	0.18509214
62	0xbdc5fd63	-0.0966747
63	0x3d877cca	0.066155985
64	0xbe490d00	-0.19633865
65	0xbdcc20bd	-0.09967182
66	0xbd974404	-0.0738602
67	0xbe007b52	-0.12547043
68	0x3dcfbdb6	0.10143606
69	0xbe255313	-0.16144972
70	0xbe0bb670	-0.13643813
71	0x3dfe2d96	0.124110386
72	0x3e1543e9	0.14576687
73	0xbc573720	-0.013135701
74	0x3ce79458	0.028268978
75	0x3d81d29e	0.06339
76	0xbd145ae0	-0.036219478
77	0xbe311ced	-0.1729619
78	0x3e1e35b3	0.15450172
79	0x3df3197a	0.11870094
80	0x3d8e8c1e	0.06960319
81	0xbd578cac	-0.05262439
82	0x3e0ab8f1	0.13547112
83	0xbdf09610	-0.11747372
84	0xbd8594d6	-0.06522529
85	0x3d0b63d8	0.034030765
86	0xbd143948	-0.03618744
87	0xbde7d9f7	-0.1132087
88	0x3e0abdb9	0.13548936
89	0x3db74966	0.089495465
90	0xbe076756	-0.13223013
91	0xbe4813e8	-0.19538844
92	0x3e4c90b1	0.1997707
93	0x3c7f6e30	0.015590236
94	0x3d925b92	0.07146372
95	0xbd4ca800	-0.049964905
96	0xbd924270	-0.07141578
97	0xbe391e6f	-0.18078016
98	0xbdc1220d	-0.09430323
99	0x3e06a9a5	0.13150652
100	0x3e3ea207	0.18616496
101	0x3be97f40	0.007125765
102	0xbe021870	-0.12704635
103	0xbdc0ddd7	-0.094173126
104	0xbd8c6616	-0.06855409
105	0x3b5f6cc0	0.003409192
106	0xbd694234	-0.0569479
107	0x3d40d3b8	0.04707691
108	0xbe1d75b6	-0.15376934
109	0xbd9ba11d	-0.07599089
110	0xbe07de04	-0.13268286
111	0xbdd44eb0	-0.10366571
112	0xbd81d62c	-0.06339678
113	0xbe1251b2	-0.14288977
114	0xbd23fc18	-0.040035337
115	0xbd990826	-0.07472257
116	0xbe23271b	-0.15932886
117	0xbdd26213	-0.102726124
118	0x3e2c1e79	0.168085
119	0xbe484bea	-0.19560209
120	0x3e3b0d09	0.18266691
121	0x3c5ba1a0	0.013405234
122	0x3e390717	0.18069111
123	0xbd995c44	-0.074883014
124	0xbdbae287	-0.09125238
125	0x3d9a53aa	0.07535489
126	0x3c8f5c30	0.017500013
127	0x3e1915f1	0.14949776
128	0x3dbe937a	0.09305473
129	0x3cd22900	0.025654316
130	0xbe40cc4a	-0.1882793
131	0xbdf598e0	-0.11992049
132	0xbdcb463d	-0.09925506
133	0xbdef7af3	-0.116933726
134	0xbbf36bc0	-0.0074286163
135	0x3de48cce	0.11159669
136	0xbc914e28	-0.017737463
137	0xbd0dce8c	-0.034620807
138	0x3da82952	0.08211006
139	0x3d1379ac	0.036004707
140	0xbe0bb3d5	-0.13642819
141	0xbde64f87	-0.112456374
142	0xbd6f9c74	-0.058498815
143	0x3d5ba5bc	0.053624853
144	0x3e136729	0.14394821
145	0x3d9835ba	0.074321225
146	0xbe47f332	-0.19526365
147	0x3dce2d9a	0.100672916
148	0xbd91ea2a	-0.071247414
149	0xbd9269c4	-0.071490794
150	0x3da4c75a	0.08045836
151	0xbd97f09c	-0.074189395
152	0xbe30369b	-0.1720833
153	0xbd9180b6	-0.07104628
154	0x3d5e0e5c	0.054212913
155	0x3dc0cc3e	0.09413956
156	0x3e05ddc1	0.13072874
157	0x3d84065a	0.06446524
158	0x3e34f0f1	0.17670037
159	0xbd532d08	-0.051556617
160	0x3d27a1a0	0.040925622
161	0xbe30f350	-0.17280316
162	0xbc9b7068	-0.018974498
163	0x3d70cee4	0.058791056
164	0xbe41ad05	-0.18913658
165	0xbe25b7bb	-0.16183369
166	0x3e0633ff	0.13105772
167	0xbd206b58	-0.03916487
168	0x3d7df4a4	0.062000886
169	0x3e199aaf	0.15000413
170	0x3dd6713e	0.10470818
171	0xbcaeea40	-0.021351933
172	0xbde3a1ea	-0.11114867
173	0xbdc27907	-0.094957404
174	0xbe3f8ee5	-0.18706854
175	0x3e1ea7b5	0.15493663
176	0xbe076c85	-0.1322499
177	0xbdb6af50	-0.08920157
178	0xbd81e81a	-0.06343098
179	0x3e34b66d	0.17647715
180	0xbdfd9b37	-0.123831205
181	0x3d821a8a	0.06352718
182	0x3da3621a	0.07977696
183	0xbcf357d8	-0.029704973
184	0x3e052a07	0.13004313
185	0xbe18385e	-0.14865252
186	0xbe39dfc8	-0.18151772
187	0x3c684b60	0.014178127
188	0x3e0308b3	0.12796287
189	0x3e383a5b	0.17991011
190	0x3e01980b	0.12655656
191	0xbd5636ac	-0.052298233
192	0x3c3de9e0	0.011591405
193	0xbd6f7f28	-0.058470875
194	0x3d11ded8	0.03561291
195	0xbe2cc41a	-0.16871682
196	0x3bc8bba0	0.0061258823
197	0xbe0afa64	-0.13572079
198	0xbcfcb300	-0.030847073
199	0x3e43c419	0.19117774
200	0x3df54a52	0.11977066
201	0xbd6f1bac	-0.058376
202	0x3da61d92	0.08111109
203	0x3dcb5632	0.0992855
204	0x3da0eeea	0.07858069
205	0x3e27b9ef	0.16379522
206	0x3df131a6	0.11777048
207	0xbdf8ab87	-0.12142091
208	0x3e34acbf	0.17644022
209	0x3e23fcf9	0.1601447
210	0x3cace150	0.021103531
211	0xbd49e214	-0.04928787
212	0xbddb4d07	-0.10708051
213	0xbe37e498	-0.17958295
214	0x3ddfcc32	0.10927619
215	0xbe171ded	-0.1475751
216	0xbb44f580	-0.0030053556
217	0x3d8be3b2	0.06830539
218	0x3c6c01a0	0.014404684
219	0x3e1e1501	0.154377
220	0x3d84465a	0.06458731
221	0x3c1a9f00	0.009437323
222	0xbd358bd8	-0.04432282
223	0xbe3290d8	-0.17438066
224	0xbdf4c5d7	-0.119517975
225	0x3e26b8d7	0.16281448
226	0x3c81e2a8	0.015855148
227	0x3d9db07e	0.07699679
228	0xbd2f9960	-0.04287088
229	0x3d7268fc	0.059182152
230	0xbdb7401a	-0.08947773
231	0xbe02c49c	-0.12770313
232	0xbce78970	-0.028263777
233	0xbc7607e0	-0.015016526
234	0xbcc7a280	-0.024369478
235	0x3d66c464	0.056339636
236	0xbcf44f28	-0.0298229
237	0xbe1f781a	-0.15573159
238	0x3e453f21	0.19262363
239	0xbda04517	-0.07825678
240	0x3d71517c	0.0589156
241	0x3ca63228	0.020287588
242	0x3e05e381	0.13075067
243	0xbe373c20	-0.1789403
244	0x3e2c37e5	0.16818197
245	0xbddbda90	-0.10735047
246	0x3c913c80	0.017729044
247	0x3de1d932	0.11027755
248	0xbdaffccd	-0.0859314
249	0xbdbd0df3	-0.09231176
250	0x3c147f60	0.009063572
251	0x3de37572	0.11106385
252	0xbe3d9b33	-0.18516235
253	0xbd1b3eb4	-0.037901595
254	0xbdc203b7	-0.09473365
255	0x3da90f42	0.08254863

bias f4 [25]
0	0xbdf490d7	-0.119416885
1	0x3e3d9f95	0.18517907
2	0xbe10b46a	-0.14131323
3	0x3dc461aa	0.095889404
4	0xbcf7b500	-0.030237675
5	0x3e3dc859	0.18533458
6	0x3c9cbef0	0.019134015
7	0x3e490ec9	0.19634546
8	0xbc396780	-0.01131618
9	0xbdeb4c17	-0.11489122
10	0x3dbd241a	0.092354015
11	0x3de4b42a	0.11167176
12	0x3d963b52	0.07335533
13	0x3c54aab0	0.012980148
14	0xbdc9e530	-0.09858167
15	0xbe1a714d	-0.15082283
16	0x3e2d5b79	0.16929425
17	0xbe2e625f	-0.17029713
18	0xbdeda9e7	-0.11604672
19	0x3e3d8fe1	0.18511917
20	0x3e0c420b	0.13697068
21	0xbde0fa07	-0.10985189
22	0x3d26f668	0.040762335
23	0x3dc8a596	0.09797208
24	0x3ddbe1aa	0.107364014

weight f4 [4, 25]
0	0x3dc1596e	0.094408855
1	0xbdb8f743	-0.090315364
2	0xbcf95710	-0.030437022
3	0xbdf3d803	-0.11906435
4	0xbe34dcfd	-0.17662425
5	0x3dd93022	0.10604884
6	0x3da50546	0.080576465
7	0xbd95d6a6	-0.073163316
8	0x3e19a6a7	0.15004979
9	0xbe17c8de	-0.14822719
10	0xbda1fc5a	-0.0790946
11	0xbced5080	-0.02896905
12	0x3ca384b0	0.019960731
13	0x3dfc98ca	0.1233383
14	0x3d87203a	0.065979436
15	0xbe050655	-0.12990697
16	0x3dd05ee2	0.101743475
17	0x3e2e017d	0.16992755
18	0xbded9f30	-0.11602628
19	0xbe2d81cf	-0.1694405
20	0x3d50326c	0.050829336
21	0x3a825f00	0.0009946525
22	0x3d9625d6	0.073314354
23	0x3d7ce5b4	0.0617425
24	0x3de7b75e	0.113142714
25	0xbdc73e8a	-0.09728725
26	0xbdb66ffa	-0.089080766
27	0x3d84a48a	0.06476696
28	0xbda31737	-0.07963412
29	0xbcb95900	-0.022625446
30	0xbe0d047b	-0.1377124
31	0x3d7c49ac	0.061593696
32	0xbe191520	-0.14949465
33	0xbdabb3ea	-0.08383925
34	0xbcf052c0	-0.029336333
35	0x3e254e19	0.16143073
36	0xbc92f9a8	-0.017941311
37	0xbe32cdc0	-0.174613
38	0xbda8c9e3	-0.08241632
39	0x3e49c4a1	0.19703914
40	0x3dfaecaa	0.12252171
41	0xbe4240b3	-0.18969993
42	0x3c8769e8	0.016529992
43	0xbd59f678	-0.053213567
44	0x3db21f36	0.08697359
45	0x3dcbaa86	0.09944634
46	0xbc8b15e8	-0.01697822
47	0x3e2f9135	0.17145236
48	0x3e250667	0.16115724
49	0x3d59eee4	0.05320634
50	0xbe35f8e7	-0.1777073
51	0x3da4fae2	0.080556646
52	0xbe1d56ee	-0.15365192
53	0x3ca2bf50	0.019866616
54	0x3db40e42	0.08791782
55	0x3c9a5118	0.018837497
56	0xbdaa3163	-0.08310201
57	0x3e389d09	0.18028654
58	0xbda9718a	-0.08273609
59	0x3d9b0162	0.07568623
60	0x3e36d8a9	0.17856087
61	0x3d96887e	0.073502526
62	0x3db443a6	0.088019654
63	0xbe0b1d38	-0.13585365
64	0xbdc012b3	-0.093785666
65	0xbdd7c210	-0.10535061
66	0xbc51c620	-0.012803584
67	0x3d90501a	0.07046528
68	0xbe38856d	-0.18019648
69	0x3cbb3b00	0.022855282
70	0x3e158c23	0.14604239
71	0x3e31a799	0.1734909
72	0xbe1e7935	-0.15475924
73	0xbcf3a500	-0.029741764
74	0xbbbe4700	-0.0058068037
75	0x3c707b60	0.014677852
76	0x3d6fa084	0.05850269
77	0x3e04685b	0.12930433
78	0x3e4a6657	0.19765602
79	0xbdd710d7	-0.10501259
80	0xbdb3baa3	-0.087758325
81	0xbdd7862d	-0.10523639
82	0x3e06cfb9	0.13165177
83	0x3e32d093	0.17462377
84	0xbdccb5a7	-0.09995585
85	0x3e37c24b	0.1794521
86	0xbd27ff0c	-0.041014716
87	0x3dad6f9e	0.08468555
88	0x3dc27726	0.09495382
89	0xbe14562d	-0.14485998
90	0xbcf1aeb0	-0.029502243
91	0xbe08f128	-0.13373244
92	0x3d07de2c	0.033170864
93	0x3e1c84c3	0.1528502
94	0xbd9932f6	-0.07480423
95	0x3df90a3e	0.12160157
96	0x3e020049	0.12695421
97	0x3c45cc50	0.012072638
98	0x3dd2cc3e	0.10292862
99	0x3e39f161	0.18158485

bias f4 [4]
0	0xbe20e3f6	-0.1571196
1	0x3d90992a	0.07060464
2	0x3e34dbc3	0.17661957
3	0x3d040094	0.032227114
