models/_brain_280.pt (torch, 14593 bytes, 12 tensors)

weight f4 [14]
00000000: 0000 803f 0000 803f 0000 803f 0000 803f
00000010: 0000 803f 0000 803f 0000 803f 0000 803f
00000020: 0000 803f 0000 803f 0000 803f 0000 803f
00000030: 0000 803f 0000 803f
1.0 1.0 1.0 1.0 1.0 1.0 1.0 1.0
1.0 1.0 1.0 1.0 1.0 1.0

bias f4 [14]
00000000: 0000 0000 0000 0000 0000 0000 0000 0000
00000010: 0000 0000 0000 0000 0000 0000 0000 0000
00000020: 0000 0000 0000 0000 0000 0000 0000 0000
00000030: 0000 0000 0000 0000
0.0 0.0 0.0 0.0 0.0 0.0 0.0 0.0
0.0 0.0 0.0 0.0 0.0 0.0

weight f4 [25, 14]
00000000: 0dea 43be 285e 563e d9a2 13be c440 66be
00000010: 48ad 653d 48ec 903d 403c 1bbe 303e e83c
00000020: a857 863d e4f3 243e 5432 393e 108f 203d
00000030: 440b 913d ec87 71be dcbf 43be 757e 853e
00000040: a47f 833d 3eda 4a3e c28c 5a3e 00c6 513e
00000050: 43f8 803e cfa0 883e 2e7e 92bd 3077 c3bc
00000060: 8ee7 203e 3dc5 80be c6de ffbd 88d5 abbc
00000070: 0ca7 f8bd 3073 85bc 9b5b 01be 4c30 7dbe
00000080: b0cf e93c 2884 7dbd b415 29be 00a6 a3bb
00000090: 13a7 843e 5adf 52be fa9b babd 0e96 6fbe
000000a0: 0e89 183e cf4d 7cbe e46e 0fbd 4816 513e
000000b0: f8d9 073d 66b2 6a3e 6050 9b3c af42 6dbe
000000c0: 1777 00be ec4a 54be bc75 0b3e 402b 7fbc
000000d0: b00b 47be 4705 6fbe a860 7b3d b002 5b3d
000000e0: 68a9 3cbd 9894 073e 68a1 e9bd ca40 493e
000000f0: 9dd5 6ebe 009f f23d e800 433d 62d5 86be
00000100: d4f5 29bd f26f 2bbe 28f5 d2bc c084 4c3c
00000110: 6096 0e3d 6231 bebd 40e6 a53b 0c0f 78be
00000120: cbde 813e 6c2b 59be 5dd4 803e 4467 24be
00000130: 4030 fa3c 9a01 6a3e e4e8 75bd aaf0 7a3e
00000140: 0a39 22be 00be a43b 7027 37bd 80c7 68bc
00000150: 856b 66be 7420 1fbe bc8a a7bd 40fc d63d
00000160: d29c 57be d2d8 743e 6030 053d 2d34 04be
00000170: f4d9 0d3e eb95 10be d09b b73c 8eea 3e3e
00000180: e162 863e d526 74be a379 70be 3b7a 87be
00000190: 2069 58be 3a76 7f3e ccd5 5cbd 9695 1abe
000001a0: a86f 21be 6631 f8bd 101a ba3c 5471 e43d
000001b0: 5f44 7cbe f68c c0bd f001 c2bd a058 143c
000001c0: 7e64 99bd 7f61 02be 94bd 123e 6851 8e3d
000001d0: ccd9 3a3e 2031 d43c bc8b 7cbd f835 353d
000001e0: 6611 64be 30a6 333d 3a9f 0bbe 3cd8 08be
000001f0: 54e6 673e b8db 9dbd e017 87bc 70ae d43c
00000200: 1a79 37be 40fe ea3c 60c7 54be 74c5 5abd
00000210: 0899 86be 981d 74bd aae9 b2bd 801f 673e
00000220: 69f3 803e f059 1c3d d491 89bd 4039 713d
00000230: 8071 a4bb d267 3abe ae49 3a3e 42a0 553e
00000240: 0853 253d ce40 2abe 1195 0dbe 889c 4d3e
00000250: ede1 0cbe d1f2 84be 28a1 943d 4633 4fbe
00000260: c660 16be dbbb 0bbe f280 b9bd 64d4 35bd
00000270: 6a99 86be 467c 5d3e 442b 613e cf3b 44be
00000280: bb47 873e ecb9 fe3d 58e6 373e 44e4 6a3e
00000290: 829f 6f3e d851 16bd 426a 68be 1660 83be
000002a0: 85b5 78be e3fd 74be 7c9b a63d d49a 963d
000002b0: cc8b 79be 0e52 703e f7c8 41be f3b6 73be
000002c0: 0041 9aba a48f dd3d 7e83 b4bd 00b6 25bb
000002d0: c80b a5bc 3865 97bc a866 5dbe e070 453d
000002e0: 6525 83be 00e0 563a 200a a93d 7611 78be
000002f0: 1ab8 6c3e 70c0 77bd 4047 2b3d 20bb ffbd
00000300: 0063 f73d 9a88 5b3e 84eb 2d3e 24d2 6bbd
00000310: c4f7 bfbd 00a6 e3bd 6124 853e 231b 24be
00000320: 1e5c 7e3e 0617 1a3e b0f0 2dbe 8034 71bb
00000330: 4c2f 1fbd 5ee2 003e 9421 c3bd 249d ca3d
00000340: 9095 d33d 6ef8 fabd 406d 25bc 364c 713e
00000350: 90a2 8cbc e428 76be feb4 8ebd 1086 afbd
00000360: 3cae 563e 5041 c7bd 005e 503a 085e 58bd
00000370: cb77 80be 1407 2f3e 1c17 c83d a016 583d
00000380: e43b 613e f258 19be c1c9 2bbe 8abd 403e
00000390: 04ab 5fbe ff0c 58be 2a39 7c3e 8e84 edbd
000003a0: 89d8 74be dccf 813d bad8 1b3e 5c4e 303e
000003b0: 8c7b 78be a6b6 f3bd b014 703d 4239 653e
000003c0: 3a71 03be 6a7c dbbd b8f2 a93d 3851 bdbd
000003d0: b82b 2bbd 007c 4dbd 78a7 11be ec18 19bd
000003e0: f117 85be f624 543e 0a87 35be d2c8 3a3e
000003f0: 4826 b43d 7ed1 41be a292 55be 7ea2 063e
-0.19132252 0.20934355 -0.1441759 -0.22485644 0.056073457 0.07076317 -0.15159702 0.028349966
0.06559688 0.16108662 0.18085605 0.039198935 0.07082227 -0.23587006 -0.19116157 0.26073042
0.0642083 0.19809815 0.21342757 0.20485687 0.2518941 0.26685187 -0.07152973 -0.023860544
0.15713331 -0.2515048 -0.124936625 -0.020975843 -0.12141237 -0.016290277 -0.12632601 -0.24725455
0.028541416 -0.061893612 -0.16512185 -0.004994154 0.25908718 -0.20593014 -0.091117814 -0.23397085
0.14896032 -0.24639057 -0.035017863 0.20418656 0.033166856 0.22919616 0.018959224 -0.23169969
-0.12545429 -0.20731705 0.13619131 -0.015574276 -0.19438052 -0.23341857 0.061371475 0.05346936
-0.046059996 0.13240278 -0.11407739 0.19653621 -0.23323674 0.11846733 0.047608286 -0.26334673
-0.041494206 -0.16741922 -0.025751665 0.012482822 0.034811378 -0.09286763 0.0050628483 -0.2422449
0.2536529 -0.2120797 0.2516202 -0.16055018 0.030540586 0.22852173 -0.060036555 0.24505869
-0.15842071 0.0050275326 -0.044715345 -0.014207721 -0.22501953 -0.15539724 -0.08180758 0.104973316
-0.21055916 0.23910835 0.032516837 -0.12910528 0.13852674 -0.14119689 0.022413164 0.18644163
0.26247314 -0.23842938 -0.234839 -0.26460442 -0.21133852 0.24947444 -0.05391483 -0.15096125
-0.1576525 -0.12118797 0.022717506 0.11154428 -0.24635457 -0.09401886 -0.09473026 0.009054333
-0.074898705 -0.12732504 0.14330131 0.06949121 0.18247145 0.02590233 -0.0616567 0.04424092
-0.22272262 0.04385966 -0.13634959 -0.13363737 0.22646457 -0.07707924 -0.016490877 0.025962085
-0.1791729 0.028685689 -0.2077918 -0.053410962 -0.2628863 -0.059598535 -0.08735974 0.2257061
0.25185707 0.03817171 -0.06717268 0.05889249 -0.005018413 -0.18203667 0.18192169 0.20861915
0.040362388 -0.16626284 -0.13826396 0.20079243 -0.13758059 -0.25966504 0.072573006 -0.20234403
-0.14685354 -0.1364588 -0.090577975 -0.044392005 -0.2628892 0.21629438 0.21989161 -0.1916344
0.26421914 0.124378055 0.17958963 0.22938639 0.23400691 -0.036699146 -0.22696784 -0.25659245
-0.24287994 -0.23924975 0.08135125 0.0735375 -0.24369735 0.23468801 -0.18924318 -0.23800258
-0.0011768639 0.10818413 -0.08814143 -0.0025285482 -0.02014722 -0.018480882 -0.21621192 0.04820335
-0.25614467 0.0008196831 0.08253884 -0.24225411 0.23117104 -0.060486257 0.041815996 -0.12486863
0.120794296 0.21438828 0.16984373 -0.057573453 -0.093734294 -0.11115646 0.26004317 -0.16025977
0.24839827 0.15047845 -0.16986346 -0.0036804974 -0.038863465 0.12586352 -0.09527889 0.098932534
0.10331261 -0.122544155 -0.010096848 0.23564228 -0.01716736 -0.24039036 -0.06968115 -0.08570492
0.20964903 -0.09729254 0.00079485774 -0.05282405 -0.25091395 0.17092544 0.09770033 0.052755952
0.21995503 -0.14975336 -0.16776182 0.18822303 -0.21842581 -0.21098708 0.24631181 -0.115975484
-0.23910727 0.06338474 0.15219393 0.17217392 -0.2426588 -0.11900072 0.05861348 0.22385123
-0.12836161 -0.107170895 0.08298248 -0.09244007 -0.04178974 -0.050167084 -0.1422404 -0.037377283
-0.25994828 0.20717224 -0.17727295 0.1824067 0.08796364 -0.18927571 -0.20856717 0.13147923

bias f4 [25]
00000000: e0e5 e2bd e42f 83be 005e fe3c d8f6 393e
00000010: e0af 35bd 7439 17bd a2b8 3bbe 524e 343e
00000020: e75c 4bbe 78b7 2e3d 7600 713e c8c4 223d
00000030: 64dc 49bd 404a ee3c 2084 363e 8c18 be3d
00000040: ba61 003e 627c 7a3e 9c39 0cbe 525c 013e
00000050: 4826 223d 9a53 4dbe ca5e 063e a1ec 813e
00000060: aeea e8bd
-0.110790014 -0.25622475 0.031050682 0.1816057 -0.04435718 -0.036920026 -0.1833215 0.17608002
-0.19859658 0.04265544 0.23535332 0.039738446 -0.049282447 0.02908814 0.17823839 0.09282026
0.1253728 0.24461511 -0.13693851 0.12632874 0.03958729 -0.20051423 0.13122097 0.25375846
-0.113728866

weight f4 [25, 25]
00000000: 62ed 43be 3fa4 3e3e 6c50 88bd 3023 c33c
00000010: 607d 3fbc cc17 0bbe e8a8 383d 4775 d6bd
00000020: 841b 643d d816 7abd 4013 ff3c a47c 6a3d
00000030: 70bb 16be 8287 29be a073 483d 2242 8b3d
00000040: 6e71 f63d 0230 b63d fdaa 263e b282 963d
00000050: 3ac7 edbd 80db 7abd 3bae 253e 0bde 47be
00000060: ed59 a7bd 90bf 993c c01d 91bd 28f5 26bd
00000070: 77af 2f3e 2558 1b3e 5047 2dbe 3958 003e
00000080: f2cd f63d 40bd a2bc ed5b edbd 0c07 62bd
00000090: 738f f3bd 50fd a53c 7668 db3d 690f 323e
000000a0: 83f6 d9bd 9a03 9bbd 374e 003e db32 403e
000000b0: a811 853c d749 153e 406c 26bd 90a7 f0bc
000000c0: 1036 f2bc 815d 343e f813 64bd 57ea abbd
000000d0: 8d61 dbbd c0a1 00be 28f8 dcbc 2b2c 2b3e
000000e0: 7483 43bd 549b 5bbd fc10 88bd 38aa 3fbe
000000f0: 38db 32bd da6a 0dbe 1896 6ebd e378 313e
00000100: 600b 9bbb d77f f1bd f7e5 f3bd a0ff cd3b
00000110: 228d a43d b034 4fbc d9fc 413e 1836 be3c
00000120: 24e4 693d b2a6 f33d ef81 1a3e 7020 17be
00000130: 0da5 eabd 6a34 4bbe 9455 1dbd a577 123e
00000140: c082 9cbd cd06 b6bd 63a7 c9bd 12fb b13d
00000150: 5140 003e 544a 1c3d 0000 e8bc 4cc5 193d
00000160: 004b 6cbc 695e 333e 608a 103d 62b1 37be
00000170: b013 ddbd 3851 23be 7891 0c3d 4081 c0bd
00000180: 585c 2dbd ad85 32be 0a7d f7bd 9078 9bbd
00000190: b677 df3d 40b9 cebb a76c b7bd 16d2 24be
000001a0: d6bc 1ebe 2893 243d a4bb 593d c3cc f0bd
000001b0: ccf6 4c3d 6387 3c3e 1dd7 e5bd 50f1 cabd
000001c0: 80ce 4bbe 52d6 ff3d 7a30 1fbe be9f 8a3d
000001d0: 1a11 cabd aed6 24be 280e e53c b40c 4abd
000001e0: 3dbf e8bd f2bf a13d bc6d 563d 3051 bc3c
000001f0: 8af3 813d b0f0 92bd 2d1a 07be 3eba ab3d
00000200: 444f 643d 10fb 0bbe 4098 38bd 4086 e6bd
00000210: d454 6a3d f3af 4cbe b4cc 6abd 8f2d 32be
00000220: b68f 04be 3ada f8bd aa8d 2ebe 14e8 7b3d
00000230: ea6a 18be 61cc 043e 9b29 3bbe 6981 3e3e
00000240: ffd9 3bbe eafe de3d d89c 49bd 0cb7 80bd
00000250: db51 1cbe b6ce f23d 740c 713d 0856 49bd
00000260: 28e2 fa3c 900b f03c 8c1c 793d 52dc e63d
00000270: fb01 173e ad81 24be 35b4 07be 9e51 d43d
00000280: 9051 fe3c 000e 4cbe 311c 263e 710a 023e
00000290: ba30 8dbd 69b2 393e 9063 33be cfc0 053e
000002a0: f972 3d3e 3235 17be 4543 28be 2b62 413e
000002b0: 6005 42bd 626c a03d 5e84 25be 0d8a cdbd
000002c0: 627f 4bbe e01c 5bbd 18a4 81bc b4fb 3a3d
000002d0: 2027 203c e908 453e 561d 9c3d 988c 48bd
000002e0: 287c a5bc 1e25 fe3d 2258 b73d f099 f3bc
000002f0: 2a5b 4bbe 2755 abbd b0a1 dfbd 4036 7fbd
00000300: cb77 1b3e 4147 243e bb3c 483e 0ef0 17be
00000310: 89a4 013e 175c 493e da82 c73d 7261 b73d
00000320: e2ac ce3d 5251 19be 60e5 b0bd 59fd 443e
00000330: 331d 29be 90ea 8bbd de56 c03d 54ec 1f3d
00000340: 3063 21bc 00a4 b8b9 534e dcbd baf4 1abe
00000350: 3f3a 353e 237b 42be 031a 2d3e 38b5 1e3d
00000360: 8b18 363e fba2 1f3e c05f 20be a9bf 033e
00000370: 7da4 3abe 517c 113e 2679 8b3d 52bd e73d
00000380: 54e3 483d 8a9b dc3d 0a53 8cbd a69d 853d
00000390: 7bbd 2abe 0944 423e 0973 1e3e eb07 233e
000003a0: 3f57 333e 4d7e aabd e858 02bd 5aef 00be
000003b0: 4a87 a2bd 4b08 423e 451b 433e a3a0 073e
000003c0: 1834 43be e00a c2bd 8b7e 213e b335 0ebe
000003d0: 00d7 98bd 177a 053e f6bf 863d 2a3a ffbd
000003e0: 4dee febd 4d62 30be 4c01 3ebd e371 b3bd
000003f0: d513 473e 00bc 403c a8eb 223d 0601 80bd
-0.19133523 0.18617342 -0.06655964 0.02382049 -0.011687607 -0.13583297 0.045082957 -0.10471588
0.055690303 -0.06105694 0.031137109 0.057247773 -0.14719939 -0.16555598 0.048938394 0.06799723
0.12033354 0.088958755 0.16276164 0.07349147 -0.11610265 -0.061244488 0.16179745 -0.19518296
-0.08171449 0.018768102 -0.070857525 -0.040761143 0.17156778 0.15170343 -0.16921735 0.12533654
0.12051 -0.019865632 -0.11589799 -0.0551825 -0.11892595 0.02026239 0.10713284 0.17388691
-0.106427215 -0.07569046 0.12529837 0.187694 0.01624377 0.14578949 -0.04063058 -0.029376775
-0.029566795 0.17613794 -0.055683106 -0.08394306 -0.10711966 -0.12561703 -0.026973799 0.16716067
-0.047732785 -0.05361493 -0.066438645 -0.18717277 -0.043666095 -0.13810292 -0.05824861 0.17331271
-0.0047315806 -0.11791962 -0.11909097 0.0062865764 0.080347314 -0.012646839 0.1894411 0.023219153
0.057102337 0.11897029 0.15088628 -0.14758468 -0.11457262 -0.19844213 -0.03841169 0.14303453
-0.07642126 -0.08888016 -0.098463796 0.08690466 0.12524535 0.038156822 -0.028320312 0.037541673
-0.014422178 0.17516483 0.035288215 -0.1793876 -0.10794771 -0.15948951 0.034318417 -0.093996525
-0.042324394 -0.17433806 -0.12084396 -0.07591355 0.10911505 -0.0063087046 -0.08956271 -0.16095766
-0.15501723 0.0401794 0.053157464 -0.11757805 0.05004005 0.18411021 -0.1122267 -0.09909308
-0.19902992 0.1249205 -0.15545836 0.0676875 -0.09866543 -0.16097519 0.027960852 -0.04932852
-0.11364601 0.07897939 0.052350745 0.022987932 0.063452795 -0.07174814 -0.13193579 0.08385132
0.055739656 -0.13669991 -0.045067072 -0.11256075 0.057209805 -0.19988994 -0.057324126 -0.17400192
-0.12945446 -0.121509984 -0.17046228 0.061500624 -0.14884534 0.1296859 -0.1827759 0.18604054
-0.18344878 0.10888465 -0.049221843 -0.062849134 -0.152656 0.11855833 0.058849767 -0.04915431
0.030625418 0.029302388 0.06081824 0.112724915 0.14746849 -0.16065092 -0.13252337 0.1036713
0.031044751 -0.19927216 0.16221692 0.12699296 -0.068940595 0.18134464 -0.17518449 0.13061832
0.1850089 -0.14766386 -0.16431911 0.18885104 -0.047368407 0.078331724 -0.16163775 -0.10036097
-0.19872811 -0.053494334 -0.015825316 0.0456502 0.009774953 0.1924168 0.07622783 -0.048962206
-0.020200804 0.12409423 0.08952357 -0.029736489 -0.19858995 -0.08365851 -0.10919511 -0.062307596
0.15182416 0.16042806 0.19554417 -0.14837667 0.12660421 0.19664036 0.09741755 0.08954133
0.100915685 -0.14972427 -0.086375 0.1923727 -0.16515045 -0.068318486 0.093915686 0.03904374
-0.009850308 -0.00035217404 -0.10757127 -0.15132418 0.17698 -0.18992285 0.16904454 0.038747042
0.177828 0.15589516 -0.15661526 0.12866081 -0.1822681 0.14207579 0.068102166 0.11315407
0.049044922 0.10771854 -0.06851776 0.0652421 -0.16673844 0.18971266 0.1547357 0.15920989
0.1751375 -0.08324871 -0.03182307 -0.12591305 -0.079359606 0.18948476 0.19053371 0.13244872
-0.19062841 -0.094747305 0.15770929 -0.13887672 -0.07462883 0.13034855 0.065795824 -0.12462266
-0.12447796 -0.17224999 -0.046387956 -0.087619565 0.19441159 0.011763573 0.03977552 -0.06250195

bias f4 [25]
00000000: 28b8 2fbe 8573 34be 1c15 97bd 6cc3 2abd
00000010: 0cde 04bd 700c 40be 284e 58bd 14b9 4d3d
00000020: 30d7 383c d883 9cbc e752 3ebe 1a68 eabd
00000030: 401b bf3b 23b9 123e 948d 19bd 78b2 05bd
00000040: 24fc 743d 945d 45bd ff5f 43be 8ad3 be3d
00000050: a837 51bd 795b 293e 7023 dfbc 2c8b 1c3d
00000060: e0b0 083d
-0.17160094 -0.17622192 -0.07377073 -0.041690275 -0.032438323 -0.18754745 -0.05280891 0.050225332
0.011281773 -0.019105837 -0.18586312 -0.11445637 0.005832106 0.14328437 -0.037488535 -0.032640904
0.059810773 -0.048184946 -0.19079588 0.093176916 -0.05107847 0.165388 -0.027238578 0.038218662
0.033371806

weight f4 [25, 25]
00000000: 0497 703d 2dec 213e f07e ca3c 4060 9e3c
00000010: 22f2 c93d 4a8e 863d ed93 b1bd 200d b9bd
00000020: c1d8 193e f519 37be 1d87 4cbe 75bb 313e
00000030: cd95 193e e33d 28be 8b9b 3c3e 5ffa 3dbe
00000040: ba7e eebd b66a f93d f84f 14bd 10e1 10be
00000050: dac5 40be 7d11 d4bd b0ec 56bc 7609 be3d
00000060: 9e12 05be 7064 e83c 9c6b 85bd d556 393e
00000070: 4f8a 2a3e 30f9 eebc cb91 393e 9886 41be
00000080: c1fc 233e 07f8 1c3e e79f d7bd 3235 c43d
00000090: d8b1 45be bad5 16be 2849 2e3d 5613 2abe
000000a0: 6c5f 413d eaf4 d6bd 857b 17be 96bc 8ebd
000000b0: 073c bcbd f377 fabd e780 263e e50e 4a3e
000000c0: f43a 1fbd c533 02be 38a9 7abd 9d8a febd
000000d0: e04b 2bbd 65ee 3e3e 2035 56bd d3fa 9bbd
000000e0: 80e5 d1bd 4cfe 39bd 65f1 46be e038 433c
000000f0: f9d2 0e3e 29f3 483e 14ab 30bd f544 113e
00000100: a883 e93c 300e 01be 70d7 e8bc ee46 d23d
00000110: e044 033d e0e1 083c 70c0 1abe e6d3 fd3d
00000120: 11d5 0a3e aa10 d9bd 98b5 8d3c d2a1 a33d
00000130: bd09 153e 3917 013e 0e01 e83d 28eb 913c
00000140: c2ca 04be 4083 febb 4d82 3fbe ad73 1bbe
00000150: f177 4c3e e8d4 dd3c 7291 e53d 2815 0bbd
00000160: e177 483e 8cfd 4f3d b245 bf3d a3bf b5bd
00000170: a421 633d d850 ba3c 1a75 febd b081 07bc
00000180: 8caa 463d d225 c33d b909 223e 36f2 15be
00000190: e80c 2abd d04b 81bc 5dd8 043e 6f79 2b3e
000001a0: 0058 39ba 1462 8fbd 1a46 e6bd 1c46 07be
000001b0: 4e6b e63d c7ac 9cbd 0829 57bd b61b 1abe
000001c0: 8018 09be b2bf 9c3d df1a 473e 404b 243d
000001d0: f95e 053e 204b 023c bd65 e2bd d01a 04be
000001e0: e419 6b3d c001 1abe ec62 06bd 8893 2dbe
000001f0: a0a6 cebd 6f65 34be 93ba 27be 15c6 413e
00000200: 8094 15bb b295 41be af1e 3b3e e873 e8bc
00000210: e17e 073e d03f d0bd 7057 bcbc 1d68 a4bd
00000220: 609b 4dbc 921e 1cbe b207 da3d 501b 763c
00000230: c1d1 023e 5913 073e 84b0 80bd 6c57 70bd
00000240: 00f4 ab3c 94c1 96bd a45d 81bd 87c6 e1bd
00000250: 155b 1c3e 9cc4 703d fa82 f1bd c038 e9bd
00000260: 5495 443d 8c69 62bd 027b b93d 3768 e8bd
00000270: 201e 38bc 9d04 febd 6c40 6abd 5074 fabc
00000280: 9dc1 99bd cc47 7d3d 1933 043e a7b1 a2bd
00000290: c048 603b d614 943d c0f3 a8bc d452 2b3d
000002a0: d0e6 293c 3394 b0bd c02d 20bd cb41 293e
000002b0: 1400 613d 0ec1 d33d a0d6 b53b c8df 26be
000002c0: 0264 943d 8059 5abc 32ad c33d 86f4 e03d
000002d0: 234c d2bd 963c d23d bfd6 43be e879 14be
000002e0: 2394 24be ba91 d6bd fdfa 013e 9d6a 173e
000002f0: 4798 3b3e 8e3e f73d bdcf cebd 200c 93bd
00000300: 23f2 353e 4f5c 45be 2b3c 183e 8a1f 86bd
00000310: 56b0 f43d 50c9 a2bd a012 3d3c 8086 6b3c
00000320: 1578 18be 13db 4a3e 0a8d aabd 4df3 bfbd
00000330: 67dc 0c3e 39a5 243e 20c8 483c 6008 6bbc
00000340: 6e7a b93d a9e2 4a3e 2d30 a0bd 9c09 09be
00000350: c03b d5bd 545c 7d3d 0364 acbd b12a 1b3e
00000360: c2de ec3d 425a ce3d 9004 9f3c a966 1e3e
00000370: 0a3c aabd d8ca 1dbe 1e36 f73d e72d 9bbd
00000380: 0086 fcbb a33b 1abe a096 91bd 86dc 8cbd
00000390: b35e 44be 2ee5 02be 021e e33d 4acb d23d
000003a0: 20a9 16be cb2c 0d3e 5877 ce3c 50e6 053c
000003b0: a0d7 56bc b669 b23d 30be eb3c 236b efbd
000003c0: 4b3f 413e 3008 2cbc 8642 29be 12e1 bb3d
000003d0: 48e8 0d3d 9258 f93d 82f9 14be 80de b03c
000003e0: da97 cabd 189d 33bd d448 203d f2e9 fa3d
000003f0: c804 3b3d 345f 733d fdc9 d2bd 04a3 543d
0.05873777 0.1581275 0.024718732 0.019333005 0.09860636 0.06570108 -0.08670793 -0.090357065
0.15024091 -0.17880996 -0.19973417 0.17356665 0.1499855 -0.16429858 0.1841871 -0.1855254
-0.11645265 0.121785566 -0.036209077 -0.14148355 -0.18825474 -0.10354898 -0.013117954 0.09279148
-0.12995383 0.028368205 -0.065146655 0.1809953 0.16654323 -0.029171556 0.18122022 -0.18899
0.16014387 0.1532899 -0.10528546 0.09580459 -0.19306123 -0.14729968 0.042550236 -0.16608939
0.047210142 -0.104959324 -0.14793213 -0.06969564 -0.09191137 -0.1222991 0.1626011 0.19732244
-0.03887458 -0.12715061 -0.061196536 -0.12428782 -0.041820407 0.18645628 -0.052296758 -0.076162
-0.10248852 -0.045408532 -0.19428022 0.0119154155 0.13947667 0.19624008 -0.043131903 0.14186461
0.028505161 -0.12603068 -0.028423041 0.10267435 0.032048106 0.008354634 -0.15112472 0.12393932
0.13557841 -0.105988815 0.017298505 0.07989849 0.14554496 0.12606515 0.11328326 0.017812327
-0.12967971 -0.007767111 -0.1870205 -0.15180846 0.19967629 0.02707906 0.11209382 -0.033955723
0.1957698 0.05077891 0.09339465 -0.088744424 0.055452004 0.022743627 -0.12424679 -0.008270666
0.04850249 0.09528698 0.15824021 -0.14643177 -0.041516215 -0.01578322 0.12973161 0.16745542
-0.0007070303 -0.07001129 -0.112438396 -0.13210338 0.112509355 -0.07650142 -0.052529365 -0.15049633
-0.13388252 0.076537505 0.19443844 0.040110826 0.1302451 0.0079524815 -0.11054561 -0.12900853
0.057397738 -0.1503973 -0.032809183 -0.1695081 -0.10090375 -0.17616819 -0.16379766 0.18923219
-0.0022824109 -0.1890476 0.18273424 -0.02837558 0.13231994 -0.10168421 -0.022990912 -0.080276705
-0.012549251 -0.15246037 0.10645999 0.01502116 0.12775327 0.13190974 -0.06283668 -0.058677122
0.020990372 -0.07361141 -0.06316689 -0.11024194 0.1526912 0.05878125 -0.1179256 -0.11387777
0.047993973 -0.05527644 0.09056665 -0.113480024 -0.011237651 -0.12403224 -0.057190344 -0.03057304
-0.07507632 0.06183605 0.12910117 -0.07944041 0.003422305 0.07230537 -0.020624042 0.041827038
0.010369971 -0.08622017 -0.03910613 0.16529004 0.054931715 0.10339557 0.005549267 -0.16296303
0.072456375 -0.0133270025 0.09554519 0.10984139 -0.10268428 0.10265462 -0.19124888 -0.14499629
-0.16072135 -0.10477014 0.126934 0.14786763 0.18319808 0.12072478 -0.10098217 -0.07180047
0.17768149 -0.19273494 0.14866702 -0.06548984 0.11947696 -0.079485536 0.011540085 0.014375329
-0.14889558 0.19810133 -0.08327682 -0.09372578 0.13755952 0.16078652 0.012254745 -0.0143452585
0.09056555 0.19813026 -0.07821689 -0.13382572 -0.10411787 0.06185563 -0.08417513 0.15153004
0.11565925 0.10075809 0.019411355 0.15468849 -0.08312233 -0.1540941 0.12070869 -0.075771146
-0.0077064037 -0.15061812 -0.071088076 -0.06877999 -0.1917675 -0.12782738 0.11089708 0.102926806
-0.14712954 0.13786618 0.025203392 0.008172587 -0.013112932 0.08711569 0.028777212 -0.116903566
0.188718 -0.010499999 -0.16529283 0.09173788 0.03464535 0.121750966 -0.14548305 0.021590471
-0.09892245 -0.04385099 0.039131954 0.12251653 0.045658857 0.059416965 -0.102924325 0.051913276

bias f4 [25]
00000000: 49e8 223e e1b8 083e fc4c 99bd abc6 23be
00000010: facc e2bd f885 1dbd dac8 87bd da13 e23d
00000020: 5028 6e3c 1212 fb3d e0b7 e5bd 8ee7 16be
00000030: 7ae9 b9bd d331 dcbd 700d f53c 2dda 493e
00000040: d2b6 8a3d 8dad 1ebe 008c 4c3d 0c37 4a3d
00000050: 9d60 463e 14ff 6fbd c860 62bd f3e6 e4bd
00000060: 922a a13d
0.15908922 0.13351776 -0.07485387 -0.15993755 -0.110742524 -0.03845784 -0.06630106 0.11038943
0.014535978 0.12259306 -0.11216712 -0.14736769 -0.09077735 -0.10751691 0.029913634 0.19712134
0.067731515 -0.15495892 0.049938202 0.049368903 0.19372793 -0.05859287 -0.05526808 -0.111768626
0.07869448

weight f4 [25, 25]
00000000: 3df4 c0bd a8cd 473d 0cf8 213d 1765 fdbd
00000010: 803e 1b3d 7411 7cbd d88c c73c a76b efbd
00000020: 9bd0 383e 1531 49be 6d33 b5bd 8610 953d
00000030: f4c1 3cbd c0b8 0fbe b2a2 a73d a302 1a3e
00000040: ec92 793d 1679 a53d 8ee2 11be 5174 363e
00000050: 0043 2ebe ec95 17bd d8c6 fc3c 0aa5 be3d
00000060: 1a6b b23d d354 febd cd15 443e 06dd 25be
00000070: 407e ea3c cc28 79bd 6010 06bd 0941 3b3e
00000080: 7034 87bc cd7b edbd 8dd3 463e 608b dd3b
00000090: 94e5 0c3d bf8b 4c3e 1371 3ebe 229b 22be
000000a0: b03b a4bd cabb aebd 039e 0b3e 2db7 aabd
000000b0: 562e ca3d 2616 17be e053 babd 5692 933d
000000c0: e30c 21be 5016 d63c af43 373e 8b3f 38be
000000d0: 53a2 e9bd c943 0e3e a522 403e 8841 15be
000000e0: 5a26 3cbe 98fe 94bc 3012 aa3c 4a18 e5bd
000000f0: cc7e 1abd 08da 00be 406e e1bd 30c4 553c
00000100: dc20 85bd 3859 09bd 6693 ca3d 87d5 3b3e
00000110: 6d24 3c3e 18c0 3abd 7ae2 ca3d 0339 c7bd
00000120: bb59 033e 307f 4f3c 8014 3dbd da63 30be
00000130: 6347 413e 184e ba3c 46bb fd3d 0959 013e
00000140: 50d8 a1bc c1ff 113e 6752 cabd c27a 873d
00000150: 02e0 07be cb00 233e b59b 4a3e 4394 2e3e
00000160: 0330 443e 44b5 5c3d 0594 4a3e 4058 aebc
00000170: 5d24 c6bd 90d1 fbbc b253 8f3d 6813 df3c
00000180: c4d3 693d f76d 083e d0a9 9ebc 1ee0 e03d
00000190: f461 1b3d 0068 1439 60ff bbbb 4005 09be
000001a0: 1799 cfbd e2ec e53d f071 a9bc 30da f9bc
000001b0: 5d8c d1bd cb97 41be a751 9bbd 7097 47be
000001c0: 228b 15be 7d4e 113e 8c83 6dbd b03c bdbc
000001d0: 3b2b 113e a74a 413e 98fb ecbc 7de6 47be
000001e0: 7767 423e d41b 8abd a296 f43d c0e7 80bb
000001f0: 4b56 15be 507c 1fbe 18ad e73c d8b0 963c
00000200: 4e1b 29be f422 0a3d 4490 563d f07d c7bc
00000210: c03f 9fbb a86d af3c ac23 153d be99 d13d
00000220: c0e6 933c d548 3d3e 1ebd 843d b771 eabd
00000230: d8cd 38bd d454 3cbd 52f9 b53d a54d 333e
00000240: f327 0b3e 584a 913c a282 ee3d 59de 2c3e
00000250: 1349 c3bd 9dfa f8bd 231d 3f3e 80d6 4e3c
00000260: b176 313e 9de7 a8bd 12b1 1bbe 0c0c 58bd
00000270: e2fc 9a3d 687e f6bc 26e6 85bd 61a5 173e
00000280: 28b5 1d3d b03e 03be 5d1c 1c3e 7712 353e
00000290: 82c8 9d3d 68d4 31be 953f 42be ebaf 4b3e
000002a0: 0085 a83b 8cf3 01be 985c 203d 2809 19bd
000002b0: 3aff b03d 2c27 573d c082 20be c862 32be
000002c0: 11ce 3c3e 5627 a83d 1808 4ebd 9299 823d
000002d0: 3853 56bd 8e0c 1bbe 12f4 b53d 0022 683c
000002e0: 9f17 3ebe 2368 243e c3b2 4bbe 8bad 25be
000002f0: 4391 4b3e 9890 72bd 2dee 203e f33e 2bbe
00000300: 75bd 173e e9b9 343e 9b2d 3d3e 4d1c ecbd
00000310: 5848 32bd 1f60 203e 861b 923d 92d9 bc3d
00000320: 0027 98bd caac d73d e11f 443e 0663 983d
00000330: 124c e73d 9691 b43d 08df 7bbd f759 c6bd
00000340: 62ee e43d d076 5dbc efe1 0f3e 736d d6bd
00000350: 87db cebd 50b6 c0bd b907 153e 06f0 15be
00000360: 1aa1 9a3d c062 93bc 921e 3fbe b7ab aebd
00000370: 1d8a c8bd 239c cfbd 58b7 2ebd 70b7 97bd
00000380: c944 083e 0027 5ebd acae 22bd c816 4cbe
00000390: ec98 74bd d093 8ebd 4288 963d 469d 24be
000003a0: f523 0c3e 02af e83d 734b 3dbe c0ed fabb
000003b0: c743 41be 56a5 c43d 8035 23bc 728f d73d
000003c0: 69d2 383e ad74 4bbe d749 eebd 6143 473e
000003d0: 8078 febd d0b9 3e3c c085 a03b e774 193e
000003e0: 30d5 dabd ba1b c8bd f351 023e ca68 18be
000003f0: c1c1 2f3e cd4a 1ebe 0faa 48be 36a7 14be
-0.09421585 0.048780113 0.039543197 -0.12372797 0.0379014 -0.061540082 0.024359152 -0.11690455
0.18048327 -0.1964763 -0.08847699 0.07278542 -0.046083406 -0.1403532 0.081853285 0.15040068
0.06093113 0.08079736 -0.1424658 0.17817809 -0.17017746 -0.03700821 0.030856535 0.093088225
0.08711834 -0.12418523 0.19148941 -0.16197595 0.028624654 -0.060829923 -0.03273046 0.18286528
-0.016504496 -0.11595879 0.19416638 0.0067609996 0.03439863 0.19975184 -0.18597822 -0.15879491
-0.08019197 -0.08531912 0.13634495 -0.08335719 0.09872119 -0.14754543 -0.09098029 0.07205646
-0.15727572 0.026133686 0.17896913 -0.1799299 -0.11407914 0.13893045 0.18763216 -0.1457578
-0.18374005 -0.018187806 0.020760626 -0.111862734 -0.03771858 -0.12583172 -0.11007357 0.013047263
-0.06500408 -0.03353235 0.09891395 0.18343173 0.1837327 -0.04559335 0.09906478 -0.09727671
0.12827198 0.012664601 -0.04616213 -0.1722559 0.18874888 0.022742316 0.12389235 0.1263162
-0.019756466 0.14257719 -0.09878998 0.06615211 -0.13269046 0.15918271 0.1978596 0.17048745
0.1915894 0.053883806 0.19783027 -0.021282315 -0.096749045 -0.030739576 0.069983855 0.027230933
0.05708672 0.13323198 -0.019368082 0.10980247 0.037935212 0.00014153123 -0.00573723 -0.13380909
-0.101366214 0.112268224 -0.020684212 -0.030499548 -0.1023185 -0.1890556 -0.07583933 -0.19491363
-0.14603856 0.14190097 -0.05798678 -0.023100227 0.14176647 0.18876134 -0.028928563 -0.19521518
0.18984781 -0.06743589 0.119427934 -0.0039338768 -0.145837 -0.15574765 0.02828078 0.018394873
-0.16514322 0.03372474 0.052383676 -0.024352044 -0.0048598945 0.021414593 0.036410972 0.10234402
0.018054366 0.18484814 0.06481384 -0.11447471 -0.045118183 -0.045979336 0.08885445 0.17510088
0.13589458 0.017735645 0.1164601 0.16881694 -0.09535422 -0.12157176 0.18663459 0.012624383
0.17330433 -0.08247302 -0.15204266 -0.052745864 0.07567765 -0.030089572 -0.06538038 0.14809181
0.038502842 -0.12816882 0.15245195 0.17682825 0.077042595 -0.17366183 -0.18969567 0.19891326
0.005142808 -0.12690562 0.039150804 -0.037362248 0.086424306 0.05252759 -0.15674877 -0.17420495
0.18437983 0.08210628 -0.050300688 0.063769475 -0.052325457 -0.15141508 0.08884443 0.0141682625
-0.18563698 0.1605535 -0.19892411 -0.16179483 0.19879632 -0.059219927 0.15715857 -0.16723232
0.14818366 0.17649044 0.18474428 -0.115288354 -0.043526024 0.15661667 0.07134156 0.09221186
-0.07429314 0.10531004 0.19152786 0.07440762 0.11293806 0.08816831 -0.061491996 -0.09685128
0.111782804 -0.013517097 0.1405103 -0.104700945 -0.10100465 -0.09409773 0.14553727 -0.14642343
0.07550259 -0.017991424 -0.18664005 -0.08528846 -0.09791968 -0.101372026 -0.04265532 -0.07408035
0.1330749 -0.054236412 -0.03971736 -0.19930565 -0.05971615 -0.06961787 0.07350208 -0.1607562
0.13685592 0.11361505 -0.18485813 -0.0076577365 -0.18873511 0.09601848 -0.009961486 0.10525407
0.18049015 -0.19868727 -0.116351776 0.19459297 -0.12425327 0.011640981 0.0048987567 0.14986001
-0.106851935 -0.097709134 0.12726574 -0.14883724 0.17163755 -0.15458222 -0.19596122 -0.14516911

bias f4 [25]
00000000: d6fe e73d a597 3a3e 1ebe ee3d 3023 d6bd
00000010: 729c 8f3d 6dd1 37be f006 b53c 0021 fd3c
00000020: bc1c 06be 3240 db3d 50e2 fcbd 006a 7e3c
00000030: 8929 293e 402d 20be a869 10be d4f2 053d
00000040: 800d 0b3d 33e7 d1bd 775e e9bd 0060 ae3a
00000050: 0b9b 39be 0418 573d 9230 c43d b872 1ebd
00000060: ec4f 74bd
0.11327903 0.1822191 0.11657356 -0.1045593 0.070122615 -0.17950983 0.022098035 0.030899525
-0.13096899 0.10705604 -0.12347853 0.015528202 0.1651975 -0.15642262 -0.14102805 0.032702282
0.03394842 -0.10249176 -0.11394971 0.0013303757 -0.1812555 0.052513137 0.095795766 -0.038683623
-0.059646532

weight f4 [4, 25]
00000000: d97d 1b3e c8c3 443d 4d84 003e a7ce a7bd
00000010: ccfe 3ebd f0a5 b13c 986c b2bc 0443 6b3d
00000020: 7501 213e c222 c33d 687e 55bd c6e3 0dbe
00000030: 62ab d53d ff1a 3dbe b082 373c 989b 213d
00000040: 308a a1bd b639 21be 3875 023d c03a aebb
00000050: b482 0f3d 81b5 113e 8857 4bbd c21e e03d
00000060: 3954 173e 9885 143d 28be 8b3c fa75 3fbe
00000070: 24fc 02be 6216 9f3d c24a 963d 2236 9e3d
00000080: 70c6 f43c 2e84 913d 823c f33d 78d2 073d
00000090: 88d0 5ebd f221 833d d058 483c 485f 373d
000000a0: da2a ebbd e299 ec3d 0c86 143d 6755 4b3e
000000b0: 8ae0 a43d 5027 febc dea2 18be f1df 4b3e
000000c0: aa05 fcbd 2283 b33d 5529 24be ea42 a83d
000000d0: 72ef d43d 9e99 f93d 3031 ca3c 43b0 b6bd
000000e0: 56c3 cf3d b027 0cbc 2cd9 1a3d 80da 0fbc
000000f0: 0d0d 43be f8a0 15be 30cd a83c ca52 f7bd
00000100: 215d 0a3e a84e 58bd 80ce 9a3c 125a e73d
00000110: 80d9 99bd ac60 3dbd b09a 0e3c 22fe 833d
00000120: 007b 0bbc e760 2e3e 88a3 3fbd e32a 23be
00000130: 2816 113d 0063 bcbb a099 45bc 4056 c7bc
00000140: 0455 673d 3aed e83d c6ce 893d 519a 123e
00000150: 88a8 46be c09e d1bb c53c 44be 9a5c ee3d
00000160: 1d63 3fbe 80fb 40bc 4014 aa3c 5515 35be
00000170: 475d 4a3e b2b7 24be 80cb 1c3c 908b 07be
00000180: dd73 aabd 807c 1ebb 12f7 b43d 407d b8bc
0.15184726 0.048038274 0.12550469 -0.08193713 -0.046629712 0.02168557 -0.021780297 0.057436958
0.15723212 0.09528114 -0.052122504 -0.1385642 0.10433079 -0.1846733 0.011200592 0.039455026
-0.07887685 -0.15744671 0.03185007 -0.005317062 0.035036758 0.14229394 -0.049644023 0.109433666
0.14778222 0.036260217 0.017058447 -0.18697348 -0.12791497 0.07767941 0.07338478 0.07725169
0.029879779 0.071052894 0.11876775 0.033159703 -0.05439809 0.06402959 0.012228206 0.0447686
-0.11482783 0.11552788 0.03626065 0.19856797 0.0805064 -0.031024605 -0.14905879 0.19909646
-0.12305768 0.08765246 -0.16031392 0.08215888 0.10397233 0.12187503 0.024681658 -0.08920338
0.10144679 -0.008554384 0.037804767 -0.008780122 -0.19047947 -0.14612186 0.020605654 -0.12076338
0.13512088 -0.052809387 0.018897295 0.112964764 -0.07512188 -0.04623477 0.008703873 0.06444956
-0.008513212 0.17029153 -0.046786815 -0.15934329 0.03542152 -0.0057491064 -0.012060553 -0.02433312
0.05647756 0.113733724 0.06728892 0.1431668 -0.19400227 -0.0063970983 -0.19163807 0.11638756
-0.18690152 -0.011778712 0.02076161 -0.17683919 0.19762145 -0.16085699 0.009570003 -0.13236833
-0.083228804 -0.0024183095 0.088361874 -0.022520661

bias f4 [4]
00000000: e8c3 45bd 28b3 2fbd e1b1 243e 9461 013d
-0.048282534 -0.042895466 0.1608348 0.0315872
