models/_brain_44.pt (torch, 14593 bytes, 12 tensors)

weight f4 [14]
000000 00 00 80 3f 00 00 80 3f 00 00 80 3f 00 00 80 3f
       1.0 1.0 1.0 1.0
000010 00 00 80 3f 00 00 80 3f 00 00 80 3f 00 00 80 3f
       1.0 1.0 1.0 1.0
000020 00 00 80 3f 00 00 80 3f 00 00 80 3f 00 00 80 3f
       1.0 1.0 1.0 1.0
000030 00 00 80 3f 00 00 80 3f
       1.0 1.0

bias f4 [14]
000000 00 00 00 00 00 00 00 00 00 00 00 00 00 00 00 00
       0.0 0.0 0.0 0.0
000010 00 00 00 00 00 00 00 00 00 00 00 00 00 00 00 00
       0.0 0.0 0.0 0.0
000020 00 00 00 00 00 00 00 00 00 00 00 00 00 00 00 00
       0.0 0.0 0.0 0.0
000030 00 00 00 00 00 00 00 00
       0.0 0.0

weight f4 [25, 14]
000000 54 cb 07 be d1 4e 58 be cb 9a 80 be e4 62 91 3d
       -0.13261157 -0.21123816 -0.25118098 0.0709894
000010 54 af 5d be 12 40 30 be 43 8e 22 be c9 1b 84 3e
       -0.21648914 -0.17211941 -0.15874581 0.25802448
000020 10 5a 75 bd 78 35 e4 3d c4 04 60 3e 60 d1 54 3e
       -0.059900343 0.11143011 0.21876818 0.20782995
000030 d4 29 15 be 14 2e 52 3e 86 14 50 be 60 8a fd 3d
       -0.14566737 0.2052539 -0.20320329 0.123799086
000040 38 04 a6 bc 22 ff 72 3e 16 9a fa bd b8 78 33 bd
       -0.020265684 0.23730138 -0.12236421 -0.0438163
000050 dd 6e 73 be c0 6f 9d 3b 8c 84 93 bd a0 5e 11 3d
       -0.2377276 0.0048045814 -0.07203016 0.035490632
000060 71 8e 83 3e 40 5c 40 bc 68 04 aa 3d 90 06 f6 3d
       0.25694612 -0.011740744 0.08301622 0.120129704
000070 52 29 33 be f4 54 39 3e 14 2a e4 3d 00 f4 58 bb
       -0.17496231 0.18098813 0.11140838 -0.003310442
000080 23 62 33 be 50 7f 90 3c 58 98 ad bc e0 78 70 3d
       -0.17517905 0.017638832 -0.021190807 0.058709025
000090 00 e1 1a bd f0 f5 a7 3c a8 d0 8e bd 60 b2 fe 3c
       -0.037812233 0.020503014 -0.06973392 0.031090915
0000a0 e0 8b 2a 3c a5 d1 6e be 70 e8 8e 3c 20 cf 3f 3d
       0.010409325 -0.2332216 0.01744482 0.04682839
0000b0 db 0d 55 be e0 37 11 3d 2e 83 8e bd 44 a9 59 bd
       -0.20806067 0.035453677 -0.06958614 -0.05313994
0000c0 e0 ae 6e 3d e0 51 6c 3c 40 bd b4 3d 52 06 29 be
       0.058272243 0.014423817 0.08825159 -0.16506317
0000d0 55 a8 0f be a0 3d 2f be d4 9d 78 bd 60 f4 28 3c
       -0.14029057 -0.17113352 -0.06069739 0.01031217
0000e0 00 55 b0 bb 94 74 cf 3d 4c 6a 3b bd 98 5c f1 bd
       -0.0053812265 0.101296574 -0.04575567 -0.11785239
0000f0 e0 a9 fb bd 18 40 09 3d 66 7d 35 3e 00 5e 02 3e
       -0.122882605 0.03350839 0.17723617 0.1273117
000100 f4 51 a4 3d ac b0 3d be db 80 81 be 40 31 d6 bc
       0.08023444 -0.18524426 -0.2529362 -0.026146531
000110 08 c3 39 3e a2 80 46 be a0 61 36 be b0 d5 a0 3d
       0.18140805 -0.19385007 -0.17810678 0.07853258
000120 00 00 7c b8 c8 59 5a 3d 88 16 28 be 3c ca 6b 3e
       -6.0081482e-05 0.05330828 -0.16414845 0.23026365
000130 e6 ac 42 3e 3c 7c 47 3e 10 9e 60 bd 44 7e 11 bd
       0.19011268 0.19480985 -0.05483824 -0.035520807
000140 f6 66 a8 bd f2 29 79 be c1 d8 43 be a0 8e f5 3c
       -0.08222763 -0.24332407 -0.19125654 0.029975235
000150 66 56 2c be f6 85 d2 bd e6 8f 5a 3e ec a4 68 3e
       -0.16829833 -0.10279457 0.21343955 0.22719163
000160 10 46 c4 bc 98 93 03 be 4a a2 25 be e0 71 2c be
       -0.02395919 -0.12849271 -0.1617519 -0.16840315
000170 ba 5d 1d 3e 93 09 01 be 02 fb 0a 3e b6 8e 19 3e
       0.15367785 -0.12601309 0.13572314 0.14995846
000180 3a 25 4f 3e ba ae a5 bd 90 f4 db 3d e4 e7 b9 3d
       0.20229045 -0.08089967 0.10740006 0.09077433
000190 40 72 e1 bb 90 6f 3d be 74 41 6a bd 92 08 3c 3e
       -0.0068800747 -0.18499589 -0.057191327 0.18362644
0001a0 70 28 45 3d a4 20 5c be 1c 84 50 3e b8 b8 31 3d
       0.048134267 -0.21496826 0.20362896 0.043389052
0001b0 ea cb 74 3e 1d ee 82 be 38 f6 5c 3e 90 2e 1f bd
       0.23905912 -0.2557229 0.215783 -0.038862765
0001c0 fe c0 36 be 78 15 61 3e 72 7a 35 be 58 48 9a bc
       -0.17847058 0.21980846 -0.1772249 -0.018833324
0001d0 f2 4c 14 3e 20 cb d0 bc a0 f8 33 3d b8 ff 4a bd
       0.14482477 -0.025487483 0.04393828 -0.04956028
0001e0 a4 f2 b1 3d a0 7c ba 3d ec fa 25 bd a8 4b 2d 3d
       0.08688858 0.091058016 -0.0405225 0.04230848
0001f0 fa fd 3a 3e 56 76 40 be 8c 01 11 3e 88 b4 0e 3d
       0.18260947 -0.18795142 0.14160746 0.034840137
000200 2d 54 60 be 40 9f 1c be d6 d8 55 3e 70 6b 3b 3d
       -0.2190711 -0.15295124 0.20883498 0.045756757
000210 58 ae 3f 3e 18 65 0c 3e ba df 1e 3e f6 5c 40 3e
       0.1871885 0.13710439 0.15515032 0.18785462
000220 20 51 7f 3c d0 fe 0e 3d a0 0b 3e 3c 63 89 0f be
       0.015583307 0.034910977 0.011599451 -0.14017253
000230 f4 81 0a bd b0 8d 48 3e f6 41 43 be 20 0a a5 3c
       -0.03381534 0.195853 -0.19068131 0.02014643
000240 94 60 3c be 90 d8 05 be 9a f2 91 bd b0 ff 58 3e
       -0.18396217 -0.13070893 -0.07126351 0.21191287
000250 6e fe d8 bd 88 ff 16 3e 8c 38 08 bd a4 0d a1 3d
       -0.105954036 0.14745915 -0.033257052 0.0786393
000260 0e 99 85 be 5c a9 34 be 30 44 5c 3d 82 e8 63 be
       -0.26093334 -0.1764273 0.053775966 -0.22256663
000270 6c e1 4e be 70 99 67 3d 16 d9 54 be 09 cc 7d be
       -0.20203179 0.056542814 -0.20785937 -0.24784864
000280 a4 a7 ea bd 82 a5 2d 3e 76 86 74 3e 30 f7 1f 3e
       -0.11457756 0.16957667 0.23879418 0.15621638
000290 94 45 94 3d 10 85 3b 3d 13 1c 05 be be 95 a8 bd
       0.072398335 0.045781195 -0.1299899 -0.08231686
0002a0 c7 3d 20 be 3c d8 28 be 4a 21 06 3e 90 66 81 bd
       -0.15648566 -0.16488737 0.13098636 -0.0631839
0002b0 d9 4c 82 3e 44 e2 6a bd 0c 64 82 be 5a 89 af bd
       0.25449255 -0.05734469 -0.25466955 -0.085711196
0002c0 a8 b5 2e 3d c4 98 59 bd 88 95 11 3d a8 af 72 be
       0.04265371 -0.053124204 0.035542995 -0.2369982
0002d0 1c 74 ce bd f4 0e 85 3d 50 4c 91 3c 86 83 1c 3e
       -0.1008074 0.06496993 0.017736584 0.15284547
0002e0 94 fd e8 bd bc 65 4f be b0 34 3b bd f5 bb 20 be
       -0.11376491 -0.20253652 -0.045704544 -0.156967
0002f0 b6 e3 9f bd b6 d7 7a 3e ff 8f 18 be 10 c8 3f bd
       -0.07807104 0.2449635 -0.1489868 -0.046821654
000300 a8 57 16 bd f4 1b 5c 3e 50 11 3d be 78 f7 a9 3d
       -0.03670469 0.21495038 -0.18463635 0.08299154
000310 b2 35 d7 bd 6f f9 87 3e 5c 0a 1e be 04 0f 26 be
       -0.105082884 0.2655749 -0.1543364 -0.16216666
000320 94 6c cf bd 59 23 10 be 18 4a 69 3d 88 af 4b 3e
       -0.101281315 -0.14075984 0.056955427 0.19891179
000330 a8 a1 43 3e 22 23 d5 bd 30 41 2b 3d 40 35 ba bb
       0.19104636 -0.10407092 0.041810215 -0.0056826174
000340 68 52 bd 3d bc 87 fb 3d 42 12 32 3e 50 f2 40 be
       0.09244233 0.12281749 0.17389777 -0.18842435
000350 38 a5 b6 bd fe 50 16 3e 32 ba 5b be 19 15 87 3e
       -0.08918232 0.14679334 -0.21457747 0.26383284
000360 8c 23 33 3e d0 ec b5 bc 6e df e4 bd 3e e4 4f 3e
       0.17494029 -0.022207648 -0.11175428 0.20301911
000370 ae 15 9e bd 15 e7 70 be 54 77 bd 3d 90 d8 32 3e
       -0.07718979 -0.23525651 0.09251276 0.17465425
000380 ba f5 5b 3e 30 d7 8d bc 8e 1b 5f be ef 1f 0b be
       0.21480456 -0.017314523 -0.21787855 -0.135864
000390 c0 0f 8d 3d 58 ef 07 3d 98 5a 0f 3d 61 1e 13 be
       0.0688777 0.03318724 0.034998506 -0.14367057
0003a0 84 f3 03 be 6a 16 cc bd dc 29 0a bd 88 c0 60 bd
       -0.12885863 -0.09965213 -0.033731326 -0.054871112
0003b0 d6 33 20 be 1c 30 bb bd c3 06 83 3e a4 6e 5b 3e
       -0.15644774 -0.091400355 0.25591096 0.21428925
0003c0 40 62 9d bb 74 5f 32 be 02 b4 1a 3e 18 e2 ea 3d
       -0.004802972 -0.17419225 0.1510773 0.11468905
0003d0 88 d9 51 3e 5d af 5d be 94 8e e4 3d 78 5e dd 3d
       0.20493138 -0.21648927 0.11160007 0.10809034
0003e0 57 0a 86 be 64 1e a5 3d a0 d5 38 be c8 61 91 3d
       -0.26179764 0.08062437 -0.18050241 0.070987284
0003f0 b4 f7 2a bd 90 ee 6d 3e cc 2c 83 3d f2 a0 31 be
       -0.041740134 0.23235536 0.06405029 -0.17346552

bias f4 [25]
000000 c4 3a 9c 3d ec 32 75 be 40 76 a1 3c ea 27 63 3e
       0.07628396 -0.23945206 0.019709706 0.22183195
000010 02 66 4c be 28 aa aa 3d dc d7 49 bd c8 e6 93 3d
       -0.19960788 0.08333236 -0.049278125 0.072217524
000020 16 97 ba bd 08 0e b8 bc 9e 49 75 3e de 77 29 3e
       -0.091108486 -0.022467628 0.23953864 0.16549632
000030 36 bb 45 be a0 89 6a 3c 7c 1d d1 3d c2 81 f1 bd
       -0.19309697 0.014315039 0.10210702 -0.117923275
000040 4c 11 e1 3d 2e 8f e8 bd cc 2f 30 3e 3e 21 86 be
       0.10989627 -0.11355434 0.17205733 -0.26197237
000050 f2 74 44 3e 18 7f e7 3d 0a 55 06 be 34 e6 44 be
       0.19185236 0.11303538 -0.13118377 -0.1922844
000060 ea 1d 91 bd
       -0.07085784

weight f4 [25, 25]
000000 79 7a 25 3e f6 cf d4 3d 00 4f 34 3c f3 c0 25 be
       0.16160001 0.10391228 0.011005163 -0.16186886
000010 b7 a2 43 3e 70 2d cb bd da ec be bd 1c 29 5c 3d
       0.1910504 -0.09920776 -0.093225196 0.053750142
000020 22 a6 b0 3d ea 6b d2 bd c6 37 17 be 10 27 c7 bd
       0.08625437 -0.10274489 -0.1476737 -0.097242475
000030 72 f9 8e 3d d3 3e 1d 3e 6a e2 9c bd b7 54 e3 bd
       0.06981172 0.15355997 -0.076603726 -0.111001424
000040 ec af 5d 3d 00 0b 5b bc e8 26 1d bd 94 6f 7e bd
       0.05412285 -0.013369322 -0.038367182 -0.062118128
000050 00 e5 60 3c 34 a3 58 bd 8d d9 ad bd e9 cb 1f 3e
       0.013726473 -0.052890018 -0.0848876 0.1560513
000060 79 ae 08 3e 83 23 30 3e a8 f9 4d bd 1d df bb bd
       0.13347806 0.17201047 -0.05028692 -0.09173415
000070 20 58 41 bd 72 15 bd 3d ec c1 4d bd d4 0b 0b 3d
       -0.047203183 0.09232606 -0.050233766 0.033946827
000080 00 78 7e bb 7a 94 ab 3d 6c 80 0c 3d e4 b4 65 3d
       -0.003882885 0.08377929 0.03430216 0.056080714
000090 7f 27 4a be a6 c2 bd 3d 77 79 0a 3e 00 79 6e 3c
       -0.19741629 0.09265642 0.13522898 0.014555216
0000a0 e5 20 10 be 12 3f ee 3d 80 98 8c 3c 7a fc 9a bd
       -0.14075048 0.116331235 0.017162561 -0.07567687
0000b0 55 94 0f be e6 d4 85 bd 22 c5 a4 3d 9f 6b 07 3e
       -0.14021428 -0.06534748 0.080454126 0.13224648
0000c0 e1 73 1e 3e da 6b 27 be 70 c4 10 be 90 02 8b 3c
       0.15473892 -0.16349736 -0.14137435 0.016968995
0000d0 1e f4 00 be c0 db 4c bd 58 12 77 bd 2d a5 c8 bd
       -0.12593123 -0.050014257 -0.06032023 -0.0979713
0000e0 56 78 8f bd 2a c8 46 be fd 96 f2 bd c9 48 02 3e
       -0.07005374 -0.19412294 -0.11845205 0.12723078
0000f0 2c 15 59 bd 8a 2a 06 be 3a f5 c4 3d 8c 6d 23 3d
       -0.052998707 -0.13102165 0.09617086 0.039899394
000100 9a a8 81 3d b7 91 10 3e 53 c6 1a be d0 06 17 bc
       0.06330986 0.14118086 -0.15114717 -0.009217933
000110 30 da 19 3c 10 f9 0f be 68 0c 9f bc 60 1b 67 bc
       0.009390399 -0.14059854 -0.019415095 -0.014105648
000120 a7 ea de bd 80 5c b5 bc 9a e7 c1 bd 60 1e 41 be
       -0.108846 -0.022138834 -0.094680026 -0.18859243
000130 0c ed 04 bd 58 83 7d bd 47 49 f3 bd 97 d9 45 3e
       -0.032452628 -0.061892837 -0.11879211 0.19321285
000140 87 23 d0 bd e2 0c 90 3d 17 87 1c 3e c7 52 ba bd
       -0.10163026 0.07033707 0.15285908 -0.0909782
000150 62 d2 86 3d 02 14 e6 3d d6 43 90 bd a8 c1 77 bd
       0.06583096 0.11234285 -0.07044189 -0.06048742
000160 d3 a4 b4 bd e6 1c 8e 3d 50 69 bf bd 8d f9 dd bd
       -0.088205 0.06939106 -0.09346259 -0.10838614
000170 5d 3e 3e be 40 b1 e2 3c 56 d4 1c be 64 25 5e 3d
       -0.18578477 0.02767241 -0.15315375 0.054234877
000180 97 a5 2c 3e fe de 16 be 2a c2 ec 3d b8 e7 22 3d
       0.16860043 -0.14733502 0.11560471 0.039771765
000190 20 f3 03 3c 36 66 96 3d c3 94 ab bd 94 d8 10 bd
       0.008053571 0.07343714 -0.083779834 -0.035362795
0001a0 7a 38 dd bd a3 d7 01 3e 3a e1 11 be 58 66 c0 3c
       -0.10801788 0.12679915 -0.14246073 0.023486301
0001b0 66 6c d1 3d ea 28 eb bd ed c1 40 be a2 28 c4 3d
       0.102257535 -0.11482413 -0.18823977 0.095780626
0001c0 4a d0 b9 bd aa 44 db 3d d4 cd 44 3d 0d 85 17 be
       -0.09072931 0.10706456 0.048047855 -0.14796849
0001d0 20 6f 41 bc 9d 67 b3 bd ec b4 43 3d ba e1 cd 3d
       -0.011806279 -0.08759997 0.047779962 0.100528196
0001e0 b2 80 d3 3d 70 d3 ce bd 3e 04 b6 3d 36 6e 23 be
       0.10327281 -0.10098922 0.08887528 -0.15960011
0001f0 a3 a9 0c 3e bb 1f 3e 3e 56 c7 11 be 30 d8 c0 bd
       0.13736586 0.18566792 -0.14236197 -0.094162345
000200 2b f1 17 3e f0 6a 0d be c0 b7 c7 3c 14 ef 63 bd
       0.14838092 -0.13810325 0.024379611 -0.055647925
000210 46 a7 1a be aa df 99 bd 43 77 ad bd 2d c0 41 be
       -0.15102872 -0.07513364 -0.08470013 -0.18920965
000220 7d 91 31 3e f4 20 81 bd 80 70 b7 bd 99 56 30 3e
       0.17340656 -0.063051134 -0.089570045 0.17220534
000230 00 a9 ff 3c f5 06 3c 3e ce 97 91 3d 2d ba 2d 3e
       0.031208515 0.18362029 0.071090326 0.16965552
000240 36 2a 80 3d 32 e8 f6 3d 45 9e 03 be 48 c6 44 3d
       0.06258051 0.120560065 -0.12853344 0.04804066
000250 a2 a0 0f be 74 09 1b bd d8 88 fe bc f9 78 2c 3e
       -0.1402612 -0.037850812 -0.031071112 0.16843022
000260 a8 3c a8 3c 1a 48 d4 3d 12 35 07 be 14 35 43 3d
       0.020536736 0.10365315 -0.13203838 0.04765804
000270 4b 99 13 3e d8 a8 48 bd 2f 4c 22 3e 16 ed 87 bd
       0.14413945 -0.048989147 0.15849374 -0.066370174
000280 20 66 41 3d 17 13 c8 bd 5d 52 b9 bd 9e 17 97 3d
       0.047216535 -0.09769266 -0.09048913 0.073775515
000290 09 74 3c 3e 08 c6 32 bd 3d 78 d8 bd ce 0c 1d be
       0.18403639 -0.04364589 -0.10569809 -0.15336916
0002a0 b2 61 a6 3d 14 23 22 3d 80 1d 08 3c e0 60 3e 3c
       0.08124103 0.039584234 0.008307815 0.0116197765
0002b0 50 12 65 3c 67 d2 cb bd 68 b7 41 be f6 08 9a 3d
       0.013981417 -0.099522404 -0.1891762 0.075212404
0002c0 97 8a 27 3e fa 3c e6 3d 90 2a 9c bd 7d b5 a9 bd
       0.16361462 0.11242099 -0.07625306 -0.08286569
0002d0 00 08 cf 3b 18 67 a0 3c d2 71 d6 3d 59 bd 23 3e
       0.0063180923 0.019580409 0.10470928 0.15990199
0002e0 52 a0 84 3d 80 3e b1 3c 62 1e 46 be d2 cc eb 3d
       0.06475891 0.021636248 -0.19347528 0.11513676
0002f0 e6 8a d5 3d 40 1b 81 bd e1 34 4c 3e f6 7c ad 3d
       0.104268834 -0.06304026 0.19942047 0.084711
000300 00 4c eb ba 0d d3 43 3e a8 e6 83 3c 8f 1e 3a 3e
       -0.0017951727 0.19123478 0.016101196 0.1817572
000310 13 3f 07 3e 00 14 eb bd ab 6f 2a 3e 98 34 23 be
       0.13207655 -0.11478424 0.1664416 -0.15938032
000320 2d 84 3d 3e 02 8b 21 be 54 8c 31 3d d1 80 02 3e
       0.18507452 -0.15775684 0.043346718 0.12744452
000330 b0 ea 17 be 33 3a 46 3e 40 70 d0 bc 00 61 91 bd
       -0.1483562 0.19358139 -0.02544415 -0.070985794
000340 60 8c 3a 3d 47 47 45 be 76 80 ef 3d 38 0f 28 be
       0.04554403 -0.19265471 0.11694424 -0.16412055
000350 e4 47 72 3d d9 49 3e 3e 48 7f 33 be c1 2c 1e 3e
       0.05915059 0.18582858 -0.17529023 0.1544676
000360 7a df 96 bd 5b c8 2e be d3 8b 24 be 5a 7f a1 3d
       -0.073668435 -0.17068617 -0.16068964 0.078856185
000370 f0 7c 98 3c fb 98 1c 3e f2 97 ab 3d cb 18 3d be
       0.018614262 0.15292732 0.08378591 -0.18466489
000380 0c aa 66 3d 3a 80 95 bd 57 eb e1 bd d8 a5 2f be
       0.056314513 -0.07299848 -0.11031216 -0.17153108
000390 a5 06 00 3e 6a 6b a7 bd 30 8a ff bd e8 2b a7 bc
       0.12502535 -0.081747845 -0.12477529 -0.020406678
0003a0 0c fa 72 3d 8f d3 06 3e e4 d0 91 bd c7 23 0c 3e
       0.059320495 0.1316664 -0.07119921 0.13685523
0003b0 ca e3 a2 3d 09 bc 2e 3e e0 7e 52 bd cc f2 5a 3d
       0.079536036 0.17063917 -0.05139053 0.053454205
0003c0 c0 14 36 3b 62 55 d3 3d a7 bc ea bd a8 e7 56 bd
       0.0027783364 0.1031902 -0.11461764 -0.05246702
0003d0 18 36 0b 3d 47 41 47 be 5b da 34 be e6 ae b7 3d
       0.033987135 -0.19458495 -0.17661421 0.08968906
0003e0 f1 38 1f 3e c0 1b 06 3d 60 81 ac bb a6 93 95 3d
       0.15549065 0.03274131 -0.005264446 0.07303552
0003f0 67 17 36 3e 52 b7 ab 3d cb 48 34 be 07 a3 cc bd
       0.17782365 0.08384575 -0.17605893 -0.099920325

bias f4 [25]
000000 53 9d c7 bd 5f 0c 3e 3e 40 99 d2 bd f7 e7 a0 bd
       -0.09746804 0.18559407 -0.10283136 -0.07856744
000010 23 52 14 3e c3 f7 2a 3e d2 c5 99 3d 3e ba b9 3d
       0.14484458 0.16696076 0.07508434 0.09068726
000020 26 b8 19 be 25 ff 3a be 93 56 27 3e 94 74 2f 3d
       -0.15011653 -0.18261392 0.16341619 0.042835787
000030 4f f0 49 be 50 1c 79 bc b0 0b 25 3c 50 55 40 3c
       -0.19720577 -0.015204504 0.010073587 0.01173909
000040 a8 4c fa bc 5b 75 3a 3e 7a 52 98 bd 5a 23 c2 bd
       -0.03055413 0.1820883 -0.07437606 -0.09479399
000050 a0 2e 63 bc 92 e3 2d be aa b1 a4 3d e3 75 a9 bd
       -0.013866097 -0.16981342 0.08041699 -0.08274438
000060 0d f1 41 be
       -0.1893961

weight f4 [25, 25]
000000 80 87 e5 bd 0a c5 a9 3d 07 37 ab bd c2 b9 19 be
       -0.11207485 0.08289535 -0.08360105 -0.15012267
000010 a0 d4 98 3b 78 83 26 be 1a ba a2 bd a5 d1 0b 3e
       0.0046640188 -0.16261089 -0.07945652 0.13654192
000020 9e 7b 1f be 65 1f 09 3e 1e 69 d6 3d 9d 91 c7 bd
       -0.155745 0.13390882 0.10469268 -0.097445704
000030 18 8d cb 3c 9d c8 be bd 7b f3 3f 3e 80 63 a9 bc
       0.024847552 -0.09315608 0.18745224 -0.020677328
000040 c2 b8 af 3d e3 e0 2b be 2c 17 62 bd ba cf f6 3d
       0.08580162 -0.16785006 -0.05519788 0.120513394
000050 00 8a 69 3b d7 42 ce bd 40 81 17 bd 80 91 2d be
       0.0035635233 -0.100713424 -0.036988497 -0.16950035
000060 46 09 a3 3d 56 e7 8c bd 0f 90 32 3e f6 03 06 be
       0.07960753 -0.06880061 0.17437766 -0.13087448
000070 86 3a 24 be 47 8c 2a 3e 9b 4d 2f 3e 03 d4 30 be
       -0.1603795 0.16655074 0.17119448 -0.17268376
000080 6f 1a 49 be 0d b8 12 3e ee 02 22 be 40 f1 5e bd
       -0.1963899 0.14328022 -0.1582143 -0.054429293
000090 d1 de 44 3e 96 00 d9 3d 62 85 20 be 03 97 00 3e
       0.19225623 0.10595815 -0.15675882 0.12557606
0000a0 d0 02 50 bc f2 12 fc 3d b2 1e fd 3d 14 51 37 3d
       -0.012695983 0.12308301 0.1235937 0.044755057
0000b0 ba 43 08 be 8b 1a 1f 3e 80 e4 50 bd c0 bb eb bb
       -0.13307086 0.15537469 -0.050999165 -0.0071940124
0000c0 43 e1 ca bd e4 bc 4e 3d b8 69 15 be 03 d6 0f 3e
       -0.099062465 0.05047311 -0.1459111 0.14046483
0000d0 96 74 d1 3d 58 0d 56 bd 00 c8 c1 bc a0 5e 32 bc
       0.10227315 -0.05225882 -0.023654938 -0.010886818
0000e0 5d 1b 36 3e 98 b8 e9 bc f2 3b e8 3d 45 ba 3e be
       0.17783876 -0.028530404 0.11339559 -0.18625744
0000f0 f7 fd a8 bd c4 e8 7b 3d 46 46 04 be 3d 01 f2 bd
       -0.08251565 0.06150128 -0.12917432 -0.118166424
000100 7c 43 62 3d 02 a8 8c 3d b4 cc 1f 3d 80 21 ca bd
       0.05524014 0.068679824 0.03901358 -0.09869671
000110 00 ed 99 bb a0 5e 65 bc 15 80 0a 3e 62 48 9e 3d
       -0.004697442 -0.013999611 0.13525422 0.0772865
000120 d1 dc 3f 3e b0 0b de 3c ff 83 45 3e 42 ab ff 3d
       0.18736579 0.027105182 0.19288634 0.12483837
000130 c8 53 29 3d 43 30 f0 bd bd 26 d9 bd 2a 31 3b be
       0.041339666 -0.11727955 -0.10603092 -0.18280473
000140 07 39 a8 bd 1f aa 3c 3e 50 a9 1e be 0e d8 98 3d
       -0.08214002 0.18424271 -0.15494275 0.07463084
000150 76 ea fc 3d 46 ac b2 3d 18 38 f1 bc b3 38 d6 bd
       0.123494074 0.08724265 -0.029445693 -0.10460033
000160 93 27 ea bd 88 43 11 3d b0 31 1f 3c 7a 50 cd bd
       -0.114333294 0.035464793 0.009716436 -0.10025115
000170 a8 b6 8a 3c a2 e6 35 be 9d b5 a9 bd 93 d9 10 be
       0.0169328 -0.1776376 -0.08286593 -0.14145498
000180 76 1d 9b 3d df f7 07 3e e9 55 02 3e 00 00 00 be
       0.075739786 0.13278149 0.12728085 -0.125
000190 48 96 45 bd 1a fa c1 bd 47 38 ec bd 6f 3f 1a 3e
       -0.048239022 -0.09471531 -0.115341716 0.1506326
0001a0 18 68 12 be c0 42 92 bc ea 0b 44 be a0 65 63 bd
       -0.14297521 -0.017854095 -0.1914517 -0.05551684
0001b0 67 47 bf bd f1 c1 07 3e 44 8d 0c be 58 dd 06 bd
       -0.09339791 0.13257577 -0.13725764 -0.032925934
0001c0 8e 08 14 be ba 3e 8a 3d 51 a5 17 3e 9b a9 33 be
       -0.14456388 0.067502454 0.14809157 -0.17545168
0001d0 3a fb a4 bd ba c1 ca bd c0 2e 81 bd 64 37 5c 3d
       -0.0805573 -0.09900232 -0.06307745 0.053763762
0001e0 4a a7 3d be e8 ea 03 be c3 82 44 be 60 80 a7 3b
       -0.18520847 -0.12882578 -0.19190507 0.005111739
0001f0 da fd f4 3d 54 ae 5b 3d 0a ed c2 3d a5 05 0e be
       0.11962481 0.05363305 0.09517868 -0.1386934
000200 f0 dc 8e bc da af de 3d b0 b0 61 bc b5 73 49 3e
       -0.017439336 0.10873385 -0.013775036 0.19673045
000210 9e f9 23 be cb a8 46 be 32 3a fe 3d 3a 3d db bd
       -0.1601319 -0.19400327 0.124134436 -0.107050374
000220 c0 d4 99 3b 3a 1d d6 3d d8 e6 f5 bc 20 97 36 bc
       0.004694551 0.10454793 -0.030017301 -0.011144429
000230 92 ca fd 3d e2 29 8a 3d 12 f3 b9 3d 58 81 0e be
       0.12392153 0.0674627 0.09079565 -0.13916528
000240 12 f5 19 be b4 2d 35 bd b4 db 05 be 80 6f 47 bc
       -0.15034893 -0.04423304 -0.13072091 -0.01217258
000250 1d 47 a9 bd 08 75 0a be b0 92 fe bd 83 79 aa bd
       -0.08265517 -0.13521206 -0.12430322 -0.08323958
000260 6c 8c 90 bd 4d c1 1c be ae 9d 29 be 3d 85 01 3e
       -0.07058033 -0.15308113 -0.16564056 0.12648483
000270 d0 34 df bd 29 59 1c 3e 58 b8 7f bd dd 03 fa bd
       -0.10898745 0.15268387 -0.062431663 -0.12207768
000280 c8 f4 1c be 88 73 66 bd 99 46 34 3e f8 ee 0b be
       -0.15327752 -0.056262523 0.17605056 -0.13665378
000290 e1 6e 13 3e 0a e2 aa 3d 40 2f 8e 3b c0 1b c4 bb
       0.14397766 0.08343895 0.0043391287 -0.0059847534
0002a0 8c 86 1b bd c2 1d a1 3d de 5f 8b 3d 9e a3 03 be
       -0.03797011 0.07867004 0.068053946 -0.12855384
0002b0 00 15 59 3a 7d 5a 00 3e 00 30 e6 bc ba 2c df 3d
       0.00082810223 0.12534519 -0.02809906 0.10897203
0002c0 f1 d4 1c 3e 68 69 2a 3d 80 98 12 bc eb 10 41 be
       0.15315606 0.04160443 -0.008947492 -0.1885411
0002d0 fc a2 02 be 72 f3 a4 3d 8c 5c 6b 3d 86 eb 8d 3d
       -0.12757486 0.08054246 0.057461306 0.06929688
0002e0 c2 1a 85 3d 2b 99 41 be 7a 24 ba bd 32 cd e0 3d
       0.06499244 -0.18906085 -0.090889886 0.10976638
0002f0 68 8e 21 3d 98 d6 22 bd 17 98 43 3e ba 66 82 bd
       0.03944245 -0.039755434 0.19100986 -0.0636725
000300 c0 f9 f7 bd 07 c0 47 be 3a f0 07 be 18 6e e4 bc
       -0.12108183 -0.19506846 -0.13275233 -0.027884528
000310 40 32 0c 3d 87 bd fa bd 30 8c 1d bc 30 21 b8 bd
       0.03422761 -0.12243181 -0.009615943 -0.08990705
000320 12 ba c6 3d 85 24 4c be 01 20 1f 3e d8 79 57 bd
       0.09703459 -0.19935806 0.15539552 -0.052606434
000330 a9 28 3a 3e c2 ba d6 3d c4 16 73 3d 43 12 34 3e
       0.18179573 0.1048484 0.059347883 0.17585091
000340 06 72 93 bd 74 54 38 3d 34 9b 42 bd 0c da 3a bd
       -0.071994826 0.045002416 -0.047511294 -0.045618102
000350 42 a3 c5 3d 67 a2 af bd 58 20 4c be 63 54 c4 bd
       0.096502796 -0.08575898 -0.19934213 -0.09586408
000360 9e e7 27 be 00 c5 d6 ba b7 d9 21 3e 5d d5 0b 3e
       -0.16396949 -0.0016385615 0.15805708 0.1365561
000370 80 46 87 bd 8a b8 d9 3d 4d 47 28 3e fd 89 9e bd
       -0.06605244 0.10630901 0.16433449 -0.07741163
000380 92 d9 3b be 7a 1a d1 bd 65 45 01 be d3 24 cc bd
       -0.18344715 -0.10210128 -0.12624128 -0.09967961
000390 c8 47 4a bd ad a0 1a 3e ba e6 44 be 22 d5 e6 3d
       -0.049384862 0.15100355 -0.1922864 0.112711206
0003a0 2a 15 85 3d 10 97 f0 3c d4 ab 66 3d 00 f4 aa bd
       0.06498177 0.029368907 0.05631621 -0.083473206
0003b0 42 6d 23 be f8 f8 48 bd fe d5 0e be 67 94 f9 bd
       -0.15959647 -0.04906556 -0.13948819 -0.121865086
0003c0 57 2b 3c be 78 f8 06 3d 28 e3 39 bd 47 01 45 be
       -0.18375908 0.032951802 -0.04538265 -0.19238769
0003d0 c2 63 e9 3d 1b ff 19 be a0 2a 61 3c a1 ad 3c 3e
       0.113959804 -0.15038721 0.013743073 0.18425609
0003e0 d9 7a 2a 3e 80 d3 da bc 68 cf 37 3d b5 9d 2d 3e
       0.16648425 -0.02671218 0.044875532 0.16954692
0003f0 da b1 e9 3d ca 81 9a bd 51 53 07 3e 1e d0 b7 3d
       0.114108756 -0.075442865 0.13215376 0.08975242

bias f4 [25]
000000 2d b6 3d 3e 60 c4 01 3c 60 8e 3a 3c 75 7b 1b be
       0.18526526 0.007920355 0.011386484 -0.15183814
000010 c0 99 20 3d 07 94 b3 bd 62 0c c4 3d 2d de 41 be
       0.039209127 -0.08768468 0.09572674 -0.1893241
000020 8c 11 33 bd 2a bd ea 3d be 48 9a 3d b0 02 f8 bc
       -0.043717906 0.114618614 0.07533406 -0.030274719
000030 ac ba 19 3d b4 71 93 bd f7 ff 0b 3e 13 fd 29 3e
       0.03753154 -0.071994215 0.13671862 0.16600446
000040 50 88 cd bc 1a df b9 3d 28 67 0d bd 55 c9 34 be
       -0.025089413 0.09075756 -0.034522206 -0.17654927
000050 e2 27 bb 3d 25 e2 49 be 12 8d 87 3d fa fc 3b be
       0.091384664 -0.19715174 0.06618704 -0.18358222
000060 fa a9 22 be
       -0.15885153

weight f4 [25, 25]
000000 10 5d 4b be d3 80 39 be 79 e1 46 3e 23 46 fc bd
       -0.1985972 -0.18115549 0.19421948 -0.12318065
000010 b2 c4 dd 3d c0 71 f9 bc 98 07 17 3d eb 7c 41 3e
       0.10828532 -0.030449748 0.036872476 0.18895309
000020 8f 3f 31 be 89 ae 4c 3e cf 0e 35 be 58 c8 ea bc
       -0.17309402 0.19988455 -0.1768143 -0.028659984
000030 96 90 b5 3d 48 0e 38 bd ad d7 16 be 02 ef df 3d
       0.08865468 -0.044935495 -0.14730711 0.10934259
000040 50 b4 bf bc 44 2d 6e 3d 40 63 fe 3b 72 d6 b5 3d
       -0.02340141 0.058148637 0.0077632964 0.08878793
000050 e3 98 27 3e b8 62 02 bd e4 dc 94 bd d2 85 c7 3d
       0.16366915 -0.031832427 -0.07268694 0.09742321
000060 b7 f1 3f be ba cd b7 bd 5d 75 3c be ea 6e 08 be
       -0.1874455 -0.08974786 -0.18404146 -0.1332356
000070 1a 99 b8 3d 2c d1 42 bd 2d f0 c2 bd d2 c8 b5 3d
       0.09013577 -0.047562763 -0.09518466 0.08876194
000080 d0 3a 59 3c 00 9d 69 bc 4f 90 43 3e 6c b9 73 3d
       0.013258651 -0.014258623 0.19098018 0.059503004
000090 82 4a bd 3d 9b 20 46 3e a0 a9 b0 bd b6 8c cf 3d
       0.09242727 0.19348375 -0.086261034 0.1013426
0000a0 71 e2 1b 3e 86 02 aa 3d e0 d9 2d 3d c4 14 86 bd
       0.152231 0.083012626 0.04244411 -0.065469295
0000b0 4a 06 b3 bd 0e 69 c9 3d 98 2b 27 be 72 50 f6 3d
       -0.08741434 0.09834491 -0.16325223 0.120270625
0000c0 9d 62 34 3e c0 e5 a9 3c 31 70 30 3e 80 da 29 3c
       0.17615743 0.020739436 0.17230298 0.010367036
0000d0 76 bb fc 3d a7 09 18 3e f2 18 fe 3d 1c 2a 06 be
       0.12340443 0.14847432 0.12407102 -0.13102001
0000e0 fe c8 fb 3d d4 72 69 3d c3 c3 16 3e c6 a2 a0 3d
       0.122941956 0.056994274 0.14723115 0.078435466
0000f0 66 e5 81 3d d3 c3 a6 bd e7 4e e3 bd f6 17 87 3d
       0.063425824 -0.08142819 -0.11099034 0.06596367
000100 26 71 2c be b7 7e 01 3e 0b 41 40 3e 2d f5 29 3e
       -0.16840038 0.12645994 0.18774812 0.16597433
000110 ff bc 09 3e 0e e7 dd 3d ce 1c d8 3d e3 23 d0 bd
       0.13451003 0.10835086 0.10552369 -0.10163095
000120 f6 98 b6 3d 48 40 21 be 25 c0 32 be c3 06 c4 bd
       0.08915894 -0.15747178 -0.1745611 -0.09571602
000130 22 ea 3a be dd 7e e5 bd f0 f3 9c bc db 86 46 3e
       -0.18253377 -0.11205838 -0.019159287 0.19387381
000140 ea a5 a8 3d 80 aa 74 bd 98 33 21 bd 54 f9 31 bd
       0.082347706 -0.059732914 -0.039355844 -0.04345067
000150 3b 7e 2a be ed d8 3e 3e 08 ff 01 be ec a7 35 3d
       -0.16649716 0.18637438 -0.12694943 0.044349596
000160 92 90 10 be 2f 72 3e 3e 87 5c 4a 3e 94 42 3c bd
       -0.14117649 0.18598245 0.19761859 -0.04596193
000170 58 76 94 bc 80 37 42 be d0 67 87 bc e4 ae 57 3d
       -0.018122837 -0.18966484 -0.016528994 0.052657023
000180 5a bb 8c bd b0 12 b9 bc 45 f1 0f be c8 96 60 bd
       -0.06871672 -0.022591919 -0.14056881 -0.054831296
000190 8e 74 e7 3d c7 98 f5 bd 2c ae 30 bd 4c b6 0d bd
       0.11301528 -0.119920306 -0.043134853 -0.03459768
0001a0 f3 17 ed bd 0f 50 03 3e 63 25 c1 bd bd 6a 38 3e
       -0.115768336 0.12823509 -0.09430959 0.18009467
0001b0 80 e0 59 3c c3 42 2b be ae 50 09 be f7 6b ba bd
       0.013298154 -0.16724686 -0.13409683 -0.09102624
0001c0 58 77 78 bd 70 54 fb bc 21 40 19 3e ed 2c e1 bd
       -0.06066069 -0.030679911 0.1496587 -0.10994897
0001d0 0d ca 47 3e 00 f6 52 bd 64 70 5b 3d 8a 21 c8 bd
       0.1951067 -0.051504135 0.05357398 -0.09772022
0001e0 a0 32 f9 3b 1c 4f 7a 3d b4 cc 7c bd 77 51 f3 bd
       0.007604912 0.0611106 -0.061718658 -0.118807726
0001f0 2e b8 2a be 70 d6 1e be 7e 58 0b be 19 95 2c 3e
       -0.16671821 -0.15511489 -0.13607976 0.16853751
000200 5f 6c 00 3e 1a f6 87 3d 65 b3 42 be c9 6a 13 3e
       0.1254134 0.06638737 -0.19013746 0.14396204
000210 fa c4 e7 3d 17 30 d7 bd 39 d3 31 3e 00 c3 4c 3a
       0.11316867 -0.10507219 0.17365731 0.00078110397
000220 48 a4 35 bd 80 6a 13 3d c0 d3 89 3b 06 02 06 be
       -0.044346124 0.03599024 0.004206151 -0.1308671
000230 a8 4c 26 3d b9 ac 41 3e 52 10 e4 3d 22 bd c7 3d
       0.04060045 0.18913545 0.11135925 0.09752871
000240 0b 6e 1a be 6d ef bf bd 47 2f 2f 3e bd a6 43 3e
       -0.1508104 -0.09371839 0.17107879 0.19106574
000250 aa f1 c8 3d 99 07 29 3e ce f8 fe 3d 00 85 1f bc
       0.09811719 0.16506805 0.124497995 -0.0097362995
000260 29 1e 18 3e 34 18 16 bd d2 24 1a be 85 78 13 3e
       0.14855255 -0.036644176 -0.15053108 0.14401443
000270 a7 eb cd bd 60 8c cb bb 96 e4 19 be ea c6 01 be
       -0.10054713 -0.0062118024 -0.15028605 -0.12673536
000280 33 0b 13 3e 9a 86 fe bd 67 ed 18 3e 67 e3 17 3e
       0.14359741 -0.12428017 0.14934312 0.14832841
000290 10 7a 2b be 68 6e 23 be 87 e6 41 be 4b 7e 3d 3e
       -0.16745782 -0.15960085 -0.18935595 0.18505208
0002a0 09 81 02 3e 68 3c 20 be ee 0e a4 3d af 53 2a 3e
       0.12744536 -0.15648043 0.0801066 0.16633485
0002b0 6a 4e f6 bd 39 1b 01 3e 46 56 2c be b0 dd a3 bd
       -0.12026675 0.12608041 -0.16829786 -0.08001268
0002c0 26 ce f6 3d 08 a6 32 be 00 70 17 bd 22 46 ff 3d
       0.120510384 -0.17446148 -0.036972046 0.12464549
0002d0 4b 30 1c be d3 d4 a6 bd fa 99 85 3d 80 59 b4 3a
       -0.15252797 -0.08146062 0.06523509 0.0013759583
0002e0 ec 50 30 3d fa d6 fa 3d b9 92 2b 3e da 47 87 3d
       0.043045923 0.12248035 0.16755189 0.066055015
0002f0 bd 8a dd bd e0 ec 45 3c 08 3d 41 be 00 91 35 bc
       -0.10817478 0.012080401 -0.18870938 -0.011081934
000300 f4 ec 5d 3d 17 f2 2d 3e b0 c8 37 bc 50 12 b5 bc
       0.054181054 0.16986881 -0.011217281 -0.022103459
000310 78 20 49 bd ae d7 8b 3d 76 3b 97 bd 9a d2 fc bd
       -0.04910323 0.06828247 -0.07384388 -0.123448566
000320 a0 0f 66 3c 70 e9 96 3c 54 2c 31 3d 30 ed 12 be
       0.014041811 0.018421859 0.043255165 -0.14348292
000330 65 2d 28 3e f0 1a 18 be b4 36 87 bd 30 88 d2 bd
       0.16423567 -0.14854026 -0.06602231 -0.10279882
000340 e3 ef be bd 7a 01 8d 3d 17 9a 09 3e 20 71 0e bc
       -0.093230985 0.06885047 0.13437687 -0.008693963
000350 56 63 80 3d 5f bc 16 3e 80 4c 70 3b 58 13 45 3d
       0.06268947 0.14720295 0.0036666691 0.04811415
000360 ec 9a 5b bd 8a 9c f0 3d b9 06 0d 3e c0 83 c4 bb
       -0.053614542 0.117486075 0.13772096 -0.005997151
000370 ea e2 b0 3d 7a 74 2c be b0 19 88 3c 65 2f 21 be
       0.086370304 -0.16841307 0.016613811 -0.15740736
000380 8c 32 24 3d 3a 72 48 be 7a 43 c5 bd 9e cb a7 3d
       0.040087268 -0.19574824 -0.09632011 0.08193134
000390 5a 53 2d be 46 8a e0 3d 83 ab a9 bd 18 74 8a 3c
       -0.16926327 0.109638736 -0.082846664 0.016901061
0003a0 f8 28 4c bd 20 07 10 bd 88 0f 3f 3d 28 90 33 bd
       -0.04984376 -0.035163045 0.04664567 -0.04383865
0003b0 c4 9b 02 be 27 ca 05 3e 28 49 2d be 02 70 8e 3d
       -0.12754732 0.13065396 -0.16922438 0.069549575
0003c0 a0 5d 7b bc 39 61 03 3e 28 17 91 3c 0c ac 21 bd
       -0.015342146 0.12830056 0.017711237 -0.039470717
0003d0 2d d7 ec bd 53 65 a9 bd a7 62 30 3e 52 e9 bb 3d
       -0.11564479 -0.08271279 0.17225133 0.09175362
0003e0 58 8c 19 be 1a 70 9b 3d 7d 58 2a 3e d1 9d 0e 3e
       -0.14994943 0.07589741 0.16635318 0.1392739
0003f0 12 57 3e be 38 5b 56 bd d4 4a 0f bd 6d a2 16 be
       -0.18587902 -0.052333087 -0.03498347 -0.14710398

bias f4 [25]
000000 11 33 1a 3e eb 41 45 3e 6a 58 a3 3d 70 be cc 3c
       0.15058543 0.19263427 0.07975848 0.024993151
000010 40 fb c3 3b 6c 39 7d 3d 9d ec 08 be 40 d8 bc bb
       0.005980879 0.06182234 -0.13371511 -0.0057630837
000020 57 65 32 be 53 50 1d be 82 1a a0 3d 30 f5 f4 bc
       -0.1742147 -0.15362673 0.07817556 -0.02990207
000030 aa 46 2c be e0 04 0e 3c be de 0b be e5 ee 2f 3e
       -0.16823831 0.0086681545 -0.13659188 0.17180975
000040 74 d1 25 3d 32 6e e6 3d 23 e5 dc bd c1 8b 1f 3e
       0.040482953 0.11251487 -0.10785892 0.15580656
000050 82 26 27 be da 90 af bd d8 4f 31 3d 02 fd 9a 3d
       -0.16323283 -0.0857255 0.043289036 0.07567789
000060 00 24 e6 ba
       -0.0017558336

weight f4 [4, 25]
000000 76 f4 83 bd 80 5e f7 ba 77 33 1c 3e 6b 87 09 3e
       -0.064431116 -0.0018872768 0.15254007 0.13430564
000010 9d a4 0d 3e 09 a9 4b 3e 53 08 23 be a0 6c fd bd
       0.13832326 0.198887 -0.15921144 -0.12374234
000020 cd 5c aa bd 68 fa e6 bc 74 a9 92 bd 7d d0 28 3e
       -0.083184816 -0.028195575 -0.07161227 0.16485782
000030 3a 80 9a 3d f0 11 d1 bc db ba 12 3e 18 cc 10 bd
       0.075439885 -0.025521249 0.14329092 -0.03535089
000040 bf b5 3c be 87 12 d0 bd 40 84 47 3d 5d de b8 bd
       -0.18428706 -0.10159784 0.048710108 -0.090267874
000050 d3 98 2e be e6 15 80 bd 13 fb a3 bd 15 22 27 be
       -0.17050485 -0.06254177 -0.08006873 -0.16321595
000060 48 de 07 3d b6 9c a8 3d ff 18 3b 3e 08 dd 38 be
       0.03317097 0.08233015 0.18271254 -0.18053067
000070 86 5c d9 3d 07 57 3e be b0 9c 4c 3c 58 0c db bc
       0.106133506 -0.18587886 0.012488529 -0.026739284
000080 c6 c0 fa 3d 42 11 b9 3d 4e a9 c6 3d 6a a6 8d 3d
       0.122438 0.09036495 0.09700261 0.069165066
000090 b0 93 8b bd 80 8f 2b be b4 4b 38 3d 1b 90 37 3e
       -0.068152785 -0.1675396 0.04499407 0.17926066
0000a0 52 e7 05 be 55 f1 40 3e 57 0a ca bd aa 87 24 be
       -0.13076523 0.18842061 -0.098652534 -0.16067377
0000b0 c6 41 82 3d ca 2c 02 be b2 33 03 be 4a 2c bc bd
       0.063602015 -0.12712398 -0.12812689 -0.09188135
0000c0 8a b5 41 be 66 3b b5 3d bb 79 3e be 18 c1 a5 3c
       -0.18916908 0.0884922 -0.18601124 0.020233676
0000d0 20 57 29 3d 3a 92 bb bd ca d9 f3 3d 50 ba c7 3c
       0.041342854 -0.0915875 0.11906774 0.024380833
0000e0 5a a8 d4 3d a0 6b 9a bd 20 93 b5 bd 72 90 ec 3d
       0.10383673 -0.07540059 -0.088659525 0.11550988
0000f0 00 8a 8e 3c 20 db 33 bc d3 59 ad bd 17 8a 11 3e
       0.017399788 -0.010977536 -0.08464398 0.14212833
000100 30 34 7d 3c 26 d8 98 bd 98 ad d8 3c ca 80 95 bd
       0.015454337 -0.07463102 0.026449963 -0.07299955
000110 d8 48 1c bd ea 8e 24 be d8 8a 82 bc 40 00 2f 3d
       -0.038155407 -0.16070142 -0.015935346 0.042724848
000120 00 72 05 3a e8 4e 92 bc 7c 93 69 3d b8 8f 07 bd
       0.00050905347 -0.017859891 0.057025418 -0.033096045
000130 43 45 d3 bd 9d 55 a3 bd 82 96 db 3d 40 2b 9a bc
       -0.10315945 -0.07975314 0.107220665 -0.018819451
000140 00 36 f7 bc c1 48 40 3e 60 00 6e bd bb 6b 3f 3e
       -0.030177116 0.18777753 -0.058105826 0.1869344
000150 03 42 20 3e aa 86 97 3d eb a3 45 be 06 a0 81 3d
       0.15650181 0.07398732 -0.19300811 0.0632935
000160 bc 5d 95 bd 08 81 44 bd bb d7 06 3e 1e e3 80 3d
       -0.07293269 -0.047974616 0.13168232 0.06293319
000170 d8 ac 21 bd 90 cf cb bc a4 03 71 3d 68 5e a6 3c
       -0.039471477 -0.024879247 0.058841363 0.020308688
000180 91 f6 36 3e c9 83 49 3e 60 9c 1b be e4 96 57 3d
       0.17867495 0.19679178 -0.15196371 0.052634135

bias f4 [4]
000000 2e 71 f1 3d 46 e7 96 bd d8 07 d1 3c 1b 37 1b be
       0.117891654 -0.07368331 0.025516436 -0.1515774
