models/_brain_114.pt (torch, 14593 bytes, 12 tensors)

weight f4 [14]
000000 00 00 80 3f 00 00 80 3f 00 00 80 3f 00 00 80 3f
       1.0 1.0 1.0 1.0
000010 00 00 80 3f 00 00 80 3f 00 00 80 3f 00 00 80 3f
       1.0 1.0 1.0 1.0
000020 00 00 80 3f 00 00 80 3f 00 00 80 3f 00 00 80 3f
       1.0 1.0 1.0 1.0
000030 00 00 80 3f 00 00 80 3f
       1.0 1.0

bias f4 [14]
000000 00 00 00 00 00 00 00 00 00 00 00 00 00 00 00 00
       0.0 0.0 0.0 0.0
000010 00 00 00 00 00 00 00 00 00 00 00 00 00 00 00 00
       0.0 0.0 0.0 0.0
000020 00 00 00 00 00 00 00 00 00 00 00 00 00 00 00 00
       0.0 0.0 0.0 0.0
000030 00 00 00 00 00 00 00 00
       0.0 0.0

weight f4 [25, 14]
000000 72 58 3e 3e 2e 5f 6b 3e 2e 9f 85 be 04 58 da bd
       0.18588427 0.22985527 -0.26098007 -0.10661319
000010 5c 11 6b 3e 12 c4 82 bd 64 3b 04 be 28 0f 83 3d
       0.22955841 -0.06385054 -0.1291328 0.06399375
000020 ec 05 87 3d 59 7e 3e be 4c fb 17 bd c2 48 43 be
       0.065929264 -0.18602885 -0.03710489 -0.19070724
000030 14 0b 94 3d a6 2a cf bd 68 fb fe 3d 32 40 73 3e
       0.072286755 -0.101155564 0.12450296 0.23754957
000040 ec 3d 5b bd a4 82 48 3e e8 f8 92 bc 68 de 1b 3d
       -0.05352585 0.19581085 -0.017940953 0.0380539
000050 91 63 45 be 8a dd 0c 3e 46 0a 12 be 1d 8b 88 be
       -0.19276263 0.13756385 -0.14261732 -0.26668635
000060 1e 3c 41 be 22 01 de bd 00 76 d0 ba 08 43 2a bd
       -0.18870589 -0.1084006 -0.0015904307 -0.041567832
000070 22 ef 5e be 14 a9 bd bd 5c c9 a4 3d 4e 1f 73 3e
       -0.2177091 -0.09260765 0.08046219 0.2374241
000080 26 4e 72 3e cc f2 09 be 94 d8 12 3e 70 d1 2c 3d
       0.23662624 -0.13471526 0.1434043 0.042191923
000090 59 cc 88 3e 80 b3 df 3b 72 77 29 3e be 53 26 3e
       0.26718405 0.006826818 0.16549471 0.16242883
0000a0 d0 16 8e 3d ce 5c 77 3e e5 0b 0d be 08 8a d3 3d
       0.06937945 0.24156496 -0.13774069 0.10329062
0000b0 38 fb e3 3d 90 9b b4 bd 8f 0b 52 be fd 29 87 be
       0.111319005 -0.08818734 -0.20512222 -0.26399222
0000c0 f4 8a 3a 3e ac 61 45 3e f0 d5 2b be 78 10 67 be
       0.18217069 0.1927554 -0.1678083 -0.22564876
0000d0 60 3f 86 bd 8c dc 4f be 58 e0 a1 3d ac 2c 75 be
       -0.065550566 -0.20298976 0.07904118 -0.23942822
0000e0 44 db 0b 3e 32 e3 18 3e 10 88 e4 3d d2 c9 64 3e
       0.13657862 0.14930418 0.11158764 0.22342613
0000f0 60 20 d4 bd b2 41 6a 3e 1e cc ad bd a4 02 12 be
       -0.103577375 0.22876623 -0.08486198 -0.1425882
000100 1a 5a f5 bd 20 e1 c6 3d a8 d0 d2 3d bb 20 72 be
       -0.11980076 0.09710908 0.10293704 -0.23645298
000110 68 1e cc 3d 00 12 03 3c 70 48 c2 3c ee 4a 73 3e
       0.09966737 0.007999897 0.023716182 0.23759052
000120 48 ec da bc 5e f6 3a 3e 80 79 4f bc 96 34 55 3e
       -0.026723996 0.18258044 -0.012663245 0.20820841
000130 60 69 d6 bd 5a ab 2b 3e 14 43 05 3e bd 30 63 be
       -0.104693174 0.16764584 0.1301387 -0.22186561
000140 1a 90 15 3e d0 2e eb 3c b1 54 45 be 92 66 06 be
       0.14605752 0.028708845 -0.19270588 -0.13125065
000150 3d 18 30 be 42 71 7e be 0e 77 43 3e 88 ce 22 3d
       -0.17196746 -0.24847892 0.19088385 0.039747745
000160 a0 3c 26 3c 76 86 7e 3e 7c b8 ad 3d fa 69 96 bd
       0.01014629 0.2485598 0.08482453 -0.07344432
000170 81 fa 2b be 94 5f 54 3e 58 5b 52 3e 08 e5 5a be
       -0.16794778 0.20739585 0.20542657 -0.21376431
000180 c8 02 0d 3e 95 71 54 be b5 62 08 be 18 59 67 bd
       0.13770592 -0.20746453 -0.13318904 -0.05648145
000190 20 14 4c bc f8 43 9b bc 2b a1 5c be 04 da 15 be
       -0.01245597 -0.018953308 -0.21545856 -0.14633948
0001a0 3a 1f 23 3e a6 d0 f5 bd 18 fc 6a bd 60 03 02 bc
       0.1592988 -0.12002687 -0.05736932 -0.007935375
0001b0 90 54 94 3d 20 4d cd bc 4e c1 f7 bd 28 dd 3e 3d
       0.072426915 -0.02506119 -0.12097417 0.04659763
0001c0 ce 5a 1a 3e a8 d5 58 bd 70 4c c8 3d f6 fd ad bd
       0.15073702 -0.052938133 0.09780204 -0.08495705
0001d0 a0 af 6b 3e 49 b9 66 be a0 5d a3 3c 96 6f 1d 3e
       0.23016214 -0.22531618 0.019942105 0.15374598
0001e0 a4 62 5f 3e 20 78 29 3d 98 ab 43 3d 40 cb 66 3c
       0.21814972 0.041374326 0.047771066 0.0140865445
0001f0 50 3c a6 3d 84 99 a7 bd b8 70 b5 bc 18 b6 5c 3e
       0.081169724 -0.08183578 -0.022148475 0.21553838
000200 00 5a d1 bb c4 08 f3 bd 0a 9b 5f 3e de d4 66 3e
       -0.0063889027 -0.11866906 0.21836486 0.2254214
000210 12 3c 99 bd d0 9c e5 3c 57 1c 87 be 26 ff 97 bd
       -0.07482161 0.028028876 -0.2638881 -0.074217126
000220 f3 81 80 3e c0 82 4f bd 40 af 27 3e ee b6 12 3e
       0.25099143 -0.050661802 0.16375446 0.14327595
000230 b4 fe 23 3e f1 b6 07 be 23 5d 84 3e a8 4c 37 bd
       0.1601513 -0.1325338 0.25852308 -0.04475084
000240 8f 16 87 be fa 6e 66 3e 40 98 af 3c 7f 74 3c be
       -0.26384398 0.22503272 0.021434903 -0.18403815
000250 50 6b 0d 3e 64 f1 37 bd 34 ee 56 bd 00 ee e6 3c
       0.13810468 -0.044907942 -0.052473262 0.02818966
000260 70 e8 1c be 3c 7e 69 3e 2d e2 14 be 4f 52 87 be
       -0.15323043 0.22802061 -0.14539404 -0.26429984
000270 9c 28 13 bd 00 74 22 ba 79 d2 66 be 4a 16 09 be
       -0.0359274 -0.0006197095 -0.22541226 -0.13387409
000280 3a 89 f6 bd fe 4d 50 be 02 92 2d be e6 85 7f be
       -0.12037893 -0.20342252 -0.16950229 -0.24953422
000290 63 98 11 be 39 48 05 be 06 a1 d1 bd e3 cd 4b be
       -0.14218287 -0.13015832 -0.10235791 -0.19902758
0002a0 e0 88 52 3c 64 ce 2a 3e ba 90 2f be 7c 45 33 be
       0.012850016 0.16680294 -0.17145053 -0.17506975
0002b0 43 4c 86 3e 74 fa 80 bd 20 f4 5d 3c c8 69 5c 3e
       0.26230058 -0.0629777 0.0135469735 0.21524727
0002c0 b4 13 25 3e 2c e4 0d bd b2 f3 30 3e 46 6e 8f bd
       0.16120797 -0.03464143 0.17280462 -0.07003455
0002d0 60 ac 87 3c 0c d5 0b be be 1e 70 3e 40 3c e6 3d
       0.016561687 -0.1365549 0.23449227 0.112419605
0002e0 b0 7b f7 bc 38 ac 28 3e 38 bb 24 3d 20 df 40 bc
       -0.030210346 0.16471946 0.04021761 -0.011771947
0002f0 4a 31 68 be 0a 97 75 3e 68 35 13 3e fe 30 e5 bd
       -0.22675052 0.23983398 0.14375842 -0.11190985
000300 60 b4 f2 3c 1c df 6f bd 78 68 33 3d 44 9f 17 be
       0.029627025 -0.058562383 0.0438008 -0.14806849
000310 20 f9 37 3c f8 78 6b 3e 00 85 fe 3c a4 9d 8a bd
       0.01122883 0.22995365 0.031069279 -0.06768349
000320 60 25 f8 bd 63 ff 39 be 0e 8d be bd b6 cb 7d 3e
       -0.12116504 -0.18163829 -0.09304248 0.24784741
000330 98 2e 22 3d 6a 9b 3b be cc 62 3b 3e 60 49 c3 3c
       0.039595217 -0.18321005 0.18299407 0.023838699
000340 39 af 7e be 54 cc f1 3d 00 fe c1 bc 48 2a 58 bd
       -0.2487153 0.118065506 -0.023680687 -0.052774698
000350 1d 7d 33 be d0 bf 83 bc d0 4c ea 3c a4 9b d8 3d
       -0.17528196 -0.016082674 0.02860108 0.10576561
000360 07 b3 7d be 56 93 69 3e ee 8c 7c 3e 56 b5 58 be
       -0.24775325 0.2281011 0.24663135 -0.21162924
000370 64 ed dc bd 66 c3 c1 bd 50 8a 30 bd 62 4f 3e be
       -0.10787466 -0.094610974 -0.043100655 -0.1858497
000380 b2 0d 2f be 5e fc c3 bd 34 64 7a be 84 63 09 3e
       -0.17095068 -0.095696196 -0.24452287 0.13416868
000390 e0 df 1c be 6a ba 9e bd f0 8c 09 be d4 b0 68 be
       -0.15319777 -0.077503994 -0.1343267 -0.22723705
0003a0 80 87 a8 3b 9b 65 51 be 78 2f dc bc 18 84 ca 3d
       0.005143106 -0.20448916 -0.026878104 0.09888476
0003b0 9d 0a 88 3e ec 3e 05 3e e2 fd 18 be b8 60 c4 3d
       0.26570597 0.13012284 -0.14940599 0.0958876
0003c0 ad 90 0d be 9a 68 56 be c0 be a5 3b 10 0a 76 bd
       -0.1382472 -0.2093834 0.0050581396 -0.06006819
0003d0 38 b6 ac bc 18 43 1d bd 87 b2 5d be 66 76 65 3e
       -0.021082982 -0.038394064 -0.21650134 0.22408447
0003e0 42 79 7d be d8 6a 2b be 82 bc 32 3e 7c e6 87 bd
       -0.24753287 -0.16739976 0.17454723 -0.06635758
0003f0 1c c5 31 be fc 9b 6b 3e 44 e3 0c 3e d6 53 0b 3e
       -0.17360348 0.23008722 0.1375857 0.136062

bias f4 [25]
000000 6a 51 26 be 66 11 15 3e 00 74 df bb 86 b8 4a 3e
       -0.16241995 0.14557418 -0.006819248 0.19796953
000010 e4 36 fc bd 80 75 1d 3d 95 2a 82 3e ea 42 5f 3e
       -0.12315157 0.038442135 0.25423113 0.2180287
000020 9c 67 49 3e 80 d8 47 3e 48 1a 35 3d 26 3a 5b 3e
       0.1966843 0.19516182 0.044214517 0.214089
000030 18 ed 46 bd 8e 11 35 3e 6c 20 55 be 90 3f c8 3c
       -0.048565954 0.17682478 -0.20813149 0.024444371
000040 90 69 48 be 50 6a 93 3d a0 c7 aa bd 74 45 9c bd
       -0.19571519 0.07198012 -0.08338857 -0.07630435
000050 0a fa 34 3e f2 a5 7a 3e fa 05 9d bd 48 ef 4a bd
       0.17673507 0.24477366 -0.076671556 -0.049544603
000060 9b e7 7b be
       -0.24600069

weight f4 [25, 25]
000000 52 84 e9 3d c0 c5 f1 bc 30 3f c4 3c 62 c4 1e be
       0.11402191 -0.02951324 0.023955911 -0.15504602
000010 48 99 30 3d 39 d4 38 3e d0 82 82 bc 94 7b 4c bd
       0.04311493 0.18049707 -0.015931517 -0.04992254
000020 8a 4e b4 bd be 5c 0d be a1 a4 06 3e f9 c4 03 3e
       -0.08804043 -0.1380491 0.13148738 0.12868108
000030 70 0e e0 bd 30 91 1c 3c 58 f5 e0 bc 20 d9 77 bd
       -0.10940254 0.0095561 -0.027460739 -0.0605098
000040 20 83 5e 3c 63 16 36 be 1e 9f 9b 3d 7f 5b 3f 3e
       0.013581067 -0.17781977 0.075987086 0.18687247
000050 fe db 2b be c0 4f f5 bb 2a 49 90 bd 2d 05 2d be
       -0.16783139 -0.0074863136 -0.07045205 -0.16896506
000060 18 92 99 bc 32 5f e1 3d 84 14 80 bd b6 8d 22 be
       -0.01874642 0.11004485 -0.06253913 -0.15874371
000070 a2 12 33 be 00 f6 7f 3a cc 81 60 3d 2d aa 29 be
       -0.17487577 0.0009764135 0.054811284 -0.16568823
000080 1a a8 3d be f0 c5 ab 3c 80 e9 38 bb fd 24 f8 bd
       -0.18521157 0.020968407 -0.0028215349 -0.1211643
000090 6b b4 14 3e 75 38 43 3e c0 a1 4c 3d 70 2a dc bc
       0.14521949 0.19064505 0.049958944 -0.026875705
0000a0 e4 48 65 3d 12 c0 fb 3d 00 87 12 3d 3a 94 d4 3d
       0.055977717 0.12292494 0.035773277 0.103798345
0000b0 fa 21 ba 3d 35 93 35 3e 47 ba c1 bd 03 49 44 be
       0.09088512 0.17731936 -0.09459358 -0.19168477
0000c0 4c 83 6e 3d e6 44 9d 3d 62 e5 e7 3d 00 8c de 3a
       0.058230683 0.07679157 0.11323048 0.0016978979
0000d0 05 8d 37 be 79 7d 31 3e 97 e7 dd bd 8e c7 da 3d
       -0.17924888 0.1733302 -0.10835188 0.10682593
0000e0 43 00 3c be da 14 1b be b8 2e 0b be f9 6c 00 3e
       -0.18359475 -0.15144673 -0.1359204 0.1254157
0000f0 9b 6e 2b be 98 c2 93 3c 2c dc 04 bd 98 45 4c be
       -0.16741411 0.018037125 -0.032436535 -0.19948423
000100 40 a5 87 bd 7f 7f 34 3e c8 fd 33 3d 80 34 30 bb
       -0.06623316 0.17626761 0.043943197 -0.0026886761
000110 c0 b2 4b be 81 52 0a 3e 33 29 1d be 85 43 0c be
       -0.19892406 0.13508035 -0.15347748 -0.13697632
000120 18 5f f8 bc c0 30 1c bb 32 19 cf 3d d8 9e 3e 3d
       -0.030318782 -0.0023832768 0.101122275 0.046538204
000130 68 8d ab bc 34 5f 54 3d 53 1a 1b be a9 d6 46 3e
       -0.020941451 0.051848605 -0.1514676 0.19417824
000140 78 c7 20 3d b4 53 0a be 23 c5 e4 bd 4c 1d 5f bd
       0.03925273 -0.13508493 -0.11170413 -0.0544713
000150 c0 28 e1 3c 10 cf e4 bd 60 c9 18 3d a6 2e b1 3d
       0.027485251 -0.111723065 0.03730142 0.086514756
000160 00 7b 04 3a f6 00 93 bd 6a 82 37 be 70 06 a6 3c
       0.0005053729 -0.07177918 -0.17920843 0.020266742
000170 c2 84 89 3d 47 a7 01 3e 93 9e be bd c0 1e 97 bc
       0.06714775 0.12661467 -0.093075894 -0.01844728
000180 7e 14 ec 3d d7 a3 ce bd 8a c3 f1 3d b0 c2 d4 bc
       0.11527346 -0.10089844 0.11804874 -0.02597174
000190 9b 95 23 3e 71 54 04 3e f0 ea 8c 3c 86 3e b4 3d
       0.15975039 0.12922837 0.01720187 0.08800988
0001a0 4c 0e 31 3d 20 90 5c bd 37 ed 3a be 1b 03 35 3e
       0.043226525 -0.053848386 -0.18254553 0.17676966
0001b0 3b 63 45 be a0 25 ef bb 18 d4 a0 bc 80 d9 eb 3c
       -0.19276135 -0.0072981864 -0.019632384 0.028790236
0001c0 9c 89 7a 3d a2 df ec 3d 90 14 81 3c 00 d8 69 bd
       0.06116639 0.11566092 0.015756875 -0.05709076
0001d0 70 31 20 be 3a b5 e7 bd 58 ee ee bc cb 94 0e 3e
       -0.15643859 -0.11313863 -0.029166386 0.13923948
0001e0 30 72 0d bc 5e 25 bc 3d 54 8d 05 bd 48 15 09 be
       -0.008633181 0.09186815 -0.032605484 -0.13387024
0001f0 d8 e2 d3 3c d9 be 10 3e bf 1f 2f be 00 46 df bc
       0.025865003 0.14135303 -0.17101954 -0.027255058
000200 00 69 3a bc 8b ed 28 be ea 34 ab 3d e4 c8 04 be
       -0.011377573 -0.16496865 0.08359702 -0.12967259
000210 b3 b5 a9 bd 25 21 4b 3e 0c 84 4f bd 7b c0 1b 3e
       -0.082866095 0.19836862 -0.05066304 0.15210144
000220 de 8a af 3d a0 7c 7f bd 00 74 58 bb a4 af 67 3d
       0.08571409 -0.06237471 -0.0033028126 0.05656399
000230 52 96 de 3d 31 cb 22 3e ec 24 10 3d e7 ca 3e be
       0.10868515 0.15897824 0.03519146 -0.18632089
000240 8f 75 33 be f3 6c 48 3e f0 fc ad 3c 52 03 bb 3d
       -0.17525314 0.19572811 0.021238774 0.09131493
000250 65 f2 26 3e 1a a8 23 be 8e 81 24 be 70 27 e3 bc
       0.16303404 -0.15982094 -0.16065046 -0.027728766
000260 40 82 d8 3b b0 30 c5 bd 60 a6 4a bc f2 4c 95 3d
       0.006607324 -0.09628427 -0.012368768 0.07290067
000270 1c 0c 03 be d3 2f a0 bd dd 83 ef bd 28 75 25 bd
       -0.12797588 -0.07821622 -0.11695073 -0.040394932
000280 da 70 aa 3d 00 89 f3 ba e0 1f 2c 3c b0 45 17 be
       0.08322306 -0.0018580258 0.0105056465 -0.14772677
000290 60 9a a3 3b 20 8d db bd 7d c5 08 3e 9f f7 19 3e
       0.004992768 -0.10720277 0.13356586 0.15035866
0002a0 c7 24 c5 bd ce 41 83 3d 53 dd 17 be 8a b7 95 3d
       -0.09626155 0.064090356 -0.14830522 0.07310398
0002b0 6c b1 83 bd 57 8a 38 3e 00 fb 2f be 6b d7 33 3e
       -0.06430325 0.18021522 -0.17185593 0.17562644
0002c0 87 d2 eb bd ad 60 dd bd 2b 15 1e 3e ef a3 33 be
       -0.11514764 -0.10809455 0.15437762 -0.17543004
0002d0 b0 df 27 3c 0c 89 72 3d 14 1b 3d bd 8a 32 1b be
       0.010246202 0.05921273 -0.0461684 -0.15155998
0002e0 61 af 4c 3e 0c 54 77 3d 98 70 ff bc df b6 3b be
       0.19988777 0.060382888 -0.031181619 -0.18331479
0002f0 8e 48 ac 3d 5a 63 82 3d 74 de 56 bd c4 2b 6c 3d
       0.08412276 0.06366606 -0.05245824 0.057658926
000300 4a 2c d5 bd 8e 85 9f 3d 91 a7 38 3e 63 cf af bd
       -0.10408838 0.077891454 0.18032672 -0.08584478
000310 d0 b4 ea bd b8 56 2a be b8 0e 21 be 88 08 47 bd
       -0.114602685 -0.16634643 -0.15728271 -0.04859212
000320 10 4c c5 3c d0 05 96 3c b7 bc 48 be e8 65 f4 3c
       0.024084121 0.018313318 -0.19603239 0.029833749
000330 d8 98 30 be 72 c1 12 be e5 e9 23 be 34 a1 50 3d
       -0.17245805 -0.14331606 -0.16007192 0.050934985
000340 46 83 99 3d a7 49 48 3e 02 b3 91 3d c0 d2 b8 3c
       0.074957415 0.19559346 0.07114221 0.02256143
000350 02 83 eb 3d 87 b1 4c 3e b0 a7 b3 bd e1 42 28 3e
       0.11499597 0.19989596 -0.08772218 0.16431762
000360 18 34 70 bd 10 4a 2e be c0 1f ff bd da 89 31 be
       -0.05864343 -0.1702044 -0.12457228 -0.17337742
000370 90 fc e5 3c 8d da 11 3e 28 94 34 bd 1d 94 4a 3e
       0.028074533 0.14243527 -0.044086605 0.19783063
000380 50 cb 59 bc 80 cf 24 be 76 be d8 3d 49 d2 15 3e
       -0.013293102 -0.1609478 0.105832025 0.14630999
000390 fc f0 71 3d 08 8f 7f bd 58 fc 52 bd 6b 60 14 3e
       0.05906771 -0.062392265 -0.051510185 0.14489906
0003a0 c4 86 4f 3d e0 9d 5a bc 83 bd ce bd d2 e8 88 3d
       0.050665632 -0.013343304 -0.1009474 0.06685032
0003b0 2e 4f fa 3d 4c bf 97 bd a0 d8 11 3d 92 9a e6 3d
       0.122221336 -0.07409534 0.03560698 0.11259951
0003c0 bf f6 33 3e 0a 5a ac bd 9c e4 88 bd b4 f8 6c bd
       0.17574595 -0.08415611 -0.06684229 -0.05785437
0003d0 75 88 34 3e ec 1b 3b bd 80 39 3a be 86 7a a0 3d
       0.17630179 -0.045680925 -0.18185997 0.078358695
0003e0 20 50 c1 bd b7 40 36 3e b8 c7 37 be f0 0c a8 3c
       -0.09439111 0.17798124 -0.1794728 0.020513982
0003f0 23 71 db bd 63 ea 20 3e 54 59 28 bd 89 a5 3e 3e
       -0.107149385 0.15714411 -0.041100815 0.18617834

bias f4 [25]
000000 c7 72 17 3e d0 5f e7 bc 0a af 88 bd 80 e1 19 be
       0.14789878 -0.02824393 -0.06674011 -0.15027428
000010 91 9e 36 3e 91 90 16 3e ad 68 c3 bd 83 78 4b be
       0.17833926 0.14703585 -0.0954145 -0.1987019
000020 9c dc 5b 3d 18 bc d2 bc f7 13 3f be 58 89 d3 bc
       0.053677186 -0.025724456 -0.1865996 -0.025822327
000030 0c ab 3a 3d af 55 3f 3e 14 7d 52 3d e8 52 33 3d
       0.04557328 0.1868503 0.051388815 0.043780237
000040 36 75 94 bd 38 ea 38 bd 5d d5 32 be b4 08 28 bd
       -0.07248919 -0.045145243 -0.17464204 -0.041023925
000050 80 66 8c bc 5c 4f 7a 3d e8 82 10 be 3d 7d a3 bd
       -0.01713872 0.06111084 -0.14112437 -0.07982872
000060 20 4b ed bd
       -0.115865946

weight f4 [25, 25]
000000 43 c6 dc bd 5e ff cb 3d d0 1f 35 3c 00 e7 b2 3c
       -0.10780003 0.09960817 0.011054948 0.021838665
000010 b0 2e be bc 9f e1 34 3e e3 d1 0c 3e 3d 45 14 3e
       -0.023215622 0.17664193 0.1375194 0.14479537
000020 a6 0a f7 3d ec c4 6f 3d c5 cb 41 3e 55 84 0f 3e
       0.12062578 0.05853741 0.18925388 0.14015324
000030 66 3f 24 be ed 59 e1 bd a0 7b e6 bb 27 ff 2d be
       -0.1603981 -0.1100348 -0.00703378 -0.16991864
000040 d8 76 31 be 15 dc 32 be 16 e9 24 be 54 e0 2d bd
       -0.17330492 -0.17466767 -0.1610454 -0.042450264
000050 a4 8a 57 3d 97 4b 13 3e 20 b1 8f bd c6 80 ec 3d
       0.052622452 0.14384304 -0.07016206 0.11547999
000060 6d 42 46 be 6a 0c c9 3d 15 33 27 3e 00 6a 2c 3b
       -0.19361277 0.09816821 0.1632808 0.0026308298
000070 78 ba 29 bd 12 5c 08 be 1e f6 e5 3d 0a e0 c1 bd
       -0.041437596 -0.13316372 0.11228584 -0.0946656
000080 51 07 0c 3e d4 a6 65 3d 68 ca 5c bd 09 51 12 3e
       0.13674666 0.056067303 -0.053903967 0.14288725
000090 0b b6 1e be c8 b5 06 3d 7a e9 cb bd 9a f5 e1 bd
       -0.15499131 0.032888204 -0.099566415 -0.11033173
0000a0 14 d8 7a bd 08 54 3b bd 28 68 92 bc 52 74 8b 3d
       -0.061241224 -0.045734435 -0.017871931 0.06809296
0000b0 f5 1e 18 be 8a 34 a1 bd 8a 79 be bd 0a 0a 2e be
       -0.14855559 -0.07871349 -0.093005255 -0.16996017
0000c0 ea f2 46 be 4c d0 46 3d 44 dc 00 be 82 cd 81 3d
       -0.19428602 0.04853849 -0.12584025 0.06338026
0000d0 32 fe ca 3d cc 4b 4b 3d f0 a4 a9 bd 5b 74 40 be
       0.09911765 0.049632832 -0.082834125 -0.18794386
0000e0 53 85 27 be 40 23 61 3b 3f 64 16 3e 80 d2 69 bb
       -0.16359453 0.0034353286 0.14686678 -0.0035678446
0000f0 e7 13 c6 bd c0 8b 71 bd 4d 68 19 3e aa 88 ec 3d
       -0.09671765 -0.058971167 0.14981194 0.11549504
000100 60 eb e1 bd 30 13 7c 3c cc e8 65 bd 4a bf a0 3d
       -0.11031222 0.015385434 -0.056130216 0.078489855
000110 45 6a 21 be f2 fb ec 3d 46 d3 95 bd 7a 2b c3 bd
       -0.15763195 0.11571492 -0.07315688 -0.09529777
000120 19 38 02 3e 43 c8 d8 bd ca 60 b8 3d 3b 32 14 3e
       0.12716712 -0.10585072 0.09002836 0.14472286
000130 7b bc 19 3e 0b b3 26 be 51 5a 0b 3e 9a 10 8f 3d
       0.15013306 -0.16279237 0.13608672 0.06985588
000140 81 5a 2d 3e 12 17 db 3d 80 01 40 bd 20 67 df bd
       0.16929056 0.1069776 -0.04687643 -0.109083414
000150 b0 7c 6f bc 50 e4 24 bc dc b8 66 3d 97 e0 b0 bd
       -0.01461713 -0.0100642 0.05632864 -0.08636587
000160 62 e1 a5 3d ea a5 b0 3d e9 7c 38 3e 8a 58 81 3d
       0.08099629 0.086253956 0.180164 0.063157156
000170 50 eb c9 3c 65 e9 27 be 6b 63 3c be 80 c8 42 bb
       0.024648339 -0.16397627 -0.183973 -0.0029721558
000180 e0 32 47 be 00 9d 9e 3c 50 9e de 3c b2 64 07 be
       -0.19453001 0.019361973 0.027175099 -0.13222006
000190 a8 46 86 bc 12 eb 2b be e3 72 b2 bd 9d 5a 18 3e
       -0.016391113 -0.16788891 -0.08713319 0.14878316
0001a0 b1 86 03 3e 52 1c 9a 3d 4d 77 e4 bd 7d df 16 3e
       0.1284435 0.07524933 -0.11155567 0.14733692
0001b0 0e 90 16 be 5b 6c 3f 3e c7 84 e6 bd d3 c3 47 be
       -0.1470339 0.18693678 -0.11255794 -0.19508295
0001c0 c5 b1 49 be f3 b6 cc bd 5b 2e 1c be 47 7e 41 be
       -0.1969672 -0.09995832 -0.15252058 -0.18895827
0001d0 08 55 6b bd fd 6c 37 be 18 3b fb 3c 20 36 18 bc
       -0.05745414 -0.1791267 0.030667827 -0.009290248
0001e0 31 0d 18 3e f7 66 31 be 7f f3 1b 3e 8d 29 9b bd
       0.14848782 -0.17324434 0.15229605 -0.075762846
0001f0 b0 09 cb 3c 88 1f 04 3d d8 ab 18 be 1e 23 8d 3d
       0.024784893 0.032256633 -0.14909303 0.06891464
000200 fd 05 4a 3e 6c a2 21 3d a2 5a a7 3d a3 5a be bd
       0.19728847 0.03946154 0.08171584 -0.09294631
000210 86 49 09 be da 88 df 3d d0 47 8b bd a2 f2 23 be
       -0.13406953 0.10914774 -0.068008065 -0.16010526
000220 97 c7 b7 bd 40 31 fc bd 55 d2 31 be a3 76 b0 bd
       -0.089736156 -0.12314081 -0.17365392 -0.08616378
000230 fa 21 3b be c4 63 7f 3d 19 76 33 3e 07 31 e5 bd
       -0.1827468 0.062351003 0.1752552 -0.11190992
000240 22 7a cf 3d 76 4e ab 3d cd 1d 11 3e 40 71 4f bb
       0.10130717 0.083645746 0.14171524 -0.0031653196
000250 38 1a 46 bd b6 16 c9 3d a3 a7 3d be ba 12 09 be
       -0.048364848 0.09818785 -0.1852098 -0.1338605
000260 01 80 14 3e 73 a9 1a be 00 38 2c b9 b4 97 51 bd
       0.14501955 -0.15103702 -0.0001642406 -0.051170066
000270 19 b8 10 3e 2d 92 ef bd 02 13 08 be 3a c9 ab 3d
       0.14132728 -0.11697803 -0.13288501 0.0838799
000280 d6 79 ef 3d bf c1 30 3e fd f1 0b be 0f 51 3e be
       0.1169316 0.17261408 -0.1366653 -0.18585609
000290 10 de db bc 30 ca 90 3c 0d cf 0e 3e 30 01 08 3c
       -0.026839286 0.017674536 0.13946171 0.008301064
0002a0 34 94 87 bd bd e4 3a be 56 38 92 3d 80 e3 13 3c
       -0.066200644 -0.18251319 0.071396515 0.009026408
0002b0 c0 62 90 bb be 13 88 3d 7e c5 18 be c5 63 03 3e
       -0.004406303 0.066443905 -0.14919087 0.12831028
0002c0 e8 d7 93 3c 6f ef 1e 3e 80 89 ac bd 50 38 fe bd
       0.018047288 0.15521024 -0.084246635 -0.124130845
0002d0 67 6c b3 bd 43 46 fd bd d2 09 cb 3d a7 0b d8 bd
       -0.087609105 -0.12366917 0.099139825 -0.105490975
0002e0 83 81 2a be c2 65 ab 3d 55 23 0f 3e 92 29 d1 3d
       -0.16650967 0.08369018 0.13978322 0.10213007
0002f0 50 6b 93 bd 42 4c 87 3d 97 df cf bd 52 bf df 3d
       -0.071982026 0.06606342 -0.10150068 0.10925163
000300 d0 80 d4 bd 5a 74 e6 3d 65 f0 13 3e 2a 00 a0 bd
       -0.103761315 0.11252661 0.14447172 -0.07812531
000310 20 3c f0 bd fe 0c a3 3d 53 b5 ac bd 58 db b5 3c
       -0.11730218 0.079614624 -0.08433022 0.022199318
000320 60 3f bb 3b 40 75 34 be f4 ae 22 bd 57 f2 b7 bd
       0.005714342 -0.17622852 -0.03971763 -0.089817695
000330 25 d6 02 be 22 ca 24 be 80 1f 67 bd 20 51 00 bd
       -0.12777002 -0.16092733 -0.056426525 -0.031327367
000340 00 0b 41 3a d4 b9 78 bd 98 00 ba 3c fe f2 ac 3d
       0.0007364005 -0.060724095 0.022705361 0.084447846
000350 a5 bc 05 be 17 9d 34 3e 17 85 05 3e 28 e9 bc 3c
       -0.13060243 0.1763805 0.13039051 0.023060396
000360 6d fa 13 3e 2c 70 21 bd 40 7c a1 3c ad 4a 3b be
       0.14450999 -0.039413616 0.019712567 -0.18290205
000370 0a a9 98 3d f2 40 1e be ec 14 78 bd a2 01 fd 3d
       0.07454117 -0.15454462 -0.060566828 0.12353827
000380 cd 32 4b 3e f6 61 c2 3d 55 c7 38 be 20 04 5a bd
       0.19843598 0.09491341 -0.18044789 -0.05322659
000390 68 06 36 3d 57 e5 c8 bd 40 bb c1 3b 52 0c c5 3d
       0.044439703 -0.09809368 0.0059122145 0.096214905
0003a0 da 29 dd 3d be a2 ea 3d 9a 43 e0 3d 2a f0 8a 3d
       0.10798998 0.11456822 0.10950394 0.06784089
0003b0 fa eb ab 3d 90 fb 21 be 6d b2 f2 bd b2 f9 35 be
       0.08394618 -0.1581862 -0.11850438 -0.17771032
0003c0 68 52 ac 3c c6 bd b9 3d 30 ed 3c 3c ca 37 c7 3d
       0.021035388 0.090693995 0.011531159 0.09727438
0003d0 8b e6 41 3e 66 fc e6 3d 00 99 ec 3c d8 a7 0b be
       0.18935601 0.1127861 0.02888155 -0.13638246
0003e0 22 bb 94 3d 42 d1 ba 3d 7c ff 68 3d 5a 10 b4 bd
       0.07262255 0.09121944 0.056884274 -0.08792181
0003f0 13 91 24 be 8d ff 39 3e a8 14 5d bd ac 59 7c 3d
       -0.16070966 0.18163891 -0.053974777 0.061608955

bias f4 [25]
000000 62 3e 96 3d 30 76 94 bd 40 4c fa bc a5 49 16 be
       0.07336117 -0.07249105 -0.030553937 -0.1467653
000010 ec da 21 3d a1 d5 06 3e 43 01 c0 bd b4 b5 7a bd
       0.03951542 0.1316743 -0.09375241 -0.06120844
000020 3a 6c 80 bd 23 3d 34 be 81 69 45 3e bb 6f 2a 3e
       -0.062706426 -0.17601447 0.19278528 0.16644184
000030 32 db 81 3d 22 93 f6 3d 50 6f ac bd 26 e8 87 3d
       0.06340636 0.12039782 -0.08419669 0.06636076
000040 20 1d 76 3c f0 34 c2 bd 80 a8 08 bc 09 94 13 3e
       0.015021592 -0.09482753 -0.008340955 0.1441194
000050 f3 ed 32 be d0 d0 f7 bd 40 23 87 3b a0 08 a9 3b
       -0.17473583 -0.12100375 0.004124075 0.005158499
000060 8a b7 35 be
       -0.17745796

weight f4 [25, 25]
000000 00 f0 d0 3c 7a 89 fa 3d 23 73 ed bd a8 62 cc 3c
       0.025505066 0.12233253 -0.11594226 0.024949387
000010 a0 f4 69 bd 95 c9 0c 3e 3a c3 0e be 1a 99 2a be
       -0.05711806 0.13748772 -0.1394166 -0.16659966
000020 cd 3c d1 bd c0 01 96 bc 8d be 33 3e 80 08 da bc
       -0.10216675 -0.018311381 0.17553158 -0.026615381
000030 ea e1 10 be 97 48 bc bd 37 b2 d0 bd ff 30 38 be
       -0.1414868 -0.09193533 -0.10190242 -0.1798744
000040 b3 8f 38 be d2 9a ed 3d ed 54 9b bd 65 9a 34 be
       -0.18023567 0.11601795 -0.07584558 -0.17637022
000050 4e 15 99 3d 22 9e 3e be f7 61 0d 3e 18 bf 1e bd
       0.07474767 -0.1861501 0.13806902 -0.03875646
000060 f0 56 df bc d3 15 32 3e 50 43 4b be 46 39 d6 3d
       -0.027263135 0.17391138 -0.19849896 0.10460143
000070 8e da a7 3d d0 66 52 bc 84 ed 94 bd 60 2a ba 3b
       0.08195983 -0.012841895 -0.07271865 0.005681321
000080 12 b5 e6 3d 99 38 21 3e 30 a5 94 3c 40 ea 1e 3d
       0.11265005 0.15744247 0.018145174 0.038797617
000090 24 b1 77 3d 61 be 3e 3e f8 9c 45 3d 00 df ec bd
       0.06047167 0.18627311 0.0482454 -0.115659714
0000a0 78 0c 75 bd 38 00 27 be 1f 3e 09 3e 20 a7 c2 bd
       -0.059826344 -0.16308677 0.13402604 -0.09504533
0000b0 3c ec 96 bd e8 d3 2a bd f6 16 93 3d 32 55 a5 3d
       -0.07369277 -0.041705996 0.07182114 0.0807289
0000c0 c8 b7 17 bd 98 cd 75 bd be 6d 21 be 2c 13 48 3d
       -0.0370405 -0.060010523 -0.1576452 0.04884641
0000d0 af 30 0e 3e 02 58 00 be 57 8e 26 3e 5a 93 c3 3d
       0.13885759 -0.12533572 0.16265236 0.095495895
0000e0 eb 75 05 3e c4 79 5d 3d 36 3d ba 3d 47 a1 31 3e
       0.13033263 0.054071203 0.09093706 0.17346679
0000f0 60 63 3e be 23 1b 25 3e 7a 6e aa bd ed 92 3c be
       -0.18592596 0.16123633 -0.08321853 -0.18415423
000100 f2 98 0d be 49 4f 1f 3e 9f 2d 1a 3e cd 9e fc bd
       -0.13827875 0.15557589 0.15056466 -0.12334976
000110 7e 15 0c be 1b d6 15 be c8 e0 49 3d d9 77 2c 3e
       -0.13680074 -0.14632456 0.049286634 0.16842593
000120 12 86 8c 3d 17 da 43 be 68 7e 88 3c 67 73 07 3e
       0.068615094 -0.19126163 0.016661838 0.13227616
000130 82 3f e8 3d c8 70 09 be 42 f0 e7 3d 60 41 22 be
       0.11340238 -0.13421929 0.113251224 -0.15845251
000140 00 d5 65 ba 9a f4 95 bd f4 d9 06 3d 8a 9c e8 bd
       -0.0008767396 -0.07322045 0.0329227 -0.113579825
000150 ca 41 4a be 6d 80 bb bd 2d 29 ed bd 8d a3 a0 bd
       -0.19751659 -0.09155355 -0.11580119 -0.07843695
000160 77 0f 2a 3e c6 b9 05 be f2 bf 45 be 5a ee 9f bd
       0.16607462 -0.13059148 -0.19311503 -0.07809134
000170 22 ee 96 3d ec e5 1f 3d 58 d7 7d bd 6b 72 2e 3e
       0.07369639 0.03903763 -0.061972946 0.17035834
000180 34 21 98 bd d8 04 59 bd cb 36 32 3e 2d 9f b2 bd
       -0.07428208 -0.052983135 0.17403714 -0.087217666
000190 ad bb 0b be 17 25 18 3e 37 3e 17 3e e8 59 fb bc
       -0.13645811 0.14857899 0.14769827 -0.03068252
0001a0 5d f2 ff bd 2e 72 bd 3d 64 2f 08 be 83 78 dc bd
       -0.12497399 0.09250294 -0.13299328 -0.10765173
0001b0 0a 71 3f be a7 af fd bd 1a 7e fd bd d0 b2 d8 bc
       -0.18695465 -0.12387019 -0.123775676 -0.026452452
0001c0 60 17 fe bd e0 91 11 3d ac 38 7d 3d 3d ee d6 bd
       -0.12406802 0.035539508 0.061821625 -0.10494659
0001d0 72 af f2 3d fc be 65 3d 67 cf 06 3e a3 75 dc bd
       0.1184987 0.05609034 0.13165055 -0.10764625
0001e0 20 6c 1c 3d 50 76 95 3c 8b 00 4b be 8c 5a 04 bd
       0.038189054 0.018244892 -0.19824426 -0.032312915
0001f0 04 ae 69 3d 82 2a e7 3d a4 c4 6a 3d 42 d4 86 3d
       0.05705072 0.112874046 0.057316437 0.06583454
000200 80 a7 1b be 3d 21 39 be 32 4d c2 3d 0c 8c 7a 3d
       -0.15200615 -0.18079086 0.0948738 0.061168715
000210 c8 ba 42 bd 31 62 39 3e 40 cf c8 3b 6b 65 0a 3e
       -0.04754141 0.18103863 0.0061282218 0.1351525
000220 70 a9 13 be bd 52 00 3e f9 2e 1d 3e da 4a 42 be
       -0.14420104 0.12531562 0.1534995 -0.18973866
000230 24 05 7a 3d f0 0d e7 bc 4a 62 9a bd de 69 cd 3d
       0.06104006 -0.028204888 -0.075382784 0.10029958
000240 e0 e5 21 be 5a db e0 bd 74 0a 66 bd 3b 27 12 3e
       -0.15810347 -0.10979338 -0.056162313 0.14272778
000250 cf 88 31 3e c4 93 50 3d 78 75 7f bd 28 a3 b9 bc
       0.17337345 0.05092217 -0.062367886 -0.022660807
000260 09 da 0f 3e 12 8c 83 3d 09 85 35 3e 28 2a 1f be
       0.14048018 0.06423201 0.1772653 -0.15543425
000270 50 6a f4 bd f7 6f 31 3e b0 dd 1e bc 83 24 36 be
       -0.1193434 0.17327867 -0.009696409 -0.17787366
000280 b3 10 b5 bd 8f a1 11 3e 80 f0 f7 3c 41 95 4b 3e
       -0.08841076 0.14221786 0.030266047 0.19881155
000290 1c 17 97 bd a2 0b cd 3d fa e3 dd 3d d3 10 23 3e
       -0.07377455 0.100119844 0.10834499 0.15924387
0002a0 60 35 31 bd bb a1 2a be 6c 68 52 bd 18 f4 b0 bc
       -0.043263793 -0.16663258 -0.051369116 -0.021600768
0002b0 22 01 90 3d b5 dd 16 be d2 f2 af 3d 92 c3 c8 3d
       0.07031466 -0.14733012 0.08591236 0.09802927
0002c0 00 2b 86 3b 2e 7a df 3d 26 b7 f0 3d 33 53 47 3e
       0.0040944815 0.10911976 0.11753683 0.19465332
0002d0 31 98 4a 3e 2e bd e3 3d 9e a8 ff 3d c8 f0 24 be
       0.19784619 0.111200675 0.12483333 -0.16107476
0002e0 a9 af 13 3e 13 04 39 3e 29 4c 10 3e c2 1b bb 3d
       0.14422478 0.1806796 0.14091553 0.09136154
0002f0 fa 9d 81 3d 4c b5 3b 3d d6 d7 e3 3d 6b 25 20 be
       0.0632896 0.045827195 0.11125152 -0.15639274
000300 28 d1 d7 3c a3 b8 22 be e3 e1 15 3e a1 4d 16 3e
       0.02634485 -0.15890746 0.1463695 0.1467805
000310 f6 c2 eb 3d 1d 90 49 be 05 7d 23 3e a3 0d 28 3e
       0.11511795 -0.19683881 0.1596566 0.16411452
000320 b2 5c b4 3d fd 7e ba bd 2c 5f 6d 3d 76 4e ac 3d
       0.08806743 -0.09106252 0.05795209 0.08413403
000330 b6 ed 87 3d 40 91 37 bb 4c 90 19 bd e5 1a 14 be
       0.06637137 -0.002801016 -0.037491128 -0.14463384
000340 2c 97 1e bd 32 5c fa 3d 9b d0 2a 3e 50 4e f7 bc
       -0.038718387 0.12224616 0.16681139 -0.03018871
000350 6b 85 33 be 73 10 a1 bd 14 67 72 bd 50 94 ce 3c
       -0.17531364 -0.078644656 -0.059180334 0.025217205
000360 2d 30 44 be 3e 43 e2 3d b0 d1 9b 3c 5d c3 05 be
       -0.19159003 0.11047982 0.019020885 -0.13062806
000370 3d 37 25 be 28 6f 46 3d 6d 63 dd bd b0 9a 48 be
       -0.16134353 0.04844585 -0.108099796 -0.19590259
000380 2f 4d 4a be a0 c5 85 bd b4 8d 52 bd 33 89 f7 bd
       -0.19756006 -0.065318346 -0.05140467 -0.120867155
000390 6c 60 7f bd fd 8f 27 be ac ac 23 bd c5 05 0c 3e
       -0.062347814 -0.16363521 -0.039959595 0.13674076
0003a0 d5 e8 17 be 2e 0d cd 3d 74 f4 40 3d 9a 2d 8f 3d
       -0.14834912 0.100122795 0.04710813 0.0699112
0003b0 5a ef 22 be 80 5e b7 bd 34 b0 49 bd bd cd 32 3e
       -0.15911618 -0.08953571 -0.049240306 0.17461295
0003c0 80 5d 3e 3d 22 47 93 3d 55 d1 05 be b0 57 c3 bd
       0.046475887 0.07191302 -0.13068135 -0.095382094
0003d0 2b 1e 38 3e 06 f6 0a be e8 e0 15 be 0a 39 bc 3d
       0.17980258 -0.13570413 -0.14636576 0.09190567
0003e0 87 ea dd bd 95 f1 32 be c0 1b d4 3c d8 a8 44 bd
       -0.10835748 -0.17474969 0.025892138 -0.048012584
0003f0 46 5a 10 be 30 71 af 3c 2d 9f 45 be 1e 11 bd 3d
       -0.14096937 0.021416277 -0.19299002 0.092317805

bias f4 [25]
000000 04 95 62 3d 50 be 8b bd 88 12 0a be 1d 3f b0 bd
       0.055317894 -0.068234086 -0.13483632 -0.08605788
000010 8e b5 a6 3d f9 31 12 3e 82 d3 49 be ec fd 01 3d
       0.081400976 0.14276876 -0.1970959 0.0317363
000020 08 97 31 3d 23 77 d3 bd 05 dc 44 be b9 8a 2f 3e
       0.043356925 -0.10325458 -0.19224556 0.17142762
000030 80 9c fa bd 8a bd 82 bd e0 d8 4a 3c 73 ef 4a 3e
       -0.12236881 -0.06383808 0.012380809 0.19817905
000040 de d6 88 3d e4 b2 54 3d 60 08 7c bc 48 25 35 be
       0.06681608 0.051928416 -0.015382856 -0.17690003
000050 29 51 47 3e 96 01 80 bd 6b 5b 2c be 07 17 3d 3e
       0.19464554 -0.062503025 -0.16831748 0.18465815
000060 70 50 cf bc
       -0.02530691

weight f4 [4, 25]
000000 53 d5 19 be 40 b2 df bd a0 d6 3a bc b4 c4 75 bd
       -0.15022783 -0.1092267 -0.01140371 -0.060002044
000010 2a 20 21 be ad 6e fc bd fd f9 14 3e e0 f9 0c 3d
       -0.15734926 -0.12325797 0.14548488 0.034417987
000020 8d 20 0c be e9 ef 15 3e 1c 17 0b be d0 0f e5 bd
       -0.13684292 0.146423 -0.13583034 -0.111846566
000030 58 67 b1 bc 9d 22 ac bd c2 60 29 be ba 87 d9 3d
       -0.021655723 -0.084050395 -0.16540816 0.10621591
000040 c3 3d d3 bd 13 a1 cd bd ca 57 b5 bd 55 10 31 be
       -0.103145145 -0.10040488 -0.08854635 -0.17291386
000050 42 70 db 3d 86 ca 1b be 20 f2 41 bc 12 37 02 be
       0.10714771 -0.15213975 -0.011837512 -0.1271632
000060 fa 31 0d be 23 56 17 be 13 58 4a 3e 83 72 2e be
       -0.13788596 -0.14778952 0.1976016 -0.1703587
000070 e2 a0 f3 3d 07 be dc bd 47 5b 0b 3e c4 b5 58 3d
       0.1189592 -0.10778432 0.13609038 0.05290772
000080 00 0a 85 3b b0 2c 47 3c e8 2a 37 be 80 f5 53 bd
       0.00406003 0.01215665 -0.17887461 -0.0517478
000090 aa f1 a2 bd bd b5 a6 bd d4 26 62 bd 38 38 41 bd
       -0.0795625 -0.081401326 -0.05521281 -0.047172755
0000a0 0f a6 04 3e ff 63 4a be be 2b e8 3d 3b c9 33 3e
       0.12953971 -0.19764708 0.11336468 0.17557232
0000b0 e4 47 85 bd a2 55 a3 3d ac 1d 1a bd b0 93 c3 3c
       -0.06507853 0.079753175 -0.037625954 0.023874134
0000c0 2b 16 45 3e 53 36 13 3e e7 56 45 be e0 79 79 bc
       0.19246738 0.14376192 -0.19271432 -0.015226811
0000d0 27 94 f8 bd 59 61 4b 3e 71 8e 10 3e 8a 46 b2 bd
       -0.12137633 0.19861354 0.14116837 -0.087048605
0000e0 d9 fa 30 3e b3 55 e8 bd 7c c1 83 bd b3 34 0f 3e
       0.17283191 -0.11344471 -0.064333886 0.13984947
0000f0 5e 4a 08 be 62 74 87 3d b9 c7 13 3e 54 cc 28 bd
       -0.13309619 0.06613995 0.14431657 -0.041210487
000100 82 b3 3d be d6 2f ef 3d e0 fd 2e 3c 14 42 0c bd
       -0.18525508 0.11679046 0.010680646 -0.034242705
000110 97 b6 ce bd 80 f0 10 3d 9c 86 09 be 3e b9 de 3d
       -0.1009342 0.03538561 -0.13430256 0.10875176
000120 70 69 92 3c 5a 26 82 bd 17 09 ac bd 90 3e 2a be
       0.017872542 -0.06354971 -0.08400171 -0.16625428
000130 ba 15 93 3d a7 7e d5 bd 40 35 44 bd 54 16 11 3d
       0.071818784 -0.10424548 -0.047902346 0.035421684
000140 c8 65 01 be 28 2f 71 bd ca 0d 91 bd 3e 93 d6 3d
       -0.12636483 -0.058882862 -0.07082708 0.10477303
000150 81 72 43 3e 10 c7 f9 bc 62 28 94 3d 0c c6 17 bd
       0.19086649 -0.030490428 0.07234265 -0.037054107
000160 c1 bb 40 3e 08 3e 13 bd 3a d9 1f be f3 19 42 3e
       0.18821622 -0.03594783 -0.15610209 0.18955211
000170 d6 23 fe 3d e4 25 7b 3d cb 95 34 be 7a ef 2d be
       0.12409179 0.061315432 -0.17635266 -0.16985884
000180 d1 ec 13 3e d3 50 42 be 66 c9 a0 3d 9a 7d d6 3d
       0.14445807 -0.18976144 0.07850914 0.10473175

bias f4 [4]
000000 2c 28 01 bd 2b 73 3a be 2f 76 39 3e 58 a7 31 3d
       -0.03153245 -0.18207996 0.1811149 0.043372482
