models/_brain_20.pt (torch, 14593 bytes, 12 tensors)

weight f4 [14]
1.0 1.0 1.0 1.0 1.0 1.0 1.0 1.0
1.0 1.0 1.0 1.0 1.0 1.0
00000000: 0000 803f 0000 803f 0000 803f 0000 803f
00000010: 0000 803f 0000 803f 0000 803f 0000 803f
00000020: 0000 803f 0000 803f 0000 803f 0000 803f
00000030: 0000 803f 0000 803f

bias f4 [14]
0.0 0.0 0.0 0.0 0.0 0.0 0.0 0.0
0.0 0.0 0.0 0.0 0.0 0.0
00000000: 0000 0000 0000 0000 0000 0000 0000 0000
00000010: 0000 0000 0000 0000 0000 0000 0000 0000
00000020: 0000 0000 0000 0000 0000 0000 0000 0000
00000030: 0000 0000 0000 0000

weight f4 [25, 14]
0.1264221 -0.15596673 -0.25048506 -0.14246438 0.18687192 -0.17731234 -0.012506485 -0.102780744
0.13693744 -0.15777695 0.0633069 0.058785647 -0.07103406 0.11463246 0.015628487 0.115008354
0.09132695 -0.21848816 -0.06935558 -0.018001422 -0.17584996 -0.21145433 -0.06727743 0.22041836
-0.015217036 -0.018261373 0.025250137 -0.24796715 0.045544446 0.16342068 -0.0033865273 0.12224594
-0.16118778 -0.2131759 0.23865518 0.097340494 0.19447935 0.17756137 -0.09521915 -0.057130665
-0.085410476 -0.20417985 0.22043574 0.18912181 0.06496224 -0.2305398 -0.23725133 -0.18635955
0.0078449845 0.09660122 0.1552659 0.20580044 -0.12582248 -0.16899374 0.012746394 0.14819646
-0.16109297 0.15111601 0.098627895 -0.15992269 0.056527108 -0.17147723 -0.2601381 0.014098197
0.07280201 0.032691747 -0.16546786 -0.1700645 0.2648056 -0.18276355 0.1767737 -0.027120143
-0.1790157 -0.20848338 0.1301418 0.17165262 0.2197716 -0.15966618 -0.09432338 0.047191292
-0.037895143 -0.06365202 0.14690787 -0.0595026 -0.20368214 -0.007942587 -0.08211264 0.0077823102
-0.21439734 0.020714104 0.08233145 -0.13224062 -0.111830264 -0.07975726 -0.0050683618 -0.1580889
-0.018542558 0.048606157 -0.123408526 0.0279831 -0.2283287 -0.1199909 0.21060935 -0.1358707
0.21738422 0.23217991 -0.20686257 -0.17251077 0.12408614 0.20898363 -0.04023525 -0.17110087
-0.13565019 0.027144104 0.17333475 0.21220782 -0.07606691 -0.019969478 0.18668598 0.13733959
0.134258 -0.11289589 -0.18819636 -0.116868034 -0.00376454 0.07062194 -0.119733274 -0.19225565
0.17876399 -0.18417852 -0.19417948 -0.26609877 0.19555753 0.023857743 -0.17847972 -0.028513134
-0.03819622 -0.049177095 -0.26532796 -0.03974478 0.017190337 -0.096156955 0.012254685 0.02286148
-0.06924875 0.05735004 -0.020505205 0.04168269 -0.05986297 0.017005116 -0.040388405 0.10459015
-0.23582673 -0.09958847 -0.015253425 -0.017765373 0.014237642 0.1731641 0.25942817 -0.25403687
0.025790393 -0.07486194 0.10926184 -0.14464867 -0.0851987 0.103147715 0.00960654 -0.06606743
-0.14667803 0.03434491 0.08343512 0.09514773 0.043667644 -0.1563245 -0.027108356 -0.20690307
0.015503734 0.13694918 -0.02177304 -0.22845678 0.028216034 0.034683198 -0.1643033 -0.14119023
0.12244767 -0.25322598 0.18987185 -0.18364528 0.14561236 -0.09556286 -0.15568203 0.20104626
-0.2557072 0.25375745 -0.24313004 0.17284247 0.0018794537 0.06408152 -0.059124008 -0.21502906
0.23755804 -0.22164078 0.11627972 -0.07608065 0.18582124 0.101760596 0.18181506 0.22984177
0.16010544 0.1451188 -0.12273526 0.16037509 0.011581212 -0.1749142 0.23241252 -0.20656373
-0.046571508 -0.17413315 -0.1715413 -0.16626391 0.19714624 -0.13288037 -0.07735272 0.21254253
0.14677837 0.061723113 -0.13635175 -0.1893436 0.0403831 -0.05631046 0.26276448 -0.14364326
0.18762046 0.22368154 0.062376946 0.18190882 0.16212487 0.2503114 -0.1312427 0.025977105
-0.21083067 0.031285673 0.0049696863 -0.024129987 0.15604147 0.2063489 -0.04689069 0.16685733
0.13662988 -0.17601645 -0.2250709 -0.028313845 0.2189813 -0.036345527 -0.010782272 -0.18094045
00000000: cc74 013e beb5 1fbe 943f 80be 2fe2 11be
00000010: 5a5b 3f3e 5e91 35be 00e8 4cbc b67e d2bd
00000020: 5439 0c3e 4890 21be 0ca7 813d 38c9 703d
00000030: 4e7a 91bd 6cc4 ea3d 5007 803c 8089 eb3d
00000040: a009 bb3d 5cbb 5fbe 4c0a 8ebd b877 93bc
00000050: 0312 34be 7c87 58be c0c8 89bd 5ab5 613e
00000060: e050 79bc e098 95bc 60d9 ce3c 1aeb 7dbe
00000070: d08c 3a3d c057 273e 80f0 5dbb 145c fa3d
00000080: 690e 25be c84a 5abe 0662 743e 745a c73d
00000090: 9825 473e a6d2 353e 4202 c3bd d801 6abd
000000a0: b0eb aebd 8614 51be e8b9 613e 26a9 413e
000000b0: ec0a 853d a012 6cbe 03f2 72be 0ad5 3ebe
000000c0: 4088 003c dcd6 c53d 06fe 1e3e 5abd 523e
000000d0: 9cd7 00be b20c 2dbe 40d6 503c d0c0 173e
000000e0: 8ef5 24be 28be 1a3e 6cfd c93d c6c2 23be
000000f0: f888 673d ba97 2fbe d230 85be 20fc 663c
00000100: 3819 953d c8e7 053d 6870 29be 6325 2ebe
00000110: 9994 873e 5e26 3bbe 2a04 353e 102b debc
00000120: e44f 37be ab7c 55be e443 053e b4c5 2f3e
00000130: ce0b 613e 887f 23be 9e2c c1bd a84b 413d
00000140: f037 1bbd fe5b 82bd 046f 163e 00b9 73bd
00000150: 0d92 50be a021 02bc ac2a a8bd c002 ff3b
00000160: fa8a 5bbe a0b0 a93c 649d a83d 166a 07be
00000170: 4407 e5bd c657 a3bd 8014 a6bb 0ee2 21be
00000180: 90e6 97bc 4017 473d 9cbd fcbd d03c e53c
00000190: 00cf 69be cabd f5bd faa9 573e b021 0bbe
000001a0: f899 5e3e 92c0 6d3e c8d3 53be aaa6 30be
000001b0: e020 fe3d ceff 553e b8cd 24bd 1135 2fbe
000001c0: e2e7 0abe 505d de3c aa7e 313e 024d 593e
000001d0: f8c8 9bbd 0897 a3bc 9c2a 3f3e c0a2 0c3e
000001e0: ee7a 093e f635 e7bd 8cb6 40be 8258 efbd
000001f0: 80b6 76bb 3ca2 903d b836 f5bd aade 44be
00000200: e80d 373e 4b99 3cbe fcd6 46be 193e 88be
00000210: 3c40 483e 5071 c33c 63c3 36be 6094 e9bc
00000220: a473 1cbd ec6d 49bd 11d9 87be 6ccb 22bd
00000230: c0d2 8c3c f0ed c4bd e0c7 483c 0048 bb3c
00000240: 4ad2 8dbd e0e7 6a3d 88fa a7bc 78bb 2a3d
00000250: e032 75bd 504e 8b3c 506e 25bd 5c33 d63d
00000260: 907c 71be 0af5 cbbd 80e9 79bc b088 91bc
00000270: 0045 693c ee51 313e c5d3 843e 1f11 82be
00000280: 6046 d33c 3851 99bd acc4 df3d c81e 14be
00000290: a87c aebd 1c3f d33d c064 1d3c 5c4e 87bd
000002a0: c432 16be 40ad 0c3d 08e0 aa3d d0dc c23d
000002b0: d8dc 323d 8813 20be 5812 debc 66de 53be
000002c0: 6003 7e3c 683c 0c3e 605d b2bc 93f0 69be
000002d0: 5025 e73c f80f 0e3d 203f 28be 2c94 10be
000002e0: d8c5 fa3d d6a6 81be c46d 423e 820d 3cbe
000002f0: 681b 153e 76b6 c3bd 1c6b 1fbe 12df 4d3e
00000300: 0eec 82be 7fec 813e 15f7 78be 9efd 303e
00000310: 0058 f63a 2c3d 833d 042c 72bd 9430 5cbe
00000320: 6a42 733e cdf5 62be 1024 ee3d 2cd0 9bbd
00000330: ec47 3e3e dc67 d03d ba2d 3a3e a45b 6b3e
00000340: aef2 233e 069a 143e a05c fbbd 5e39 243e
00000350: 20bf 3d3c b51c 33be 8cfd 6d3e 7185 53be
00000360: c4c1 3ebd f64f 32be 86a8 2fbe 1641 2abe
00000370: b4e0 493e cb11 08be 1a6b 9ebd c0a4 593e
00000380: 124d 163e 60d1 7c3d cb9f 0bbe 4ae3 41be
00000390: c068 253d cca5 66bd 1189 863e 3817 13be
000003a0: 941f 403e c60c 653e f87e 7f3d 4e46 3a3e
000003b0: 1004 263e d128 803e 7d64 06be f0cd d43c
000003c0: ffe3 57be 6825 003d c0d8 a23b 40ac c5bc
000003d0: 56c9 1f3e 204d 533e 7410 40bd a6dc 2a3e
000003e0: b4e8 0b3e a83d 34be fc78 66be 70f2 e7bc
000003f0: a23c 603e 0cdf 14bd 20a8 30bc 7448 39be

bias f4 [25]
0.17569128 -0.12094562 0.18644059 -0.025340438 0.08287448 0.21310195 0.21267784 0.129545
-0.1554873 -0.17682377 -0.06885575 -0.1826545 0.01682347 0.17119643 0.121480584 -0.09007463
-0.19269216 0.022322714 -0.08910094 0.21059471 0.042906016 -0.25101945 0.17921957 -0.039668277
0.025519878
00000000: 6ae8 333e 56b2 f7bd 48ea 3e3e c096 cfbc
00000010: 18ba a93d 6637 5a3e 38c8 593e 72a7 043e
00000020: 1038 1fbe 4a11 35be 3e04 8dbd c809 3bbe
00000030: 60d1 893c 1e4e 2f3e d0ca f83d 0c79 b8bd
00000040: 1851 45be 20de b63c 8e7a b6bd 24a6 573e
00000050: 38be 2f3d 9f85 80be 5685 373e 347b 22bd
00000060: 100f d13c

weight f4 [25, 25]
0.011803895 0.19363095 0.013316631 0.19018318 0.11786057 -0.06643918 0.066219255 -0.05290398
-0.15978484 -0.1842991 0.00975211 0.18103744 0.051705465 -0.1691678 -0.027730629 0.08271758
-0.15376997 0.15406106 0.113980755 -0.0038677007 -0.006846398 -0.098201536 -0.021312237 0.061812058
0.0445586 -0.17318988 0.111297086 -0.17192732 -0.15145679 0.08470528 -0.03684774 -0.1785142
-0.1771102 -0.109264255 0.013345838 -0.15528247 -0.13295987 0.1390586 0.03596571 -0.12646607
-0.13946848 0.1142198 -0.1877872 0.15947382 0.072248116 -0.07027197 -0.100535326 -0.00392659
-0.04052186 -0.08742807 0.1348948 0.07342218 -0.18263581 -0.19309604 0.14603306 -0.18162914
-0.029358953 0.122832224 -0.017465025 0.051940277 -0.16692314 0.00883536 -0.12173615 -0.16040333
-0.04024744 -0.011352181 -0.0077314824 -0.087065935 -0.09950619 -0.017878413 -0.032486394 -0.018596858
-0.013348654 0.13635398 -0.17574044 0.12923776 0.05136116 0.15053172 -0.025783151 -0.16441059
0.079392895 0.05602269 -0.12916699 -0.06376298 0.13449557 -0.03823228 0.16476797 0.16925447
0.051550552 -0.16535334 0.13427182 -0.10450571 -0.10370388 -0.059812114 -0.042383403 -0.05115792
-0.023385733 -0.15645364 -0.08273375 -0.1064883 0.10786463 0.08327271 -0.06692323 0.17886786
0.10821231 0.0031627864 -0.14160617 -0.10161429 0.14722641 0.11199997 0.080989555 -0.1657041
0.016753703 -0.13848178 -0.024053901 -0.024194032 0.19085576 -0.02040562 -0.037378 -0.17927413
-0.19920461 -0.15696168 0.14204623 0.05958517 0.01443553 0.036690712 -0.1800596 0.05089502
-0.08868425 -0.026428774 -0.14814918 0.013820976 0.14110269 0.16669406 -0.04384148 -0.09547474
0.03657563 0.1322564 0.09343736 0.19289698 -0.07190707 -0.19810405 0.057854787 -0.18702105
0.055402473 -0.065622956 0.18009253 -0.022486448 -0.079837896 0.19903024 -0.13779125 0.011146784
-0.06697962 -0.0017755479 0.034428388 0.13061689 -0.061338976 0.118791535 0.04129514 0.17427333
0.075844035 0.18181069 -0.02436009 -0.07677233 -0.048528284 -0.11813412 0.14676376 0.0488998
0.048635364 0.11083986 0.16577868 0.1575598 0.095152274 -0.030364066 -0.15988743 0.04404351
0.048593044 0.1746615 0.003933698 -0.05764699 -0.18701613 -0.18597563 0.11968447 -0.05358918
0.03280203 0.013457462 -0.13329357 -0.048778772 0.06892569 0.032107085 0.12801929 0.024865985
-0.082053475 -0.18476541 -0.1901 -0.1413792 -0.042189434 -0.16565183 -0.1305625 -0.12339833
-0.06812164 0.16909643 0.08933379 -0.1637733 -0.04618545 0.038953394 -0.18849578 -0.11441906
-0.083394386 -0.17504881 -0.030082539 -0.02272816 -0.19206202 -0.12521991 -0.18268166 -0.08637416
0.1246316 0.17479481 0.06821458 0.00017416477 -0.18212338 0.12540235 0.097140685 -0.13483971
-0.1267465 0.0058242977 -0.17258215 -0.11519521 0.10170926 0.13848706 -0.16616766 0.15239339
0.14521419 0.1254388 0.14586903 -0.010410219 -0.08405989 0.14345212 0.0013809502 -0.06426954
0.08504526 -0.03278601 -0.19898382 0.15707277 0.038995788 -0.06802571 0.08247639 -0.034505576
-0.03731279 0.062226072 -0.16971734 0.15703194 -0.10889006 -0.19093807 -0.15762241 0.013765812
00000000: 2065 413c 3147 463e 002e 5a3c 61bf 423e
00000010: e260 f13d 4411 88bd f69d 873d d8b1 58bd
00000020: a39e 23be e7b8 3cbe 50c7 1f3c e161 393e
00000030: 1cc9 533d 533a 2dbe 582b e3bc d667 a93d
00000040: e075 1dbe 2fc2 1d3e be6e e93d 4079 7dbb
00000050: c057 e0bb e31d c9bd 0097 aebc a42e 7d3d
00000060: 1483 363d b058 31be baef e33d b70d 30be
00000070: 7d17 1bbe f679 ad3d a8ed 16bd 6dcc 36be
00000080: 605c 35be f0c5 dfbd 80a8 5a3c 5e02 1fbe
00000090: a226 08be 6165 0e3e c850 133d 5280 01be
000000a0: d3d0 0ebe 12ec e93d 4a4b 40be 1b4d 233e
000000b0: d2f6 933d c0ea 8fbd 77e5 cdbd a0aa 80bb
000000c0: 40fa 25bd 7d0d b3bd dd21 0a3e 5e5e 963d
000000d0: e204 3bbe f8ba 45be b189 153e fdfc 39be
000000e0: 3082 f0bc 768f fb3d d012 8fbc 54bf 543d
000000f0: e6ed 2abe 30c2 103c cd50 f9bd c540 24be
00000100: 80da 24bd 80fe 39bc 6058 fdbb a04f b2bd
00000110: e7c9 cbbd c075 92bc 7410 05bd 7058 98bc
00000120: 50b4 5abc 61a0 0b3e 4df5 33be e756 043e
00000130: 1460 523d fd24 1a3e 3037 d3bc 405b 28be
00000140: be98 a23d 0c78 653d 5a44 04be 2a96 82bd
00000150: 35b9 093e 7499 1cbd efb8 283e 0b51 2d3e
00000160: ac26 533d 6352 29be 8d7e 093e 1707 d6bd
00000170: b362 d4bd 8cfd 74bd 389a 2dbd f88a 51bd
00000180: 7093 bfbc 6235 20be 5070 a9bd 8a16 dabd
00000190: 22e8 dc3d e28a aa3d 0c0f 89bd 2329 373e
000001a0: 6a9e dd3d c046 4f3b 3501 11be 271b d0bd
000001b0: 85c2 163e 3e60 e53d dadd a53d 56ae 29be
000001c0: 103f 893c 2bce 0dbe b00c c5bc 9032 c6bc
000001d0: b16f 433e b029 a7bc ac19 19bd a393 37be
000001e0: 4bfc 4bbe 90ba 20be 9174 113e 940f 743d
000001f0: 0083 6c3c 0049 163d 8b61 38be 4c77 503d
00000200: 17a0 b5bd 2881 d8bc 6bb4 17be 6071 623c
00000210: 397d 103e d9b1 2a3e 2093 33bd 4388 c3bd
00000220: 54d0 153d 396e 073e 165c bf3d c986 453e
00000230: 0444 93bd cadb 4abe 24f9 6c3d 7282 3fbe
00000240: b4ed 623d 5465 86bd 2d6a 383e 8035 b8bc
00000250: 0d82 a3bd 95ce 4b3e 2619 0dbe 00a1 363c
00000260: 9c2c 89bd 80b9 e8ba c804 0d3d 6fc0 053e
00000270: 943e 7bbd fa48 f33d 1825 293d b574 323e
00000280: 1e54 9b3d 952c 3a3e d08e c7bc d03a 9dbd
00000290: 98c5 46bd 4df0 f1bd 3d49 163e 284b 483d
000002a0: e035 473d 0200 e33d e3c1 293e 5b57 213e
000002b0: 32df c23d 10be f8bc 88b9 23be f866 343d
000002c0: 8009 473d 77da 323e 40e6 803b 401f 6cbd
000002d0: 2881 3fbe 6570 3ebe 221d f53d 5480 5bbd
000002e0: 6c5b 063d b07c 5c3c 1c7e 08be 40cc 47bd
000002f0: ea28 8d3d b882 033d 7d17 033e c0b3 cb3c
00000300: a70b a8bd 2533 3dbe 93a9 42be b6c5 10be
00000310: d4ce 2cbd a2a0 29be 2db2 05be 43b8 fcbd
00000320: 5c83 8bbd 9d27 2d3e a2f4 b63d 30b4 27be
00000330: f42c 3dbd 988d 1f3d 0a05 41be 8a54 eabd
00000340: adca aabd ff3f 33be a86f f6bc 6830 babc
00000350: e8ab 44be a639 00be e710 3bbe f0e4 b0bd
00000360: da3e ff3d 69fd 323e 16b4 8b3d 00a0 3639
00000370: 8d7e 3abe 7969 003e b2f1 c63d 6c13 0abe
00000380: d6c9 01be c0d9 be3b 60b9 30be 77eb ebbd
00000390: f24c d03d 8dcf 0d3e db27 2abe 030d 1c3e
000003a0: 07b3 143e 0773 003e b15e 153e a08f 2abc
000003b0: 9727 acbd 1de5 123e 0001 b53a c09f 83bd
000003c0: 362c ae3d a04a 06bd 6ac2 4bbe afd7 203e
000003d0: 0cba 1f3d 1051 8bbd 62e9 a83d b855 0dbd
000003e0: 4cd5 18bd c4e0 7e3d 62ca 2dbe fbcc 203e
000003f0: c001 dfbd 4585 43be c567 21be 008a 613c

bias f4 [25]
-0.120103054 0.05668886 0.19257797 -0.10143333 0.13792096 0.061022416 0.083374456 0.04713273
0.106417015 -0.03824067 -0.1823808 -0.011705637 -0.11033986 -0.04598041 -0.19184725 0.061054334
-0.18284376 -0.10578866 -0.19198357 -0.018103883 -0.12313163 0.19786002 -0.10909176 0.15097015
-0.034982562
00000000: 97f8 f5bd 9432 683d 2933 453e 47bc cfbd
00000010: 273b 0d3e a4f2 793d 3ac0 aa3d 400e 413d
00000020: 2af1 d93d 40a2 1cbd 08c2 3abe 00c9 3fbc
00000030: ddf9 e1bd f455 3cbd 9b73 44be 1c14 7a3d
00000040: 653b 3bbe baa7 d8bd 5797 44be 984e 94bc
00000050: 702c fcbd d19b 4a3e 806b dfbd eb97 1a3e
00000060: e049 0fbd

weight f4 [25, 25]
0.12397756 -0.019059226 -0.16570906 0.18419902 0.14275788 0.09202711 -0.109638624 -0.040134355
0.18749394 -0.1453031 0.084966555 -0.146661 0.04911399 -0.117144585 0.06938727 -0.06745048
-0.08058224 -0.08076763 0.029757619 0.07967286 -0.0630693 0.038365334 -0.19307666 0.09726514
0.09826766 -0.109042935 0.14363636 0.12798758 0.09728731 0.03872621 0.07170059 -0.15611179
-0.13478172 -0.008854747 -0.15011546 0.16979928 -0.14224517 -0.015093207 0.08073421 -0.086081885
-0.05391395 0.15592591 -0.18684979 -0.044244647 0.107538596 -0.08214948 -0.06316337 0.00082039833
0.084907696 0.094785824 -0.033759028 -0.19543408 0.12595911 -0.059627175 0.18913563 -0.08143928
-0.018213987 -0.13731083 0.05764605 0.012665629 -0.15402913 0.044822842 -0.06926015 -0.02883485
-0.054677635 -0.053607225 0.13589217 0.1341833 -0.010986209 0.008953601 0.11364843 -0.08550053
0.10813649 -0.08538158 -0.055567622 -0.12919098 -0.06373291 0.03961341 -0.15233453 0.18923257
0.06988709 -0.080982044 0.009933859 -0.13657328 0.011418611 -0.18605566 -0.06098266 -0.060357362
-0.08772814 -0.07779739 0.01612039 0.09320857 0.14092578 -0.05957015 0.16517784 -0.17233832
0.053514257 0.14708753 -0.18267727 0.06976108 0.18576331 0.068596765 -0.17352751 -0.07590318
-0.1281746 -0.19451177 0.06875612 -0.008302644 -0.192204 0.07751058 -0.080136254 0.09079541
-0.15164287 -0.025002569 0.046778157 -0.19736648 0.05186023 0.12378697 -0.16840217 0.1438203
0.0434002 0.15006615 -0.022967294 -0.03982839 -0.08917427 -0.17831552 0.08858384 -0.063145
-0.1391193 0.12000017 0.030341908 0.047543377 -0.15385966 -0.015878871 -0.0859031 -0.14410846
0.18582837 0.078227684 0.07712911 0.18468572 -0.08209813 -0.08657708 -0.08232806 0.19610886
0.071185306 -0.057691425 0.028433532 0.10213776 0.12769495 0.013965681 -0.1590255 -0.025969863
0.15776978 -0.14615946 0.14356165 -0.024222374 -0.14885616 0.005835697 0.05871047 0.18593763
0.15274207 -0.1983366 -0.067690104 0.14539914 0.17459302 0.12419142 -0.07526746 -0.15431061
-0.17998664 0.021199271 0.1391903 0.1440879 0.116970405 -0.06850913 -0.039471656 -0.12923212
-0.092664436 0.017318279 -0.060912207 -0.08347004 -0.010173246 -0.03173992 -0.16779499 0.12359215
-0.007874653 -0.02631569 -0.16321445 -0.1292276 -0.105277896 0.0105315 0.019643456 -0.15499929
0.09447242 -0.07676351 0.18349053 -0.08450907 -0.08041687 -0.116480015 -0.1272741 0.038496703
0.18803184 0.16607572 -0.1779764 -0.01113908 0.17185025 0.024121448 0.059733942 -0.040671036
0.13717173 0.10096733 -0.14890504 0.09926607 0.03429386 -0.1732877 -0.16598877 0.08414136
-0.07843633 0.19012298 -0.012952402 -0.11544521 0.08473243 -0.11664069 -0.14669773 0.053016648
-0.07305221 -0.15626565 -0.06511307 -0.16095659 0.14291282 -0.025549024 -0.1264343 0.18400593
-0.17524086 -0.09195099 0.060550466 -0.0050313473 -0.015229732 -0.010786533 -0.08314424 0.07613565
-0.18656366 -0.100776196 0.17055143 -0.193115 -0.14720647 -0.13799837 0.1420014 0.06858449
-0.14699844 -0.024389908 -0.088529184 -0.1724901 -0.0016452819 -0.10906434 -0.16092367 -0.18178049
00000000: f2e7 fd3d 1822 9cbc a3af 29be ab9e 3c3e
00000010: 1f2f 123e b678 bc3d 378a e0bd ec63 24bd
00000020: 69fe 3f3e 56ca 14be f202 ae3d 4d2e 16be
00000030: c02b 493d 80e9 efbd ea1a 8e3d 7a23 8abd
00000040: 4d08 a5bd 8069 a5bd 40c6 f33c 862b a33d
00000050: 7a2a 81bd f824 1d3d e3b5 45be f232 c73d
00000060: 8e40 c93d e751 dfbd 6915 133e 2d0f 033e
00000070: 923e c73d 609f 1e3d c2d7 923d c5db 1fbe
00000080: 3804 0abe 8013 11bc deb7 19be dddf 2d3e
00000090: b8a8 11be 8049 77bc fa57 a53d b34b b0bd
000000a0: e0d4 5cbd 0bab 1f3e 8d55 3fbe e039 35bd
000000b0: 323d dc3d fd3d a8bd cc5b 81bd 0010 573a
000000c0: 16e4 ad3d 121f c23d e846 0abd df1f 48be
000000d0: 6dfb 003e a03b 74bd c5ac 413e a3c9 a6bd
000000e0: 8035 95bc 369b 0cbe 441e 6c3d 8083 4f3c
000000f0: d0b9 1dbe 2898 373d 44d8 8dbd 1037 ecbc
00000100: a8f5 5fbd 4093 5bbd 5127 0b3e 5967 093e
00000110: 80ff 33bc 20b2 123c 82c0 e83d e71a afbd
00000120: aa76 dd3d 8adc aebd e09a 63bd a44a 04be
00000130: 6686 82bd ac41 223d 95fd 1bbe 2fc6 413e
00000140: f620 8f3d ead9 a5bd a0c1 223c ded9 0bbe
00000150: 2015 3b3c 6085 3ebe f4c8 79bd 4839 77bd
00000160: d0aa b3bd 3d54 9fbd e80e 843c 22e4 be3d
00000170: d94e 103e d4ff 73bd 6124 293e 7579 30be
00000180: c431 5b3d 1d9e 163e c00f 3bbe e6de 8e3d
00000190: bd38 3e3e 767c 8c3d 32b1 31be 2073 9bbd
000001a0: 3440 03be 182e 47be 02d0 8c3d d007 08bc
000001b0: 20d1 44be debd 9e3d 7a1e a4bd f2f2 b93d
000001c0: 4548 1bbe 30d2 ccbc 749a 3f3d 701a 4abe
000001d0: 646b 543d 0684 fd3d 9e71 2cbe a145 133e
000001e0: 68c4 313d f1aa 193e e825 bcbc 1823 23bd
000001f0: 00a1 b6bd 5898 36be 726b b53d 2a52 81bd
00000200: 4a75 0ebe a6c2 f53d 988f f83c d8bc 423d
00000210: 638d 1dbe 6814 82bc f7ed afbd 2b91 13be
00000220: cb49 3e3e d635 a03d def5 9d3d 411e 3d3e
00000230: 1023 a8bd 534f b1bd 9d9b a8bd c3d0 483e
00000240: 9ac9 913d d84d 6cbd 70ed e83c 9a2d d13d
00000250: 77c2 023e 50d0 643c 95d7 22be c0be d4bc
00000260: 678e 213e d3aa 15be d301 133e 006e c6bc
00000270: c06d 18be 6039 bf3b 647a 703d 6f66 3e3e
00000280: 6b68 1c3e c018 4bbe 1ca1 8abd 83e3 143e
00000290: 83c8 323e 1258 fe3d d325 9abd 9a03 1ebe
000002a0: 6b4e 38be 18aa ad3c e787 0e3e c78b 133e
000002b0: 2e8e ef3d 844e 8cbd 08ad 21bd 6d55 04be
000002c0: dac6 bdbd 10df 8d3c 147f 79bd 57f2 aabd
000002d0: b0ad 26bc b801 02bd 73d2 2bbe e21d fd3d
000002e0: b004 01bc 0094 d7bc b021 27be 3d54 04be
000002f0: f09b d7bd 508c 2c3c 50eb a03c 22b8 1ebe
00000300: c27a c13d 3036 9dbd f1e4 3b3e 1713 adbd
00000310: 9ab1 a4bd 138d eebd 2454 02be b8ae 1d3d
00000320: 6b8b 403e c10f 2a3e 723f 36be b080 36bc
00000330: 83f9 2f3e 589a c53c 94ab 743d ac96 26bd
00000340: bf76 0c3e f6c7 ce3d 907a 18be 024c cb3d
00000350: b877 0c3d 5572 31be f6f8 29be 4e52 ac3d
00000360: 3aa3 a0bd 99af 423e 5036 54bc 8a6e ecbd
00000370: 3288 ad3d 50e1 eebd ee37 16be fc27 593d
00000380: 669c 95bd 1a04 20be 005a 85bd ced1 24be
00000390: bd57 123e 304c d1bc fe77 01be 0d6c 3c3e
000003a0: 5772 33be cd50 bcbd c403 783d 00de a4bb
000003b0: 2086 79bc 00ba 30bc 8747 aabd 02ed 9b3d
000003c0: 8b0a 3fbe c063 cebd 09a5 2e3e f0bf 45be
000003d0: 4bbd 16be 724f 0dbe d168 113e 0676 8c3d
000003e0: c286 16be 58cd c7bc ca4e b5bd 3fa1 30be
000003f0: 80a6 d7ba 205d dfbd 2dc9 24be aa24 3abe

bias f4 [25]
0.05333011 0.14904611 -0.010743931 0.13974382 -0.037976235 0.024194404 0.17322274 0.091346756
0.021144181 -0.08908933 0.115952566 -0.1582747 -0.12907775 -0.18820508 0.18495895 -0.10136741
-0.06828165 -0.08019626 0.062307134 0.111636624 -0.14715381 -0.053452924 -0.05925548 -0.08193874
-0.16369224
00000000: ac70 5a3d 8b9f 183e 5007 30bc 0119 0f3e
00000010: f88c 1bbd 5833 c63c 4d61 313e 0214 bb3d
00000020: 9036 ad3c 7774 b6bd 8a78 ed3d c312 22be
00000030: f52c 04be d5b8 40be e165 3d3e b799 cfbd
00000040: 40d7 8bbd f03d a4bd c435 7f3d bea1 e43d
00000050: 7daf 16be 74f1 5abd e0b5 72bd 80cf a7bd
00000060: f09e 27be

weight f4 [25, 25]
-0.04210098 -0.14242235 -0.17116074 0.13985263 0.18572666 0.104240045 0.11994021 -0.19065242
0.17984892 0.15050794 0.00058953464 0.19329785 -0.17050162 0.17057814 -0.04758747 -0.12919709
-0.08053451 0.051230147 0.19537292 0.18005396 -0.10218642 0.14012863 -0.09671748 0.021788761
-0.13981906 0.014800429 -0.15621336 0.16938911 0.11663665 0.17474215 0.01395385 0.0046363324
-0.120191626 -0.18802325 -0.13091028 -0.06594236 0.13979997 -0.1562613 0.07021798 0.13808246
0.018165544 0.110309914 0.11126737 0.057654515 0.16796665 0.09542407 0.011670664 0.009025216
0.0006727874 -0.19222358 -0.11320283 -0.14018306 0.10947375 -0.11565232 0.18608104 -0.19211645
0.15738095 0.15079837 0.13041402 0.068450674 -0.18247853 -0.09571226 -0.16085637 -0.11957338
0.05205466 -0.13292392 -0.0890569 -0.09614177 -0.11165929 0.13288356 -0.18926083 -0.17153041
0.030832335 -0.058866024 0.06988396 -0.048721164 -0.084415175 -0.116150595 0.080725625 0.07084872
-0.18810478 -0.09397979 -0.06909509 0.19806491 0.10599072 -0.0114073455 0.0037234128 -0.13438731
0.061221734 -0.018461972 -0.1597637 -0.111025594 -0.0661799 -0.104551695 0.18824528 -0.18883097
0.19708623 -0.052627847 0.17137755 -0.06688659 0.13592081 0.14707376 -0.052733332 0.124485984
0.10485108 0.13244127 -0.1010045 -0.09675808 0.1486475 -0.005068928 -0.07773938 -0.10372782
-0.17096975 0.13898449 0.09909694 0.10878007 0.13588046 -0.0758549 -0.19453426 0.013434529
0.16186856 -0.03554645 -0.012001947 0.1239665 0.112183765 0.13360949 0.047525197 0.16910408
-0.15243094 0.058423445 -0.15759416 0.0065815747 -3.7938356e-05 -0.19867948 0.17567961 -0.1049933
0.19342823 0.14858307 0.0033003986 -0.17360047 -0.14792874 0.13567008 -0.17760098 -0.051829666
-0.16117561 -0.020568416 -0.03498368 0.12452172 0.057622448 0.08093752 0.19173636 0.06799699
0.15796675 0.06563224 -0.19945358 -0.11735256 0.19586076 0.117858395 -0.0147347 0.1187367
0.13593961 0.19555272 0.13682239 0.19324167 -0.015838265 0.15687577 -0.007520631 -0.06595728
-0.11056173 0.1224971 0.021098644 0.081957 0.14171009 0.10817839 0.046077803 -0.016085714
-0.15325573 -0.10018039 -0.117143445 0.016319036 0.01800187 0.12686099 0.18858124 -0.021762654
0.0050901175 -0.052243024 0.06342627 -0.07476568 0.030861542 0.19167449 0.025180772 0.012455225
0.03567998 -0.11155758 0.14746036 0.180346 -0.11460035 -0.08073562 0.045715287 0.04484141
-0.07801037 0.050713405 0.111018375 0.0013306886 0.0448163 0.12990226 0.107780084 0.060817704
-0.0878067 -0.09427204 -0.027185753 0.11481045 0.058105037 0.17671205 0.16784559 -0.081345774
0.0066952705 0.060089216 -0.09306581 -0.1452275 -0.063236475 0.023327589 0.097007945 -0.08806951
-0.050512463 0.046230555 0.071788624 -0.16882741 -0.15981117 -0.09885168 -0.11265528 0.05269672
-0.1531878 0.107413545 -0.19343774 -0.11781297 -0.12384172 -0.17457919 0.12993501 -0.029133558
-0.06143956 -0.17913643 0.037287503 0.08516218 0.02659063 0.13424207 0.07759057 -0.13851163
-0.037183017 0.08150767 0.07614459 0.03129813 -0.057969287 -0.15804482 -0.13216269 -0.15818104
00000000: 1472 2cbd 2ad7 11be c344 2fbe 8735 0f3e
00000010: 212f 3e3e ce7b d53d 36a3 f53d 633a 43be
00000020: 512a 383e c11e 1a3e 008b 1a3a dfef 453e
00000030: fa97 2ebe 09ac 2e3e 14eb 42bd 3e4c 04be
00000040: 47ef a4bd b4d6 513d d70f 483e 1160 383e
00000050: 1d47 d1bd e17d 0f3e d013 c6bd 587e b23c
00000060: ba2c 0fbe 807d 723c 65f6 1fbe 5774 2d3e
00000070: 32df ee3d 9bef 323e b09e 643c 60ec 973b
00000080: 0727 f6bd 2b89 40be 580d 06be ca0c 87bd
00000090: b927 0f3e f602 20be 72ce 8f3d 7d65 0d3e
000000a0: e8cf 943c 2aea e13d 26e0 e33d 2427 6c3d
000000b0: 73ff 2b3e b26d c33d 5036 3f3c 80de 133c
000000c0: 005e 303a 42d6 44be e3d6 e7bd 268c 0fbe
000000d0: c633 e03d 20db ecbd 078c 3e3e 2dba 44be
000000e0: 7928 213e e36a 1a3e 418b 053e de2f 8c3d
000000f0: a7db 3abe ca04 c4bd 88b7 24be e3e2 f4bd
00000100: 4437 553d 351d 08be 7763 b6bd fae5 c4bd
00000110: a0ad e4bd a112 083e 97cd 41be aba5 2fbe
00000120: 1894 fc3c 801d 71bd 521f 8f3d d88f 47bd
00000130: dde1 acbd 5de0 edbd 7a53 a53d 2219 913d
00000140: 8a9e 40be 7a78 c0bd ba81 8dbd 87d1 4a3e
00000150: aa11 d93d e0e5 3abc 8004 743b d49c 09be
00000160: a4c3 7a3d 903d 97bc 1899 23be 6361 e3bd
00000170: 5489 87bd 331f d6bd 5fc3 403e e85c 41be
00000180: f9d0 493e 4c90 57bd 997d 2f3e d6fb 88bd
00000190: d32e 0b3e 819a 163e e8fe 57bd 82f2 fe3d
000001a0: 2abc d63d af9e 073e 73db cebd 1a29 c6bd
000001b0: 0d37 183e 4019 a6bb d335 9fbd 406f d4bd
000001c0: b212 2fbe f351 0e3e 56f3 ca3d 16c8 de3d
000001d0: 3f24 0b3e d059 9bbd fd33 47be 801c 5c3c
000001e0: dfc0 253e 2899 11bd d0a3 44bc 26e2 fd3d
000001f0: 9ac0 e53d edd0 083e c8a9 423d 9f29 2d3e
00000200: db16 1cbe 6c4d 6f3d 5d60 21be 40aa d73b
00000210: 0020 1fb8 a272 4bbe 5be5 333e ba06 d7bd
00000220: 0d12 463e 2926 183e 804b 583b 52c4 31be
00000230: a27a 17be 19ed 0a3e 08dd 35be 584b 54bd
00000240: 380b 25be 187f a8bc 0c4b 0fbd 3e05 ff3d
00000250: 8405 6c3d 92c2 a53d 8956 443e 0242 8b3d
00000260: 09c2 213e 326a 863d 8f3d 4cbe 8a56 f0bd
00000270: b98f 483e be5f f13d d069 71bc 3a2c f33d
00000280: c133 0b3e f93e 483e 2b1b 0c3e 25e1 453e
00000290: 40bf 81bc 0ba4 203e a06f f6bb 9c14 87bd
000002a0: 306e e2bd c2df fa3d 10d7 ac3c 12d9 a73d
000002b0: 731c 113e a28c dd3d 14bc 3c3d 30c6 83bc
000002c0: 12ef 1cbe 602b cdbd e7e8 efbd 80af 853c
000002d0: a878 933c d9e7 013e 711b 413e 9847 b2bc
000002e0: 00cb a63b c8fc 55bd a2e5 813d c01e 99bd
000002f0: 58d1 fc3c 5146 443e e847 ce3c 0011 4c3c
00000300: 2c25 123d 4d78 e4bd d9ff 163e 9fac 383e
00000310: 97b3 eabd b758 a5bd f43f 3b3d a0ab 373d
00000320: e7c3 9fbd dcb8 4f3d 9a5d e33d 806a ae3a
00000330: 4c91 373d 1905 053e cebb dc3d fc1b 793d
00000340: 00d4 b3bd b311 c1bd a8b4 debc be21 eb3d
00000350: 8cff 6d3d 01f4 343e b7df 2b3e 9d98 a6bd
00000360: 0064 db3b 1c20 763d 4a99 bebd 85b6 14be
00000370: 2082 81bd 8019 bf3c 1aac c63d ca5d b4bd
00000380: 28e6 4ebd 405c 3d3d ea05 933d 18e1 2cbe
00000390: 8aa5 23be c072 cabd d0b7 e6bd 84d8 573d
000003a0: 43dd 1cbe a2fb db3d 8b14 46be ed47 f1bd
000003b0: baa0 fdbd e3c4 32be af0d 053e 80a9 eebc
000003c0: 0ca8 7bbd 8a6f 37be c8ba 183d 8269 ae3d
000003d0: 98d4 d93c c176 093e cee7 9e3d fed5 0dbe
000003e0: 384d 18bd 7eed a63d b2f1 9b3d 7832 003d
000003f0: 3471 6dbd 80d6 21be a855 07be 36fa 21be

bias f4 [25]
0.100852236 0.18118845 0.03410776 -0.09158533 0.041580915 0.021154314 0.12976362 0.034536168
4.0322542e-05 0.08260466 -0.112123825 0.08196856 0.17516248 -0.045349672 -0.15192091 -0.096010424
0.1722038 0.13072719 0.08037622 0.085812375 0.029298872 -0.04476723 -0.059509158 0.08787288
-0.0034338236
00000000: 9e8b ce3d 7789 393e 94b4 0b3d 1791 bbbd
00000010: c050 2a3d d04b ad3c c1e0 043e cc75 0d3d
00000020: 0020 2938 a22c a93d 2da1 e5bd 22df a73d
00000030: cb5d 333e 94c0 39bd 2891 1bbe 1da1 c4bd
00000040: 3156 303e 59dd 053e 4a9c a43d 66be af3d
00000050: 3004 f03c d85d 37bd e0bf 73bd b2f6 b33d
00000060: 000a 61bb

weight f4 [4, 25]
0.0423574 0.0044713467 0.17895459 -0.18226157 0.13961153 -0.08275478 -0.13625544 -0.10133195
-0.08771713 0.11564873 -0.038313597 -0.16498725 -0.15310757 -0.107490234 -0.013984889 -0.023242474
-0.13109154 -0.062400624 -0.10728085 -0.16601372 0.13624816 -0.08629344 0.11368765 -0.1933463
0.18524624 -0.18802583 -0.05631587 -0.060067385 0.10364331 0.09605573 -0.086609915 -0.16629036
0.10282315 0.16323079 0.16980876 0.13750754 0.1687095 0.0064823627 -0.0687048 -0.023352265
-0.19579585 0.16262875 -0.026358962 -0.18559681 -0.0014255494 0.0149345845 -0.058014065 0.08266781
-0.197958 -0.14576308 -0.018486813 0.14623381 -0.024654314 -0.15951161 -0.022356108 -0.082327105
-0.073101014 -0.19884245 0.16934802 0.033718824 -0.11718648 0.12142907 -0.06630775 0.1815419
-0.0030542165 -0.16064839 0.052371636 -0.06691854 -0.097883895 0.14107998 -0.096463345 -0.036485434
0.13626386 0.13684843 -0.027309805 0.019275025 -0.13439563 -0.10106053 0.0146549195 0.12576486
0.07650451 -0.14013413 0.17546232 -0.060666084 -0.027913839 -0.05029735 -0.18516997 0.19071005
-0.0410434 -0.12741691 -0.11748111 0.13656081 0.15728931 -0.008098394 0.043070346 -0.16105267
0.032740995 0.08170907 -0.091434315 0.17639713
00000000: f47e 2d3d 6084 923b df3f 373e c7a2 3abe
00000010: 53f6 0e3e 577b a9bd 8c86 0bbe 2087 cfbd
00000020: 0aa5 b3bd 3ed9 ec3d b8ee 1cbd 6bf2 28be
00000030: 3bc8 1cbe d723 dcbd e020 65bc 0067 bebc
00000040: dc3c 06be cc97 7fbd 10b6 dbbd 80ff 29be
00000050: a384 0b3e 9dba b0bd 12d5 e83d 93fc 45be
00000060: 31b1 3d3e d889 40be 78ab 66bd 3809 76bd
00000070: f242 d43d deb8 c43d 8a60 b1bd 0548 2abe
00000080: f294 d23d f925 273e 59e2 2d3e c7ce 0c3e
00000090: 2fc2 2c3e 006a d43b 1ab5 8cbd 404d bfbc
000000a0: b57e 48be 2788 263e c0ee d7bc 170d 3ebe
000000b0: 80d9 baba 30b0 743c 28a0 6dbd be4d a93d
000000c0: 80b5 4abe eb42 15be a871 97bc 51be 153e
000000d0: d8f7 c9bc 0357 23be 2824 b7bc 1d9b a8bd
000000e0: fcb5 95bd 5b9d 4bbe 9169 2d3e c01c 0a3d
000000f0: 77ff efbd ceaf f83d 5ccc 87bd 1fe6 393e
00000100: 4029 48bb 0381 24be a483 563d 960c 89bd
00000110: 5a77 c8bd 4577 103e 938e c5bd c071 15bd
00000120: c188 0b3e ff21 0c3e d0b8 dfbc a8e6 9d3c
00000130: 029f 09be d3f8 cebd 301b 703c 81c8 003e
00000140: 66ae 9c3d 527f 0fbe 65ac 333e 007d 78bd
00000150: 90ab e4bc 9804 4ebd 329d 3dbe 7f49 433e
00000160: 201d 28bd 9479 02be f099 f0bd 99d6 0b3e
00000170: 7310 213e 20af 04bc 886a 303d feea 24be
00000180: 6c1b 063d 1657 a73d ea41 bbbd 73a1 343e

bias f4 [4]
-0.09556105 0.050883695 0.17017035 0.012467116
00000000: 83b5 c3bd 6c6b 503d 2341 2e3e e042 4c3c
