models/_brain_244.pt (torch, 14593 bytes, 12 tensors)

weight f4 [14]
000000 00 00 80 3f 00 00 80 3f 00 00 80 3f 00 00 80 3f
       1.0 1.0 1.0 1.0
000010 00 00 80 3f 00 00 80 3f 00 00 80 3f 00 00 80 3f
       1.0 1.0 1.0 1.0
000020 00 00 80 3f 00 00 80 3f 00 00 80 3f 00 00 80 3f
       1.0 1.0 1.0 1.0
000030 00 00 80 3f 00 00 80 3f
       1.0 1.0

bias f4 [14]
000000 00 00 00 00 00 00 00 00 00 00 00 00 00 00 00 00
       0.0 0.0 0.0 0.0
000010 00 00 00 00 00 00 00 00 00 00 00 00 00 00 00 00
       0.0 0.0 0.0 0.0
000020 00 00 00 00 00 00 00 00 00 00 00 00 00 00 00 00
       0.0 0.0 0.0 0.0
000030 00 00 00 00 00 00 00 00
       0.0 0.0

weight f4 [25, 14]
000000 b6 1e 50 be a5 d1 1f be a6 62 2a be 82 13 af bd
       -0.20324215 -0.15607317 -0.16639194 -0.08548643
000010 c4 a1 a7 bd 60 64 68 bc aa 10 1b 3e 83 f9 86 3e
       -0.08185151 -0.0141840875 0.15143076 0.26362237
000020 30 fa 12 3e 0f b0 82 be 30 8f cb 3c 9a e6 3f be
       0.14353251 -0.25524947 0.02484855 -0.18740311
000030 ca 47 6f be 3e bd 0b be 18 83 ec bc a0 36 54 be
       -0.23367229 -0.13646409 -0.028871104 -0.20723963
000040 00 80 56 bd e0 5e 3b be c0 dd b8 3d 60 c1 15 3e
       -0.052368164 -0.1829791 0.090266705 0.14624548
000050 48 ab 9c 3d 50 ec f0 3d 94 ed 93 bd 6c 55 d2 3d
       0.07649857 0.11763823 -0.07223049 0.10270199
000060 1e 29 47 be 00 eb 69 3c e8 b8 8a 3d 57 b7 46 be
       -0.19449279 0.01427722 0.06773549 -0.19405876
000070 18 80 39 3e 36 7c 87 bd 28 a9 80 3d e8 4d 59 be
       0.1811527 -0.06615488 0.06282264 -0.21221125
000080 b0 a2 e8 3c 6c 6b 8d bd 54 8f ad bd 63 94 82 be
       0.028397888 -0.06905255 -0.08474603 -0.25503835
000090 fa 86 56 3e de df 55 3e 00 f2 de 3d 92 06 71 be
       0.20949927 0.2088618 0.108860016 -0.23537663
0000a0 1a 3a 73 3e cc 07 22 3e 22 9c 18 be 90 a2 3b 3d
       0.23752633 0.15823287 -0.1490331 0.04580933
0000b0 b1 06 0d be 30 65 ac 3c 5a 2b 06 be 27 7d 35 be
       -0.13772084 0.021044344 -0.13102475 -0.17723523
0000c0 4e a7 58 3e d0 82 15 bd 18 3a 4b be 80 88 d7 bd
       0.21157572 -0.036501706 -0.1984638 -0.10524082
0000d0 d4 07 1a bd 4a 84 50 be e2 ab 7b 3e 30 a7 2e 3d
       -0.03760512 -0.20362964 0.24577287 0.04263991
0000e0 37 43 11 be b4 79 31 bd c1 bd 43 be 90 0d 16 3d
       -0.14185797 -0.043328956 -0.19115354 0.036634028
0000f0 e4 ac 3f 3e 4a 29 48 3e d0 c2 d7 3c 10 bc e9 3c
       0.18718296 0.19547 0.026338011 0.028532058
000100 0c c5 8a 3d 5e 12 c4 bd 77 bc 05 be 00 d1 0f 3c
       0.06775865 -0.09573816 -0.13060175 0.008777857
000110 0c fc e9 3d 60 06 b7 3c 80 91 74 bb 12 e1 2d be
       0.11425027 0.022341907 -0.003731817 -0.16980389
000120 7e ac 2f be 00 ba 7f be 08 9e 59 3d 39 f6 78 be
       -0.17155644 -0.24973297 0.053129226 -0.24312676
000130 30 0f 99 bd 00 d0 5b ba a8 37 32 3d 9a b2 cd bd
       -0.074736 -0.00083851814 0.04351011 -0.10043831
000140 2e 65 63 3e d8 aa c7 bc 40 6e 6f be d0 f1 63 be
       0.22206566 -0.024373457 -0.23381901 -0.22260213
000150 68 1f 2c 3d 48 05 ad 3d dd d2 5c be f5 08 57 be
       0.04202214 0.08448273 -0.21564813 -0.2099951
000160 ac c8 a6 3d f2 8a 13 3e 79 b5 81 3e 64 81 25 be
       0.08143744 0.14408472 0.25333765 -0.1616264
000170 e2 7d 28 3e 1c 97 e0 3d 88 54 e4 3d c4 25 80 3d
       0.1645427 0.10966322 0.111489356 0.06257203
000180 9e e7 4f 3e 9e f8 5a 3e fa 10 35 3e 80 b6 0e bc
       0.20303199 0.21383902 0.17682257 -0.008710504
000190 c0 7f 22 bc 40 49 56 3c 4e 65 22 be 96 05 67 3e
       -0.009918153 0.013078988 -0.15858957 0.22560725
0001a0 66 48 33 be 84 7a 57 3e 6a 26 44 3e 0a d8 76 be
       -0.17508087 0.2104283 0.19155279 -0.2410585
0001b0 6a 30 1d be a8 24 11 bd 52 1f 01 be a0 77 ac bd
       -0.153505 -0.03543535 -0.12609604 -0.08421254
0001c0 2a dc 6d be 08 cf 5a be c6 bb 45 3e 48 68 a8 3d
       -0.23228517 -0.21368039 0.19309911 0.08223015
0001d0 a7 b0 80 be 4c b0 5d 3e 1d be 52 be f0 72 cb 3c
       -0.25134775 0.21649283 -0.20580335 0.02483508
0001e0 3f 36 09 be 00 f0 e2 ba c4 a4 01 3e 14 83 f3 3d
       -0.133996 -0.0017313957 0.1266051 0.118902355
0001f0 92 46 15 3e e0 61 40 bc 4a 93 6f 3e 34 40 ce 3d
       0.14577702 -0.011742085 0.2339603 0.100708395
000200 78 5d fa 3d 08 eb ff bc f5 a8 63 be b2 01 7a 3e
       0.12224859 -0.031240001 -0.2223242 0.24414709
000210 78 1b 76 be 28 9c 0d 3d 30 b8 ad 3d 3f 42 20 be
       -0.24033916 0.03457275 0.084823966 -0.15650271
000220 72 8d 5b 3e 80 7a c0 3c 84 4f 35 3e 08 10 33 3d
       0.21440676 0.023495913 0.17706114 0.04371646
000230 b3 f8 80 be 4a 10 b5 bd 8c 10 f5 3d 6e 57 33 3e
       -0.25189742 -0.088409975 0.11966047 0.1751382
000240 28 15 34 bd a6 a9 2f be 72 f4 c6 bd 4e 44 37 3e
       -0.04396549 -0.1715456 -0.09714593 0.1789715
000250 24 06 da 3d a8 36 b5 bd 00 7f 06 3c cc 82 36 3e
       0.106457025 -0.088483155 0.00820899 0.17823333
000260 d2 02 5b 3e 32 1d 6d 3e 18 44 77 3d 00 9a b3 bb
       0.21387795 0.23155668 0.060367674 -0.0054810047
000270 7c 81 83 be d8 06 46 bd f2 57 6f be de 09 6a 3e
       -0.25684726 -0.04834637 -0.23373392 0.22855327
000280 44 14 90 3d 07 ee 08 be 54 7a 67 bd 9f cf 1e be
       0.07035115 -0.1337205 -0.056513146 -0.15508889
000290 cf 4b 69 be 7c d4 d7 bd 38 03 02 3d 40 27 d4 bb
       -0.22782825 -0.10538575 0.03174135 -0.0064744055
0002a0 00 d6 82 be e8 a2 23 3d e0 11 32 bd d0 40 76 3d
       -0.25553894 0.03995028 -0.04347408 0.060120404
0002b0 8e f9 58 be 01 5d 2e be 00 24 32 3c 02 28 4d be
       -0.21188948 -0.17027666 0.010872841 -0.20034793
0002c0 ee 54 38 3e 42 71 43 3e 1b aa 80 be 8c 57 4e be
       0.18001148 0.19086173 -0.2512978 -0.20150584
0002d0 a6 79 15 3e dc c0 4c 3e aa 58 ea bd 59 25 4c be
       0.14597186 0.19995445 -0.114426926 -0.19936122
0002e0 e6 ec 56 3e 36 62 29 be 34 d8 84 3d e0 01 ea bc
       0.20988807 -0.16541371 0.0648655 -0.028565347
0002f0 6a b6 7f 3e 16 3d 74 3e fa 02 17 3e c0 49 fb bb
       0.24971929 0.23851427 0.14747229 -0.007668704
000300 60 7d 5e 3e ed 3e 83 3e 96 b0 7d 3e c8 b2 1d 3d
       0.21727514 0.25633946 0.24774393 0.038500577
000310 00 c3 d8 ba d6 be 42 3e f0 e6 0b 3e e2 bd 67 be
       -0.0016537607 0.1901811 0.13662314 -0.22631028
000320 30 00 9a 3d 98 7c 29 3d c4 f5 5f 3e 8e e5 b4 bd
       0.07519567 0.041378587 0.21871096 -0.088328466
000330 10 29 66 3d 40 dc b4 3b 20 3b 4e 3c 90 db c9 3c
       0.056191504 0.00551942 0.012587339 0.024640828
000340 25 8f 67 be 20 5c 76 bc de 4a 69 3e 00 ea 3b bc
       -0.22613199 -0.015036613 0.22782466 -0.011469364
000350 a0 3a 22 3e e0 ef 30 3c c0 33 47 3e 56 7e 2f be
       0.15842676 0.010799378 0.19453335 -0.17138037
000360 dc 7a d9 3d fc fe 15 bd 80 b2 d3 3c 80 16 95 bb
       0.10619137 -0.036620125 0.025841951 -0.0045498013
000370 96 9a 00 3e 00 db 62 bd 14 d3 86 3d b8 28 6c 3d
       0.1255897 -0.055384636 0.06583229 0.05765602
000380 3e 7c 3c 3e 64 a0 64 3e 48 a7 40 3d e3 b2 46 be
       0.1840677 0.22326809 0.04703453 -0.19404177
000390 a2 a5 12 be b8 02 ef bc b0 e6 4e 3e 93 96 7d be
       -0.14320996 -0.029176101 0.20205188 -0.24764471
0003a0 68 01 bc bd e4 b1 73 be d0 0f 5d 3e 22 6c dc bd
       -0.09179956 -0.23798329 0.21588063 -0.10762812
0003b0 04 79 7c bd e0 47 7d bc ea b6 20 3e 98 7c 1f bd
       -0.061638847 -0.015459031 0.15694776 -0.03893718
0003c0 31 62 66 be 62 21 7f 3e 99 d4 85 be f8 c4 cc 3d
       -0.22498395 0.24915078 -0.26138762 0.09998506
0003d0 f8 36 9c 3d 7a f3 7f be a0 91 55 bc 38 65 f9 bd
       0.07627672 -0.24995223 -0.013035208 -0.12177509
0003e0 89 08 3e be 28 d5 b4 bd d5 6f 47 be a4 f1 9e 3d
       -0.18557943 -0.08829719 -0.19476254 0.07760933
0003f0 94 c3 9c bd b4 96 3d bd 02 4c 1f be 2e 62 19 3e
       -0.07654491 -0.0462863 -0.15556338 0.14978859

bias f4 [25]
000000 e0 19 12 3e ca e7 be bd 72 d1 68 3e cc 83 6a 3e
       0.14267683 -0.09321554 0.22736147 0.22901839
000010 dc 6d d7 3d f3 95 80 be 76 69 0e 3e 16 01 56 3e
       0.10519001 -0.25114402 0.13907418 0.20898852
000020 ac a5 97 3d 1c da e8 3d b4 60 1f bd e0 43 95 3c
       0.07404646 0.11369726 -0.038910583 0.018220842
000030 52 7e 0e be 9c c4 20 3e c0 02 b3 3d c0 80 a9 bb
       -0.13915375 0.157 0.08740759 -0.005172819
000040 c2 26 4c be 52 f9 66 3e 51 48 31 be c2 59 2d be
       -0.1993666 0.22556046 -0.17312743 -0.16928771
000050 58 66 57 3d 8e 25 80 be 72 a5 d5 bd f8 36 3f 3d
       0.052587837 -0.25028652 -0.10431947 0.04668328
000060 00 d6 0a 3c
       0.008473873

weight f4 [25, 25]
000000 0d 4e 18 be 7a eb b6 3d 43 b4 41 3e 48 36 3e bd
       -0.14873524 0.08931632 0.1891642 -0.046438485
000010 77 7b ab bd ea c1 05 be 10 7a 37 be 60 90 35 bc
       -0.083731584 -0.13062254 -0.17917657 -0.011081785
000020 8a d2 9e 3d a2 ec 14 be 05 36 06 be 05 88 42 be
       0.07755001 -0.14543393 -0.13106544 -0.189972
000030 cc 42 1d 3d 66 92 f8 3d 54 3c 54 bd 08 70 2b be
       0.03839378 0.12137298 -0.051815346 -0.16741955
000040 0c 48 14 bd f4 fa 4c 3d 2e 65 b6 3d 40 4f c9 bc
       -0.03620152 0.050044015 0.08906017 -0.024573922
000050 9d 88 08 be a8 1a b1 3c 1e 36 b9 3d 4c 01 0e 3d
       -0.13333364 0.021619156 0.09043525 0.034669206
000060 ac 3c 1b 3d f0 95 cd bc 5d fa 3c be 28 e4 96 bc
       0.037899658 -0.02509591 -0.18454881 -0.01841934
000070 6c 43 12 3d a8 6d e1 bc 13 79 f3 bd 58 66 fe 3c
       0.03570883 -0.027518108 -0.118883274 0.03105466
000080 4e bc a4 3d aa 26 fd 3d 6c ab 53 bd 28 c2 3e be
       0.08043729 0.1236089 -0.051677153 -0.18628752
000090 b3 4d 39 3e 98 83 0b 3d d0 3a e3 bc 98 bd 09 bd
       0.18096046 0.034061044 -0.027738005 -0.033628076
0000a0 68 fe 2c be 12 8f b0 3d 40 d8 da bc 31 86 19 3e
       -0.16893923 0.086210385 -0.026714444 0.14992596
0000b0 e0 e4 e7 bd c1 18 45 3e fb 60 35 3e a2 28 92 3d
       -0.11322951 0.19247724 0.17712776 0.07136656
0000c0 a8 08 20 be 00 67 ec bd 72 42 88 3d 95 0c 14 be
       -0.15628302 -0.11543083 0.066532984 -0.14457925
0000d0 67 e2 fd bd 80 a4 06 bc c8 42 6c bd 5a 38 df bd
       -0.123966984 -0.008217931 -0.057680875 -0.1089942
0000e0 98 f7 4b 3d 77 e3 ce bd 40 d0 3d be 2e 4b cf 3d
       0.04979667 -0.10101979 -0.18536472 0.10121761
0000f0 45 40 48 be ff 72 1d 3e 73 01 02 3e 88 bf 34 3d
       -0.19555767 0.15375899 0.12695865 0.04412797
000100 90 ba cf bc ec 33 89 bd 54 73 46 3d a7 13 f9 bd
       -0.025357515 -0.066993564 0.04844983 -0.121619515
000110 8d 4b 39 be a2 c6 86 3d 07 34 49 3e 68 24 0f bd
       -0.18095227 0.06580855 0.19648753 -0.03494683
000120 a3 c6 31 3e d2 79 42 be 75 a1 31 be 75 a7 29 3e
       0.1736093 -0.18991783 -0.17346747 0.16567786
000130 e6 22 c5 3d 00 75 b3 3a 10 c5 b5 bd 52 72 8b 3d
       0.09625797 0.0013691485 -0.08875477 0.06808914
000140 9d 49 03 3e 5c e0 70 3d 5d 2a 13 be 35 2b 2a 3e
       0.1282105 0.058807716 -0.14371629 0.16618045
000150 0c 94 4e 3d 30 ef 8c 3c 11 4d 4b 3e 6c c7 04 bd
       0.050434157 0.017203897 0.19853617 -0.032416746
000160 28 47 20 be a2 90 1e be e9 50 2e 3e 71 bb 41 3e
       -0.15652144 -0.1548486 0.17023052 0.1891916
000170 40 3e bd bd b0 3c 9c bd 40 81 4d bb f3 30 0f be
       -0.09240389 -0.07628763 -0.0031357557 -0.13983516
000180 5b 74 22 3e 1c 76 58 3d 5c 45 62 3d 24 2e 92 bd
       0.15864699 0.052847013 0.055241928 -0.07137707
000190 01 bd 41 3e 20 26 6e bc 91 63 30 3e e2 32 bc 3d
       0.18919756 -0.014535457 0.17225482 0.091893926
0001a0 a9 02 1e 3e 3c 58 82 bd 1a eb 87 bd e8 25 64 bd
       0.15430702 -0.063644856 -0.06636639 -0.055700213
0001b0 b4 39 88 bd 62 7a d1 3d 5a 60 f0 3d 82 f7 fa 3d
       -0.06651631 0.10228421 0.117371276 0.122542396
0001c0 ea fa a9 bd f0 6d c6 bd 56 bd 8c 3d 68 43 ad bc
       -0.08299811 -0.09688938 0.068720505 -0.021150306
0001d0 a0 4f 0f bc bd e4 a3 bd 50 7e 8b bd d9 1b 0d 3e
       -0.008747011 -0.08002613 -0.068112016 0.13780154
0001e0 08 1a 20 bd c6 1a b2 3d 49 f7 06 3e b5 d7 21 be
       -0.039087325 0.08696513 0.1318027 -0.15804942
0001f0 ea ae ec bd 12 7f 1d be f7 98 0a 3e d1 0a 46 3e
       -0.115568 -0.15380505 0.13534914 0.19340064
000200 6d 53 0d be 34 ff 57 bd de e7 e6 3d ac af 47 3d
       -0.13801356 -0.052733615 0.11274694 0.048751518
000210 20 da f2 bd b5 d9 2c be 87 4d b0 bd da 56 ad 3d
       -0.1185801 -0.16879924 -0.08608537 0.08463831
000220 a0 ee 90 3b f5 e8 2e be c6 1d d5 3d 12 b9 c8 3d
       0.0044229776 -0.17081054 0.104060695 0.09800924
000230 ca e1 ac 3d 58 be 9d bc f2 08 b2 3d 2a 5d e2 bd
       0.08441503 -0.019255802 0.086931124 -0.11052926
000240 ca c3 82 3d a1 f7 0c 3e 98 a9 b8 bc c0 9e 3d be
       0.06385 0.13766338 -0.022541806 -0.1851759
000250 15 79 22 be c6 c5 fe 3d f4 bf 04 3d 2d 2a 2f 3e
       -0.15866502 0.12440066 0.032409623 0.17105933
000260 4c e8 3e bd 71 3e 39 3e 87 72 0f 3e 52 35 1d be
       -0.046608254 0.18090226 0.14008532 -0.15352371
000270 2b b5 19 3e 93 a0 a6 bd 89 71 12 3e 72 d1 e1 3d
       0.15010516 -0.08136096 0.14301123 0.11026277
000280 40 6a ff 3b 3f 94 1d 3e 17 da 35 be f9 75 22 3e
       0.0077946484 0.15388583 -0.17758976 0.15865315
000290 00 98 e2 3a 92 e7 ea 3d 69 32 36 3e a2 06 a6 3d
       0.0017287731 0.1146995 0.17792667 0.08106734
0002a0 12 58 b5 3d 8b b5 38 be 91 f7 0b 3e 00 0e 8d 3c
       0.08854689 -0.18038003 0.13668658 0.01721859
0002b0 80 26 36 bb 25 a3 31 3e 15 a5 13 be 66 3f be 3d
       -0.0027793944 0.17347391 -0.14418443 0.09289436
0002c0 90 b6 bb 3c f8 82 11 bd 6a b5 e9 3d f0 27 e7 bc
       0.022914201 -0.035525292 0.11411555 -0.028217286
0002d0 44 06 0c be 6a 0a c7 3d 00 b1 f6 bb e2 9b 42 be
       -0.13674265 0.09718783 -0.0075284243 -0.19004777
0002e0 f5 04 19 3e 4c 48 95 bd 63 b2 0a 3e 80 9f 75 3c
       0.14943297 -0.0728918 0.13544612 0.014991641
0002f0 60 d0 ab 3b 03 5a b8 bd 80 94 07 bc e0 59 24 be
       0.005243346 -0.090015434 -0.008275151 -0.1604991
000300 10 6c ee bc 16 bb 84 3d cd ff d6 bd 78 21 2c 3d
       -0.029104263 0.06480996 -0.10498009 0.042024106
000310 82 17 de 3d e0 c0 47 be 22 8d 8b 3d 57 ab 3c be
       0.108443275 -0.1950717 0.06814028 -0.18424736
000320 37 24 17 3e 0b 34 3d be 47 f9 bf bd ca a1 87 bd
       0.14759909 -0.18476884 -0.09373718 -0.06622656
000330 d6 73 95 bd 80 4a 47 be d8 5b 9a bc 89 44 38 3e
       -0.072974846 -0.19462013 -0.018842623 0.17994894
000340 60 fa f1 bd ca 0a 25 be fd 2b 09 be b2 c8 99 3d
       -0.11815333 -0.16117397 -0.13395686 0.07508983
000350 e9 c5 3b 3e c3 66 48 3e 68 7d 94 3c ca ee f6 3d
       0.18337215 0.1957045 0.018126205 0.12057264
000360 72 a9 95 3d 64 58 79 3d 8f 50 1d 3e 83 cd f4 bd
       0.0730771 0.06087531 0.15362762 -0.11953261
000370 41 2a 49 3e c7 ac 4a be 2f 2c 23 3e 42 b4 8c 3d
       0.19645025 -0.19792472 0.15934823 0.06870319
000380 d8 c6 96 3c 03 f0 33 be b0 20 96 bd ed 55 ae bd
       0.018405363 -0.17572026 -0.073304534 -0.08512483
000390 22 ce 91 3d 0a fc 45 be 90 b7 d2 bd c8 f2 26 be
       0.07119395 -0.19334427 -0.10288918 -0.16303551
0003a0 6a 6c c3 3d c4 50 04 be 6a 5f f3 bd 70 61 ca bc
       0.09542163 -0.12921435 -0.11883433 -0.024704665
0003b0 a0 32 3c 3d 3f 9a 45 be e2 36 86 3d 64 c0 60 3d
       0.045946717 -0.19297121 0.06553437 0.054870978
0003c0 98 62 8e bc f4 96 0b 3d e3 2f 41 be 40 d4 93 bb
       -0.017380998 0.034079507 -0.18865924 -0.004511386
0003d0 30 9e 50 bc 7d 43 46 3e d8 0d 28 bd 36 ca 9d 3d
       -0.012733027 0.19361682 -0.041028827 0.07704584
0003e0 66 d6 12 be 00 0f f6 3a 0c 19 5b bd 70 d5 3f be
       -0.14339599 0.0018772781 -0.053490683 -0.18733764
0003f0 30 5f ff bc 80 5c 75 bd 58 9e 9d 3c 68 e2 0d be
       -0.031173319 -0.059902668 0.019240543 -0.13855898

bias f4 [25]
000000 9a c3 97 bd c0 0e 86 bb 80 08 ca bd 53 38 a0 bd
       -0.07410355 -0.004091114 -0.098649025 -0.07823243
000010 cd d3 9e bd f4 53 02 bd c0 3d 2e 3d b2 36 0a be
       -0.077552415 -0.031818345 0.04253936 -0.13497427
000020 86 5d c9 3d c4 fe 03 be 02 72 fc 3d 73 2f 42 3e
       0.09832291 -0.12890154 0.12326433 0.18963413
000030 0d ce 0a be de 40 ef 3d 92 cf b7 3d ba 47 a3 bd
       -0.13555165 0.11682294 0.08975138 -0.07972665
000040 82 35 26 be 2b 1d 10 3e 4b 8a 44 be 56 86 8d bd
       -0.16231349 0.14073627 -0.1919338 -0.06910388
000050 1a 48 0e be 10 e5 2e be 89 7d 0c 3e 9a 18 48 be
       -0.13894692 -0.17079568 0.13719763 -0.19540635
000060 32 69 fd 3d
       0.1237358

weight f4 [25, 25]
000000 6c 2c 4c bd b7 c2 a8 bd 27 5a 35 3e 74 0f 3a bd
       -0.04984705 -0.08240264 0.17710172 -0.045424893
000010 80 d2 2c be 71 5a 1b 3e a8 c1 3e be 70 14 cd 3c
       -0.16877174 0.1517122 -0.18628561 0.02503416
000020 03 3d 1b be c1 ab 15 3e 78 ca 30 bd 03 19 22 be
       -0.15159993 0.146163 -0.04316184 -0.15829854
000030 80 d6 89 3a 8e 37 a3 3d 88 bf 52 bd 25 10 1b 3e
       0.0010516196 0.079695806 -0.05145219 0.15142877
000040 54 05 5f bd f0 ed e2 3c 68 ab ed bc 98 83 a8 bc
       -0.05444844 0.027701348 -0.029012397 -0.020570561
000050 e6 c8 1a be 40 46 c1 bc 2c 0b 0a be a6 53 d8 3d
       -0.15115699 -0.023593068 -0.13480824 0.1056283
000060 6c 0a 42 3d 5d 43 b0 bd 19 5f 2b 3e 0c 0b 1d 3d
       0.04737322 -0.086065985 0.16735496 0.038340613
000070 b0 0a bc bd 49 d4 1d 3e 00 d2 61 3a 30 8d ec 3c
       -0.09181726 0.15413012 0.0008614361 0.028875917
000080 5c 24 63 3d b6 fd 17 be 5e e6 d5 3d fa 8c fb 3d
       0.055454597 -0.14842877 0.1044433 0.122827485
000090 a0 db b1 bb 8c 45 97 bd e1 95 16 3e 5e 3b ea 3d
       -0.0054277927 -0.07386312 0.14705612 0.11437105
0000a0 98 67 dc bc be 9a 11 be b3 f8 eb bd 6d 50 db bd
       -0.026904866 -0.14219186 -0.11522045 -0.107086994
0000b0 c4 0e 68 3d 80 ae 52 bb f3 fa bf bd bf 85 02 3e
       0.056654707 -0.0032147467 -0.09374037 0.12746333
0000c0 9a 34 ac 3d 4b 25 1c 3e 30 0b 26 3c b5 cc 06 3e
       0.084084705 0.15248601 0.010134503 0.13164027
0000d0 c0 6e 64 bb f4 c4 65 3d 62 35 ec 3d e5 bc 12 3e
       -0.0034856051 0.056096032 0.115336195 0.1432987
0000e0 08 db 77 bd 99 45 43 3e ed 99 49 3e d5 e5 47 3e
       -0.06051162 0.19069518 0.19687624 0.19521268
0000f0 93 fd 45 be 22 95 d4 3d bf dc 40 be d7 be a2 bd
       -0.19335012 0.10380007 -0.18834208 -0.07946556
000100 50 59 4b bc ec 32 37 bd 87 78 bd bd 93 4a 47 3e
       -0.0124114305 -0.044726297 -0.092515044 0.19462042
000110 db 18 48 be 8d 21 43 be 12 5d 07 be 23 3e 4b 3e
       -0.19540732 -0.19055767 -0.13219097 0.19847922
000120 42 2c 22 be 00 a0 85 bd 5a bf f7 bd 7e 3f 92 3d
       -0.15837196 -0.06524658 -0.12097044 0.071410164
000130 ad 0f d1 bd 6a 3c 9d 3d 95 d7 42 be 81 07 26 3e
       -0.10208068 0.07677539 -0.1902755 0.162138
000140 54 36 55 bd 00 f5 b1 bc 00 22 fb bb db 40 1c 3e
       -0.052053764 -0.02172327 -0.007663965 0.15259115
000150 07 70 2b 3e 68 cb c8 3c c0 0c a5 bb 98 36 e8 bc
       0.16741954 0.024511054 -0.0050369203 -0.028346345
000160 ae 60 17 be 6d 4c 3f be 28 1f 06 3d ea df 8b bd
       -0.14782974 -0.18681498 0.032744557 -0.068298176
000170 53 52 2a be 21 77 27 3e cd 9a b6 bd b0 cf 65 3c
       -0.16632967 0.16354038 -0.08916245 0.014026567
000180 14 d7 12 3d 3c 19 81 bd 00 bc 4c 3c 00 13 fe bd
       0.035849646 -0.06303641 0.012495995 -0.12405968
000190 32 8b a7 3d ca 5d 94 3d a2 ca cf 3d b3 d8 2f 3e
       0.08180846 0.07244451 0.10146071 0.17172508
0001a0 40 ce 85 bc a2 d5 8e 3d 7e 6a b2 3d 22 63 02 be
       -0.0163337 0.06974341 0.08711718 -0.12733129
0001b0 00 89 5c bc 28 9d 98 bc e4 15 8a bd f4 b5 72 3d
       -0.013460398 -0.018629625 -0.067424566 0.059255555
0001c0 00 f6 24 bc c5 33 0c be b7 ff d9 bd 8c d8 37 3d
       -0.010068417 -0.13691624 -0.10644477 0.04488425
0001d0 50 88 d7 3c 39 ae 13 3e 5a 4f 30 be 3e e4 b8 3d
       0.026310116 0.1442193 -0.1721777 0.09027909
0001e0 14 73 57 bd 7f a7 49 be f3 b5 f6 bd 6d 52 b5 bd
       -0.05259998 -0.19692801 -0.12046423 -0.08853612
0001f0 53 63 35 3e 88 83 52 bd a6 55 f8 3d 9b 7c 33 3e
       0.1771367 -0.05139497 0.12125711 0.17528002
000200 a5 88 49 3e 36 10 00 be 59 79 1d 3e fd a8 b9 bd
       0.19681032 -0.12506184 0.15378322 -0.09065435
000210 6c b7 74 3d a0 a5 ae 3b 00 56 c0 3c b5 4d 2c be
       0.059745237 0.0053298026 0.023478508 -0.16826518
000220 30 b3 a3 bc c2 9c 20 be 50 44 be bd fe 22 be 3d
       -0.019982904 -0.15684798 -0.09290373 0.09284018
000230 00 d8 d3 bb 59 9f 05 3e c0 67 bc bb 75 50 4b 3e
       -0.006464958 0.13049068 -0.0057496727 0.1985491
000240 cc a4 39 bd 41 0b 3c 3e f8 bb 02 bd 8a 61 cf bd
       -0.04532318 0.18363668 -0.031917542 -0.10126026
000250 8a 11 f3 bd 92 bf 9c 3d a0 f4 c5 3b 5d 04 9b bd
       -0.1186858 0.07653727 0.0060411245 -0.075691916
000260 50 f7 55 bc fe c7 89 3d d4 76 35 3d 47 00 b0 bd
       -0.013059452 0.067275986 0.044302776 -0.08593803
000270 81 45 44 3e 9d f0 9c bd e3 64 3e be 00 66 cb 39
       0.19167139 -0.07663081 -0.18593173 0.00038795173
000280 fa b6 2b be 1d a3 de bd 52 5f d8 3d 0d b4 1b 3e
       -0.16769019 -0.10870955 0.10565056 0.15205403
000290 56 e8 d2 3d cc ec 0d 3d 00 b6 76 3c de 39 f1 3d
       0.10298221 0.034649655 0.015058041 0.117786154
0002a0 98 c3 c5 3c 5d ba 0f 3e 28 8e b6 bc ac 23 01 bd
       0.024141118 0.14035936 -0.022284582 -0.03152816
0002b0 09 4d 41 3e c3 3c b6 bd 7d df 1c 3e f4 88 0c 3d
       0.18877043 -0.08898308 0.15319629 0.034310296
0002c0 20 8c 54 bc 90 ab 83 bc b2 a5 90 3d 8d ff 19 be
       -0.0129728615 -0.016073018 0.07062854 -0.15038891
0002d0 ff c1 02 3e 74 54 0e bd 22 3c 88 3d 51 14 3c 3e
       0.12769316 -0.03474851 0.066520944 0.18367125
0002e0 7c ef 60 3d d4 76 6b bd 2e 4f d0 3d 2d 7a c1 bd
       0.05491589 -0.05748637 0.10171352 -0.09447131
0002f0 40 ff d9 3b 70 58 a9 bc 7a f2 85 bd e0 90 09 bc
       0.0066527426 -0.020672053 -0.06540389 -0.008396357
000300 40 12 c7 3c 85 db 06 3e 00 51 c8 bb 28 fa 0d be
       0.024300694 0.13169678 -0.0061131716 -0.13864958
000310 a2 3c f2 3d ed f9 a6 bd 78 5a 2f 3d c0 51 c7 3b
       0.11827971 -0.08153138 0.042810887 0.0060827434
000320 7a b0 d8 bd d8 65 6c bd ed 79 2b be 71 68 1e 3e
       -0.10580535 -0.057714313 -0.1674573 0.15469529
000330 1e c5 25 be b0 47 84 bc 85 be 12 3e 28 d8 af 3c
       -0.16188475 -0.016147465 0.1433049 0.021465376
000340 3a a2 bf bd 14 f2 24 3d 0a eb 81 3d 36 d9 91 bd
       -0.09357114 0.040269926 0.06343658 -0.07121508
000350 80 73 3b bb 6c f9 1e bd 60 ae 25 be c2 02 83 3d
       -0.002860278 -0.038812086 -0.161798 0.063970104
000360 a7 f1 ea bd 2c c0 0d 3d 77 e8 9f bd f2 c2 c7 3d
       -0.11471873 0.034607098 -0.07808011 0.0975398
000370 a9 8b 04 3e 05 33 47 3e 53 24 29 be e4 c3 74 3d
       0.12943901 0.19453056 -0.16517763 0.05975713
000380 1d 9a ac bd e8 9c f4 bc 67 42 43 be f0 8d f5 bd
       -0.08427832 -0.029859975 -0.19068299 -0.11989963
000390 d8 2b ae 3c 40 77 0d bd 95 4d 40 3e 80 f9 d8 3c
       0.02126114 -0.034537554 0.18779595 0.026486158
0003a0 73 24 28 3e f2 16 33 be 4a e5 89 bd 80 51 75 3b
       0.16420154 -0.17489222 -0.067331865 0.003743261
0003b0 a0 f9 82 bd a3 15 18 3e f5 a8 1a be c5 d9 49 be
       -0.063952684 0.14852004 -0.15103514 -0.19711979
0003c0 63 5f 1b 3e d4 c2 6d 3d 0f 8c 29 3e ab bf 29 be
       0.15173106 0.05804713 0.16557334 -0.16577022
0003d0 29 e8 07 3e ea 57 19 be 2d c8 42 3e 29 b6 09 3e
       0.13272156 -0.14974943 0.19021674 0.13448395
0003e0 90 68 f8 bd 65 a0 13 be a6 c5 db 3d f4 68 1c 3d
       -0.12129319 -0.14416654 0.10731058 0.03818603
0003f0 ea 2f d4 3d d1 ff 20 3e 2c d1 74 3d 95 19 35 3e
       0.103607014 0.15722586 0.059769794 0.1768554

bias f4 [25]
000000 d4 35 49 3d 92 95 97 3d 83 ff a0 bd 92 cd cb 3d
       0.0491236 0.07401575 -0.07861235 0.09951319
000010 0c 3c 59 3d 60 6a 96 bd 00 0d 49 bc 29 4e 27 3e
       0.05303578 -0.07344508 -0.012271166 0.1633841
000020 bd c8 3c 3e 79 11 0f 3e 07 95 45 3e d8 49 bc 3c
       0.1843595 0.13971509 0.1929513 0.02298443
000030 60 9e 9d bd f2 58 e9 3d 19 a0 34 3e 78 1a 00 bd
       -0.07696223 0.11393918 0.17639197 -0.031275243
000040 cf a4 40 be c0 84 4a be e3 70 f2 bd 20 37 3a bd
       -0.1881287 -0.19777203 -0.11837938 -0.045462728
000050 ae 0c a4 3d 80 7d f2 bc bb 1a 3a 3e ed d3 04 be
       0.08010231 -0.029600859 0.1817426 -0.12971468
000060 62 85 92 3d
       0.07154347

weight f4 [25, 25]
000000 0a 07 f5 3d 32 4c e1 3d 77 a6 3e be 27 8d 42 be
       0.11964233 0.11000861 -0.18618189 -0.18999158
000010 4e 94 cb 3d e8 c6 f1 3c d3 0e aa bd 3b 5b 16 3e
       0.09940396 0.029513791 -0.08303609 0.14683239
000020 2d b0 45 be 41 79 39 3e 11 93 2e 3e 09 fc 4a 3e
       -0.19305487 0.18112661 0.17048289 0.19822706
000030 98 7b 45 3d 02 b0 a4 3d 8a ea d8 3d 22 6b 87 3d
       0.04821357 0.08041383 0.1059161 0.06612231
000040 4c e8 0b bd 9d 2b 3c be a6 6e 0e be 70 5c fe 3c
       -0.034157082 -0.18376012 -0.13909397 0.031049937
000050 48 a4 23 be 4d bd 0f 3e 5a 85 e6 bd b4 94 72 bd
       -0.15980637 0.14037056 -0.112559035 -0.059223846
000060 d0 13 34 bc df 89 41 3e a9 21 40 3e 08 5a 4b 3d
       -0.010991052 0.1890025 0.1876284 0.049646407
000070 01 42 43 3e 10 a9 cc bd e0 64 39 be 40 a2 3d 3d
       0.19068147 -0.099931836 -0.18104887 0.04629731
000080 2c 3a 93 bd 89 01 0d 3e 72 a0 d5 3d 73 83 bc bd
       -0.0718883 0.13770117 0.10430993 -0.092047594
000090 16 50 80 bd 6a 0f 93 bd 2c 38 18 3d 40 a1 70 3b
       -0.06265275 -0.071806744 0.037162945 0.0036717206
0000a0 92 e4 84 3d e3 d4 41 3e f0 0b 8c bd 1b 94 19 3e
       0.06488909 0.18928866 -0.068382144 0.14997904
0000b0 08 ae 14 3d 5d ac 1a be c2 36 d5 3d 23 63 d4 bd
       0.03629878 -0.15104814 0.10410835 -0.10370471
0000c0 76 e7 92 bd 5c 8d 07 be df ff 00 3e bd 1f 3a 3e
       -0.07173054 -0.13237518 0.12597607 0.1817617
0000d0 94 a5 20 bd 02 d0 dc 3d 7c d5 61 3d fc 01 4d 3d
       -0.039220408 0.10781862 0.055135235 0.05005072
0000e0 b8 66 03 be d1 13 2e 3e 50 ce 44 3c c6 f1 16 be
       -0.12832153 0.16999747 0.012012079 -0.14740667
0000f0 f6 95 a3 3d 10 ff 9f 3c 3d b9 c1 bd e4 40 62 3d
       0.07987587 0.019530803 -0.094591595 0.055237666
000100 6c 9f 61 bd e2 80 22 be 00 c5 23 3a 96 3f 20 be
       -0.055083677 -0.15869477 0.0006247312 -0.15649256
000110 4d 0a 4b be 04 8b 85 bd 6b 91 22 be c5 3d 15 be
       -0.19828148 -0.06520656 -0.15875785 -0.14574344
000120 36 8b 99 3d 4d 46 ff bd 32 94 b7 3d 23 ff c7 bd
       0.074972555 -0.12464581 0.08963813 -0.0976546
000130 ad b3 19 3e 66 55 ec 3d 57 5d b0 bd f9 c7 0a 3e
       0.15009947 0.11539726 -0.08611553 0.13552846
000140 87 7d 3d 3e 40 5b 8d 3b 0f d8 1f 3e e6 94 d6 3d
       0.18504916 0.0043138564 0.15609764 0.10477619
000150 47 b5 4c 3e d8 5f a9 3c bc 2e 8e bd ff 7e 02 3e
       0.19991027 0.020675585 -0.069425076 0.12743758
000160 60 4d 0f bc 40 7d 01 3b 93 9f bc bd 2d fa 22 3e
       -0.008746475 0.0019758493 -0.09210124 0.15915747
000170 17 6d d9 bd 61 8f 14 3e 82 fd c0 3d 70 80 fd 3c
       -0.1061651 0.1450782 0.09423353 0.030945033
000180 54 41 87 bd 5b 76 19 3e 58 a5 43 3d 42 37 87 3d
       -0.06604257 0.14986555 0.047765106 0.066023365
000190 6e 29 10 be 67 ef 3c 3e 77 39 43 3e 0a ed e7 bd
       -0.14078304 0.184507 0.1906489 -0.113245085
0001a0 ec 38 04 bd 3d 3c 41 be f4 10 23 bd f2 04 ae 3d
       -0.032280847 -0.18870635 -0.03981109 0.08497037
0001b0 d3 3d a7 bd 40 ee 0b 3d 98 ab e4 bc a0 be 7c bd
       -0.08166089 0.03416276 -0.027913854 -0.06170523
0001c0 3b 41 25 3e 90 56 f7 bc 20 d5 16 3c cc c4 02 be
       0.16138165 -0.030192643 0.009206086 -0.12770385
0001d0 72 d4 a9 3d dd 1d ee bd 4a ea d5 bd ad 32 2a 3e
       0.08292474 -0.1162679 -0.10445078 0.16620894
0001e0 2b 64 1f 3e f6 c7 e3 3d 37 89 de bd b4 a5 98 bd
       0.15565555 0.11122124 -0.108660154 -0.0745348
0001f0 21 70 09 3e 5d 21 31 be 7b 5e 1f 3e 69 4b 40 3e
       0.1342168 -0.17297883 0.15563385 0.18778767
000200 ec f2 38 3d 1a 98 de 3d 25 2f 13 be cb 10 40 3e
       0.045153543 0.10868855 -0.14373453 0.18756406
000210 ba 3f d8 bd 33 a4 4a be 82 4c 0e be 25 ca 2d 3e
       -0.1055903 -0.197892 -0.13896373 0.16971643
000220 23 9a b8 bd ed b5 2a be 50 21 a6 bd 0b 3e 07 3e
       -0.09013774 -0.16670962 -0.081118226 0.13207261
000230 88 93 3a be 30 a8 93 bd e0 8a 4c 3c 76 6c 28 be
       -0.18220341 -0.072098136 0.012484282 -0.16447625
000240 8c 6f 62 3d 00 2e e9 3b a6 29 01 be 5e f4 a7 3d
       0.05528216 0.0071160793 -0.12613544 0.08200906
000250 4c 05 08 bd 90 84 94 bd 8c 3f 77 bd e9 a7 2a 3e
       -0.033208176 -0.07251847 -0.060363337 0.16665615
000260 df 27 21 3e 4c 0b 33 bd 66 dd 8b 3d 77 55 f4 bd
       0.15737866 -0.043711945 0.06829338 -0.119303636
000270 24 2e 7f 3d b7 6e 21 3e d4 f9 7f 3d a2 69 82 3d
       0.062299863 0.1576489 0.062494114 0.06367804
000280 a0 bc 3d bd bb ea 0b 3e 59 aa 40 3e d4 5d 07 3d
       -0.046322465 0.13663761 0.18814982 0.033048466
000290 8c 64 79 3d d0 41 88 3c 27 83 09 3e 69 b7 35 3e
       0.060886905 0.016632944 0.13428937 0.17745747
0002a0 5a 53 ac 3d 9a 82 3f be b9 fa 2b 3e 00 f0 73 bd
       0.084143355 -0.18702164 0.16794862 -0.059555054
0002b0 5d 70 40 be e3 33 ed bd 17 c2 f4 bd 46 11 f1 3d
       -0.18792863 -0.11582162 -0.11951082 0.11770873
0002c0 12 f9 41 be 30 19 9f bc 00 df 81 ba 97 a6 41 be
       -0.18942669 -0.01942119 -0.0009908378 -0.18911205
0002d0 2f 3b 35 3e 41 7a 37 3e 80 cb 14 bd ea 26 81 bd
       0.17698358 0.1791773 -0.036326885 -0.063062504
0002e0 d0 b6 13 be 6b 3f 3c 3e 00 68 64 b9 5e 15 8d 3d
       -0.14425206 0.18383567 -0.00021782517 0.06888841
0002f0 cf 3a 02 3e c5 57 12 be ca 95 e2 bd 7d 22 eb bd
       0.12717746 -0.14291294 -0.11063726 -0.114811875
000300 54 e7 5c bd ef 71 09 3e 17 8f 3f 3e b7 80 0a 3e
       -0.05393155 0.13422368 0.18706928 0.13525663
000310 c5 a5 2f be fd fc 32 be cc 5b 82 bd 7a 46 e3 3d
       -0.1715308 -0.1747932 -0.06365165 0.11097427
000320 12 af c4 3d 18 62 06 3d 30 dd 08 3c 8a 5b 9d 3d
       0.096037045 0.032808393 0.008353516 0.07683475
000330 6f 44 36 3e 26 04 08 be c6 ea 96 3d 0c 56 65 bd
       0.17799543 -0.13282833 0.07368998 -0.055990264
000340 b3 91 22 be 66 35 c2 3d 80 09 36 be 54 57 46 bd
       -0.15875892 0.09482841 -0.17777061 -0.048423126
000350 fd a5 4b 3e 0d 72 2e be 58 54 ad 3c 00 60 38 b9
       0.19887538 -0.17035694 0.021158382 -0.0001758337
000360 50 45 95 bc e0 e9 9b bd 8d d5 c2 bd 6a 4f 1a be
       -0.018221527 -0.076129675 -0.09513388 -0.15069357
000370 55 c9 45 3e 4a 0f f0 bd 73 2a 25 be ce a6 29 be
       0.19315083 -0.11721666 -0.16129474 -0.16567537
000380 b6 fa 22 be 4d d0 29 3e a0 8e b3 3b b7 80 1b 3e
       -0.15915951 0.16583367 0.0054796487 0.1518582
000390 a5 cb 1e be f6 89 07 be 92 c0 d9 3d 6a 79 b9 bd
       -0.15507372 -0.13236222 0.10632433 -0.09056361
0003a0 76 5c 1d be ea 24 17 be a3 f0 14 be f9 5f 2a 3e
       -0.15367302 -0.14760175 -0.1454492 0.16638173
0003b0 95 8b 27 be a0 de 4a bc 80 2f ae 3c a1 52 42 3e
       -0.1636184 -0.0123821795 0.021262884 0.18976833
0003c0 5d c0 31 be b6 3a d1 3d 50 46 2c 3c 99 d2 2e 3e
       -0.17358537 0.10216276 0.010514811 0.17072524
0003d0 90 27 9e 3c b9 20 2a 3e 6a 1d f9 bd d0 46 dc bd
       0.019305974 0.16614045 -0.121638134 -0.10755694
0003e0 26 98 fe 3d 90 6b 21 be 01 28 32 3e 77 41 2c 3e
       0.12431364 -0.15763688 0.17398073 0.16821848
0003f0 d3 52 37 be a9 45 16 3e 9e a2 bb 3d 0c 27 0e 3d
       -0.17902689 0.1467501 0.09161876 0.034705207

bias f4 [25]
000000 a0 c0 bc 3b ba ea bc bd ba 00 de 3d 68 25 09 3d
       0.0057602674 -0.09224458 0.10839982 0.03348294
000010 73 c0 44 be 68 b0 e5 bc 2b 5a 1f be a6 df 96 bd
       -0.19214039 -0.028038219 -0.1556174 -0.07366876
000020 b3 30 ab bd 72 e4 f4 3d 20 24 74 bc a2 b3 0f be
       -0.08358898 0.11957635 -0.014901191 -0.14033368
000030 98 59 97 3c ac 0f 01 bd 9e ba c5 3d 53 4b 2e 3e
       0.018475339 -0.031509086 0.09654735 0.17020921
000040 3d 2b 42 be ba 79 26 be 50 b9 f1 bc 8e 94 d1 3d
       -0.18961807 -0.16257372 -0.02950731 0.10233413
000050 b2 5d 42 be ea f3 b0 bd b8 34 6e bd 52 a0 d1 3d
       -0.18981054 -0.08640273 -0.058155745 0.10235657
000060 a7 61 3b 3e
       0.1829897

weight f4 [4, 25]
000000 50 7f 28 be 22 ac bb 3d a8 c3 ef bc 20 4d 09 3d
       -0.16454816 0.09163691 -0.0292681 0.033520818
000010 64 b1 61 3d 60 54 05 3d 0c e0 02 bd 68 23 43 bd
       0.055100814 0.03255117 -0.03195195 -0.047641188
000020 a9 1c 13 3e 9a 60 87 bd a1 37 4a 3e a4 b5 59 3d
       0.14366402 -0.06610222 0.19747783 0.05315174
000030 6a ca bb bd d0 69 09 3c 07 95 c2 bd 3c 68 82 bd
       -0.09169467 0.008387044 -0.09501081 -0.063675374
000040 50 79 80 bd dd 08 12 be 1d f4 30 3e 98 f0 99 3c
       -0.062731385 -0.14261194 0.17280622 0.018791482
000050 27 83 20 3e 73 aa 13 3e ae 69 25 be e9 13 30 3e
       0.1567503 0.1442049 -0.16153595 0.17195095
000060 c0 8c 1e be 40 ed ba bc 00 91 57 bc 00 fc eb bb
       -0.1548338 -0.022818208 -0.013157129 -0.0072016716
000070 50 a1 c9 bd 53 b7 32 3e 26 cc f9 3d 2d 4f c7 bd
       -0.09845221 0.17452745 0.12197141 -0.097318985
000080 ec 5a 17 3d c5 80 32 be 56 48 80 bd 9e 80 2c be
       0.036951944 -0.17431934 -0.06263797 -0.16845939
000090 da c6 ea 3d d0 42 16 be f4 84 0f bd 1b 2d 11 be
       0.11463709 -0.14673924 -0.035038903 -0.14177363
0000a0 bd b2 a9 bd 37 a1 c6 bd 9e 1b c0 3d 61 93 02 3e
       -0.08286045 -0.09698718 0.093802676 0.12751533
0000b0 b6 fb a4 3d 14 08 5d bd c7 9a 00 3e ac 85 74 bd
       0.080558226 -0.053962782 0.12559043 -0.059697792
0000c0 38 f7 5a bd 65 60 14 3e 40 47 ea bd 30 fb 8a 3c
       -0.053458422 0.14489897 -0.11439371 0.016965479
0000d0 0c c6 98 bd 80 1a d6 ba 74 39 93 bd 03 d3 a9 bd
       -0.074596494 -0.0016334802 -0.07188693 -0.082922004
0000e0 25 7f 10 be b0 ae 23 3c d0 b7 1a bc 85 26 10 be
       -0.14111002 0.009990379 -0.009443238 -0.14077194
0000f0 8a 44 3b be c6 81 94 3d 60 98 93 bd 5b a7 2a 3e
       -0.18287864 0.07251315 -0.072067976 0.16665404
000100 5a f2 96 bd 83 40 a2 bd 54 6d 7a 3d a7 16 12 3e
       -0.07370444 -0.07922461 0.06113942 0.14266454
000110 3a 7b e2 bd 13 e5 23 3e 76 21 ce 3d 0b 55 05 3e
       -0.1105866 0.16005354 0.10064976 0.13020723
000120 68 03 0a bd 3a 45 a8 bd 22 cc 00 be 47 6a ab bd
       -0.033694655 -0.08216329 -0.1257787 -0.0836988
000130 b4 69 26 3d 2e ac 96 3d d0 17 c5 3c 32 56 b2 3d
       0.04062815 0.073570594 0.024059206 0.08707847
000140 30 80 9f bc 80 51 38 3b cc 5b 26 3d b1 7f 38 3e
       -0.019470304 0.002812475 0.040614888 0.1801746
000150 bd 97 3a be 8c 67 48 bd a0 dc bd 3b 8a 64 e7 3d
       -0.18221946 -0.048926875 0.005794123 0.11298473
000160 f9 f7 2b 3e 94 c3 4e bd 71 a9 19 3e 9f a9 10 3e
       0.16793813 -0.050479487 0.15006043 0.14127205
000170 1d e7 0b 3e b2 46 1e be e0 f2 3a be c0 d0 96 bb
       0.13662381 -0.15456656 -0.18256712 -0.0046025217
000180 3e b3 b7 3d 9f 86 00 3e 50 0a 9c bd 4b d8 42 be
       0.089697346 0.12551354 -0.076191545 -0.19027822

bias f4 [4]
000000 d7 9a 42 be de d3 aa 3d bf e2 1f 3e d3 aa 1b be
       -0.19004379 0.08341192 0.1561384 -0.15201883
