models/_brain_271.pt (torch, 14593 bytes, 12 tensors)

weight f4 [14]
1.0 1.0 1.0 1.0 1.0 1.0 1.0 1.0
1.0 1.0 1.0 1.0 1.0 1.0
00000000: 0000 803f 0000 803f 0000 803f 0000 803f
00000010: 0000 803f 0000 803f 0000 803f 0000 803f
00000020: 0000 803f 0000 803f 0000 803f 0000 803f
00000030: 0000 803f 0000 803f

bias f4 [14]
0.0 0.0 0.0 0.0 0.0 0.0 0.0 0.0
0.0 0.0 0.0 0.0 0.0 0.0
00000000: 0000 0000 0000 0000 0000 0000 0000 0000
00000010: 0000 0000 0000 0000 0000 0000 0000 0000
00000020: 0000 0000 0000 0000 0000 0000 0000 0000
00000030: 0000 0000 0000 0000

weight f4 [25, 14]
-0.09768051 -0.23830685 -0.07038082 0.11564186 -0.21773525 0.11034408 0.04985866 0.018635124
0.12366903 0.17426476 -0.13917242 0.25603446 0.24490246 -0.18289399 -0.06696683 -0.12577581
0.0064430833 -0.13489498 -0.00986129 -0.07835513 0.20763451 -0.16921766 0.03091392 -0.15431768
0.023366183 0.22677702 0.12990946 -0.18913144 -0.1453272 -0.260832 -0.2519685 -0.046495944
-0.1502049 -0.064769134 -0.235935 -0.017656982 0.19459617 -0.014533401 -0.11563183 0.24848786
-0.23985407 0.2576528 0.15925771 -0.2268748 -0.10260737 0.02612549 -0.21538739 -0.052306548
-0.020227 -0.01544109 -0.23803578 0.21698698 -0.15248665 0.061522245 -0.045947343 0.18148357
-0.17728144 0.15872723 -0.23937273 -0.10141602 -0.13770835 -0.06517391 -0.011043221 0.16924149
-0.19683278 -0.0427783 -0.12348524 0.007347971 0.036192834 0.022232652 -0.1958125 -0.2454284
0.20320687 0.018135637 -0.24485981 -0.02118972 0.08246267 0.049574524 0.077792615 0.17244631
0.00040912628 0.21764058 -0.2044024 0.013251036 0.1246818 0.2649249 0.059684277 -0.15219727
-0.25935864 0.003125608 -0.13927248 -0.21851897 -0.22065279 0.16756335 0.22949922 0.17084467
-0.16787377 -0.18554783 -0.20673051 -0.05873102 0.06817028 0.06666073 -0.22987665 -0.06355351
-0.010631621 -0.13704757 0.25173584 -0.2219711 0.14234138 0.12411028 -0.10053624 -0.18873072
0.0484685 -0.022045866 0.054131746 -0.07988712 0.23661765 0.2281357 0.099975795 -0.26516563
-0.08582723 0.06314963 0.035642087 0.26155183 0.23551938 0.18833786 -0.18160452 -0.26563334
-0.18391803 0.037051648 -0.12345828 0.22581604 0.06700656 0.07672757 0.18439624 0.09687215
0.12457731 0.047081888 -0.027612537 -0.24474382 -0.128307 0.11799759 -0.22339305 0.019684434
-0.046992674 0.25787994 -0.07862346 -0.046425566 -0.2532236 0.20389801 -0.015102804 -0.062452435
-0.011182457 0.24438336 0.16244432 0.2020368 -0.24142116 0.092518866 0.08104882 0.0407086
0.14927197 0.21562618 0.07989505 -0.083847 -0.1133202 -0.039215356 -0.21370077 0.024595499
-0.104585335 -0.17454165 -0.07155134 -0.10224576 -0.047413483 -0.13622776 0.12105906 0.26552495
0.075942665 -0.01016286 -0.052104577 0.0568552 -0.20182419 -0.081690565 -0.019643843 -0.022020817
-0.14213778 -0.033398896 0.18996051 -0.22862802 0.18689921 -0.26320794 0.08712849 0.19080609
-0.10908553 0.05924338 -0.20756027 0.046684742 -0.1685909 -0.26032406 -0.039409414 0.075151205
-0.099239156 0.079390645 -0.08731042 -0.0053904057 -0.2002658 -0.13404785 0.05791226 0.056845248
-0.19600862 0.18552041 -0.047049 0.1733503 0.13096625 -0.19926064 0.24116257 -0.0629151
0.1682457 -0.09520969 0.20260882 0.1788145 -0.09652895 0.038212687 -0.11971368 0.23366168
-0.13201082 0.1204184 0.11134717 0.20371121 0.103524685 0.23527673 0.12918633 -0.11968963
-0.06980601 -0.11881444 0.26403543 -0.17898202 -0.181804 -0.047793567 -0.21614537 -0.116174
-0.027358964 0.013745308 0.054067194 0.0072894692 0.16433904 -0.14842951 0.06664848 -0.16697308
0.12704185 -0.20975071 0.15607241 -0.07289596 0.082208455 -0.2388169 0.19198576 -0.16346724
00000000: b80c c8bd b606 74be d223 90bd a4d5 ec3d
00000010: fdf5 5ebe 14fc e13d 9838 4c3d b0a8 983c
00000020: 3046 fd3d 7672 323e 3783 0ebe f316 833e
00000030: b6c7 7a3e 9048 3bbe e825 89bd 60cb 00be
00000040: 8020 d33b e921 0abe 4091 21bc a878 a0bd
00000050: 249e 543e 6547 2dbe 303f fd3c 7405 1ebe
00000060: 706a bf3c 3c38 683e fc06 053e acab 41be
00000070: a7d0 14be c68b 85be 0402 81be 8872 3ebd
00000080: 50cf 19be aea5 84bd f298 71be 60a5 90bc
00000090: 3844 473e 801d 6ebc 62d0 ecbd 9a73 7e3e
000000a0: 4e9c 75be 11eb 833e 7414 233e de51 68be
000000b0: d023 d2bd 2005 d63c 838e 5cbe 643f 56bd
000000c0: 18b3 a5bc a0fc 7cbc a7bf 73be d631 5e3e
000000d0: 7625 1cbe c0fe 7b3d 4833 3cbd d4d6 393e
000000e0: 4489 35be 6489 223e 201e 75be 34b3 cfbd
000000f0: 6b03 0dbe e679 85bd a0ee 34bc a44d 2d3e
00000100: 888e 49be 4c38 2fbd d4e5 fcbd 40c7 f03b
00000110: f03e 143d 4021 b63c 1283 48be 9551 7bbe
00000120: 7615 503e 3091 943c 88bc 7abe 1096 adbc
00000130: 30e2 a83d a80e 4b3d bc51 9f3d c495 303e
00000140: 0080 d639 2cdd 5e3e dd4e 51be e01a 593c
00000150: 2c59 ff3d 3da4 873e 8077 743d 9ad9 1bbe
00000160: a8ca 84be 00d7 4c3b 729d 0ebe 70c3 5fbe
00000170: cef2 61be ba95 2b3e d801 6b3e e8f1 2e3e
00000180: 1ae7 2bbe 4000 3ebe 2ab1 53be f08f 70bd
00000190: dc9c 8b3d 6c85 883d c964 6bbe 5828 82bd
000001a0: 4030 2ebc 3356 0cbe 85e3 803e 644c 63be
000001b0: f0c1 113e 882d fe3d f2e5 cdbd a042 41be
000001c0: e886 463d 8899 b4bc 40b9 5d3d dc9b a3bd
000001d0: e64b 723e 689c 693e 1cc0 cc3d cac3 87be
000001e0: 30c6 afbd 9854 813d 70fd 113d 1fea 853e
000001f0: fe2b 713e a4db 403e 89f6 39be 1801 88be
00000200: 0255 3cbe 78c3 173d b2d7 fcbd 523c 673e
00000210: bc3a 893d 5823 9d3d 5ed2 3c3e e864 c63d
00000220: 6422 ff3d f0d8 403d b033 e2bc 209e 7abe
00000230: e962 03be b8a8 f13d 26c1 64be 4041 a13c
00000240: 647b 40bd d708 843e 5605 a1bd bc28 3ebd
00000250: 86a6 81be a4ca 503e c071 77bc 20ce 7fbd
00000260: a036 37bc a23f 7a3e ce57 263e bce2 4e3e
00000270: 1c37 77be 887a bd3d ecfc a53d 10be 263d
00000280: c0da 183e 1ccd 5c3e 04a0 a33d fab7 abbd
00000290: 6c14 e8bd 48a0 20bd 60d4 5abe 807c c93c
000002a0: d630 d6bd 0cbb 32be 8289 92bd 3a66 d1bd
000002b0: a434 42bd 4a7f 0bbe d0ed f73d e3f2 873e
000002c0: d487 9b3d 2082 26bc 9c6b 55bd 00e1 683d
000002d0: 00ab 4ebe 624d a7bd 20ec a0bc 0065 b4bc
000002e0: 918c 11be 48cd 08bd 0285 423e 771d 6abe
000002f0: 8262 3f3e 31c3 86be 6c70 b23d ac62 433e
00000300: 3c68 dfbd 30a9 723d ae8a 54be 8038 3f3d
00000310: 18a3 2cbe 3249 85be c46b 21bd e0e8 993d
00000320: e63d cbbd 9097 a23d cecf b2bd 00a2 b0bb
00000330: 7a12 4dbe d743 09be 6835 6d3d 90d6 683d
00000340: 7cb6 48be 10f9 3d3e 74b6 40bd be82 313e
00000350: 041c 063e fb0a 4cbe 52f3 763e a2d9 80bd
00000360: 9a48 2c3e 4cfd c2bd b078 4f3e 261b 373e
00000370: f8b0 c5bd e884 1c3d 722c f5bd 0245 6f3e
00000380: d82d 07be ec9d f63d fc09 e43d ac99 503e
00000390: c004 d43d 62ec 703e 6c49 043e d61f f5bd
000003a0: 74f6 8ebd fc54 f3bd a72f 873e 1047 37be
000003b0: d42a 3abe 30c3 43bd 3655 5dbe a2ec edbd
000003c0: e81f e0bc 0034 613c 9075 5d3d 80dc ee3b
000003d0: 7e48 283e e8fd 17be 007f 883d fefa 2abe
000003e0: 4217 023e e4c8 56be 72d1 1f3e 7a4a 95bd
000003f0: e85c a83d 6b8c 74be ea97 443e f563 27be

bias f4 [25]
0.10790768 0.05248624 -0.17152917 -0.041974306 0.027098447 0.0854643 -0.12441459 0.20923567
0.21546888 0.22096497 -0.16249567 -0.046557203 0.20842391 -0.05474715 -0.0016677082 0.20458338
0.26385453 0.026868641 -0.23389378 -0.26722306 0.13311493 -0.12987235 0.06505638 -0.022814006
0.0057554543
00000000: b4fe dc3d d0fb 563d 58a5 2fbe 40ed 2bbd
00000010: 90fd dd3c e807 af3d 14cd febd e041 563e
00000020: e0a3 5c3e a444 623e 4465 26be c4b2 3ebd
00000030: 146d 553e 8c3e 60bd 0097 daba 4e7e 513e
00000040: f117 873e a01b dc3c da81 6fbe 76d1 88be
00000050: 484f 083e 42fd 04be 483c 853d 70e4 babc
00000060: 4098 bc3b

weight f4 [25, 25]
-0.060385674 0.12324725 0.065447405 -0.12103479 -0.06729105 -0.18665738 0.103942916 -0.13427413
0.053686634 -0.08715854 -0.14844048 -0.17962258 -0.102332234 0.1771989 -0.024497792 -0.03403525
-0.16140954 -0.19093958 -0.03655997 -0.062384576 0.052902594 0.14781667 0.028246239 0.07034026
0.08214645 0.12410374 -0.17804067 -0.07402846 -0.05296719 0.07818271 0.16538851 -0.06725745
0.004936889 -0.05500272 -0.19232035 0.17547502 -0.09987011 -0.19481944 -0.05683191 0.17094733
-0.18868414 -0.12994358 0.06522511 0.1950774 0.07644324 -0.0043679774 -0.14791365 0.101834044
0.10771857 -0.09956129 -0.1822182 0.1983944 -0.1106508 0.054355547 -0.14596406 -0.0608975
-0.17355366 0.015998274 0.124115065 0.1457568 0.00089132786 -0.13417795 -0.19039659 0.18615256
-0.06407261 -0.16007593 0.15096007 0.03877361 0.17215605 0.1878841 -0.13224089 -0.19044887
0.0126054585 0.14189772 -0.058244824 0.07287879 -0.0352799 -0.060884684 0.113460526 -0.032938153
-0.11153581 0.18378116 -0.02578795 -0.11574354 0.13075556 -0.17406236 -0.14291075 -0.08067012
-0.0916807 -0.08492472 -0.19919859 -0.17387383 0.09050636 0.16917752 -0.012878299 -0.053819343
-0.059822276 -0.1060025 -0.148567 0.10388143 -0.16878878 -0.13886161 -0.13917354 -0.063528374
-0.14791846 -0.17950211 -0.048670888 -0.07960651 -0.100175455 -0.17477058 -0.16788003 -0.13871188
0.007138297 -0.03488168 0.13654675 0.08020161 -0.17990647 -0.06077829 -0.026423067 -0.15234129
-0.03525439 -0.15324704 0.17589317 0.15985145 -0.17095394 -0.14415523 -0.037511498 -0.049296647
0.14269169 -0.18868935 -0.10257232 -0.038868755 0.18268527 0.062377468 0.009825781 -0.058485344
0.09730129 0.08687277 -0.08851919 -0.11796758 0.11673792 -0.19787899 0.0050341636 -0.17741568
-0.19856067 -0.080012634 -0.16394436 0.12918426 -0.122147396 -0.021331549 0.070487395 -0.16924994
0.024828508 0.02158925 0.17568828 0.14598148 -0.057005927 0.19968726 0.018917039 0.025134802
-0.07085867 -0.048396155 0.004093915 -0.08250926 -0.14905402 -0.026784927 -0.12892485 -0.12628034
0.08447464 0.026202112 0.13415958 -0.16554686 -0.1274032 0.153654 -0.042526647 -0.1164233
0.023760632 0.07563211 0.001126796 0.040483326 -0.027066827 -0.034187004 0.19755583 -0.017233282
-0.16453895 0.010021955 0.16450329 -0.17779516 -0.060531586 0.159927 0.041399553 0.16041853
0.043093234 -0.1997545 -0.1049886 -0.1234498 0.1454178 0.18636213 0.015771776 0.075072005
-0.07646926 0.1049007 0.18378104 0.16761611 0.19565348 0.09062965 0.119252816 -0.17635886
0.06648572 0.15937544 -0.13082528 -0.1292988 -0.02296798 0.06680898 0.19343592 0.02004674
0.18236865 -0.075669385 0.05352764 -0.12069254 -0.14707157 -0.11421209 0.067550674 0.13681333
-0.09940362 -0.10010769 0.02703531 -0.11872621 0.13146026 0.1549121 -0.013818741 -0.16112359
0.09233962 0.18443991 -0.19323997 0.08113293 -0.1383436 -0.03139536 0.08908905 0.15596657
0.05871333 0.08431251 -0.045354098 0.16857083 0.07073115 0.09162487 0.06818454 0.16190745
-0.06667563 0.13973634 0.11719708 -0.10492082 -0.17050461 -0.19569646 0.038128972 -0.17472391
00000000: f856 77bd 0e69 fc3d 4a09 863d 17e1 f7bd
00000010: e4cf 89bd 1d23 3fbe 06e0 d43d 287f 09be
00000020: 84e6 5b3d 2d80 b2bd c800 18be fbee 37be
00000030: 9093 d1bd a173 353e 98af c8bc 8c68 0bbd
00000040: 8b48 25be aa85 43be e8bf 15bd f886 7fbd
00000050: 64b0 583d 415d 173e a864 e73c 8e0e 903d
00000060: 663c a83d 1a2a fe3d 4b50 36be 3c9c 97bd
00000070: 20f4 58bd 421e a03d 9b5b 293e 46be 89bd
00000080: a0c5 a13b 884a 61bd a0ef 44be b9af 333e
00000090: b388 ccbd bf7e 47be 94c8 68bd d10c 2f3e
000000a0: 6a36 41be ee0f 05be be94 853d 5fc2 473e
000000b0: 468e 9c3d 4021 8fbb ad76 17be 5e8e d03d
000000c0: 8e9b dc3d cae6 cbbd 6897 3abe e727 4b3e
000000d0: e39c e2bd eca3 5e3d 9a77 15be a86f 79bd
000000e0: 0db8 31be d00e 833c 0a30 fe3d 4541 153e
000000f0: 00a8 693a f265 09be 53f7 42be c79e 3e3e
00000100: 8038 83bd f2ea 23be 4795 1a3e 14d1 1e3d
00000110: ad49 303e b164 403e 286a 07be 0705 43be
00000120: 2087 4e3c a34d 113e 2092 6ebd 7a41 953d
00000130: a881 10bd 3862 79bd fe5d e83d 28ea 06bd
00000140: e36c e4bd 2131 3c3e 4041 d3bc f30a edbd
00000150: c9e4 053e 673d 32be 3257 12be 6036 a5bd
00000160: 17c3 bbbd 03ed adbd b7fa 4bbe fb0b 32be
00000170: 665b b93d df3c 2d3e 80ff 52bc ac71 5cbd
00000180: 3408 75bd d717 d9bd f321 18be cabf d43d
00000190: f7d6 2cbe bd31 0ebe 8283 0ebe 2a1b 82bd
000001a0: f077 17be 67cf 37be 205b 47bd bd08 a3bd
000001b0: ca28 cdbd 0ff7 32be bee8 2bbe 7d0a 0ebe
000001c0: 60e8 e93b 18e0 0ebd e9d2 0b3e be40 a43d
000001d0: 6739 38be a8f2 78bd 3075 d8bc 5bff 1bbe
000001e0: e866 10bd cbec 1cbe 571d 343e 19b0 233e
000001f0: 8d0e 2fbe 6e9d 13be a8a5 19bd 48eb 49bd
00000200: c51d 123e c837 41be 7011 d2bd d834 1fbd
00000210: d911 3b3e 847f 7f3d 50fc 203c 548e 6fbd
00000220: e645 c73d 5aea b13d 8d49 b5bd fd98 f1bd
00000230: 4a14 ef3d caa0 4abe a0f5 a43b 75ac 35be
00000240: 7d53 4bbe aadd a3bd 08e1 27be e148 043e
00000250: 6a28 fabd 80bf aebc b25b 903d db4f 2dbe
00000260: 2865 cb3c f0db b03c a1e7 333e 2b7c 153e
00000270: 0c7f 69bd d17a 4c3e e8f7 9a3c 80e7 cd3c
00000280: 5a1e 91bd 0c3b 46bd 4026 863b 9dfa a8bd
00000290: 9ea1 18be 106c dbbc e004 04be a24f 01be
000002a0: 0a01 ad3d d0a5 d63c 2161 093e 1e85 29be
000002b0: fc75 02be 7957 1d3e 6c30 2ebd 576f eebd
000002c0: a8a5 c23c 02e5 9a3d 00b1 933a d8d1 253d
000002d0: 40bb ddbc ac07 0cbd 134c 4a3e d02c 8dbc
000002e0: e67c 28be 2033 243c 8d73 283e ef0f 36be
000002f0: f8ef 77bd e7c3 233e 9492 293d c144 243e
00000300: 8882 303d 728c 4cbe 4304 d7bd 40d3 fcbd
00000310: 67e8 143e b7d5 3e3e d033 813c 5abf 993d
00000320: ea9b 9cbd 2ed6 d63d 1931 3c3e 8fa3 2b3e
00000330: 6359 483e 0a9c b93d d23a f43d 6b97 34be
00000340: aa29 883d 5133 233e 10f7 05be e866 04be
00000350: 5827 bcbc 26d3 883d 1114 463e 1039 a43c
00000360: d9be 3a3e 8df8 9abd cc3f 5b3d a72d f7bd
00000370: ee99 16be 07e8 e9bd 0258 8a3d cb18 0c3e
00000380: 2094 cbbd 4305 cdbd 2879 dd3c ba26 f3bd
00000390: 859d 063e 47a1 1e3e 0068 62bc 95fd 24be
000003a0: 8e1c bd3d d1dd 3c3e b3e0 45be 0629 a63d
000003b0: f2a9 0dbe 6c98 00bd 5274 b63d b3b5 1f3e
000003c0: 647d 703d 0aac ac3d 38c5 39bd d59d 2c3e
000003d0: 7edb 903d d2a5 bb3d 56a4 8b3d 11cb 253e
000003e0: 3c8d 88bd 0b17 0f3e 0605 f03d bae0 d6bd
000003f0: c398 2ebe a764 48be 202d 1c3d d3ea 32be

bias f4 [25]
-0.10274885 -0.01737006 -0.13773175 0.023569852 0.08896308 -0.019448966 0.17189573 -0.11856437
-0.012652993 -0.15953556 -0.114400245 -0.114416935 -0.041460276 -0.16318253 -0.18390305 0.13781877
-0.03707829 0.1971582 0.15215887 -0.027757928 0.12940447 -0.14920393 0.18500067 -0.14883713
0.15436126
00000000: fd6d d2bd a84b 8ebc 8d09 0dbe 9015 c13c
00000010: 4632 b63d 7053 9fbc 6f05 303e e0d1 f2bd
00000020: 804e 4fbc 4a5d 23be ad4a eabd 6d53 eabd
00000030: 40d2 29bd 5219 27be 1551 3cbe 5d20 0d3e
00000040: 68df 17bd d7e3 493e 89cf 1b3e 9864 e3bc
00000050: 9b82 043e eac8 18be d170 3d3e c368 18be
00000060: e110 1e3e

weight f4 [25, 25]
0.032475233 0.19174124 -0.03838715 -0.036220104 0.19569986 0.10335429 -0.046568513 -0.071375966
-0.042857766 0.06235324 -0.15479 -0.18425588 0.122363135 0.09320454 -0.00012680888 -0.026593417
-0.19560309 0.14394738 -0.11471672 0.1896552 0.11314513 0.06974961 0.10865773 -0.084855966
-0.07250497 -0.1383483 -0.07435779 0.054477528 -0.08634751 -0.05070071 -0.022859767 -0.009197801
0.19858994 0.14135264 -0.19228147 -0.11819806 0.12070979 0.19550921 0.0745018 -0.02532518
0.15455042 -0.05704847 0.12920828 0.1259575 -0.034191996 0.13289697 0.11499633 -0.112589955
0.11337589 0.061497584 -0.10147734 0.08819689 0.020311803 -0.0031285584 0.11554848 -0.063117415
-0.051616073 0.049004167 0.016572446 0.17386873 0.037235886 0.16423972 0.093874946 0.03629498
-0.05180919 0.16126023 0.055766836 0.06823875 -0.1962719 0.1852131 -0.094229914 -0.043529436
-0.080830626 0.17679207 -0.016126722 0.04058954 -0.091228746 0.17740802 0.11194326 -0.12591714
-0.012375042 0.16493155 0.1868683 0.0894513 0.144352 -0.060273603 0.022989064 -0.13880055
-0.108396344 0.17984347 0.082332924 0.05677496 -0.07081854 -0.026085615 -0.056118175 -0.10473974
-0.022380233 0.08992933 0.09461613 -0.15692551 -0.033152387 -0.027222231 -0.077986054 0.01100938
0.15567808 -0.10654409 -0.033384174 0.118580356 0.0070562065 -0.012704685 0.062816635 0.18287785
0.1554213 -0.1380378 -0.004617125 -0.012783498 0.13366921 -0.063859314 0.12990822 0.0803294
0.019568294 -0.14561124 0.02165313 0.009224743 0.16887479 -0.1261358 0.044404954 0.18903987
-0.027023748 0.16948153 0.19093032 0.08204751 0.059163228 -0.13093176 -0.14740428 0.16533266
0.17740642 0.08402391 0.16753842 0.09983377 -0.09642842 0.120296344 0.17754085 0.12884755
0.18704988 -0.1879617 0.045540065 -0.012285352 -0.19240163 -0.027515844 0.0120613575 0.0648583
-0.05023253 0.1562467 -0.14958706 -0.06991048 0.15841441 0.004876733 0.04354377 0.17618884
-0.0270257 0.00701046 -0.07696762 0.16298328 0.07607497 0.041867018 -0.11353987 0.02548869
0.18986876 -0.17453423 0.051053658 0.09921087 -0.10684004 0.04323177 0.03924194 -0.14339991
-0.17275003 0.19821574 0.046221823 0.15217383 -0.026639864 -0.056620747 -0.09924 -0.08567407
0.025619537 0.108273104 -0.042168617 0.10457052 -0.16722047 -0.08296867 0.18145521 0.12994517
0.13942073 0.13977341 -0.08584714 -0.091329835 0.07270436 -0.1475523 -0.032080293 -0.079752706
-0.1918513 -0.13095155 -0.098891355 0.19004162 0.03323324 -0.18856953 -0.12287326 -0.04631123
-0.0110672265 -0.1001318 0.13350748 -0.11636708 0.14149885 0.079919055 0.12990393 -0.009869069
0.06346713 0.04325533 -0.11256733 -0.12559104 0.17336722 -0.05158052 0.03387873 0.12932386
-0.024507761 0.10690515 -0.024374098 0.04148808 0.15487404 -0.1468992 0.066258386 0.049911782
0.0456018 -0.18675399 -0.17546561 -0.047741607 0.015224174 -0.056653187 -0.03746009 0.12949504
0.029194519 -0.019625619 -0.0007748157 -0.07998254 0.08227582 0.09714945 0.17990641 -0.0050144494
0.17975993 -0.1350781 -0.027116105 -0.03778848 -0.020393416 -0.006526619 -0.10943013 -0.12532625
00000000: c004 053d d157 443e d83b 1dbd 885b 14bd
00000010: 8b65 483e 6aab d33d a0be 3ebd 902d 92bd
00000020: a08b 2fbd 1c66 7f3d 4581 1ebe 93ad 3cbe
00000030: 8699 fa3d 06e2 be3d 00f8 04b9 70da d9bc
00000040: 2d4c 48be f166 133e 9af0 eabd f934 423e
00000050: a2b8 e73d e2d8 8e3d f287 de3d f7c8 adbd
00000060: 7c7d 94bd 2dab 0dbe e648 98bd d423 5f3d
00000070: f7d6 b0bd 8cab 4fbd 6844 bbbc 60b2 16bc
00000080: 295b 4b3e bfbe 103e 6fe5 44be d311 f2bd
00000090: b236 f73d 9133 483e 6694 983d c076 cfbc
000000a0: 7742 1e3e a8ab 69bd 2d4f 043e 01fb 003e
000000b0: e80c 0cbd 2516 083e 3283 eb3d 9095 e6bd
000000c0: 9e31 e83d e4e4 7b3d 5ad3 cfbd 92a0 b43d
000000d0: f064 a63c 8008 4dbb aea4 ec3d b443 81bd
000000e0: 606b 53bd 98b8 483d f0c2 873c a50a 323e
000000f0: a884 183d 752e 283e 8241 c03d 0caa 143d
00000100: e035 54bd 6721 253e c46b 643d c2c0 8b3d
00000110: 80fb 48be 81a8 3d3e 9dfb c0bd ec4b 32bd
00000120: 878a a5bd fb08 353e 301c 84bc 3841 263d
00000130: 23d6 babd 73aa 353e 8242 e53d 6cf0 00be
00000140: b0c0 4abc d1e3 283e 675a 3f3e 3e32 b73d
00000150: 03d1 133e 74e1 76bd 9053 bc3c bb21 0ebe
00000160: e7fe ddbd e328 383e 2a9e a83d dc8c 683d
00000170: 5009 91bd 80b1 d5bc 2cdc 65bd ca81 d6bd
00000180: c056 b7bc de2c b83d 1ac6 c13d 15b1 20be
00000190: ccca 07bd 2801 dfbc 27b7 9fbd b060 343c
000001a0: 136a 1f3e ca33 dabd d8bd 08bd 42da f23d
000001b0: c037 e73b 5027 50bc 02a6 803d 5544 3b3e
000001c0: c326 1f3e c859 0dbe 404b 97bb e071 51bc
000001d0: 95e0 083e acc8 82bd a906 053e be83 a43d
000001e0: b04d a03c 1d1b 15be e861 b13c 6023 173c
000001f0: 83ed 2c3e be29 01be f8e1 353d ab93 413e
00000200: e860 ddbc 918c 2d3e 3d83 433e 8608 a83d
00000210: 2455 723d fa12 06be 26f1 16be f74c 293e
00000220: 07aa 353e ba14 ac3d 318f 2b3e a675 cc3d
00000230: 437c c5bd ee5d f63d 45cd 353e 9df0 033e
00000240: 018a 3f3e 0879 40be 3888 3a3d 8048 49bc
00000250: ef04 45be e868 e1bc 009d 453c 6ed4 843d
00000260: a0c0 4dbd 23ff 1f3e 5a2d 19be 3a2d 8fbd
00000270: 6337 223e 00cd 9f3b f45a 323d d96a 343e
00000280: 0065 ddbc 00b8 e53b 33a1 9dbd 17e5 263e
00000290: 32cd 9b3d c07c 2b3d 9787 e8bd a8cd d03c
000002a0: f56c 423e 1ab9 32be a41d 513d 122f cb3d
000002b0: f3ce dabd cc13 313d 28bc 203d 6dd7 12be
000002c0: 62e5 30be 11f9 4a3e 1853 3d3d 75d3 1b3e
000002d0: d83b dabc 28eb 67bd 573e cbbd e375 afbd
000002e0: 10e0 d13c 4abe dd3d 00b9 2cbd 1229 d63d
000002f0: d83b 2bbe 7aeb a9bd 65cf 393e 5910 053e
00000300: 4fc4 0e3e c320 0f3e a0d0 afbd 230b bbbd
00000310: 06e6 943d f317 17be a066 03bd 6355 a3bd
00000320: ab74 44be 2a18 06be 8d87 cabd 459a 423e
00000330: 941f 083d 5f18 41be faa4 fbbd d8b0 3dbd
00000340: 5053 35bc e711 cdbd 2fb6 083e dd51 eebd
00000350: 13e5 103e 9aac a33d 8905 053e e0b1 21bc
00000360: 0efb 813d 802c 313d b389 e6bd f09a 00be
00000370: 2d87 313e 1846 53bd 6cc4 0a3d 796d 043e
00000380: 80c4 c8bc 16f1 da3d 30ac c7bc 68ef 293d
00000390: 4d97 1e3e be6c 16be 7ab2 873d 4c70 4c3d
000003a0: f4c8 3a3d 703c 3fbe 42ad 33be b48c 43bd
000003b0: d06e 793c 2c0d 68bd c06f 19bd 599a 043e
000003c0: 5829 ef3c e8c5 a0bc 001d 4bba e3cd a3bd
000003d0: 3a80 a83d 4af6 c63d 6339 383e 4050 a4bb
000003e0: fd12 383e ea51 0abe 9822 debc 18c8 1abd
000003f0: 1810 a7bc 40dd d5bb e71c e0bd 8655 00be

bias f4 [25]
0.038064882 -0.1361438 0.17965357 -0.123805836 0.16894783 -0.181595 -0.14932933 0.081336424
-0.17420638 -0.05942571 -0.015070006 -0.07431176 0.16679813 -0.019805908 0.030391544 0.16308548
0.17304637 0.10685183 0.1933017 -0.1696517 -0.04512541 0.16296183 0.02954328 0.11876477
0.12256707
00000000: ece9 1b3d 4869 0bbe 1bf7 373e ea8d fdbd
00000010: a900 2d3e 0af4 39be cae9 18be b693 a63d
00000020: 2863 32be 6068 73bd 30e8 76bc c430 98bd
00000030: 21cd 2a3e 0040 a2bc b0f7 f83c e1ff 263e
00000040: 1133 313e 22d5 da3d e1f0 453e 2db9 2dbe
00000050: 6cd5 38bd 77df 263e c004 f23c f23a f33d
00000060: 7204 fb3d

weight f4 [25, 25]
0.11131571 0.19576944 0.0010272712 -0.09440489 -0.050582528 -0.101173304 -0.013947815 -0.14104831
-0.041517526 0.0019370317 -0.06496945 -0.04623373 -0.15859266 -0.14537182 0.051018253 0.07036628
0.06126012 0.114806846 -0.13240978 0.16879855 -0.056488246 -0.03827016 0.07761584 0.029907227
-0.15702622 0.16104095 0.078352556 -0.048661992 -0.17156343 0.007883862 -0.17188123 -0.1186853
0.18768103 -0.18499236 -0.14368215 0.07730611 0.08579679 -0.024668604 0.15444924 -0.046296954
0.14106663 0.16060688 0.08846988 0.1270829 -0.044872597 -0.15708442 0.010153323 -0.07726925
-0.08999646 -0.14991558 -0.12777346 -0.029026628 -0.012829587 -0.034181446 0.099076435 -0.107361846
0.029340774 0.11500989 0.07642166 0.09479542 0.17523251 0.17650439 0.17933373 -0.033762574
-0.1381844 0.14844851 0.057810202 0.0025071353 -0.025159568 0.02064228 0.07465722 0.12140612
0.0010782778 -0.15760055 -0.13726565 -0.06159477 -0.07323857 -0.050100327 0.15884279 -0.18415208
0.1633607 0.07194941 -0.058925346 0.097659364 -0.15718663 0.115349606 -0.068855435 -0.10963919
0.118627146 -0.07167399 -0.1525146 -0.05941844 -0.062850684 -0.13242838 -0.18593703 0.014371231
0.15621378 0.018208459 -0.07342994 -0.04651825 0.12923838 0.15941967 0.05046968 -0.048875853
0.055747017 -0.17940865 -0.15191035 0.075138345 0.027233437 0.06157802 0.016346857 -0.12433662
-0.13322301 -0.060539633 0.14580135 -0.17066291 0.18342097 0.013389736 -0.047820047 0.142985
-0.06693205 -0.033510998 0.14040862 0.12355025 -0.13995421 0.06618534 -0.050155193 0.15554161
-0.097610764 -0.14947565 0.0819058 -0.1333971 0.0773292 -0.009032056 -0.19862361 0.04521492
0.06154199 -0.008913562 0.14658214 0.12634648 0.08694558 0.04741645 -0.19803582 0.10671778
0.18958981 0.09023373 -0.05083075 -0.014471918 0.13161255 -0.06988692 0.12890543 -0.07304287
-0.19427712 -0.19296224 0.069154516 0.14099245 0.005986005 0.1548094 -0.15920547 -0.048812628
0.12051751 -0.17460363 -0.12142725 -0.037759304 -0.13543981 0.033479184 -0.01933369 0.0409725
0.041589767 0.058858737 -0.095793225 0.018720478 -0.025063515 -0.12879515 0.011293218 -0.17712484
-0.06918326 -0.0441819 0.19760527 -0.17208336 -0.04682617 0.108037874 -0.11475044 0.08674772
0.021442384 0.028657958 0.028716832 0.033242658 0.1061786 0.12803824 -0.1281006 0.033970624
-0.19789873 -0.10669937 0.1405179 -0.114050224 -0.086279176 -0.03960392 0.10380004 -0.1801052
0.19809712 0.11570974 -0.13291624 0.17691408 -0.029441759 0.10616879 0.19433405 -0.17668056
-0.11613061 -0.19943109 0.10629885 -0.07225354 0.12630193 0.17188804 -0.13137573 0.13641529
-0.06479189 -0.014045984 -0.1371178 0.18703936 -0.027984053 -0.17616741 0.14809747 0.06577571
0.013007611 0.024128959 0.1254697 -0.19843474 0.059997573 0.09129302 -0.020583555 -0.15198894
-0.05861512 -0.07997127 0.034778625 -0.021538109 -0.07632685 -0.10263586 -0.11835053 -0.18327825
0.0069640875 0.14892365 0.10358931 -0.04075022 -0.03258212 -0.0877002 0.0987405 0.110645875
-0.1541765 -0.16197963 0.17402591 0.12890564 -0.0320749 0.13548131 0.10740133 -0.009848267
00000000: 7ef9 e33d c977 483e 80a5 863a 5a57 c1bd
00000010: a02f 4fbd f333 cfbd 6085 64bc f86e 10be
00000020: 480e 2abd 00e4 fd3a b40e 85bd 945f 3dbd
00000030: 1d66 22be 5adc 14be 84f8 503d 321c 903d
00000040: e4eb 7a3d da1f eb3d 6e96 07be 87d9 2c3e
00000050: 3860 67bd 2cc1 1cbd 0ef5 9e3d 0000 f53c
00000060: 7bcb 20be ebe7 243e 4e77 a03d cc51 47bd
00000070: 53ae 2fbe 502b 013c a201 30be 4711 f3bd
00000080: 752f 403e a36e 3dbe 6a21 13be aa52 9e3d
00000090: 3ab6 af3d d015 cabc f127 1e3e e0a1 3dbd
000000a0: c573 103e 2176 243e b22f b53d 0522 023e
000000b0: 54cc 37bd bdda 20be 205a 263c 573f 9ebd
000000c0: 1050 b8bd 7883 19be 0cd7 02be 40c9 edbc
000000d0: 3033 52bc d801 0cbd 96e8 ca3d 87e0 dbbd
000000e0: 105c f03c 4e8a eb3d f682 9c3d 1a24 c23d
000000f0: 2770 333e 91bd 343e 43a3 373e a04a 0abd
00000100: 3680 0dbe e302 183e 64ca 6c3d c04e 243b
00000110: 701b cebc 001a a93c e2e5 983d c6a3 f83d
00000120: 0055 8d3a 0a62 21be 5e8f 0cbe cc4a 7cbd
00000130: 1afe 95bd 0036 4dbd afa7 223e 5d92 3cbe
00000140: 0748 273e 365a 933d b45b 71bd a201 c83d
00000150: 88f5 20be 6a3c ec3d 1404 8dbd 838a e0bd
00000160: caf2 f23d d0c9 92bd ca2c 1cbe c060 73bd
00000170: dcb7 80bd 4e9b 07be 4766 3ebe 5075 6b3c
00000180: 81f6 1f3e e829 953c 7062 96bd ec89 3ebd
00000190: 1157 043e e93e 233e 4cb9 4e3d 0c32 48bd
000001a0: fc56 643d e7b6 37be 638e 1bbe 22e2 993d
000001b0: a818 df3c 3c39 7c3d d8e9 853c 33a4 febd
000001c0: 9d6b 08be 68f8 77bd f34c 153e 42c2 2ebe
000001d0: b5d2 3b3e a060 5b3c f4de 43bd a96a 123e
000001e0: ac13 89bd d442 09bd 47c7 0f3e ea07 fd3d
000001f0: 2850 0fbe 2e8c 873d 886f 4dbd 4d46 1f3e
00000200: 27e8 c7bd 2510 19be 3abe a73d 4099 08be
00000210: c65e 9e3d 30fb 13bc fd63 4bbe 4833 393d
00000220: 7413 7c3d 300a 12bc a119 163e f960 013e
00000230: 8610 b23d c037 423d e7c9 4abe da8e da3d
00000240: d523 423e 76cc b83d e833 50bd a01b 6dbc
00000250: 71c5 063e e020 8fbd c9ff 033e 8097 95bd
00000260: 95f0 46be e597 45be e2a0 8d3d 5360 103e
00000270: 4026 c43b 5b86 1e3e c206 23be c0ef 47bd
00000280: e2d1 f63d 4bcb 32be daae f8bd 80a9 1abd
00000290: bcb0 0abe 7821 093d b061 9ebc c8d2 273d
000002a0: 085a 2a3d dc15 713d 3d2f c4bd b05b 993c
000002b0: 0052 cdbc e0e2 03be 3007 393c 3760 35be
000002c0: f4af 8dbd 14f8 34bd 0959 4a3e 9f36 30be
000002d0: cccc 3fbd f642 dd3d 4702 ebbd caa8 b13d
000002e0: f0a7 af3c 18c4 ea3c 903f eb3c 7429 083d
000002f0: 2a74 d93d 751c 033e ce2c 03be c824 0b3d
00000300: f7a5 4abe 3385 dabd ede3 0f3e 2a93 e9bd
00000310: 23b3 b0bd b837 22bd 1e95 d43d 7f6d 38be
00000320: f9d9 4a3e 3af9 ec3d 321b 08be f728 353e
00000330: d82f f1bc 066f d93d 81ff 463e c0eb 34be
00000340: e3d5 edbd aa37 4cbe 36b3 d93d aaf9 93bd
00000350: 4b55 013e 6b03 303e 5c87 06be 73b0 0b3e
00000360: 9cb1 84bd 2021 66bc 9c68 0cbe 3f87 3f3e
00000370: d03e e5bc 3b65 34be dda6 173e 6ab5 863d
00000380: e01d 553c 18aa c53c 217b 003e 7a32 4bbe
00000390: 04c0 753d d6f7 ba3d d89e a8bc fda2 1bbe
000003a0: 6816 70bd fac7 a3bd 0874 0e3d b070 b0bc
000003b0: 4051 9cbd c032 d2bd c361 f2bd 4bad 3bbe
000003c0: 0033 e43b 717f 183e a226 d43d b4e9 26bd
000003d0: d474 05bd 2a9c b3bd 7638 ca3d 4e9a e23d
000003e0: 72e0 1dbe fddd 25be d933 323e d7ff 033e
000003f0: f860 03bd 9dbb 0a3e 3af5 db3d a05a 21bc

bias f4 [25]
0.015232801 -0.031805113 0.1284617 -0.095859244 0.1614419 -0.12237372 -0.007992595 -0.09611275
0.044785455 0.09706463 0.05153419 0.073495105 -0.16729362 -0.17307754 0.010613605 -0.18854038
-0.11868308 -0.1762059 -0.1303938 -0.08796654 -0.10456538 -0.04578933 -0.06968072 -0.011221021
-0.18203123
00000000: 0093 793c 1446 02bd 778b 033e da51 c4bd
00000010: 0751 253e 139f fabd 60f3 02bc c3d6 c4bd
00000020: f470 373d d2c9 c63d 8415 533d 9a84 963d
00000030: 054f 2bbe 3d3b 31be b0e4 2d3c bb10 41be
00000040: 1d10 f3bd 526f 34be f485 05be cd27 b4bd
00000050: 6026 d6bd 988d 3bbd c4b4 8ebd 60d8 37bc
00000060: 6566 3abe

weight f4 [4, 25]
-0.08318291 0.071584955 -0.16998926 -0.15816598 0.029554412 0.1156515 0.007827595 -0.07160191
-0.115698315 0.044543266 0.19564305 0.025942162 0.05386795 -0.1099798 0.06651352 0.053820148
-0.044341654 -0.14268276 -0.068053916 0.15875913 0.11129166 -0.115587406 0.14692591 -0.045757532
0.01407218 -0.14047925 -0.10346675 -0.11707535 -0.19824968 0.056130752 0.1049511 -0.05527298
-0.15590909 0.096708074 0.07878317 0.1950257 -0.18060818 -0.031839088 -0.054417565 -0.034182787
-0.19758184 -0.10270007 0.18049039 0.15954803 0.122153655 0.17928429 -0.079262376 -0.023012355
0.12830438 -0.16272703 -0.048437998 0.18081968 0.17134969 -0.082334734 0.17303593 0.08825795
0.009518355 0.08126135 -0.19267972 -0.11678012 -0.0303808 0.13314612 -0.08359547 -0.06506541
-0.1726977 0.104313865 -0.04826376 -0.112355165 0.1333362 0.14098339 0.18470876 0.1288264
0.12181474 0.01653473 0.1916147 -0.18111098 -0.14993294 0.15032645 -0.08324549 -0.16103967
-0.13334352 -0.13142568 -0.013916209 -0.02790749 0.1839466 -0.090734385 0.14224972 -0.03629434
0.087734595 -0.04616709 0.04399097 0.12390451 -0.03738603 -0.121233486 0.15301506 -0.03672166
0.16890238 0.13220741 -0.13072234 -0.17275174
00000000: cd5b aabd 229b 923d aa11 2ebe 43f6 21be
00000010: 181c f23c b2da ec3d 503f 003c 06a4 92bd
00000020: 3df3 ecbd 0073 363d a756 483e a884 d43c
00000030: a4a4 5c3d 173d e1bd 3e38 883d 8472 5c3d
00000040: 989f 35bd 6e1b 12be da5f 8bbd c191 223e
00000050: e2ec e33d 17b9 ecbd bf73 163e 406c 3bbd
00000060: 008f 663c cbd9 0fbe 60e6 d3bd 33c5 efbd
00000070: f701 4bbe 5ce9 653d 9af0 d63d ec65 62bd
00000080: a2a6 1fbe e20e c63d 1259 a13d d1b4 473e
00000090: 5af1 38be b469 02bd f4e4 5ebd 4003 0cbd
000000a0: e552 4abe 6a54 d2bd 79d2 383e 8f60 233e
000000b0: b22b fa3d 4d96 373e 5054 a2bd 6884 bcbc
000000c0: 3962 033e eaa1 26be ec66 46bd cb28 393e
000000d0: 4b76 2f3e 1d9f a8bd 5530 313e 96c0 b43d
000000e0: e0f2 1b3c 5a6c a63d d54d 45be 6a2a efbd
000000f0: 28e1 f8bc 7557 083e 1a34 abbd 0441 85bd
00000100: aad7 30be 82a2 d53d 38b0 45bd 771a e6bd
00000110: 4989 083e f35d 103e 4b24 3d3e 11eb 033e
00000120: 027a f93d d873 873c a536 443e 2875 39be
00000130: 0588 19be 2def 193e 9d7c aabd 95e7 24be
00000140: 348b 08be 7494 06be d000 64bc 409e e4bc
00000150: 7f5c 3c3e f3d2 b9bd e9a9 113e 60a9 14bd
00000160: 32ae b33d b419 3dbd e02f 343d a6c1 fd3d
00000170: 1822 19bd 4349 f8bd fbaf 1c3e 7469 16bd
00000180: bff4 2c3e 6161 073e 14dc 05be d5e5 30be

bias f4 [4]
0.17639114 0.12921588 0.011105463 -0.004969865
00000000: e19f 343e 2b51 043e b0f3 353c 40da a2bb
