models/_brain_89.pt (torch, 14593 bytes, 12 tensors)

weight f4 [14]
000000 00 00 80 3f 00 00 80 3f 00 00 80 3f 00 00 80 3f
       1.0 1.0 1.0 1.0
000010 00 00 80 3f 00 00 80 3f 00 00 80 3f 00 00 80 3f
       1.0 1.0 1.0 1.0
000020 00 00 80 3f 00 00 80 3f 00 00 80 3f 00 00 80 3f
       1.0 1.0 1.0 1.0
000030 00 00 80 3f 00 00 80 3f
       1.0 1.0

bias f4 [14]
000000 00 00 00 00 00 00 00 00 00 00 00 00 00 00 00 00
       0.0 0.0 0.0 0.0
000010 00 00 00 00 00 00 00 00 00 00 00 00 00 00 00 00
       0.0 0.0 0.0 0.0
000020 00 00 00 00 00 00 00 00 00 00 00 00 00 00 00 00
       0.0 0.0 0.0 0.0
000030 00 00 00 00 00 00 00 00
       0.0 0.0

weight f4 [25, 14]
000000 14 9f 07 bd 00 97 24 3d 1c f9 14 bd 43 7b 83 be
       -0.033110693 0.040183067 -0.03637038 -0.2567998
000010 28 5f 9d 3d 02 73 26 3e 90 47 1b 3e 72 0f 1e be
       0.07684165 0.1625481 0.15164018 -0.1543558
000020 d8 17 2c bd 98 56 72 3d 71 72 87 3e 45 c1 75 be
       -0.042014927 0.059164613 0.264545 -0.23999508
000030 ad bd 5a be 10 39 1f 3d be b9 76 3e 28 42 68 3e
       -0.21361418 0.03887278 0.24094293 0.22681487
000040 17 8b 5d be 2c a2 83 be 94 32 66 be d0 df 5f 3e
       -0.2163509 -0.25709665 -0.22480232 0.21862721
000050 e0 e4 b4 3c ea 69 39 3e 0d ea 5a be bc 68 cd bd
       0.022081792 0.1810681 -0.21378346 -0.10029742
000060 20 33 c7 bc c0 6f b1 3c db 48 56 be 78 fb 88 3d
       -0.02431637 0.021659732 -0.2092623 0.06688589
000070 c9 2e 6c be 50 3b 6e bd 00 d1 b3 3b e0 f1 47 3e
       -0.23064722 -0.058162034 0.005487561 0.19525862
000080 98 0d 3f 3e 92 c3 b5 bd fa 75 4c be b7 8f 81 be
       0.1865753 -0.08875193 -0.1996688 -0.25304958
000090 24 4c 4e be 78 4a 1a bd 20 37 3a 3e ca 9b 42 3e
       -0.20146233 -0.037668675 0.18185091 0.19004741
0000a0 63 49 4f be 88 e9 ca 3d 7a 7c 6e 3e bc 01 0e be
       -0.20242839 0.09907824 0.23289672 -0.13867849
0000b0 80 0b 91 3c 48 49 35 bd 78 74 af bc 8c 21 88 bd
       0.017705679 -0.04425934 -0.021417841 -0.066470236
0000c0 d4 d9 5f 3e a4 88 0a be f0 af 08 3e be fd 1b be
       0.21860439 -0.13528687 0.13348365 -0.15233514
0000d0 70 64 08 be 00 67 f0 3d 90 d5 39 be da bc 14 3e
       -0.13319564 0.11738396 -0.18147874 0.14525166
0000e0 6c da 2f 3e c0 37 f1 3c b4 c8 88 3d f0 e6 14 bd
       0.17173165 0.029445529 0.06678906 -0.03635305
0000f0 22 83 c3 bd 48 01 a8 3d 54 a1 87 3d 7e 9e 3a be
       -0.09546496 0.082033694 0.06622568 -0.18224522
000100 8c 68 35 be d6 52 71 be 04 99 6a 3e 1c a0 e5 3d
       -0.17715663 -0.23566756 0.22909933 0.11212179
000110 98 17 09 3e 04 54 de 3d e2 aa 6b be 86 91 06 be
       0.13387907 0.108558685 -0.23014405 -0.1314145
000120 30 47 7e 3d 03 9f 80 be 40 30 e6 3c 36 7c 7c 3e
       0.06207961 -0.25121316 0.02809918 0.24656758
000130 10 9d 8c bc a0 e4 4b 3c e4 f9 e1 3d fe 81 60 3e
       -0.017164737 0.012444645 0.11033991 0.21924588
000140 0e f1 f5 bd 73 f9 77 be 9e f1 27 3e a3 45 26 be
       -0.12008868 -0.24216251 0.16400763 -0.16237502
000150 e0 b3 75 3d 2c 5a 5c be 2f 62 0f be 28 80 f6 3d
       0.059985995 -0.21518773 -0.14002298 0.120361626
000160 94 93 04 be 26 93 30 be a2 04 48 3e bc 49 65 3e
       -0.12946922 -0.17243633 0.19533017 0.22391409
000170 00 9f 6c 3e 5c a0 53 bd b9 0c 45 be c9 52 1e be
       0.23107529 -0.051666602 -0.19243135 -0.15461268
000180 68 e1 1c 3e e0 c2 23 be 28 4f 77 3d fc 68 59 be
       0.1532036 -0.15992308 0.060378224 -0.21231455
000190 ee af d4 bd 80 4a 27 3d c4 7b 02 3e a8 9a 9e 3d
       -0.103851184 0.040842533 0.12742525 0.07744342
0001a0 a3 bd 49 be be 40 5d be 12 d8 1b 3e 5e 16 4c be
       -0.19701247 -0.21606728 0.15219143 -0.19930407
0001b0 7e 2f 5f be b0 f5 3a 3e 54 29 0e 3e e4 25 a4 3d
       -0.2179546 0.18257785 0.13882953 0.080150396
0001c0 b8 4b a3 bd 49 27 49 be 9a 0c 51 be 5a da 40 3e
       -0.079734266 -0.19643892 -0.20414963 0.18833295
0001d0 00 37 40 3e 68 1d a3 3d 20 a4 6c 3e b5 d4 88 be
       0.18770981 0.07964593 0.23109484 -0.26724783
0001e0 58 8c 67 3e dc 4e 0c be 98 0b 3e be 20 0b 68 bc
       0.2261213 -0.13701957 -0.1855911 -0.014162809
0001f0 80 76 74 bb 8d 75 83 3e 18 fc 2c be c0 54 02 3e
       -0.0037302077 0.25675622 -0.16893041 0.12727642
000200 c4 ed 20 be 04 b5 3d bd 38 73 33 be f0 eb f0 bc
       -0.157157 -0.046315208 -0.17524421 -0.029409379
000210 8c 6c 00 3e 7e 96 0a 3e 8e 8b 5c be bd e1 82 3e
       0.12541407 0.1353397 -0.21537611 0.2556285
000220 46 2c 72 3e 90 c5 c7 3d 28 72 44 3e d8 f8 3d 3e
       0.23649701 0.09754479 0.19184172 0.18551958
000230 52 b6 49 3e 1d 78 71 be 80 db 41 3e b3 ed 87 3e
       0.19698456 -0.23580976 0.18931389 0.26548538
000240 60 f1 11 3e d5 98 50 be e0 6a 32 3e d6 84 18 3e
       0.14252234 -0.20370801 0.17423582 0.14894423
000250 78 fd c2 3d d8 8b 5a 3e 2a 69 15 3e 98 b9 fb bd
       0.095210016 0.21342409 0.14590898 -0.122912586
000260 a8 03 6b 3e 36 2f 69 3e d6 0a 7a 3e 74 be cc bd
       0.22950613 0.22771916 0.24418196 -0.099972636
000270 20 da 12 bc 08 c1 68 3d 86 53 69 3e 41 0f 80 3e
       -0.008963138 0.056824714 0.22785768 0.25011638
000280 9e 74 3a be b0 06 4c be e8 ac 67 bd 30 9b a3 3d
       -0.18208548 -0.19924426 -0.05656138 0.07988584
000290 98 b7 1f 3e fc e6 da bd c5 2c 05 be 04 ea 6d 3e
       0.15597379 -0.10688588 -0.1300536 0.23233801
0002a0 50 28 54 3d 3e d0 b3 bd 80 56 0a 3c 2c 71 42 bd
       0.051796257 -0.087799534 0.008443475 -0.04747121
0002b0 c9 86 56 be 00 42 8c ba 40 c2 4b bd df 32 86 3e
       -0.20949854 -0.0010700822 -0.049745798 0.26210687
0002c0 82 b6 39 be a0 d1 4a 3e 42 e1 4c 3e e0 db 2b 3e
       -0.18136027 0.19806528 0.20007804 0.16783094
0002d0 10 a3 96 bc 88 07 7a be 00 b6 7c ba a4 c9 21 3e
       -0.018388301 -0.24416935 -0.0009640157 0.15799576
0002e0 68 5a 5e bd 32 ca 7d be f4 2b 8f 3d 8c c5 e3 3d
       -0.054285437 -0.24784163 0.06990805 0.111216635
0002f0 72 03 20 3e 50 56 cc bc 40 67 36 bc 30 90 c5 3c
       0.15626314 -0.0249435 -0.011133015 0.024116606
000300 82 b7 13 be c8 2d ac bc 70 45 39 3d 27 e7 17 be
       -0.14425471 -0.021017924 0.045232236 -0.14834271
000310 f8 dd 0c 3e 05 26 24 be 16 30 62 3e 10 70 2d 3e
       0.1375655 -0.16030128 0.22088656 0.1693728
000320 00 02 20 bd 38 90 9c bc 10 5c 11 3e 00 06 15 3c
       -0.039064407 -0.019111738 0.14195275 0.009095669
000330 84 6a 3a be ef 5a 86 3e 44 2d 12 be 51 66 74 be
       -0.18204695 0.26241252 -0.1427508 -0.23867156
000340 f8 bc 38 3d c6 c0 27 be 1e 36 02 be 54 dc 93 3d
       0.04510209 -0.16382131 -0.12715957 0.07219759
000350 1c ae 26 3e ae 68 75 3e e6 a4 03 3e 40 0d 2f 3d
       0.16277355 0.23965713 0.12855873 0.042737246
000360 68 6d 1c be ad 25 73 be 90 59 b2 3d 20 f2 ed bc
       -0.1527611 -0.23744841 0.08708489 -0.029046118
000370 a2 e1 c1 bd 88 0f ad 3d ce 6d 41 3e 8a 5a f6 bd
       -0.09466864 0.08450228 0.18889543 -0.12028988
000380 6c 5a 5a 3e d8 ff dd bc c0 00 18 3d 3f 0f 6b be
       0.21323556 -0.027099535 0.03711009 -0.22955035
000390 72 21 25 3e 69 23 87 3e c0 2a dd 3c cd 90 08 be
       0.1612604 0.26394203 0.026997924 -0.13336487
0003a0 c4 d1 34 be f8 48 31 be 29 95 77 be 7c d6 3f bd
       -0.17658144 -0.17312992 -0.24177994 -0.046835408
0003b0 32 3f 37 be 3e 0e 40 3e 39 ab 6d be c2 a4 13 be
       -0.17895201 0.18755433 -0.23209848 -0.14418319
0003c0 a4 dd 71 bd fc 4f 30 3e 76 53 25 3e 22 60 a5 bd
       -0.059049264 0.17218012 0.16145119 -0.080749765
0003d0 88 27 e2 bd 4c 83 9a bd cc 14 b4 3d e4 c0 73 be
       -0.11042696 -0.07544574 0.08793029 -0.2380405
0003e0 cc 07 9c bd d8 e6 e9 3d f0 8f 6a be f6 71 09 be
       -0.07618675 0.11420983 -0.2290647 -0.13422379
0003f0 ea 84 21 be 2a 60 7d 3e 76 b5 01 3e 20 00 6b 3d
       -0.15773359 0.24743715 0.12666878 0.057373166

bias f4 [25]
000000 00 0e 9f bc 08 ed d9 bd 6c 00 c4 3d 00 b5 f9 ba
       -0.019415855 -0.10640913 0.09570393 -0.0019051135
000010 38 c0 8e 3d 60 9b b0 3d bc 82 b8 3d 00 9b ec bd
       0.069702566 0.086233854 0.090093106 -0.115530014
000020 20 86 30 bc 40 77 70 3d 14 77 3f 3e 10 b0 d5 3d
       -0.010774165 0.058707476 0.18697768 0.10433972
000030 4c 03 2b bd fe 7c a8 bd f8 ca 8f 3d 04 a8 a0 bd
       -0.04175119 -0.08226965 0.07021135 -0.078445464
000040 46 19 c8 bd 7a cc 35 3e 38 3b b8 3d 60 98 70 3d
       -0.097704455 0.17753783 0.0899567 0.058739066
000050 10 97 9d 3d d4 8b f7 3d c2 7c 3e 3e 40 f6 e8 3b
       0.076948285 0.12087217 0.18602279 0.0071094334
000060 80 71 1f bb
       -0.0024329126

weight f4 [25, 25]
000000 cd 58 16 be 22 a6 2f be 4c 41 43 3d c0 b2 95 bc
       -0.14682312 -0.17153218 0.047669694 -0.018273711
000010 17 2f bb bd 95 65 06 3e 2c fb 56 3d 32 01 cc 3d
       -0.09139841 0.13124688 0.05248563 0.099611655
000020 6e a6 fe 3d 7e 1d 8a 3d 80 50 08 bd 50 cb 39 bc
       0.12434088 0.067439064 -0.033279896 -0.011339977
000030 d3 12 26 be 24 f3 5c 3d 14 05 4e 3d 38 8c 41 bd
       -0.16218118 0.053942814 0.05029781 -0.047252864
000040 50 ad f0 bc 9c 71 4d 3d 88 2b 26 be ef 4d 30 be
       -0.029379517 0.050157174 -0.16227543 -0.1721723
000050 45 6e 00 be 90 f0 e2 bc 80 76 fd 3a 00 72 40 ba
       -0.12542064 -0.0277026 0.0019337684 -0.0007341206
000060 87 44 f5 bd d6 9b 9d 3d 0c a6 8d bd dc bf 98 bd
       -0.11975961 0.07695739 -0.069164366 -0.07458469
000070 78 ee 07 3d d3 c8 3e be 79 65 4a 3e c2 a8 ee 3d
       0.033186406 -0.18631296 0.19765271 0.11653282
000080 b5 33 3b 3e 34 69 79 bd c4 94 66 3d 50 70 b6 3c
       0.18281443 -0.060891345 0.056294218 0.022270352
000090 52 c2 95 3d 7a 71 89 3d 3a b1 e1 bd 80 3e f1 3c
       0.07312454 0.06711097 -0.110201314 0.029448748
0000a0 f6 46 a3 3d bb 51 1e 3e 6a 69 e9 3d 03 f8 d7 bd
       0.07972519 0.15460865 0.11397059 -0.10545351
0000b0 f8 68 3f 3d ea ad 16 be c8 a8 1c be 3b 50 3e 3e
       0.046730965 -0.1471478 -0.1529876 0.18585293
0000c0 f0 4b be bc 60 41 5b bc 3e 54 0b be 4d 54 dd bd
       -0.02322957 -0.013382286 -0.13606355 -0.10807095
0000d0 29 81 16 3e 8c d4 00 3d 5a 8e 04 be d6 6a 90 3d
       0.14697708 0.0314527 -0.12944928 0.07051627
0000e0 57 bb 28 3e 97 06 f7 bd f8 d5 37 be f6 4d f0 3d
       0.16477714 -0.12061804 -0.17952716 0.1173362
0000f0 4a a7 e3 3d 00 6f 2b 3d 7b c1 34 be 30 b4 c3 bc
       0.11115892 0.041853905 -0.17651932 -0.023889631
000100 d0 0d ac bc e7 54 41 be f5 b1 10 3e 00 2b 07 bd
       -0.02100268 -0.18880044 0.14130385 -0.032999992
000110 73 3f df bd 5b c8 4a be 58 f3 69 bd 18 a6 04 bd
       -0.10900774 -0.19802992 -0.057116836 -0.03238496
000120 82 97 e9 3d 5b 27 1b 3e 18 5c e5 3c 1a af 45 be
       0.11405851 0.15151732 0.027998015 -0.19305077
000130 93 23 1f be 5d 87 15 3e b8 29 29 3d e0 6f 07 3c
       -0.15540914 0.14602418 0.04129955 0.008266419
000140 30 fb f1 3c c0 96 d8 bb 93 c0 cf bd 00 c4 ad bb
       0.02953872 -0.0066097677 -0.101441525 -0.005302906
000150 17 65 b7 bd a8 92 dc 3c 14 89 34 bd 2d c4 08 3e
       -0.08954828 0.0269254 -0.04407604 0.13356085
000160 08 91 1b 3d e2 1c f2 3d e7 97 42 be 43 cc cb bd
       0.03798011 0.11821915 -0.19003259 -0.09951069
000170 18 a6 f4 bc 17 07 4c be 40 7b aa bb cd e2 35 be
       -0.029864356 -0.1992458 -0.005202681 -0.17762299
000180 4d 64 e4 bd 31 d3 21 3e 97 c8 39 3e 8a d2 ac bd
       -0.11151943 0.1580322 0.18142925 -0.08438595
000190 33 8e e5 bd 9d 4c 36 3e 48 1f 3f 3d 16 97 a2 3d
       -0.11208763 0.17802663 0.04666069 0.079389736
0001a0 40 11 9c bb 77 2d bb bd 10 73 b7 bc b2 02 b0 3d
       -0.0047627985 -0.09139531 -0.022393733 0.08594264
0001b0 9d f5 af bd 15 55 13 3e 85 4e 06 be 52 4c d6 3d
       -0.08591769 0.14387925 -0.1311589 0.10463776
0001c0 64 7e 6b 3d 82 3e b1 3d 7d c1 c1 bd 00 50 8b 39
       0.057493582 0.086545005 -0.09460733 0.0002657175
0001d0 c9 74 1a 3e b0 bf 52 3c 88 34 4f bd d8 c6 37 3d
       0.15083613 0.012863085 -0.050587207 0.044867367
0001e0 ca 31 91 bd 1d 43 18 3e 80 ea 31 3b 60 59 d3 3b
       -0.07089575 0.14869352 0.002714783 0.0064498633
0001f0 5a 4e cd bd 80 66 0b bd 9d 24 b4 bd 24 02 6e 3d
       -0.1002471 -0.0340333 -0.08796046 0.05810751
000200 c7 97 cf bd e1 4c 0c 3e 91 8d 20 3e 7e b2 eb 3d
       -0.10136371 0.13701202 0.15679003 0.11508654
000210 85 81 3f 3e 06 a0 15 be b6 ea 11 be e5 80 3b be
       0.18701752 -0.14611825 -0.14249691 -0.18310888
000220 04 51 53 3d 42 b3 48 be eb 68 10 3e 50 55 95 3c
       0.051590934 -0.19599631 0.14102523 0.018229157
000230 8b e9 1d be 70 b1 d2 bd 33 30 10 3e f0 da 87 bd
       -0.15421121 -0.1028775 0.14080887 -0.06633556
000240 e8 50 ed bc 6f 78 4b be 4a ee dc bd 92 9e fc 3d
       -0.028969243 -0.1987016 -0.107876375 0.123349324
000250 ed 4f df bd 24 50 50 3d d0 03 8d bc b8 11 0b bd
       -0.109039165 0.050857678 -0.017213732 -0.033952445
000260 17 93 c1 bd 80 0a e1 ba 00 f1 48 3d 15 f7 08 3e
       -0.09451883 -0.0017169267 0.04905796 0.13375504
000270 07 97 16 3e a0 67 05 bc 38 9f 3c bd a5 41 37 3e
       0.1470605 -0.008142382 -0.04605028 0.17896135
000280 e0 81 2c 3d d2 8f 36 be 80 f5 db bd f1 67 01 3e
       0.042116046 -0.178283 -0.10740185 0.12637307
000290 d0 61 92 bc 6b ad 1d 3e 46 0a ca 3d c0 0e 86 bd
       -0.017868906 0.15398185 0.09865241 -0.06545782
0002a0 69 38 1e 3e 88 e4 1e 3d 30 75 04 be 48 46 15 be
       0.15451206 0.038792163 -0.12935328 -0.14577591
0002b0 0b 98 0d 3e 6d da c3 bd 68 75 3d be 07 80 e3 bd
       0.13827531 -0.09563146 -0.18501818 -0.11108404
0002c0 00 00 49 bc b0 11 5c bc f0 82 c7 3c 36 0c ec 3d
       -0.012268066 -0.013431951 0.024354428 0.115257666
0002d0 56 1e cf 3d aa 3b 3b be 16 5c ae 3d 6a f3 b8 3d
       0.10113208 -0.18284479 0.08513658 0.090308025
0002e0 68 6d 0e be c0 24 1b be 3a 2a d1 bd a4 ef 7a 3d
       -0.13908923 -0.15150738 -0.10213132 0.061263695
0002f0 f4 38 6e 3d 58 b6 01 be 77 22 fc bd 62 d0 99 3d
       0.058159783 -0.12667215 -0.12311261 0.07510449
000300 57 c2 ab bd 86 93 8c bd 6d 07 ed bd 00 52 55 3c
       -0.08386677 -0.06864075 -0.11573682 0.013020039
000310 a1 f6 3d 3e 8a 62 a0 bd 4c 78 49 3d 18 79 93 3c
       0.18551113 -0.07831295 0.04918699 0.018002078
000320 0e 4d d8 3d dd 72 df bd ac bc 1a 3d b2 9c e8 3d
       0.10561572 -0.1091058 0.037777588 0.11358012
000330 d2 75 35 be b6 09 05 be 46 54 f7 3d ee ab 05 be
       -0.17720726 -0.12991986 0.12076621 -0.13053867
000340 9a 99 8b 3d 1a 3a 93 3d b4 05 23 bd 01 cd 1c 3e
       0.068164065 0.07188816 -0.03980036 0.15312578
000350 87 57 01 3e 82 19 bb 3d 90 64 b2 3c c3 b0 07 3e
       0.12631045 0.091357246 0.021776468 0.13251023
000360 09 9d 17 3e a2 b3 97 3d 90 80 ab bc 4b 5d 1b be
       0.14805998 0.07407309 -0.020935327 -0.15172307
000370 f3 2b b2 bd 58 d5 65 bd 97 3b c4 bd 35 e2 23 3e
       -0.08699789 -0.056111664 -0.09581678 0.1600426
000380 0b d1 40 3e b4 a7 05 3d 40 fb b4 bb 68 ff a4 3c
       0.18829744 0.032630637 -0.0055231154 0.020141318
000390 75 f2 20 be 00 7a a3 bd 80 92 d0 bc c8 a3 04 3d
       -0.1571749 -0.07982254 -0.025460482 0.032382756
0003a0 69 58 30 3e 6c 39 53 3d c0 52 2c 3d 71 bd 2c 3e
       0.17221226 0.051568434 0.042071104 0.16869141
0003b0 e6 64 eb 3d 80 3a f4 3c 1e e1 ec 3d 0e a5 09 be
       0.11493854 0.029813051 0.11566375 -0.1344187
0003c0 f6 70 ec 3d ee e4 8d 3d be cb 89 3d 00 2b 18 3a
       0.11544983 0.069284305 0.06728314 0.00058047473
0003d0 f7 a9 3b 3e d3 01 28 3e cd d1 ab bd 0a 0e bf bd
       0.18326555 0.16406946 -0.08389626 -0.093288496
0003e0 da 18 d7 3d 9a b4 af 3d 8d 87 d7 bd 42 eb 9b 3d
       0.10502787 0.08579369 -0.10523901 0.07613231
0003f0 1b 94 36 3e 8e 69 e4 3d 9a 59 e8 bd c0 67 17 3d
       0.17829935 0.111529455 -0.11345215 0.036964178

bias f4 [25]
000000 40 a6 92 bb 63 71 d3 bd cb 38 34 3e da ba d5 3d
       -0.004475385 -0.10324361 0.1759979 0.1043603
000010 c5 b6 12 be b4 c8 5e 3d ee eb 10 be 40 16 f5 3b
       -0.14327534 0.054390624 -0.141525 0.007479459
000020 da 6b da bd 65 1b 34 3e 44 9b 66 3d 2a e6 97 bd
       -0.10665102 0.17588575 0.056300417 -0.07416947
000030 11 f4 23 3e c6 13 c0 3d 00 37 3a 3d 7a c6 f3 bd
       0.16011073 0.093787715 0.04546261 -0.11903091
000040 d0 ab 3c 3c 37 34 f2 bd 4a 15 dd 3d d6 d7 11 be
       0.011515573 -0.118263654 0.10795076 -0.14242491
000050 c0 88 93 bc ed 3e ea bd b3 13 26 be 20 fa 1f bc
       -0.018009543 -0.114377834 -0.16218452 -0.009764224
000060 f2 c7 c1 3d
       0.09461965

weight f4 [25, 25]
000000 ac 46 3f bd 60 3d cf bb d0 39 f5 3c 06 a6 17 be
       -0.046698257 -0.006324455 0.029934794 -0.14809427
000010 50 2b a4 3c d1 7a 31 3e b4 22 25 3d 57 d4 46 3e
       0.020040184 0.17332007 0.0403163 0.19416939
000020 da 97 a5 bd 77 90 ff bd 96 d2 cd 3d 5a ad cc bd
       -0.08085604 -0.12478726 0.10049932 -0.09994002
000030 d2 a2 b6 3d e8 96 ae 3c 69 0c 43 3e d4 e2 08 3d
       0.08917774 0.021312192 0.19047703 0.033419445
000040 67 b4 e9 bd ca 3c fd 3d 30 63 53 bc da 94 de 3d
       -0.11411362 0.1236511 -0.012902066 0.10868235
000050 ef 60 41 be 94 13 68 bd 58 e2 1d 3d a8 b4 9c bc
       -0.18884633 -0.056659296 0.038545936 -0.019129112
000060 cc 32 0c be d4 98 44 bd 77 4e da bd 20 10 78 bd
       -0.13691252 -0.04799731 -0.10659497 -0.060562253
000070 14 3e 3e bd a0 15 73 bd d0 8e ab bc ec ee 78 bd
       -0.04644592 -0.059346795 -0.020942122 -0.06077473
000080 d6 ed d0 3d ca 26 ac 3d 63 16 b0 bd 18 aa 9e 3c
       0.102016136 0.08405836 -0.0859802 0.019368216
000090 9d 6b 9a bd 05 3d 36 3e 88 02 0b 3d 60 ec ad 3b
       -0.07540057 0.17796715 0.03393796 0.005307719
0000a0 be ff 1e be 30 06 4e 3c f7 80 2b 3e 56 74 ee 3d
       -0.15527245 0.012574717 0.16748415 0.11643283
0000b0 a8 5f c0 3c 20 90 04 bd cc d4 5c 3d c0 fb a6 3c
       0.023483112 -0.03236401 0.053913876 0.020383716
0000c0 94 c0 0e 3d 00 bb 7f bc 51 bb 07 3e 06 bf 9d 3d
       0.034851626 -0.015608549 0.1325505 0.077024505
0000d0 00 74 88 3b 82 cf ed 3d 82 63 8c 3d d2 9a a5 3d
       0.004164219 0.116118446 0.06854917 0.0808617
0000e0 68 91 39 3d 81 ae 09 3e 42 a8 9b 3d e8 84 b1 bc
       0.045304686 0.13445474 0.07600452 -0.02166982
0000f0 c6 4f 08 be 9d d5 da bd a2 af 33 be 98 d1 57 bd
       -0.13311681 -0.10685275 -0.17547467 -0.05269012
000100 37 47 01 3e 6f 4a 23 3e 2d 9d 0c be 18 48 94 3c
       0.12624823 0.15946363 -0.13731833 0.018100783
000110 81 64 22 3e c8 7d 02 bd 30 a2 73 bc c9 27 37 3e
       0.15858652 -0.031858236 -0.0148702115 0.1788627
000120 b8 72 21 bd 76 ba 8c bd 33 cf 21 be a8 57 3e 3d
       -0.039416045 -0.06871502 -0.15801696 0.046470314
000130 11 2b 22 3e 70 85 04 be f3 0d a0 bd 8f bc 06 3e
       0.15836741 -0.12941527 -0.078151606 0.13157867
000140 50 21 4f 3c d0 ff 92 3c 83 ce a4 bd 88 73 08 bd
       0.01264222 0.017944247 -0.080472015 -0.033313304
000150 f0 d0 ab bd 94 81 17 3d fb 8c 2f 3e 30 b1 72 bc
       -0.08389461 0.03698881 0.17143624 -0.014812753
000160 90 77 ba 3c c5 7e 30 3e 50 19 29 3c ea ce 9c 3d
       0.02276209 0.17235859 0.010320976 0.07656653
000170 80 c5 ea 3a 57 95 0e 3e 00 54 58 3c 68 84 d5 bc
       0.0017911643 0.13924156 0.013203621 -0.026064113
000180 a8 66 fa bc f4 78 24 bd b0 53 d8 3c 74 60 10 3d
       -0.030566528 -0.040154412 0.026407093 0.035248235
000190 b7 ef 3a 3e 58 b1 9c bc 53 c5 39 be 69 0e 09 3e
       0.18255506 -0.019127533 -0.1814168 0.13384403
0001a0 67 1b 46 be d7 51 44 be 03 ee b3 bd 86 65 c0 3d
       -0.1934639 -0.19171844 -0.087856315 0.09394364
0001b0 d2 59 9d 3d b6 33 03 be 0d a9 a9 bd 73 d5 01 3e
       0.076831475 -0.12812695 -0.08284197 0.1267908
0001c0 56 99 ac 3d 8e 76 0b be bb bf 3b be b1 c1 0d 3e
       0.08427684 -0.13619444 -0.18334858 0.13843419
0001d0 b3 ec 23 be 8c c1 13 bd 79 47 1d 3e ec 27 03 be
       -0.16008262 -0.036073253 0.15359296 -0.12808198
0001e0 43 42 39 3e 60 30 4a 3c 04 81 4d 3d ca ba 26 be
       0.18091683 0.012340635 0.050171867 -0.16282192
0001f0 40 21 ac bc 77 81 e0 bd 70 e3 28 be fd a6 35 3e
       -0.021011949 -0.109621935 -0.1649301 0.17739482
000200 a3 dd 23 3e 80 ee 90 bc 3c 43 61 3d 39 29 27 3e
       0.16002516 -0.01769185 0.05499576 0.16324319
000210 10 79 df 3c e0 21 06 bd 68 2a 3f 3d 4c e6 1f 3d
       0.027279407 -0.03274715 0.0466713 0.039037988
000220 83 ed 01 3e e8 a6 cf 3c 36 08 85 3d 52 90 e2 3d
       0.1268826 0.025348142 0.06495707 0.11062683
000230 e3 52 3a 3e f7 3b d6 bd 62 59 9d 3d d2 66 93 3d
       0.18195681 -0.10460656 0.07683064 0.07197346
000240 11 6e 05 3e b3 2d d1 bd 36 c1 90 3d 94 a4 56 bd
       0.13030268 -0.102137946 0.07068102 -0.052403048
000250 fe a9 81 3d 41 9d 43 3e 96 d4 ea 3d 8a 9c d6 3d
       0.063312516 0.19102956 0.11466329 0.10479076
000260 98 de 63 bd 98 f3 26 bd a8 82 3a bd 6a a9 f5 bd
       -0.055632204 -0.040759653 -0.04553476 -0.11995204
000270 db 68 0c 3e 70 de 12 be 6a 8a d0 bd a7 7d 3b be
       0.13711874 -0.14342666 -0.101826504 -0.18309651
000280 e3 c5 b5 bd 80 c0 0b 3c 46 85 98 bd 27 d1 4a be
       -0.088756345 0.008529782 -0.07447295 -0.19806348
000290 a6 0f 03 be 7d 7c 21 be 76 4d 04 be 57 91 f6 bd
       -0.12798938 -0.15770145 -0.12920174 -0.1203944
0002a0 3d 17 03 be 4d ff 21 3e 80 77 2b 3c db 2b 15 3e
       -0.12801833 0.15820046 0.010465503 0.14567511
0002b0 da a6 99 bd 28 6b 96 bc 85 6c 23 be f1 82 09 3e
       -0.075025275 -0.018361643 -0.15959366 0.13428856
0002c0 87 a7 2e 3e 3e ff 03 be ec 57 29 3d 76 bc 1c be
       0.17056094 -0.12890336 0.041343614 -0.15306267
0002d0 e1 b4 04 3e b3 f1 ed bd f6 1f 99 3d aa 35 b4 bd
       0.12959625 -0.11618366 0.07476799 -0.08799298
0002e0 43 79 f5 bd d8 e6 0e be 80 87 6c bd c0 85 cf 3c
       -0.119860195 -0.13955247 -0.05774641 0.025332332
0002f0 30 b4 90 bd fa 2d f3 bd c3 e2 08 3e 80 8d 67 bd
       -0.07065618 -0.11874004 0.13367753 -0.05653143
000300 f3 af d0 bd 3a ca ff 3d f6 92 c5 3d a7 54 18 3e
       -0.1018981 0.124897435 0.09647171 0.14876042
000310 ad 35 14 3e 72 03 3a be 60 34 be bd 70 dc 98 3c
       0.144736 -0.18165377 -0.092873335 0.0186598
000320 6d 3e e0 bd d8 8b da 3c 42 33 88 3d 4a 8b e9 bd
       -0.10949407 0.02667801 0.06650402 -0.114035204
000330 cf c9 2d 3e ef d1 38 3e 00 8b cb ba b6 8f d3 3d
       0.16971515 0.18048833 -0.0015529096 0.10330145
000340 30 20 93 bd 50 8e fb 3c a6 70 b1 3d 79 8b 00 3e
       -0.07183874 0.030707508 0.08664064 0.12553205
000350 4c e4 72 3d c0 f0 04 bd fa 94 a1 3d a0 86 dc bb
       0.059299752 -0.03245616 0.07889743 -0.0067299157
000360 b0 d6 f3 3c 78 b5 3f 3d 3c 12 0b be 30 8d a8 bd
       0.029765457 0.04680392 -0.13581175 -0.082300544
000370 3e a9 f9 3d e0 50 40 bc 00 03 3a 3a ae 28 e4 3d
       0.121904835 -0.011738032 0.0007095784 0.111405715
000380 8c de 49 bd 52 a8 8c 3d 54 b5 31 bd 70 28 a7 bc
       -0.049284503 0.06868042 -0.04338582 -0.020405024
000390 dd 5d b9 bd 3e 11 98 3d 9f 46 3b 3e 57 1c 1a 3e
       -0.09051106 0.07425164 0.18288659 0.15049873
0003a0 8a 69 df 3d 8a dd b2 bd 77 42 30 3e 82 0e 15 be
       0.10908802 -0.087336615 0.17212854 -0.14556316
0003b0 a6 2c 97 bd 38 bd 5d bd cd 2a 2c 3e d4 0c 15 bd
       -0.07381563 -0.05413553 0.16813202 -0.036389187
0003c0 7b ee 29 3e 68 50 34 3d d3 94 38 3e 6a 41 0f be
       0.1659488 0.044021994 0.18025522 -0.13989797
0003d0 59 19 1b 3e 55 1a 34 3e 9d 7f 46 be d3 c4 21 3e
       0.15146388 0.1758817 -0.19384618 0.15797739
0003e0 e8 1c 2a 3d d4 1e 56 3d bb 63 3d 3e 94 f1 1d 3d
       0.041531473 0.052275494 0.18495075 0.038560465
0003f0 77 30 a9 bd 79 82 2c 3e 18 cb 39 3d d3 a5 4b be
       -0.08261197 0.16846646 0.0453597 -0.19887476

bias f4 [25]
000000 43 f7 2f 3e d1 b8 09 3e 1e 17 e8 3d 74 30 4d bd
       0.17184167 0.13449408 0.11332534 -0.050095037
000010 b8 1b 4b bd 80 67 45 3c 9f 79 3a be c7 9d 44 3e
       -0.04958698 0.012048602 -0.18210457 0.19200812
000020 13 c3 23 be cb a4 2c be d8 8e da 3c 90 9f fa bd
       -0.15992384 -0.16859739 0.026679441 -0.122374654
000030 b8 f0 7c bd da 27 b4 3d 46 4a 28 be 37 51 44 be
       -0.061753005 0.087966636 -0.16434583 -0.19171606
000040 a0 28 c3 3b 76 aa 02 be 3a ec 98 3d dd 01 1e be
       0.0059557706 -0.12760338 0.07466932 -0.15430398
000050 22 51 90 3d fc fb 66 3d 30 4f eb bd d9 43 21 3e
       0.07046725 0.056392655 -0.11489713 0.15748538
000060 a1 32 19 3e
       0.1496072

weight f4 [25, 25]
000000 46 51 a9 3d 68 21 02 3d f9 19 3e 3e 7d 76 c1 bd
       0.08267455 0.03177014 0.18564595 -0.09446428
000010 80 d6 1c 3b 88 0d 31 be 47 a7 c2 bd 62 a9 40 be
       0.0023931563 -0.17290318 -0.09504562 -0.18814614
000020 8d 1b 04 be c0 69 f4 bd 1d f7 3e be a9 5f 12 3e
       -0.12901135 -0.11934233 -0.18648954 0.14294304
000030 8a 9c 13 be e0 07 c4 bd 9a 48 45 be 00 b0 9d 39
       -0.14415184 -0.095718145 -0.19265977 0.00030076504
000040 90 7a f3 3c 39 7c 25 3e cb 1c 2e be 29 81 2b 3e
       0.029721528 0.16160668 -0.17003171 0.1674849
000050 51 49 09 3e 6c 80 09 bd 9b 12 23 3e d2 ad 82 3d
       0.13406874 -0.03356974 0.15925066 0.0638081
000060 c6 e7 ea 3d 0c f1 55 3d da 05 21 be 5d 6c c6 bd
       0.114699885 0.052231833 -0.15724888 -0.096886374
000070 50 7f d6 bc 3e af de 3d 40 8e 07 bd 59 32 35 3e
       -0.026183754 0.108732685 -0.033094645 0.17694987
000080 a4 b9 5b 3d 80 6e 31 3d 27 10 0c 3e e2 ec e5 3d
       0.053643838 0.04331827 0.13678037 0.112268224
000090 e3 be a0 bd 60 96 3f bd 7a 24 a8 3d 3a 71 3b be
       -0.07848909 -0.04677427 0.08210082 -0.18304911
0000a0 a4 44 7f 3d 6c a5 76 bd 47 10 f1 bd 52 fb 8b 3d
       0.06232132 -0.060216352 -0.11770683 0.06835045
0000b0 e0 2c 06 be 88 88 23 3d 53 63 c2 bd d3 71 a0 bd
       -0.13103056 0.03992513 -0.09491601 -0.0783421
0000c0 81 c5 40 3e 30 92 c2 3c 98 9b 61 bd 0e 18 92 3d
       0.18825342 0.023751348 -0.055080026 0.07133494
0000d0 72 2c 91 3d fd e3 40 be 60 4e 34 bc 9d 0c 40 be
       0.070885554 -0.1883697 -0.011005014 -0.18754812
0000e0 ba 6c 45 be da ac 90 bd 96 4f 85 3d 2c 6b 1a bd
       -0.19279757 -0.07064219 0.065093204 -0.037699863
0000f0 56 34 fb 3d 54 51 72 bd e2 27 e8 3d 38 41 1e bd
       0.12265842 -0.05915959 0.11335732 -0.038636416
000100 e9 34 34 3e 16 b7 90 3d 5f 7a 38 be 75 6d 1b be
       0.17598309 0.07066171 -0.18015431 -0.15178473
000110 68 7c 94 bc af 80 46 3e 4a 8d ed bd c2 3b f6 3d
       -0.018125728 0.19385026 -0.115992144 0.12023117
000120 95 95 45 be 4a d1 b6 3d 53 19 ac bd bb 12 15 be
       -0.19295342 0.089266375 -0.08403268 -0.14557926
000130 e6 09 c6 3d 6e 9e c4 3d b6 b7 a5 3d b0 98 98 3c
       0.09669857 0.096005306 0.08091681 0.018627495
000140 82 03 c6 3d 83 8d 9f bd a2 dd c0 3d 1a 17 bb bd
       0.09668638 -0.07790663 0.09417273 -0.09135266
000150 62 02 a9 3d 20 a6 65 3c c3 61 af bd d0 93 b2 3c
       0.082524076 0.014016658 -0.085635684 0.021798998
000160 1d fa c1 bd 08 85 37 be 09 d3 02 3e ca c1 1b be
       -0.094715334 -0.17921841 0.12775816 -0.15210643
000170 8a 30 34 be 8a 69 8d bd d0 a0 f3 bd 22 7f bb 3d
       -0.17596641 -0.069048956 -0.11895907 0.09155108
000180 82 25 d4 3d 3a 24 ad bd d6 b9 11 be 81 2d 27 3e
       0.103587165 -0.08454175 -0.14231047 0.16325952
000190 6f 68 3c 3e 78 1c 13 bd 68 f7 10 bd 35 6e 30 be
       0.18399213 -0.03591582 -0.035392195 -0.1722954
0001a0 00 28 1a be 34 de 63 bd 22 98 f4 3d 6f c2 47 be
       -0.15054321 -0.05563183 0.119430795 -0.19507764
0001b0 90 29 e6 3c 04 35 5d 3d c7 42 de bd 53 ef b7 bd
       0.02809599 0.054005638 -0.108525805 -0.08981194
0001c0 7a 54 32 be a9 6f 4a 3e 07 62 39 3e 95 c6 30 3e
       -0.17415038 0.19769157 0.181038 0.17263253
0001d0 6a 92 d7 bd a0 21 67 3c 37 8b b4 bd c7 ba d4 bd
       -0.10525973 0.014107138 -0.088156156 -0.103871875
0001e0 44 68 88 bd fd ba de bd 45 0b 44 3e 54 c4 08 3d
       -0.06660512 -0.10875509 0.19144924 0.033390358
0001f0 30 70 0f bc 8a c0 12 be 8c ea 57 bd 32 0f ad 3d
       -0.008754775 -0.1433126 -0.052713916 0.08450164
000200 88 17 28 be 82 ba 25 be ed 0b 0c be a8 c0 71 bd
       -0.16415226 -0.16184428 -0.13676424 -0.059021622
000210 61 55 09 3e a6 49 92 bd a0 80 ae bb 77 42 49 3e
       0.13411476 -0.071429536 -0.005325392 0.1965426
000220 ef f1 04 3e ac 4b 75 3d 0e b7 84 3d 70 26 f1 bc
       0.12982915 0.05988662 0.064802274 -0.029437274
000230 4a a7 e4 bd 60 15 5b bd 5a 4a fe bd eb 9f 41 be
       -0.1116472 -0.05348718 -0.12416525 -0.1890866
000240 87 b6 b2 bd 68 63 e3 3c 60 6d 67 bd 3d 6b 3a 3e
       -0.087262206 0.027757362 -0.056500793 0.1820497
000250 f8 bc 46 bd 2d e9 3b 3e 83 f8 30 3e 80 a7 98 bc
       -0.04852006 0.18350668 0.172823 -0.018634558
000260 00 68 cf ba 0d a3 40 be c7 4d 11 3e c0 19 b2 3c
       -0.0015823841 -0.18812199 0.14189826 0.021740794
000270 34 dd 1f 3d 53 2e ed bd ff 85 1a 3e 12 db 22 be
       0.039029315 -0.11581101 0.15090178 -0.15903881
000280 fb 5e 11 3e 90 50 f3 bd ce ce e0 3d 5a b6 02 be
       0.14196388 -0.118806005 0.10976945 -0.12764874
000290 62 74 b7 3d b2 d4 07 be 71 14 0c 3e d6 ae 91 bd
       0.08957745 -0.1326473 0.13679673 -0.071134254
0002a0 3a a6 fa 3d c0 8e 49 bd c0 5a fd 3c ec b4 6f 3d
       0.122387365 -0.049208403 0.030927062 0.05852215
0002b0 93 2d 3e be 82 62 da 3d f2 f1 05 be d8 ef 4a be
       -0.18572073 0.1066332 -0.13080576 -0.19818056
0002c0 07 9e d1 bd 61 94 0c 3e 32 6a fe 3d 02 bd fa 3d
       -0.102352194 0.13728477 0.12422599 0.12243082
0002d0 34 48 66 bd d0 4f 95 3c f9 ce 3a 3e a8 5b 49 be
       -0.056221202 0.018226534 0.18243016 -0.1966387
0002e0 e8 3a 12 bd d2 9d a6 3d b0 f8 a5 bc 21 3a 36 3e
       -0.03570071 0.081355706 -0.020260185 0.17795612
0002f0 97 66 3a be 00 5e 39 be 1d da ea bd aa e1 88 bd
       -0.18203197 -0.18102264 -0.11467383 -0.06683667
000300 78 46 26 be a5 77 49 3e d6 29 0f be 28 ab 44 be
       -0.16237819 0.19674547 -0.13980803 -0.19205916
000310 92 ed d1 3d 5a df 9d bd f9 b4 2d 3e 63 f4 af bd
       0.10250391 -0.077086166 0.16963567 -0.08591535
000320 42 5d ec 3d 38 b6 1e bd d8 80 ea 3c ec d7 00 bd
       0.11541225 -0.038747996 0.02862589 -0.03145592
000330 b4 a6 35 bd c0 65 90 bb b3 96 14 be 75 39 2e 3e
       -0.044348434 -0.004406661 -0.14510612 0.17014106
000340 4d 98 35 3e aa 3c f0 3d e7 6b d6 bd 46 50 c6 3d
       0.1773388 0.11730321 -0.104697995 0.0968328
000350 ba a4 a5 3d 4c 9a 64 3d 94 30 8a bd c4 0b 80 bd
       0.0808806 0.05581121 -0.06747547 -0.06252244
000360 54 2a 83 bd fe 33 0f be a8 f0 b4 bc 57 4e 3b 3e
       -0.06404558 -0.13984677 -0.02208741 0.18291603
000370 29 19 16 3e 34 23 70 3d 4c e7 24 bd 00 d2 4d ba
       0.14658035 0.058627322 -0.040259644 -0.0007851422
000380 5d 55 a6 bd d1 b9 0e 3e a2 38 e8 3d 1b de 12 be
       -0.081217505 0.13938071 0.11338927 -0.14342539
000390 4c db 04 be b6 3f ce 3d 5d 35 b5 bd ea 29 a6 bd
       -0.1297428 0.10070746 -0.08848069 -0.08113463
0003a0 40 a3 fe 3c 48 03 0d bd 4c cf 05 bd dd 60 17 3e
       0.031083703 -0.034426957 -0.032668397 0.14783044
0003b0 d4 cc 82 bd 68 77 44 bd 7a de ec bd c2 71 c8 3d
       -0.06386724 -0.047965437 -0.115658715 0.097873226
0003c0 47 5c e4 bd d4 0f 95 bd a8 1a 72 bd d0 4d 81 3c
       -0.11150413 -0.072784096 -0.059107453 0.015784174
0003d0 34 6f 1e bd 39 a1 37 3e 57 aa 48 3e 89 b3 25 3e
       -0.03868027 0.17932595 0.1959623 0.16181768
0003e0 38 8b 7d bd 3a 81 a3 bd e0 70 cb bd 82 ba e4 3d
       -0.061900347 -0.079836324 -0.099336386 0.11168386
0003f0 6c bc 7a bd bb 73 2e be 88 62 02 be 40 f5 f6 bc
       -0.06121485 -0.17036335 -0.12732899 -0.030146241

bias f4 [25]
000000 4d be 44 3e 50 c9 cc bc 78 25 78 bd 28 30 0d be
       0.19213219 -0.024998337 -0.060582608 -0.13787901
000010 06 f5 12 be a0 32 cd bd 02 e6 eb 3d ca c6 a0 bd
       -0.14351282 -0.100194216 0.1151848 -0.07850416
000020 c8 54 4b 3d 15 01 46 be c0 b5 86 bd db d8 0c be
       0.0496414 -0.1933635 -0.06577635 -0.13754599
000030 40 70 a4 bb 28 a7 31 be b9 1b 0e 3e c9 97 38 3e
       -0.005018264 -0.17348921 0.13877763 0.18026651
000040 83 90 e3 bd b0 5a 30 3c 8c 36 3b 3d 60 a9 53 bc
       -0.11111548 0.010763809 0.045706317 -0.0129188
000050 51 54 47 3e f6 fb f3 3d 4e a5 84 3d da 83 fb 3d
       0.19465758 0.11913292 0.06476842 0.12281008
000060 3d 87 05 be
       -0.1303987

weight f4 [4, 25]
000000 6a 8b 93 bd 67 d9 c8 bd 50 a8 7f bc c0 b8 f6 bb
       -0.072043255 -0.09807091 -0.015604094 -0.007529348
000010 db f1 1b 3e 8d b3 de bd 2c de 66 3d 00 b4 86 3a
       0.1522898 -0.1087409 0.056364223 0.0010277033
000020 00 4a 1d 3d 25 5a 2d be a0 ab 02 bd 36 9d a5 3d
       0.03840065 -0.16928919 -0.031901956 0.08086626
000030 b6 59 99 3d 10 18 b2 bc 0a 78 fb 3d 83 d2 de bd
       0.07487814 -0.02173999 0.12278755 -0.10879996
000040 42 2e bf 3d 96 31 89 3d 46 e0 b9 3d 45 5a 4c 3e
       0.09334995 0.06698911 0.0907598 0.1995631
000050 c8 05 16 3d f2 fa a4 3d 00 1e 4b 3b 33 a4 cf bd
       0.036626607 0.080556765 0.0030993223 -0.101387404
000060 da c8 bf 3d 28 31 12 3d 3b fe 29 be 62 5f 97 3d
       0.09364481 0.03569141 -0.16600887 0.0739124
000070 e9 d8 2f 3e 59 08 09 3e 40 6d f8 bd 41 35 35 3e
       0.17172588 0.1338209 -0.12130213 0.17696096
000080 e6 a7 c2 3d 1c 3a 8b bd ea 6d b6 bd b3 05 fe bd
       0.0950468 -0.06798193 -0.08907683 -0.12403431
000090 d8 47 b7 bc ed 83 12 3e e3 3d 19 be 18 e3 8f 3c
       -0.022373125 0.14308138 -0.14965014 0.017564341
0000a0 cd 61 f8 bd 93 a7 16 be 00 e3 62 bd 10 c0 cc bc
       -0.12128029 -0.14712362 -0.055392265 -0.024993926
0000b0 26 89 0c be 2a 2c f5 3d 90 47 fc bd 0c 21 0b bd
       -0.13724193 0.11971314 -0.12318337 -0.033967063
0000c0 2f 8d 31 3e 46 6d b6 3d 27 bf 3f 3e 87 02 b0 bd
       0.17339014 0.08907561 0.18725263 -0.08594232
0000d0 f4 16 05 3d 12 d0 48 be 1a 80 42 be 76 86 d0 3d
       0.032492593 -0.19610623 -0.1899418 0.101818964
0000e0 70 cf 44 be 37 70 e0 bd a3 5c f8 bd 44 4b 4e 3d
       -0.19219756 -0.10958903 -0.12127044 0.050364748
0000f0 d1 89 20 3e 80 42 49 3c a2 68 f8 3d 60 0a 62 bd
       0.15677573 0.012283921 0.12129332 -0.055185676
000100 7d 61 23 3e 28 3c 17 3d 8c 00 07 bd 00 a6 43 3b
       0.15955158 0.036922604 -0.032959506 0.0029853582
000110 5a 99 82 bd 32 3a 09 be cd f1 4b 3e 68 1b 11 be
       -0.06376906 -0.13401106 0.19916458 -0.14170611
000120 3c 45 78 3d ec 9c 0c be 80 25 82 ba ab 8f 09 3e
       0.060612902 -0.13731736 -0.0009929389 0.13433711
000130 09 fe 16 3e 38 56 76 bd 90 84 bd 3c 7a e0 bf bd
       0.14745344 -0.06014082 0.0231345 -0.093689874
000140 fd 71 33 3e 5a c2 30 be 6e 78 16 be c3 02 9d bd
       0.17523952 -0.17261639 -0.14694378 -0.076665424
000150 f6 90 ab 3d b6 06 d1 3d 05 fc 37 be 7a 11 84 bd
       0.083772585 0.10206358 -0.17967232 -0.06448646
000160 80 2a b9 ba 80 37 4f 3c 60 a4 28 be 77 0e 4a 3e
       -0.0014127046 0.01264751 -0.16468954 0.1973208
000170 ba a7 bf bd eb 39 19 be 68 ec 3f bd 25 37 3e be
       -0.09358163 -0.149635 -0.046856314 -0.18575723
000180 e6 19 f1 3d 14 a3 76 bd b0 84 c8 bc fb e5 0f be
       0.11772518 -0.060214117 -0.024477333 -0.14052574

bias f4 [4]
000000 52 19 8a 3d b0 5b 58 bc 5a 71 bb bd 00 3f db bc
       0.06743111 -0.013205454 -0.091524795 -0.02676344
