models/_brain_83.pt (torch, 14593 bytes, 12 tensors)

weight f4 [14]
000000 00 00 80 3f 00 00 80 3f 00 00 80 3f 00 00 80 3f
       1.0 1.0 1.0 1.0
000010 00 00 80 3f 00 00 80 3f 00 00 80 3f 00 00 80 3f
       1.0 1.0 1.0 1.0
000020 00 00 80 3f 00 00 80 3f 00 00 80 3f 00 00 80 3f
       1.0 1.0 1.0 1.0
000030 00 00 80 3f 00 00 80 3f
       1.0 1.0

bias f4 [14]
000000 00 00 00 00 00 00 00 00 00 00 00 00 00 00 00 00
       0.0 0.0 0.0 0.0
000010 00 00 00 00 00 00 00 00 00 00 00 00 00 00 00 00
       0.0 0.0 0.0 0.0
000020 00 00 00 00 00 00 00 00 00 00 00 00 00 00 00 00
       0.0 0.0 0.0 0.0
000030 00 00 00 00 00 00 00 00
       0.0 0.0

weight f4 [25, 14]
000000 78 2a 39 3d 70 10 4c be e0 fd 40 3d 14 20 63 be
       0.045206517 -0.19928145 0.047117114 -0.22180206
000010 e0 6e 1c bc 98 9b 47 3d bc ec e8 3d 90 d4 4b 3d
       -0.009547919 0.04873237 0.113732785 0.049763262
000020 20 3a c0 3c d0 fc 38 3e 80 19 07 3b 20 d7 e5 3d
       0.023465216 0.1806519 0.0020614564 0.112226725
000030 48 8a 79 bd 8a 93 76 3e 60 7f 7c 3d f0 2b 14 3d
       -0.06092289 0.24079719 0.06164491 0.036174715
000040 90 15 37 3d 6b 42 84 3e 84 19 64 3e 60 84 c5 3d
       0.044698298 0.25831923 0.22275358 0.09644389
000050 c0 59 3f 3d 60 97 13 3c 48 ae b3 3d 72 54 43 3e
       0.04671645 0.009008259 0.08773476 0.19075182
000060 18 bd 6a 3e d9 e5 54 be dc 36 db 3d 38 f2 e5 bc
       0.22923696 -0.20790805 0.10703823 -0.0280696
000070 20 66 b0 3c b0 56 24 bd 80 7d 9b bc 5c 32 08 bd
       0.021533072 -0.040121734 -0.018980742 -0.03325115
000080 24 14 12 3e ab 41 80 3e f0 22 51 3d f6 c1 5f be
       0.14265496 0.250501 0.05105871 -0.21851334
000090 80 22 b2 3d c6 e7 18 be 54 1d 37 3e 70 37 cb 3d
       0.086979866 -0.14932165 0.17882282 0.09922683
0000a0 92 fa 79 3e e4 23 12 be c0 11 14 3d a2 2b 42 be
       0.24411991 -0.14271504 0.03614974 -0.18961957
0000b0 a0 57 cd 3c 2c f5 53 3e 10 b5 a9 3c 08 de 6a 3e
       0.025066197 0.20698994 0.02071622 0.2293626
0000c0 7e ec cd bd f8 0c 42 3d a0 d1 0c 3e 70 59 c8 bc
       -0.10054873 0.04737565 0.1375184 -0.02445671
0000d0 ac e4 80 bd e9 c7 03 be 60 2c 11 bc 84 1b 2e 3e
       -0.06293616 -0.12869228 -0.0088606775 0.17002684
0000e0 48 4a 27 3d 4f 9c 6b be a8 36 5f be fe de 3a be
       0.040842324 -0.23008846 -0.21798193 -0.18249127
0000f0 48 f0 62 bd 40 00 8b bd 48 d7 41 3d af bc 43 be
       -0.05540493 -0.06787157 0.04732445 -0.19114946
000100 1c 57 c1 bd ac 71 a0 bd a6 ba 7d 3e 40 be 0f bc
       -0.09440443 -0.07834181 0.24778232 -0.0087733865
000110 7b d7 47 be 2b c5 87 3e a9 eb 81 3e 74 df 07 bd
       -0.19515793 0.26517615 0.25375107 -0.033172086
000120 38 ea 5c 3d 13 41 81 be 53 9d 82 3e 54 c1 e9 bd
       0.053934306 -0.2524496 0.25510654 -0.114138275
000130 52 21 dc bd 24 e9 72 bd 40 fb 7d bd 48 c3 99 3d
       -0.10748543 -0.05930437 -0.06200719 0.0750795
000140 9c e5 24 bd 98 62 5c 3d 54 af 6c 3e da d8 4d 3e
       -0.040258035 0.053804964 0.23113757 0.20102254
000150 c4 68 d3 3d 7c c8 af 3d d8 5c ba 3d 16 23 53 3e
       0.10322717 0.08583161 0.0909974 0.20618853
000160 42 57 00 3e f0 38 f3 3c 98 d0 bc 3d 48 00 bb bd
       0.12533286 0.029690236 0.092194736 -0.09130913
000170 aa 04 d4 bd 62 c0 11 be ed 99 88 3e e0 c1 56 3d
       -0.10352452 -0.14233544 0.26679936 0.052430987
000180 a2 a9 3f be 52 29 30 be 4b 35 38 be 44 07 e6 3d
       -0.18717054 -0.17203262 -0.1798908 0.112318546
000190 9d f4 74 be 06 37 65 3e 5a ec 7d 3e d0 34 b8 3d
       -0.23921438 0.22384271 0.24797192 0.08994448
0001a0 a6 4d 65 3e a8 2f 33 3d b8 ca 94 3d 6c 2c 25 be
       0.22392902 0.04374662 0.07265228 -0.16130227
0001b0 3c 69 cd bd 60 d3 73 bc 78 3b 17 3e 19 86 00 be
       -0.100298375 -0.014881939 0.1476878 -0.12551154
0001c0 cb ea 85 3e c4 cd 17 be 22 a3 2c 3e 5c aa 30 3e
       0.26155695 -0.14824587 0.16859105 0.17252487
0001d0 58 e3 53 3e da 99 6e 3e bf 0e 85 3e 1c d3 77 bd
       0.20692194 0.23300877 0.25987813 -0.060504064
0001e0 f0 76 b7 3d d6 38 0d 3e 34 09 c6 3d 70 a2 9f bc
       0.089582324 0.13791212 0.09669724 -0.019486636
0001f0 e4 e3 e0 3d 15 e0 24 be d8 1c 57 3d 20 86 12 3d
       0.10980967 -0.16101106 0.052517742 0.035772443
000200 5a 36 3a be a8 04 61 bd c0 dc 2f bc 66 3e 51 3e
       -0.18184796 -0.05493608 -0.010733783 0.2043396
000210 1c a4 62 3e 50 e1 58 3e cc cd ab bd bc 75 9a 3d
       0.22132915 0.211797 -0.08388862 0.07541987
000220 e0 96 d8 3c 5e b2 7d 3e 50 c6 b7 bd 42 13 d3 bd
       0.02643913 0.24775073 -0.08973372 -0.103064075
000230 58 1c c2 3d 38 6d a0 bc 94 71 07 3e 44 d5 7e bd
       0.094780624 -0.01958333 0.1322692 -0.062215105
000240 6a 55 79 3e 80 2a 51 bb 38 0a 2e 3d 00 f4 ea 3c
       0.24348989 -0.00319162 0.042490214 0.028680801
000250 5c 04 b0 3d 80 c8 a9 3d dc 19 fb bd 5c 18 9e 3d
       0.085945815 0.082901955 -0.12260792 0.0771949
000260 b8 84 63 3e 70 9b 01 3d a1 47 4b be f0 b4 c2 3d
       0.22218597 0.031642377 -0.19851543 0.09507167
000270 70 77 e7 bc 74 e4 f5 3d 38 91 16 bd df 9f 82 be
       -0.028255194 0.120064646 -0.036759585 -0.25512597
000280 55 60 79 be 20 78 07 3e 18 ef e9 bc ce da d8 bd
       -0.24353154 0.13229418 -0.028556392 -0.10588609
000290 d8 d2 b4 bc 58 6a 57 bd 08 c2 76 be 12 72 91 bd
       -0.022073194 -0.05259165 -0.24097455 -0.07101835
0002a0 2c ec c3 3d 6d 7b 80 3e c4 94 70 be 60 3c 1a 3c
       0.095665306 0.25094166 -0.2349425 0.009413809
0002b0 ce 09 04 be d6 a4 4b 3e 6e 1d 36 3e a8 80 70 3d
       -0.12894365 0.19887099 0.17784664 0.058716446
0002c0 c8 4d 6a bd 40 f3 29 bd f8 fe 69 bd e0 c5 5b 3e
       -0.057203084 -0.041491747 -0.057127923 0.21462202
0002d0 48 72 14 bd 6a 66 28 3e 2f 25 1b be 94 ef e7 bd
       -0.0362418 0.16445318 -0.15150903 -0.11324993
0002e0 0c 2d 32 3e cc 95 91 bd bc 1f c1 bd a8 f4 3a be
       0.17399997 -0.071086496 -0.09429881 -0.18257391
0002f0 de 1e 27 be 86 35 7d 3e c0 d0 98 3b 36 17 85 be
       -0.16320369 0.24727449 0.004663557 -0.2599427
000300 1a 55 77 3e 14 46 38 bd cc 1d df 3d 11 44 81 3e
       0.24153557 -0.044988707 0.10894355 0.25247243
000310 2e d9 5c 3e dc f1 12 3e 40 cd 27 bc ba c8 29 be
       0.21567222 0.14350075 -0.0102418065 -0.16580477
000320 b6 f9 42 be a3 63 32 be 42 c7 58 3e 12 9f 1d be
       -0.1904057 -0.17420821 0.21169761 -0.15392712
000330 cc 7b 74 bd ee 28 86 be 72 ba 20 3e a0 18 31 3d
       -0.059688374 -0.26203102 0.15696123 0.043236375
000340 b0 3c 2d be 11 06 81 3e 00 28 17 3c 02 5d 33 3e
       -0.16917682 0.2519994 0.009225845 0.17515948
000350 e2 f0 0e 3e 8a 50 89 bd f0 4d 38 be ba d4 0a 3e
       0.13959077 -0.06704815 -0.17998481 0.13557711
000360 8a 78 0d 3e 02 7f 15 3e 6a 92 2e be 0a 0d dd bd
       0.13815513 0.14599231 -0.1704804 -0.10793503
000370 f6 44 05 3e 34 d2 41 3e 3a ba 5c be c2 29 5b 3e
       0.13014588 0.18927842 -0.21555415 0.21402648
000380 68 0a 52 3e 16 1f 09 be d4 d5 53 3e 60 ba 41 3d
       0.20511782 -0.13390765 0.20687038 0.04729688
000390 6f 5c 80 3e 74 0d 31 3e f0 5e 59 3d 5a 80 18 be
       0.2507052 0.17290288 0.053069055 -0.14892712
0003a0 a2 36 47 3e 38 e2 06 3d 48 ea 70 3d cc 0c 1f 3e
       0.19454435 0.032930583 0.058817178 0.15532225
0003b0 d2 6e 3e 3e 00 f1 a3 bb f8 c4 4b 3d 08 7f 30 3e
       0.18596962 -0.0050030947 0.04974839 0.17235959
0003c0 0a 93 3c 3e e2 c3 5f 3e 82 5c 75 3e 14 91 16 bd
       0.18415466 0.21852067 0.2396107 -0.03675945
0003d0 94 1c 95 3d 26 81 5e 3e 50 3e 33 bd 20 55 dd 3d
       0.072808415 0.21728954 -0.043760598 0.10807252
0003e0 a7 d4 81 be 00 cf a6 3d e0 ac 50 3e b0 f0 1a 3e
       -0.25357553 0.08144951 0.20378447 0.15130877
0003f0 b3 1a 4f be 0f 2b 08 be 42 6b 56 3e 48 a1 cc 3d
       -0.20225029 -0.13297676 0.20939353 0.099916995

bias f4 [25]
000000 20 b1 16 3c 98 be 55 bd 3a 85 19 be 5e a1 77 3e
       0.009197503 -0.052183717 -0.14992228 0.2418265
000010 9c 5b f5 3d 64 bd 4e be e3 b5 49 be e0 08 2e 3d
       0.11980364 -0.20189434 -0.1969829 0.042488933
000020 b4 0b 2a bd 40 7e 8d 3d ae 4a 3f be 20 d0 b4 bc
       -0.041515067 0.06908846 -0.18680832 -0.022071898
000030 1c 3a 00 3e 84 b2 07 be c3 90 87 3e 50 9b 0a 3d
       0.12522167 -0.13251692 0.26477632 0.033839524
000040 e8 e9 b3 3d c4 83 25 3e 7c 81 5a be de e6 48 be
       0.087848485 0.16163546 -0.21338457 -0.19619319
000050 58 92 3f bd 10 88 66 3d b2 0d 85 be f0 00 74 bd
       -0.046770424 0.056282103 -0.2598701 -0.059571207
000060 e4 87 00 3e
       0.12551838

weight f4 [25, 25]
000000 7a 35 f8 3d 71 50 3f 3e 93 b3 34 3e d2 cc ca 3d
       0.12119575 0.1868303 0.17646627 0.099023476
000010 b0 66 92 3c 00 53 d0 bc b3 1e 04 3e ac 24 6b bd
       0.01787123 -0.025430202 0.12902336 -0.05740802
000020 47 a0 9d bd a0 8c 13 bc cd fe 45 be 80 41 31 bd
       -0.07696586 -0.009005696 -0.1933548 -0.043275356
000030 58 84 f6 bc 1f 76 48 be 7c 56 89 bd b7 15 c1 bd
       -0.030092403 -0.1957631 -0.06705949 -0.0942797
000040 ba c6 1c be f8 39 34 3d 9a 5c a3 bd c0 b5 98 bd
       -0.15310183 0.044000596 -0.07976647 -0.07456541
000050 40 1f c7 3b 8b 5e 14 3e 00 ad 53 ba 07 0d 34 be
       0.0060767233 0.1448919 -0.000807479 -0.17583095
000060 40 20 c0 bd ac a2 63 3d 16 46 80 bd 9f 99 28 3e
       -0.09381151 0.055575058 -0.06263368 0.16464852
000070 70 27 80 bd 50 4b ea bd 13 38 10 3e 2a b1 a2 3d
       -0.06257522 -0.11440146 0.1408389 0.079439476
000080 dc 01 51 3d 70 56 0b be a0 bc da bb 01 e2 39 3e
       0.051027164 -0.13607192 -0.006675318 0.1815262
000090 1e 62 fc 3d d2 6a b3 3d 8b 5a 20 3e a0 32 4c 3d
       0.12323402 0.08760609 0.1565954 0.049852967
0000a0 e0 3a 62 3c b8 e6 0d 3d 30 cd f1 bc 82 2c 32 be
       0.013807982 0.03464386 -0.029516786 -0.17399791
0000b0 08 53 49 3d 89 7f 36 3e 27 25 40 be 09 62 19 3e
       0.04915145 0.17822088 -0.18764172 0.14978804
0000c0 7d e0 2f be 34 5d 46 bd 6a 58 84 bd a2 fb f3 3d
       -0.17175479 -0.04842873 -0.06462176 0.119132295
0000d0 3a 33 df 3d 90 4f a2 bc 18 c8 db 3c 2d 87 be bd
       0.108984426 -0.019813329 0.02682881 -0.093031265
0000e0 d2 0c 95 3d 00 e3 df ba d9 e3 22 3e d1 ce 26 3e
       0.07277836 -0.0017081201 0.1590723 0.16289832
0000f0 03 4e 2f be 23 09 b4 bd b0 e8 4b be 3e 2e b3 3d
       -0.17119603 -0.08790805 -0.19912982 0.08749054
000100 c8 5b 57 bd 97 53 b7 bd ea 2a a2 bd 0c 1a 3c 3d
       -0.052577764 -0.0895149 -0.079183415 0.045923278
000110 cb 8b 48 be 72 47 fd 3d 7b 60 18 be 41 39 3e 3e
       -0.19584577 0.12367143 -0.14880554 0.18576528
000120 2a 5b b9 bd 78 5a 20 bd d6 d6 8a bd ae f7 b1 3d
       -0.09050591 -0.039148778 -0.06779258 0.08689819
000130 16 ab 92 3d ec 02 45 3d 5a e0 ad bd cb 27 10 3e
       0.07161538 0.04809849 -0.08490057 0.1407768
000140 50 df 64 3c 23 3a ac bd f8 0c 2c 3d 0f b3 27 3e
       0.0139692575 -0.08409526 0.042004555 0.16376899
000150 78 dd 4a bd 87 8c 43 be 40 ca 43 be e0 82 4b 3c
       -0.049527615 -0.19096576 -0.19120121 0.01242134
000160 11 ed 17 3e ef 62 16 3e 60 f1 a0 bd 80 94 5a 3c
       0.14836527 0.14686178 -0.07858539 0.013341069
000170 d8 29 87 bc c2 5e fa 3d d6 89 90 bd 1d a3 0b be
       -0.016499445 0.12225105 -0.0705754 -0.13636442
000180 68 a8 b6 3c 98 ac 15 bd 18 95 4b be 02 5c e7 3d
       0.0222971 -0.03654155 -0.19881094 0.11296846
000190 c0 b4 24 3d d5 86 28 be 5a 98 e0 3d ea 5a c8 bd
       0.04021144 -0.16457684 0.10966559 -0.097829655
0001a0 60 e6 53 bc d4 e3 41 bd a2 e0 e3 3d 3a 03 be 3d
       -0.012933344 -0.047336414 0.1112683 0.09277959
0001b0 c4 8a 4d 3d f2 4a e2 3d d4 25 01 bd 60 be ca bb
       0.050181165 0.11049451 -0.031530216 -0.0061872452
0001c0 a4 c9 60 3d a4 93 68 3d 79 db 44 3e b7 3c c3 bd
       0.0548798 0.056781426 0.19224347 -0.09533065
0001d0 79 cf 01 3e b2 ed 9b 3d 71 3e 3f 3e 92 ce b9 3d
       0.12676801 0.07613696 0.18676163 0.09072603
0001e0 a0 b6 8c bb 7b 41 11 be d8 6a eb 3c 11 07 1c 3e
       -0.0042942315 -0.14185135 0.02873747 0.1523707
0001f0 b0 a8 36 bc c0 97 22 bd 49 e5 3e 3e 74 7b 74 3d
       -0.011148617 -0.0396955 0.18642153 0.059688047
000200 2c 79 56 3d b7 06 eb bd 72 db dd 3d 40 e9 e2 bd
       0.052361652 -0.1147589 0.108328715 -0.11079645
000210 d8 78 86 3c 0a 47 e4 bd a8 1e 2d be ac a4 67 3d
       0.016415045 -0.11146362 -0.16906226 0.056553528
000220 c3 93 35 3e 7e f0 9d 3d 7d c5 b5 bd 4e a1 a8 3d
       0.17732148 0.07711886 -0.088755585 0.082338914
000230 c6 8d 06 be 6a 1d 83 3d e8 d9 d2 bc b0 5c a5 3c
       -0.1314002 0.06402095 -0.025738671 0.020185798
000240 38 c5 02 be 8c e3 57 3d 41 a2 06 3e 40 d4 b2 3c
       -0.12770545 0.05270724 0.13147832 0.021829724
000250 23 0f dd bd 4c 2b 40 3d fe 49 80 3d 94 55 5c 3d
       -0.10793903 0.04691629 0.06264113 0.05379255
000260 70 53 b9 bc 2c 8e 7c 3d d0 42 e3 3c 63 0d 21 be
       -0.022622794 0.061659023 0.02774182 -0.15727763
000270 d3 65 e8 bd 1f 0e 44 be cf 79 3e be a7 37 32 be
       -0.113475464 -0.19146012 -0.18601154 -0.17404042
000280 64 15 4d 3d 90 73 e2 bd 50 ce 01 be 62 d4 21 be
       0.050069228 -0.11057198 -0.12676358 -0.15803674
000290 f5 03 2a 3e a8 53 04 be 13 41 f0 bd b3 70 f3 bd
       0.16603072 -0.12922537 -0.11731162 -0.1188673
0002a0 e0 77 11 bc 57 23 4a 3e f2 2c aa 3d 35 31 10 be
       -0.008878678 0.19740044 0.08309354 -0.14081271
0002b0 46 a2 c2 3d c5 0c 47 3e d2 fb fa 3d 60 7e 63 bc
       0.095036075 0.19438465 0.12255062 -0.013885111
0002c0 1b a4 22 be 8a cf 41 be a0 d6 86 3b f4 23 10 3d
       -0.15882914 -0.18926826 0.0041149408 0.035190538
0002d0 b0 70 8c bc 19 97 33 3e 9d 49 25 3e e8 86 28 be
       -0.017143577 0.17538108 0.16141362 -0.16457713
0002e0 4c 04 7e bd 7e 4d ba 3d b4 cd 02 be 70 74 b4 bc
       -0.062015817 0.09096812 -0.12773782 -0.022028178
0002f0 d1 ce 10 3e ec 38 79 bd e4 c8 67 3d 34 d3 48 bd
       0.14141394 -0.0608453 0.05658807 -0.049029544
000300 48 2c 14 be d0 fe af 3c 1f 14 21 3e b0 f9 28 3c
       -0.14470017 0.021483809 0.15730332 0.010313436
000310 3e 45 9b 3d f3 31 45 3e b6 42 12 be a0 b1 a9 bd
       0.07581566 0.19257335 -0.1428326 -0.082858324
000320 41 dd 27 3e 22 12 35 be e7 fe 37 be 28 b2 65 bd
       0.16392995 -0.17682698 -0.17968331 -0.056078106
000330 e8 a8 34 be 56 16 f0 3d 30 97 93 bc 6e 6e c2 3d
       -0.17642558 0.1172301 -0.018016428 0.09493719
000340 96 e7 f3 3d 7e f8 ba 3d b3 d2 17 3e 3c f7 97 bd
       0.11909406 0.091294274 0.14826469 -0.07420203
000350 ac aa 0a bd a8 04 6d bd 6f 7b 1c 3e 18 02 a9 bc
       -0.03385417 -0.05786577 0.15281461 -0.020630881
000360 7a d3 ee bd b4 d4 7b 3d 19 23 16 3e d5 e8 33 be
       -0.1166143 0.061482146 0.14661826 -0.17569287
000370 28 ed 8c 3c c3 bc 33 be 90 4f ac bc 7b 5b 19 be
       0.017202929 -0.17552476 -0.021034032 -0.14976303
000380 fa a1 d6 bd 60 b3 79 bc 0a b4 49 be be 9f fc 3d
       -0.10480113 -0.01524052 -0.19697586 0.12335156
000390 a0 df 0e bc 93 b1 11 3e 32 63 d9 3d cd dd 2e 3e
       -0.008720309 0.14227895 0.10614623 0.17076798
0003a0 e8 35 c5 bc 2f b8 30 3e 57 88 d3 bd f8 bd 48 bd
       -0.024073556 0.1725776 -0.10328739 -0.049009293
0003b0 27 6d 1c 3e c0 ad da bc b2 bc 91 3d e7 b7 df bd
       0.15276013 -0.026694179 0.07116069 -0.109237485
0003c0 48 e8 25 bd 00 55 44 be e8 44 09 bd 42 ee fb 3d
       -0.040504724 -0.1917305 -0.03351298 0.123013034
0003d0 88 6f 47 3d a8 4d c9 3c e7 f2 3d be 40 cf 74 bd
       0.04869035 0.024573162 -0.18549691 -0.05976796
0003e0 14 4b 4b bd 6a f2 a6 3d 30 24 4b 3c d6 52 e1 3d
       -0.049632147 0.081517056 0.0123987645 0.11002128
0003f0 10 a2 b8 bc 55 fd 14 be 42 ee 08 be c7 e5 1f 3e
       -0.022538215 -0.14549764 -0.13372138 0.15614997

bias f4 [25]
000000 c0 b0 b5 bc 1a ef 1f be 26 b9 98 3d 3d 1e 2f be
       -0.022179008 -0.15618554 0.07457189 -0.17101379
000010 18 78 3a be 58 23 ac 3c 20 7c 7d bd c6 ca 84 3d
       -0.18209875 0.021012947 -0.061885953 0.064839885
000020 d9 6d 33 3e b3 a1 10 3e 78 91 0a 3d 4d f7 1a 3e
       0.17522372 0.14124183 0.033830136 0.151334
000030 2d e8 cd bd f8 d5 43 be 1c b4 06 be a8 51 44 be
       -0.1005405 -0.19124591 -0.13154644 -0.19171774
000040 88 4b 51 bd ad 57 00 3e 94 b9 90 bd 57 59 c1 bd
       -0.051097423 0.12533446 -0.07066646 -0.09440868
000050 da 6d b4 3d 68 04 cc bc 44 8d 89 bd 82 0a 95 3d
       0.08810015 -0.024904445 -0.067163974 0.07277395
000060 20 26 89 bd
       -0.06696725

weight f4 [25, 25]
000000 ba 26 20 be 02 2b 0a be 20 92 2b bc 28 17 ee bc
       -0.15639773 -0.13492969 -0.010471851 -0.029063776
000010 0d 46 33 3e 11 22 05 3e 1e cf a9 3d 2c 44 13 3d
       0.17507191 0.13001277 0.082914576 0.035953686
000020 ad 3b 23 3e 60 95 1b 3d fb 65 07 3e 28 d2 37 bd
       0.15940733 0.037984252 0.13222496 -0.044878155
000030 36 c3 ef 3d f8 71 0b 3d f0 60 dc bd fc b0 96 bd
       0.117071554 0.034044236 -0.10760677 -0.07357976
000040 47 53 cf bd 9e d5 be 3d 7f 94 1b 3e ec cc 48 3d
       -0.10123306 0.09318088 0.15193366 0.049023554
000050 ce 4a be 3d 8c b8 5f 3d 9a 2d 26 be 15 a6 2c be
       0.092916116 0.054619357 -0.16228333 -0.1686023
000060 67 3f 34 3e 70 ff 3a be 9d 2d c5 bd 24 1a 82 bd
       0.17602311 -0.18261504 -0.09627841 -0.06352642
000070 e8 eb fb bc 6d 7d 40 be 82 76 bf 3d 35 78 1d 3e
       -0.030752137 -0.18797846 0.093487754 0.15377887
000080 41 ab 34 3e a0 d6 99 bd 28 b7 8b bc 96 79 ba 3d
       0.17643453 -0.075116396 -0.01705511 0.09105222
000090 58 1f cc bc 55 fd 3a 3e 68 7c 06 bd 19 d4 02 3e
       -0.02491729 0.18260701 -0.032833487 0.12776221
0000a0 cc 5f 6e 3d a8 a0 cd 3c f3 52 35 be e8 e2 2e be
       0.058196828 0.025101021 -0.17707424 -0.17078745
0000b0 c3 f2 f9 bd 50 3d a6 3c 07 3e ef bd fd db c7 bd
       -0.12204506 0.020292908 -0.11681753 -0.09758756
0000c0 17 32 09 3e 4f 48 10 3e c0 e9 e8 bb 37 17 e2 bd
       0.13398014 0.14090084 -0.0071079433 -0.11039584
0000d0 f2 71 f6 3d 7d c3 e4 bd 73 a7 ab bd 30 d4 fb bc
       0.12033452 -0.11170099 -0.08381548 -0.030740827
0000e0 e2 58 a1 3d 38 2e 32 be 80 32 9c bc aa 55 c5 bd
       0.07878281 -0.17400444 -0.019067049 -0.0963548
0000f0 40 a6 25 bd 84 5d 72 3d 5a a1 dd 3d c1 50 0e 3e
       -0.04044175 0.059171215 0.10821791 0.13897993
000100 d0 ab c6 bd a6 6c 81 bd 02 88 b6 3d 65 28 31 be
       -0.097007394 -0.06319551 0.0891266 -0.17300566
000110 4d 4e ab bd 93 0e f2 bd ad 15 ef bd d5 17 2a 3e
       -0.08364544 -0.11819186 -0.11674056 0.16610654
000120 e8 7f 9d bc e6 18 e5 3d 0d e2 0b be 38 e8 0c be
       -0.01922603 0.111863896 -0.1366045 -0.1376046
000130 18 10 71 bd 20 10 0d bc d0 89 35 3c f0 45 86 3c
       -0.05885324 -0.0086098015 0.01108022 0.01639077
000140 3e e1 8d 3d 91 25 4a 3e a9 7c 01 3e bd 61 10 3e
       0.06927727 0.19740893 0.1264521 0.14099784
000150 ac 52 89 bd 12 3f 92 3d 4d 91 25 be 52 52 f1 3d
       -0.067052215 0.07140936 -0.16168709 0.117832795
000160 94 fd 7e bd 40 fd d8 bd d8 cf 80 3c ab fa 47 3e
       -0.06225355 -0.105951786 0.015724108 0.19529216
000170 80 9a 0f 3c 68 eb 24 3d da f0 d6 3d 7d 27 14 3e
       0.008764863 0.040263563 0.104951575 0.14468189
000180 25 8c 2b 3e a8 68 20 be 62 ca 4b be b0 a8 97 bc
       0.1675268 -0.15664923 -0.19901422 -0.018513054
000190 0d 2d fd bd ca 26 e4 3d 80 c4 4b 3d 18 36 b1 bc
       -0.123621084 0.11140211 0.049747944 -0.02163224
0001a0 4d 79 04 3e 80 2c d6 bd a6 5c 16 be d0 03 71 bc
       0.12936898 -0.104577065 -0.1468378 -0.014710382
0001b0 e2 bd 33 be 51 26 09 3e 65 0a 09 be c0 12 67 bd
       -0.17552903 0.13393523 -0.13382871 -0.056414366
0001c0 f9 73 26 3e a2 cc 34 be 21 23 41 3e e7 b9 bf bd
       0.16255178 -0.17656186 0.18861057 -0.0936163
0001d0 4c 6a 33 bd 92 22 3f be 19 e9 42 3e 5c 7c 85 bd
       -0.043802544 -0.18665531 0.19034232 -0.0651786
0001e0 62 55 17 be 50 c4 15 3c 38 6e 70 bd 4e 93 c3 3d
       -0.14778665 0.009141043 -0.058698863 0.095495805
0001f0 fc bd 8a bd a0 a5 1c 3c 3c 66 98 bd ce 85 c0 3d
       -0.06774518 0.009560972 -0.07441375 0.09400521
000200 2a 4b fd 3d c0 45 2a bd f0 e2 83 3c 5c b6 51 3d
       0.12367852 -0.041570425 0.016099423 0.051199302
000210 20 98 23 3d e3 13 d9 bd 53 43 ef bd 5a 56 b3 3d
       0.03994 -0.10599496 -0.11682763 0.08756705
000220 28 93 17 3d cf 7d 2d 3e 4a b1 e8 bd fa 98 27 be
       0.037005574 0.16942523 -0.1136194 -0.1636695
000230 c2 8b 99 3d 33 35 2a be cd 21 ab bd d4 14 4b 3d
       0.0749736 -0.16621856 -0.08356056 0.04958041
000240 73 81 43 be a3 75 38 be c8 ec 6b bd 8a d4 db 3d
       -0.1909235 -0.18013625 -0.05759886 0.10733898
000250 f8 25 06 be 42 7f 14 be 60 30 10 bd 80 9f 51 bc
       -0.13100421 -0.1450167 -0.035202384 -0.012794375
000260 83 6a 21 be 2e ee 1c be aa ec 05 be 39 b7 05 3e
       -0.15763287 -0.15325233 -0.13078561 0.13058175
000270 bb bd 11 be 49 29 05 3e 58 b9 d1 3c e5 28 35 3e
       -0.14232533 0.1300403 0.025601074 0.17691381
000280 d0 0d a3 bd d8 f9 ba 3c 90 5a b7 bd 81 17 03 3e
       -0.07961619 0.022824213 -0.0895282 0.12801935
000290 4d 32 07 be 3b 64 1c 3e 29 10 23 3e 6a d6 c7 bd
       -0.13202782 0.1527261 0.15924133 -0.09757693
0002a0 ad 95 1c be d6 da b5 3d 9a 7b 83 3d 72 89 ad 3d
       -0.15291472 0.0887963 0.064200595 0.08473481
0002b0 d8 8d 3a bd c8 6e 73 bd ed 7e b0 bd 98 56 c2 bc
       -0.04554543 -0.05943182 -0.08617959 -0.023722932
0002c0 60 a0 09 be 47 96 42 3e 39 97 09 3e d1 1c 0d 3e
       -0.13440084 0.19002639 0.13436593 0.13780524
0002d0 75 10 21 be 34 f1 0b 3d 00 36 af bb 18 c0 39 be
       -0.15728934 0.034165576 -0.0053470135 -0.18139684
0002e0 aa 6d 96 bd 58 09 11 bd 46 fa 9a 3d d3 2d 1a be
       -0.073451355 -0.0354093 0.07567267 -0.15056543
0002f0 67 16 bb bd 69 93 10 3e 49 a6 4c 3e 98 a5 0b bd
       -0.09135132 0.14118733 0.19985308 -0.03409347
000300 8c cf 45 3d 41 06 24 3e ad 73 b6 bd 15 28 0e 3e
       0.048293635 0.1601801 -0.08908782 0.13882478
000310 82 5a c3 3d c2 8c 99 3d db 49 0d be c2 93 e7 3d
       0.09538747 0.074975505 -0.13797705 0.113074794
000320 cc 42 5d 3d 00 3d 7c 3a 90 a0 a6 bd 8a eb 95 3d
       0.05401878 0.0009622127 -0.081360936 0.07320316
000330 38 b0 1d be d7 a6 29 3e 6c 1b 7c 3d e0 a6 34 bd
       -0.15399253 0.1656755 0.06154959 -0.044104457
000340 9e 56 df 3d 0c 36 00 bd 80 59 4d 3b b9 33 08 3e
       0.10905193 -0.031301543 0.0031333864 0.1330098
000350 d1 d7 13 3e e0 a5 96 bd 32 47 b1 3d 03 2b b8 bd
       0.14437796 -0.07355857 0.086561576 -0.08992579
000360 de 48 80 3d 4b ff 3b be c0 72 9b bb d4 60 7b 3d
       0.06263898 -0.18359105 -0.004743904 0.06137164
000370 0b f5 38 3e 67 bd ae bd 4c cb 95 bd d9 ad 0f 3e
       0.18062226 -0.085322194 -0.073141664 0.14031161
000380 70 ee 9a bd 81 83 13 3e 0c a4 02 be 12 64 93 3d
       -0.075650096 0.14405634 -0.12757891 0.07196821
000390 a3 33 a3 bd 1c ed 82 bd 49 9d 42 3e e5 d8 0c 3e
       -0.07968833 -0.06392881 0.19005312 0.13754614
0003a0 62 6a 31 be 94 33 72 3d 87 93 30 3e 31 23 1e 3e
       -0.17325738 0.05913122 0.17243777 0.15443112
0003b0 02 bc e4 3d 30 45 8d bd b7 2f 31 be 7d d4 01 3e
       0.11168672 -0.06897962 -0.17303358 0.12678714
0003c0 80 9d 18 3d d8 e2 23 3d d0 84 8e 3c 3c c7 94 bd
       0.03725958 0.040011257 0.017397314 -0.072645634
0003d0 4b bf 0e be fa 53 3b be 8f 7f 3e be 24 cc 4e 3d
       -0.1394016 -0.18293753 -0.18603347 0.050487652
0003e0 42 84 a3 3d 0d 81 c5 bd f7 55 4a be 82 1f c0 3d
       0.079842106 -0.09643755 -0.19759355 0.0938101
0003f0 13 99 1e be e0 4a 1a 3c a0 56 43 be 10 b0 e6 3c
       -0.1548808 0.009417266 -0.19076014 0.028160125

bias f4 [25]
000000 4e 36 dd 3d c2 4e dd 3d a0 50 1c be e0 9d 59 bc
       0.108013734 0.108060375 -0.15265131 -0.013282269
000010 a3 5c b3 bd 41 2c 23 3e 5d e8 26 3e 2c d1 6b bd
       -0.087579034 0.1593485 0.16299577 -0.05757253
000020 94 3a 60 3d c7 18 bf bd ea 99 b6 bd d3 ab 33 be
       0.054743364 -0.09330898 -0.089160755 -0.17546014
000030 42 e1 37 be bd e1 37 3e 03 7e b3 bd 4f bb 3a be
       -0.17957023 0.17957206 -0.08764269 -0.18235515
000040 e7 44 ff bd c8 6b 16 bd f7 89 0e 3e b4 b1 5f 3d
       -0.12464314 -0.036723882 0.13919817 0.05461283
000050 5e 4d d1 3d a0 ac c6 3b b0 10 34 be 80 eb 32 3d
       0.10219835 0.006063059 -0.17584491 0.04368162
000060 9a ff fb 3d
       0.123046115

weight f4 [25, 25]
000000 e5 0e 09 3e be 19 d1 3d e2 91 c0 3d ac f6 38 3d
       0.13384588 0.10209988 0.09402825 0.04515712
000010 f4 76 67 3d 6e d5 88 3d 1a 87 3f be 98 8c 97 bc
       0.056509927 0.066813335 -0.18703881 -0.018499658
000020 02 ed 14 be b0 df 12 be 14 62 65 3d 63 c9 3b be
       -0.14543536 -0.14343143 0.056001738 -0.18338542
000030 b3 16 0c 3e 63 a1 b4 bd fc 5f 97 bd b0 6b 6d 3c
       0.13680534 -0.088198446 -0.073913544 0.014491007
000040 d9 2e 3d 3e 00 cf 81 bb 7e 6e 13 be 5e 82 1f be
       0.18474902 -0.003961444 -0.14397618 -0.15577075
000050 48 db 2e bd c0 3d 85 bd 00 0f 38 3c a3 ec 27 3e
       -0.04268959 -0.065059185 0.011234045 0.16398863
000060 45 d6 02 3e 6e 31 85 3d 50 b8 cc bd 73 11 44 be
       0.1277705 0.065035686 -0.09996092 -0.19147281
000070 0f 8a 4b 3e a8 28 a6 bc 6d 6e 9d bd 0d 64 9c bd
       0.19876884 -0.020283058 -0.07687078 -0.07636271
000080 16 70 06 be c0 5b 9e bc 28 21 13 be c8 6f 2d 3d
       -0.13128695 -0.01933086 -0.14368117 0.04234293
000090 99 f1 0b 3e b2 47 84 3d e2 b4 de 3d fa ac 2e be
       0.13666381 0.06458987 0.108743444 -0.17058173
0000a0 36 ad bb 3d 58 cc 99 3c 76 16 d8 3d 43 e5 bc bd
       0.09163897 0.018774197 0.10551159 -0.09223416
0000b0 8c a4 61 bd 16 ef 96 3d 23 6b be bd 97 df 1d 3e
       -0.055088565 0.07369821 -0.092977785 0.15417324
0000c0 35 5f 2c be 14 bb 7b bd 13 7d 13 3e b7 4e 18 3e
       -0.16833194 -0.06145771 0.14403181 0.14873777
0000d0 aa a3 33 be 7d 18 22 3e 8e 5f f2 3d f1 f8 46 3e
       -0.17542902 0.15829654 0.11834632 0.19430901
0000e0 da 7d b4 bd f6 6a b0 3d 00 71 ee bc 36 a7 80 3d
       -0.08813067 0.08614151 -0.029106617 0.06281893
0000f0 4b c3 2a be 2a 73 f0 bd 18 f8 06 3d 53 5e bc bd
       -0.16676061 -0.11740716 0.032951444 -0.091976784
000100 69 14 1b 3e 92 fb cb 3d 5d 65 bd bd 68 e5 14 3d
       0.15144505 0.099600926 -0.09247849 0.03635159
000110 0e de e6 3d 7e ac 91 3d 35 14 0e be dd a2 10 be
       0.11272822 0.071129784 -0.13874896 -0.14124627
000120 0e 0b 89 3d 98 d1 e3 3c 10 48 8a bd 6e 30 ef 3d
       0.06691562 0.027809903 -0.06752026 0.11679159
000130 e0 95 1f be e0 2e 9b bd 02 a8 8e 3d d8 73 ba 3c
       -0.15584517 -0.075773 0.06965639 0.022760317
000140 e2 8b df 3d 40 9b b6 bc 30 a9 ab bd 15 d7 2e 3e
       0.109153524 -0.022290826 -0.08381879 0.17074235
000150 ae 45 c9 3d 6e 0e 8b 3d c3 62 2f be ed c7 f9 bd
       0.098277435 0.067898616 -0.17127518 -0.12196336
000160 70 18 95 bc 00 bc 9b bb 10 13 b6 3c c3 df c6 bd
       -0.01820013 -0.004752636 0.022225887 -0.09710648
000170 f7 e2 eb bd 20 17 0a 3d a1 ac 20 3e c8 15 7d bd
       -0.115178995 0.03371346 0.15690853 -0.06178835
000180 bb 75 02 3e 21 30 25 3e 07 5b 44 be 2c f3 1e 3d
       0.12740223 0.16131641 -0.19175349 0.038806126
000190 f7 74 df bd a0 fb 4b bd 03 5e a7 bd f4 3c 56 3d
       -0.10910981 -0.049800515 -0.08172228 0.052304223
0001a0 36 49 96 3d 71 70 37 3e 91 f6 14 3e 8f 9c 0a 3e
       0.07338183 0.17913987 0.14547183 0.13536285
0001b0 fa 41 a1 bd e8 12 e2 3c a8 8a 0c 3d c0 e0 d5 bc
       -0.07873912 0.027596906 0.03431192 -0.026108146
0001c0 0e da e2 3d 18 71 04 be 72 7a 81 3d e6 d2 ce 3d
       0.11076747 -0.12933767 0.06322183 0.100988194
0001d0 39 91 43 3e 6a 9a f6 3d 0b 19 22 3e 0c a3 95 bd
       0.19098367 0.12041171 0.15829866 -0.07306489
0001e0 09 b7 46 3e 8a 22 3b be d2 1e ba 3d e7 6f 34 3e
       0.1940576 -0.18274894 0.0908791 0.17620812
0001f0 53 40 43 be b0 8c 5b 3c c0 86 f3 bb fb 88 0e 3e
       -0.19067506 0.013400242 -0.007431835 0.13919441
000200 c9 f9 11 3e fa 7a 41 be 40 34 a7 bd 68 f7 04 3d
       0.14255442 -0.18894568 -0.08164263 0.032462507
000210 3c a4 0b be a5 16 32 3e b0 93 f2 bd ea 3b 2b be
       -0.13636869 0.1739145 -0.118445754 -0.16722074
000220 28 56 96 3c a3 54 ab bd e4 7d 69 3d 3d 62 0e be
       0.01835163 -0.083657525 0.057004824 -0.13904662
000230 0a 54 dc bd 38 7f 4d bd 46 34 21 be 39 c5 37 3e
       -0.10758217 -0.050170153 -0.15742597 0.17946328
000240 6a ad bb 3d 6a d3 2b be 30 f4 41 bc 60 74 be bb
       0.091639355 -0.16779867 -0.011838004 -0.005812213
000250 40 7f 53 bb b0 9b 99 3c d5 02 49 3e da 43 3c be
       -0.0032271892 0.018750995 0.19629987 -0.18385258
000260 02 c3 9c 3d 06 ce d1 3d 4c 0c 2f 3d 13 96 4c be
       0.07654382 0.10244374 0.042736337 -0.19979124
000270 c3 9c b2 bd f7 c3 2b 3e 0c 8b 27 3d 68 59 37 be
       -0.08721306 0.16773973 0.04090409 -0.179052
000280 63 1b 13 3e a8 bb 4b bd d4 09 2c 3d 5d a8 ca bd
       0.14365916 -0.04973951 0.04200156 -0.09895394
000290 e9 be 2a 3e 98 d2 58 bd d4 d7 28 bd 3e e6 df 3d
       0.16674389 -0.052935213 -0.041221455 0.10932587
0002a0 bd e3 f5 bd c0 53 10 bd b6 dd 28 be 05 07 27 3e
       -0.12006328 -0.03523612 -0.16490826 0.16311271
0002b0 bc c7 51 3d 43 b0 4b be 40 19 f2 3b fb 28 1b be
       0.051215872 -0.19891457 0.007388264 -0.15152352
0002c0 80 54 5d 3b d4 88 2f 3d 00 99 09 be 6c 49 3b bd
       0.003377229 0.0428551 -0.13437271 -0.045724317
0002d0 86 db c5 3d 07 2b ce bd fe 1f bf 3d 32 a7 48 be
       0.096610114 -0.100668006 0.09332274 -0.1959503
0002e0 b5 c4 39 be e9 e8 3d 3e e7 1f 49 be e3 9c a8 bd
       -0.18141444 0.1854588 -0.19641076 -0.08233049
0002f0 27 86 00 3e 18 c2 68 bd b8 1e 55 bd b0 45 e5 3c
       0.12551175 -0.056825727 -0.05203125 0.027987331
000300 10 26 a9 3c 00 40 f2 38 2e b8 fa 3d 64 9a 69 3d
       0.020648032 0.0001155138 0.12242161 0.057032004
000310 c0 91 d1 bc f0 62 8a bc 46 b3 bc 3d 77 e6 15 3e
       -0.025582194 -0.01689288 0.09213881 0.14638697
000320 80 bd 5a 3c d4 20 37 bd 00 7c 35 3c 80 d6 26 be
       0.013350844 -0.04470904 0.011076927 -0.16292763
000330 19 b8 13 3e a7 da e2 bd ed e6 2c 3e 19 9c 1c 3e
       0.14425696 -0.11076861 0.16884966 0.15293922
000340 25 bf 00 3e cc a2 2d 3d a0 dc 4e 3c 1b f1 0e be
       0.12572916 0.042391583 0.012625843 -0.13959162
000350 99 e8 03 3e 21 9a 4c 3e 44 52 84 bd 13 2a bc bd
       0.12881698 0.1998067 -0.064610034 -0.091877125
000360 54 b6 29 bd ad 23 29 be ed 8f bf bd ad 8b 3b 3e
       -0.041433647 -0.16517515 -0.093536235 0.18315001
000370 ec bd 3e bd ca 88 bb bd 3a 38 de 3d 42 b3 df 3d
       -0.046567842 -0.0915695 0.10850568 0.109228626
000380 92 9a be 3d 51 3b 23 3e c0 f0 e8 3b 8d 73 c5 bd
       0.09306826 0.15940596 0.0071087778 -0.0964118
000390 a4 e9 53 3d b3 ef d3 bd b8 e5 18 3d 43 3b 43 3e
       0.05173649 -0.103484534 0.037328452 0.19065575
0003a0 7e 0b aa 3d b3 29 ec bd 7e 48 26 be c7 5f ef bd
       0.08302973 -0.11531391 -0.16238591 -0.1168819
0003b0 ce 06 17 be e2 ad 03 be 74 e0 62 3d 8a 58 21 be
       -0.1474869 -0.128593 0.055389836 -0.15756431
0003c0 98 07 b4 bc 37 cf a4 bd d7 b0 f0 bd fc c5 73 3d
       -0.021976277 -0.080473356 -0.117524795 0.059514984
0003d0 22 cb cc 3d e6 07 ad 3d 6c f1 43 bd cc e6 86 bd
       0.09999682 0.08448772 -0.04783766 -0.0658699
0003e0 da fc f0 3d e3 8a 11 3e 20 9b b3 bd 38 f1 18 3d
       0.117669776 0.14213137 -0.08769822 0.03733942
0003f0 30 4c 91 3c 58 ac eb bc f3 48 32 3e c0 52 71 3b
       0.017736524 -0.028768703 0.1741064 0.0036823004

bias f4 [25]
000000 20 ef 3b bc 2c 7c 49 3d c7 9f 1d 3e 30 2e 78 bc
       -0.011470586 0.049190685 0.15392981 -0.015147731
000010 3d 8b 13 be f8 a8 20 3d 45 0e 1c 3e 06 d6 9a 3d
       -0.14408584 0.03922364 0.15239818 0.07560353
000020 b6 8e 20 be 68 1d 6e bd a7 4e 9e bd fd e3 e8 bd
       -0.1567944 -0.058133513 -0.077298455 -0.1137161
000030 b0 42 30 be 00 4f 20 3c 21 38 07 3e 11 4f 1a 3e
       -0.1721294 0.00978446 0.13205005 0.15069224
000040 16 ba cc 3d 69 55 13 3e 9d 8e f6 bd 00 3c 8f 39
       0.099964306 0.1438805 -0.1203892 0.0002731979
000050 60 8c 12 3d 78 cb 18 bd a3 6f 41 3e cc c2 1e 3d
       0.035778403 -0.037303418 0.18890242 0.03875999
000060 02 fd b3 3d
       0.08788492

weight f4 [4, 25]
000000 e0 b0 19 bc be ae fc 3d e8 5d 4c 3d 1e 90 ef 3d
       -0.009380549 0.12338017 0.049894243 0.1169741
000010 00 a0 f5 37 82 d5 39 be 00 30 08 bd c0 a4 36 3b
       2.9280782e-05 -0.18147853 -0.0332489 0.0027869195
000020 34 8f 8f bd 40 a7 d1 3c 01 db 05 3e 4f 2d 39 be
       -0.07009736 0.025592446 0.13071825 -0.1808369
000030 93 f3 25 3e 47 16 c0 bd 77 0e f7 bd 9e 47 11 be
       0.16206197 -0.09379249 -0.12063306 -0.14187476
000040 05 3b 07 3e f8 40 20 bd ad a3 12 be 43 2b da bd
       0.13206108 -0.03912446 -0.1432025 -0.10652783
000050 da da e9 3d 0a 67 87 3d 50 eb e4 bd 19 dd 09 3e
       0.11418696 0.0661145 -0.11177695 0.13463248
000060 b0 00 d4 bd 08 b0 0c bd 7f e4 17 3e 9b 03 3c be
       -0.10351694 -0.034347564 0.14833258 -0.1836075
000070 8c f6 08 bd 00 d8 75 ba 28 ba cd bc 62 a4 a1 3d
       -0.03343825 -0.0009378195 -0.02511318 0.07892682
000080 66 5f 10 be a7 8a c0 bd 84 86 7c 3d 06 8e 28 be
       -0.14098892 -0.09401446 0.06165172 -0.16460428
000090 1a 6f b7 bd 08 0a 14 3d 34 b3 7e 3d a3 f5 1f be
       -0.08956738 0.03614238 0.06218262 -0.15621047
0000a0 0c c4 1a bd 64 e2 4c 3d 16 78 91 3d e1 48 1c 3e
       -0.03778462 0.05002059 0.07102983 0.15262176
0000b0 d8 60 1d 3d c0 9f b4 3b 7a 92 d0 bd 00 d9 ed bb
       0.038422436 0.0055122077 -0.10184188 -0.0072585344
0000c0 20 61 62 3c ce 7c b8 3d 30 5d aa 3c eb 3c 49 be
       0.013817102 0.090081796 0.020796388 -0.19652145
0000d0 60 f5 03 be 31 6b 43 3e 8c 4d 6b 3d 03 5c 9a bd
       -0.12886572 0.19083859 0.057447 -0.07537081
0000e0 42 fb e5 3d 1a d9 c6 3d c2 5e bb 3d 55 b1 08 3e
       0.11229564 0.097093776 0.09148933 0.13348897
0000f0 5d 2b 34 3e 28 bf a4 3c 90 ed fe bd 9e dd cf 3d
       0.17594667 0.020110682 -0.12447655 0.10149692
000100 f7 45 dc bd 29 93 10 3e 20 17 08 bd ec 9c 4a 3d
       -0.10755532 0.14118637 -0.03322518 0.04946606
000110 5b 65 32 3e 50 80 ff 3c fe 06 ea 3d 60 5c 8d bd
       0.17421477 0.031189114 0.11427115 -0.06902385
000120 c2 a2 b8 3d da b4 aa 3d a0 bd cd 3b 3d ee 39 3e
       0.090154186 0.08335276 0.0062787086 0.18157287
000130 f1 a7 17 3e d6 a4 17 be 14 f6 3c 3d 22 17 8b 3d
       0.14810158 -0.14808974 0.046133116 0.067915216
000140 2b 55 03 3e a0 a2 28 bc 4d 32 2b 3e c0 56 de 3b
       0.12825458 -0.010292679 0.16718407 0.0067852437
000150 46 be 9b 3d 38 68 31 bd 41 46 2e 3e cf 8f 23 3e
       0.07604651 -0.04331228 0.17018987 0.15972827
000160 3a 57 e2 3d 06 d8 cb 3d ef de 13 3e ed ff 00 3e
       0.110517934 0.099533126 0.14440511 0.12597628
000170 28 10 82 3c e0 e4 07 3d ab cb 38 be e2 62 df 3d
       0.015876845 0.033177257 -0.18046443 0.10907532
000180 e3 60 a7 bd 80 81 c7 bd d1 a5 15 3e c2 be e3 3d
       -0.081727766 -0.09741497 0.14614035 0.111203685

bias f4 [4]
000000 77 00 22 3e 67 5d 35 3e b5 82 09 3e 30 93 1e 3c
       0.1582049 0.17711411 0.13428767 0.009678647
