models/_brain_250.pt (torch, 14593 bytes, 12 tensors)

weight f4 [14]
0	0x3f800000	1.0
1	0x3f800000	1.0
2	0x3f800000	1.0
3	0x3f800000	1.0
4	0x3f800000	1.0
5	0x3f800000	1.0
6	0x3f800000	1.0
7	0x3f800000	1.0
8	0x3f800000	1.0
9	0x3f800000	1.0
10	0x3f800000	1.0
11	0x3f800000	1.0
12	0x3f800000	1.0
13	0x3f800000	1.0

bias f4 [14]
0	0x00000000	0.0
1	0x00000000	0.0
2	0x00000000	0.0
3	0x00000000	0.0
4	0x00000000	0.0
5	0x00000000	0.0
6	0x00000000	0.0
7	0x00000000	0.0
8	0x00000000	0.0
9	0x00000000	0.0
10	0x00000000	0.0
11	0x00000000	0.0
12	0x00000000	0.0
13	0x00000000	0.0

weight f4 [25, 14]
0	0x3e00aa32	0.12564924
1	0xbdb3a7ea	-0.087722614
2	0x3d6b21e0	0.057405353
3	0x3deeecf8	0.11666292
4	0x3cc72380	0.02430892
5	0xbe7693b0	-0.24079776
6	0xbc836cd0	-0.016043097
7	0x3e507716	0.20357928
8	0x3e4dab98	0.20084989
9	0x3db4ebc4	0.08834031
10	0xbcd4cde0	-0.025977075
11	0xbe2c6edc	-0.16839164
12	0x3e2e869c	0.17043537
13	0x3e344478	0.17604244
14	0xbdfaa09e	-0.122376665
15	0x3c662220	0.014046222
16	0xbd756b10	-0.059916556
17	0x3e2930ba	0.16522494
18	0x3a99c100	0.0011730492
19	0x3d265f38	0.04061815
20	0xbdf83428	-0.12119323
21	0xbe6087b7	-0.21926771
22	0x3cac88f0	0.02106139
23	0x3bcab000	0.0061855316
24	0x3e62dc7a	0.22154418
25	0x3d32f898	0.04369411
26	0xbe543658	-0.20723855
27	0xbdfd4d98	-0.123683155
28	0x3e623b20	0.22092867
29	0x3e5758c2	0.21029952
30	0x3e3d8b3e	0.18510148
31	0xbdd1f836	-0.102524206
32	0x3de5e128	0.11224586
33	0xbdd141be	-0.102176175
34	0xbd084dcc	-0.033277318
35	0x3e25cbe6	0.16191062
36	0x3e17f978	0.14841259
37	0xbb66ee00	-0.0035237074
38	0xbd0642bc	-0.032778487
39	0x3e4f6922	0.20254949
40	0xbca341c8	-0.019928828
41	0x3e05dd64	0.13072735
42	0x3d17ee80	0.037092686
43	0xbe2695f9	-0.16268148
44	0x3deb40b4	0.114869505
45	0xbe57d3e0	-0.21076918
46	0xbdef3060	-0.11679149
47	0x3dffe010	0.124939084
48	0xbe4483fc	-0.19190973
49	0x3d09fa18	0.033685774
50	0x3e270db4	0.16313821
51	0xbd8e521e	-0.06949256
52	0xbe309f57	-0.17248283
53	0xbe617335	-0.22016604
54	0xbe3bee5b	-0.18352644
55	0xbe4b613a	-0.19861308
56	0xbd9ad47e	-0.07560061
57	0xbe5a4060	-0.2131362
58	0x3e693c28	0.22776854
59	0xbe702354	-0.23450977
60	0xbddd0dee	-0.107936725
61	0xbe2cec4f	-0.1688702
62	0x3d876924	0.06611851
63	0xbe858967	-0.26081392
64	0x3da5a294	0.0808765
65	0x3d2d1da8	0.04226461
66	0xbdf93b2c	-0.12169489
67	0xbe076fd3	-0.13226251
68	0x3d065da0	0.03280413
69	0xbcfd9cd8	-0.030958578
70	0xbe44682a	-0.1918036
71	0xbb875440	-0.0041299164
72	0xbdc3f63c	-0.0956845
73	0xbe256606	-0.161522
74	0xbe4631f8	-0.19354999
75	0x3d4803b0	0.04883164
76	0x3e0871ac	0.13324612
77	0xbe1a02fa	-0.15040198
78	0xbe6d85db	-0.23195593
79	0xbe26456c	-0.1623742
80	0xbdda1e96	-0.10650365
81	0xbdd24d4e	-0.10268651
82	0x3e12519e	0.14288947
83	0x3d8da18c	0.06915578
84	0xbcb5f738	-0.02221261
85	0xbe0c50b2	-0.13702658
86	0x3e2393ea	0.15974393
87	0xbd8d5094	-0.06900135
88	0xbdce8466	-0.10083847
89	0x3d203958	0.039117187
90	0x3dc93038	0.0982365
91	0x3d3af458	0.04564318
92	0xbdaf8b0e	-0.085714445
93	0xbdcb0efa	-0.09914966
94	0x3e62f4b6	0.22163662
95	0x3c8661a0	0.016403973
96	0xbe078d37	-0.13237463
97	0x3e072aa8	0.13199866
98	0x3decdb60	0.1156528
99	0x3e5de03c	0.2166757
100	0x3d3faf50	0.04679805
101	0x3de53fac	0.11193785
102	0x3c164c60	0.009173483
103	0xbdbba264	-0.09161833
104	0xbdf9944e	-0.1218649
105	0x3ddb6e88	0.107144415
106	0xbd8e93c4	-0.06961778
107	0x3e2d6390	0.16932511
108	0xbe4c6678	-0.19960964
109	0x3e2c03ac	0.16798276
110	0x3cf69860	0.030101955
111	0x3d6f7648	0.05846241
112	0x3e55b976	0.20871529
113	0xbe4e302c	-0.20135564
114	0xbbc0a980	-0.005879581
115	0x3e6ef69e	0.23336264
116	0x3e407b9e	0.18797156
117	0xbe494822	-0.19656423
118	0x3e0345b2	0.12819555
119	0x3df3e128	0.119081795
120	0x3e7836e6	0.24239692
121	0x3e4cf3b6	0.20014843
122	0x3da5c554	0.08094278
123	0x3e28f08e	0.16498014
124	0xbd406cfc	-0.046978936
125	0x3d4109f8	0.047128648
126	0xbe2ca6b2	-0.16860464
127	0x3e83397d	0.25629798
128	0x3e27b394	0.16377097
129	0x3df77744	0.12083295
130	0x3db8c730	0.09022367
131	0xbe249e74	-0.1607607
132	0xbda26310	-0.07929051
133	0xbe2a20f5	-0.16614135
134	0x3e462594	0.19350272
135	0xbdff3e88	-0.12463099
136	0xbc85f920	-0.016354144
137	0xbe501340	-0.20319843
138	0x3cf32700	0.029681683
139	0x3e15e53a	0.14638224
140	0x3e3495b0	0.17635226
141	0xbe0da791	-0.13833453
142	0x3e61fa46	0.22068128
143	0xbe136672	-0.14394549
144	0xbd035d24	-0.032071248
145	0x3d318c58	0.043346733
146	0x3d060058	0.03271517
147	0xbe6d31a3	-0.23163466
148	0x3d59d910	0.053185523
149	0xbe33a406	-0.17543039
150	0xbe817aa9	-0.25288895
151	0xbc5c4e00	-0.013446331
152	0xbe015f4a	-0.12634006
153	0x3e27a1a0	0.16370249
154	0xbdfdd800	-0.12394714
155	0xbd8ab3b2	-0.067725554
156	0x3c2ea020	0.010658294
157	0x3d350be0	0.044200778
158	0xbe30c2b8	-0.1726178
159	0x3e0e9cfe	0.13927075
160	0x3d95a550	0.073069215
161	0xbe47e603	-0.19521336
162	0x3e136876	0.14395317
163	0xbde3207c	-0.1109018
164	0xbda85d5e	-0.082209334
165	0xbd0dd2f8	-0.034625024
166	0xbe61aa9f	-0.22037743
167	0xbd7cb27c	-0.061693653
168	0x3dcaf918	0.09910792
169	0xbe877a03	-0.26460275
170	0x3e6495b8	0.22322738
171	0xbd9f6ba4	-0.07784203
172	0xbd642380	-0.055697918
173	0x3d6b4578	0.057439297
174	0xbdbd9908	-0.09257704
175	0x3e335582	0.17513087
176	0xbe34d8b8	-0.17660797
177	0xbdbf3778	-0.09336752
178	0xbcf20a98	-0.029546067
179	0xbcd4f428	-0.025995329
180	0xbdbdecb8	-0.09273666
181	0xbd14be48	-0.03631428
182	0xbe78c4ba	-0.24293795
183	0x3e1b1402	0.15144351
184	0xbe3a3517	-0.18184315
185	0x3db1f660	0.086895704
186	0x3de4865c	0.111584395
187	0x3de66440	0.1124959
188	0xbe585f7c	-0.21130174
189	0x3dc3b610	0.0955621
190	0x3e563e24	0.20922142
191	0xbd3e2f68	-0.04643193
192	0x3e4e5ec6	0.2015334
193	0xbaa49400	-0.0012556314
194	0x3d2a84c8	0.041630536
195	0xbe80509f	-0.2506151
196	0x3e76840a	0.24073806
197	0xbe430683	-0.19045453
198	0x3e0e3a62	0.13889459
199	0x3e3a65ee	0.18202946
200	0xbe0bb759	-0.1364416
201	0x3e0659a0	0.13120127
202	0xbe729fe7	-0.2369381
203	0xbdf58f0c	-0.11990175
204	0xbe6caa69	-0.23111881
205	0x3d494d60	0.049146056
206	0x3ded7900	0.115953445
207	0xbe332dd4	-0.17497951
208	0x3d9c4020	0.076294184
209	0xbe5b4dd7	-0.21416412
210	0xbde9cb44	-0.11415723
211	0x3e244d20	0.16045046
212	0x3d5bb9d0	0.053644
213	0x3e3a2076	0.18176445
214	0xbe763e37	-0.2404717
215	0x3d4d6c88	0.05015233
216	0x3e620236	0.22071156
217	0x3e3b7e4a	0.18309894
218	0xbddd6d28	-0.108118355
219	0x3d7c3a68	0.061579138
220	0xbe1740b8	-0.14770782
221	0x3e09e5f2	0.13466623
222	0x3e814a23	0.25251874
223	0x3e2fcbf2	0.17167643
224	0x3e36b8c8	0.17843926
225	0xbe321646	-0.17391309
226	0xbdf37c30	-0.11888921
227	0xbd933326	-0.0718749
228	0xbe550f9e	-0.20806739
229	0xbc1a0f20	-0.00940302
230	0x3dc9048c	0.098153204
231	0xbd423098	-0.047409624
232	0x3da21188	0.079135
233	0xbc1a2f60	-0.009410709
234	0xbdfa36ec	-0.12217507
235	0xbd9f25c6	-0.077708766
236	0x3e7f9c2a	0.24961916
237	0xbe871654	-0.26384223
238	0xbdc561e6	-0.09637813
239	0x3e4ab47a	0.19795409
240	0xbc548c20	-0.0129728615
241	0xbdacbeda	-0.084348395
242	0xbe5bd57e	-0.2146816
243	0xbddc38d2	-0.10753025
244	0xbe0484dd	-0.12941308
245	0xbd8f2ee0	-0.069913626
246	0xbdf3ffee	-0.11914049
247	0x3e113aca	0.14182582
248	0x3e02e1ec	0.12781495
249	0x3d131ed8	0.035918087
250	0xbc9b9110	-0.01899007
251	0xbe4de69b	-0.201075
252	0x3d75ab08	0.05997756
253	0xbdb9a892	-0.09065355
254	0xbe58c70b	-0.21169679
255	0xbe0b2d77	-0.13591562

bias f4 [25]
0	0x3e81f1bb	0.25379738
1	0xbe775c94	-0.2415641
2	0xbdbf3ed6	-0.09338157
3	0x3dc1e0b8	0.0946669
4	0x3e29de5e	0.16588733
5	0x3dc78c84	0.09743598
6	0x3e8169a7	0.2527592
7	0xbe28f9d4	-0.16501552
8	0xbe046961	-0.12930824
9	0xbddf3222	-0.10898234
10	0x3d991290	0.07474244
11	0xbdb4471a	-0.08802624
12	0xbe24790a	-0.16061798
13	0x3e1cd286	0.15314683
14	0x3dd23548	0.10264069
15	0x3df0d800	0.11759949
16	0x3dca8f84	0.09890655
17	0x3e028206	0.12744913
18	0x3e1c80c4	0.15283495
19	0xbe33527a	-0.17511931
20	0x3dec06e4	0.11524752
21	0x3aa52300	0.0012598932
22	0x3e72218e	0.23645613
23	0x3e118cce	0.14213869
24	0x3e6447aa	0.22292963

weight f4 [25, 25]
0	0x3df36cba	0.11885972
1	0x3dedcc2a	0.11611207
2	0xbdb0e94a	-0.08638246
3	0x3e001ae1	0.12510253
4	0x3aa8b280	0.001287058
5	0x3cf750e8	0.030189946
6	0x3e0cf115	0.1376384
7	0xbc13cfa0	-0.00902167
8	0x3e3edca9	0.18638863
9	0xbd7e3fa8	-0.062072426
10	0x3deb1a1a	0.11479588
11	0xbe46df9b	-0.19421236
12	0x3ce9bbb0	0.02853188
13	0xbd9ae013	-0.0756227
14	0xbe3192f0	-0.17341208
15	0xbda081f0	-0.078372836
16	0xbdbed8a3	-0.09318664
17	0x3d6d766c	0.057974264
18	0x3e15241f	0.1456456
19	0x3e210ca1	0.15727474
20	0xbdf913c7	-0.12161975
21	0x3e133391	0.1437514
22	0x3be69260	0.007036492
23	0xbe22c8d5	-0.15896924
24	0x3deba4a6	0.115060136
25	0x3e0d68cd	0.1380951
26	0xbdf6dcf7	-0.120538644
27	0xbddb7727	-0.10716086
28	0xbbaba300	-0.005237937
29	0x3df2a8de	0.11848615
30	0xbc92f058	-0.01793687
31	0xbe39ca2a	-0.18143526
32	0xbde7c67a	-0.11317153
33	0x3e3de0a7	0.1854273
34	0xba310b00	-0.0006753653
35	0xbe299bb3	-0.16563301
36	0xbdbc67ad	-0.09199462
37	0xbe031f5e	-0.12804934
38	0x3e203611	0.15645625
39	0xbe49d1e0	-0.19708967
40	0x3da06bc2	0.07833053
41	0xbe483aef	-0.19553731
42	0x3c24c660	0.010057062
43	0x3d8aacde	0.06771253
44	0x3ddb9e62	0.107235685
45	0xbaab7580	-0.0013081282
46	0xbe4bea52	-0.19913605
47	0x3e3582b7	0.17725645
48	0x3d1392c8	0.036028653
49	0xbdb85983	-0.09001448
50	0x3dc0c4e2	0.094125524
51	0x3cc15b28	0.023603037
52	0xbdc10343	-0.0942445
53	0x3e044c63	0.12919764
54	0x3cfdefc0	0.03099811
55	0xbcdc9210	-0.026925117
56	0x3d46a60c	0.0484982
57	0x3dc1b08a	0.094575
58	0xbe0f1daa	-0.1397616
59	0xbd4ac3ac	-0.049503013
60	0xbe4b0ffa	-0.19830313
61	0xbdae5c47	-0.08513694
62	0xbd8c9544	-0.06864408
63	0x3c6c9f20	0.014442235
64	0x3e1629d1	0.14664389
65	0xbce6cac0	-0.02817285
66	0x3d97e8ea	0.07417472
67	0xbe000fce	-0.12506029
68	0x3df5f86a	0.12010272
69	0xbcf8bba8	-0.030362919
70	0xbe4a7adb	-0.19773428
71	0xbdfe1770	-0.12406814
72	0x3d706b74	0.058696225
73	0xbc9387d0	-0.018009096
74	0x3dd3a03a	0.10333295
75	0xbe02f9e5	-0.1279064
76	0x3da61a8a	0.08110531
77	0x3de75702	0.11295892
78	0x3cea0430	0.02856645
79	0xbcb89ef0	-0.022536725
80	0x3e496003	0.19665532
81	0xbbd099c0	-0.0063659847
82	0x3d801e32	0.06255759
83	0xbca3ce58	-0.019995853
84	0xbd127ec8	-0.03576544
85	0x3d003ba8	0.031306893
86	0xbdd3f647	-0.10349708
87	0xbd2148c8	-0.03937605
88	0xbd87e134	-0.06634751
89	0x3e3d7d8d	0.18504925
90	0x3dd2b5b6	0.10288565
91	0x3db329be	0.08748196
92	0x3d4a25d8	0.049352497
93	0x3e35a4dd	0.17738672
94	0xbe41033a	-0.18848887
95	0x3e41e39b	0.18934481
96	0x3c466e30	0.012111232
97	0xbe0a3015	-0.13494904
98	0xbdde5f6a	-0.108580425
99	0x3e4c35f9	0.19942464
100	0xbe0fd9cd	-0.14047928
101	0xbdabb3aa	-0.083838776
102	0xbe13b262	-0.14423516
103	0x3e4444d1	0.19166876
104	0xbe2b3408	-0.16719067
105	0xbde84b07	-0.11342435
106	0x3c96f430	0.018426985
107	0xbcb12118	-0.021622226
108	0xbddbe2f3	-0.107366465
109	0xbd2bd894	-0.041954592
110	0xbc14d960	-0.009085029
111	0x3df5e9ea	0.12007506
112	0xbe1f491a	-0.1555523
113	0x3e2a7f87	0.1665021
114	0xbc300460	-0.010743231
115	0x3db916fa	0.090375856
116	0x3d8f16f6	0.06986801
117	0x3e0d18db	0.13779013
118	0x3da0dc12	0.07854475
119	0x3df51316	0.11966531
120	0x3d8fbd12	0.07018484
121	0xbe350e1f	-0.17681168
122	0xbc12be30	-0.008956477
123	0x3e328671	0.17434098
124	0x3e0ca679	0.1373538
125	0xbe41db33	-0.18931274
126	0x3e0871fd	0.13324733
127	0x3c772d50	0.015086487
128	0xbe01722a	-0.12641206
129	0xbcfa8998	-0.030583188
130	0x3d823cc2	0.06359245
131	0xbe1f08e3	-0.15530734
132	0x3df576ba	0.11985536
133	0x3e0e6447	0.1390544
134	0xbc26a480	-0.010171056
135	0xbe226c26	-0.15861568
136	0xbd2065e8	-0.039159685
137	0x3d8c6c62	0.0685661
138	0x3d1aa168	0.037751585
139	0x3e2b0877	0.16702448
140	0xbe4995c5	-0.19686039
141	0xbe46b96d	-0.19406672
142	0x3e204805	0.15652473
143	0xbde035d7	-0.10947769
144	0x3d38a358	0.04507765
145	0xbcacac10	-0.02107814
146	0xbe2abfbd	-0.16674705
147	0x3d8e5426	0.06949644
148	0x3e0637f5	0.13107283
149	0x3ded8166	0.115969464
150	0x3e0275a7	0.12740193
151	0xbdfcb0a0	-0.12338376
152	0xbca06140	-0.019577622
153	0xbe459ca0	-0.19298029
154	0x3dd6110e	0.10452472
155	0xbe11c9a0	-0.1423707
156	0xbc519300	-0.012791395
157	0xbdb6d1b7	-0.08926719
158	0x3e12d77b	0.14340012
159	0xbc5e8d20	-0.0135834515
160	0xbe438712	-0.19094494
161	0xbe27b8c0	-0.1637907
162	0xbd0c0878	-0.034187764
163	0xbdfff187	-0.124972396
164	0xbe068adc	-0.13138908
165	0x3dd38dc2	0.103297725
166	0xbc33df00	-0.01097846
167	0xbe319213	-0.17340879
168	0xbdd6054d	-0.1045023
169	0xbb661580	-0.003510803
170	0x3d9ed9b6	0.07756369
171	0xbd904dd0	-0.070460916
172	0x3b181480	0.0023205578
173	0x3db9807a	0.09057708
174	0xbd0920ac	-0.033478424
175	0xbdfae57a	-0.122508004
176	0x3d85e97e	0.06538676
177	0xbe32175b	-0.17391722
178	0xbe091b90	-0.1338942
179	0x3e2f3bf1	0.1711271
180	0xbdd527f0	-0.10408008
181	0xbd276778	-0.04087016
182	0xbe0c7e76	-0.13720116
183	0xbe3c1b42	-0.18369773
184	0x3c33ca60	0.010973543
185	0x3d9c1692	0.076214924
186	0x3da3160a	0.07963188
187	0x3d0001b4	0.031251624
188	0xbe0ad95a	-0.13559476
189	0xbcc52368	-0.024064735
190	0xbdd5e470	-0.104439616
191	0xbd2d0580	-0.042241573
192	0xbe2a4608	-0.16628277
193	0x3e20add1	0.15691306
194	0xbdc6647d	-0.09687135
195	0x3df00b3a	0.11720891
196	0x3d293358	0.04130873
197	0xbdae181a	-0.08500691
198	0x3d86a702	0.06574823
199	0x3deb6932	0.11494674
200	0xbda52d63	-0.080652975
201	0x3e054ae3	0.13016848
202	0xbdad3860	-0.08458018
203	0xbd10dee0	-0.0353688
204	0x3d8f2da6	0.069911286
205	0x3df667de	0.1203153
206	0x3cd46200	0.025925636
207	0xbd855614	-0.06510559
208	0xbe08ecac	-0.13371533
209	0x3d98af1e	0.07455276
210	0xbe106e5b	-0.14104597
211	0x3e3cfb29	0.18455185
212	0xbc435000	-0.011920929
213	0x3e316b81	0.17326166
214	0xbe38b360	-0.18037176
215	0xbd04cea8	-0.032423645
216	0xbd7bbb58	-0.06145796
217	0x3cb16cd0	0.021658331
218	0x3d86607e	0.06561373
219	0xbdb9c997	-0.09071653
220	0xbdc884d3	-0.09790959
221	0xbde4c713	-0.11170783
222	0xbd300fe0	-0.04298389
223	0xbe0635cd	-0.13106461
224	0x3dd3a28e	0.10333739
225	0x3df6ef6a	0.12057383
226	0xbe04befa	-0.12963477
227	0xba9c4180	-0.0011921376
228	0xbe432a7d	-0.19059177
229	0x3e1a60f1	0.15076043
230	0x3cc352b0	0.02384314
231	0x3e1dc499	0.15407027
232	0x3cc2f3c0	0.02379787
233	0x3d3c6408	0.045993835
234	0x3e36b387	0.17841922
235	0x3e065469	0.13118137
236	0x3e2a471d	0.1662869
237	0x3dc18f8a	0.09451206
238	0x3dd684f6	0.10474579
239	0xbdab8570	-0.083750606
240	0x3da807ee	0.082046375
241	0x3c1e30d0	0.0096551925
242	0x3d65d344	0.05610968
243	0xbe31217f	-0.17297934
244	0x3cb3f100	0.021965504
245	0xbdcd68c0	-0.10029745
246	0xbe20d068	-0.157045
247	0x3c7c3220	0.01539281
248	0xbe43c42d	-0.19117804
249	0xbe1201c2	-0.14258483
250	0xbd868ce6	-0.06569843
251	0xbce923f0	-0.02845952
252	0xbe01baa2	-0.12668851
253	0xbdbc7647	-0.09202247
254	0x3b521b40	0.00320597
255	0x3e2f9455	0.17146428

bias f4 [25]
0	0xbd728534	-0.059209064
1	0x3da0e916	0.078569576
2	0xbdbf97fd	-0.09355161
3	0x3d521184	0.051286235
4	0xbcc94870	-0.024570674
5	0x3e142da3	0.14470534
6	0x3c8018d0	0.015636832
7	0x3d82d596	0.063883945
8	0x3e09dbe1	0.13462783
9	0xbe3c11c7	-0.18366157
10	0x3c41d930	0.011831567
11	0x3d815aea	0.063161686
12	0xbdeff3cd	-0.11716423
13	0x3a5a3500	0.00083239377
14	0x3dc7ab52	0.09749474
15	0x3df0a96e	0.11751066
16	0x3e221bd1	0.15830924
17	0xbe48ae80	-0.19597816
18	0x3e0aa99f	0.13541268
19	0x3db74dba	0.08950372
20	0xbe345733	-0.17611389
21	0x3e3b0819	0.18264808
22	0x3df18362	0.117926374
23	0xbd350194	-0.04419096
24	0xbe03cddd	-0.128715

weight f4 [25, 25]
0	0x3d0f0f34	0.03492661
1	0x3e1b08cf	0.15140079
2	0x3e444a63	0.19169001
3	0xbdcc7a5a	-0.09984274
4	0x3e1a99a9	0.15097679
5	0x3e138fb9	0.14410295
6	0xbd844d60	-0.064600706
7	0xbdda9377	-0.10672658
8	0x3dcec1b2	0.10095538
9	0xbe43a9ea	-0.19107786
10	0xbd2a5e2c	-0.041593716
11	0x3d8a5e5e	0.0675628
12	0xbe074676	-0.13210472
13	0xbe1ae768	-0.15127337
14	0x3e44ed89	0.19231237
15	0xbe10bc06	-0.14134225
16	0xbc737f30	-0.014861867
17	0xbe0ae374	-0.13563329
18	0x3b0c0c00	0.0021369457
19	0xbc96e6a8	-0.018420532
20	0x3cb73450	0.022363812
21	0xbda032ca	-0.07822187
22	0x3d1c9918	0.03823194
23	0x3da122ee	0.078679904
24	0x3e23a8b5	0.15982325
25	0x3e3aac4b	0.18229787
26	0x3e3724cd	0.17885132
27	0xbd9fec1d	-0.07808707
28	0xbda4ad80	-0.08040905
29	0xbde40a43	-0.1113477
30	0xbd96f614	-0.073711544
31	0x3e297757	0.16549431
32	0x3da3c95e	0.07997392
33	0x3da2f66e	0.07957159
34	0x3c8d3590	0.017237455
35	0xbd5f57c8	-0.054527074
36	0x3d11afe0	0.035568118
37	0xbcfb0118	-0.03064017
38	0xbe3bc42f	-0.18336557
39	0x3e45fd8d	0.19335003
40	0xbe32ab9f	-0.17448281
41	0xbdb5b463	-0.08872297
42	0x3dc080aa	0.09399541
43	0xbd0d83b8	-0.034549445
44	0x3e44f5df	0.19234417
45	0x3c917ad0	0.017758757
46	0xbd4c0588	-0.049809963
47	0x3a9abe80	0.0011806041
48	0xbd4576e0	-0.04820907
49	0xbe2a65ba	-0.16640368
50	0xbe110672	-0.14162615
51	0xbd4fcfb8	-0.050735205
52	0xbda4a90a	-0.08040054
53	0xbd6b258c	-0.057408854
54	0xbdfcef07	-0.12350278
55	0x3dfcce62	0.12344052
56	0xbbb7aea0	-0.0056055337
57	0x3c5b7ad0	0.01339598
58	0xbe4a7083	-0.19769482
59	0xbe2690fd	-0.16266246
60	0xbde3b52a	-0.11118539
61	0x3e37b22d	0.17939062
62	0xbdc003f3	-0.09375753
63	0x3dfad9c2	0.12248565
64	0x3e45544b	0.19270436
65	0xbe22dd9d	-0.15904851
66	0x3e2d02f7	0.16895662
67	0xbd28014c	-0.04101686
68	0x3de4f7c2	0.111800686
69	0xbd91282c	-0.0708774
70	0x3e483bef	0.19554113
71	0x3e1b37f1	0.15158059
72	0xbd9f18e3	-0.07768419
73	0x3bc9b060	0.0061550587
74	0xbd82389a	-0.06358452
75	0x3ce2a400	0.027666092
76	0x3dc5dde2	0.096614614
77	0x3dd0966a	0.10184939
78	0x3def939a	0.11698075
79	0x3c765680	0.015035272
80	0x3cf837f0	0.03030011
81	0x3e3b5857	0.18295418
82	0xbe1347a2	-0.14382794
83	0x3d413cb8	0.047177047
84	0xbde37ad0	-0.11107409
85	0xbe326860	-0.17422628
86	0x3db29c62	0.08721234
87	0xbe0e2118	-0.13879812
88	0x3e39c787	0.1814252
89	0xbe42add3	-0.19011621
90	0x3d33f1a0	0.043931603
91	0x3d3b8200	0.045778275
92	0x3d9bb7be	0.076034054
93	0xbe11d703	-0.14242177
94	0xbdd3471a	-0.10316296
95	0x3e237521	0.1596265
96	0xbd9a43bd	-0.07532451
97	0xbd6d3d48	-0.05791977
98	0xbbc1faa0	-0.0059197694
99	0x3d92756e	0.07151304
100	0xbe2bc70d	-0.1677515
101	0x3d9df766	0.07713203
102	0xbda7358a	-0.08164509
103	0x3e0209c9	0.12699045
104	0x3d14122c	0.036150143
105	0xbe393fef	-0.18090795
106	0x3e307cb9	0.17235078
107	0xbdaa1e73	-0.08306589
108	0x3d0986b4	0.03357573
109	0x3e326c3f	0.17424105
110	0x3db59962	0.08867146
111	0xbe34c507	-0.17653285
112	0x3e137283	0.14399152
113	0xbe4c6de5	-0.19963796
114	0x3e3450c9	0.17608942
115	0x3c8898d0	0.01667443
116	0xbd8281b4	-0.06372395
117	0xbde5a2f0	-0.112127185
118	0x3e2164a3	0.15761046
119	0x3afbbf00	0.0019206703
120	0x3e067f17	0.13134418
121	0x3e13707b	0.14398377
122	0xbe4c32d5	-0.19941266
123	0xbdba2623	-0.09089305
124	0x3d12fc54	0.03588517
125	0xbd072c18	-0.033001035
126	0xbe3216f2	-0.17391565
127	0x3cb0bf18	0.021575496
128	0x3e1e4021	0.1545415
129	0xbd8c9b40	-0.06865549
130	0xbe48819f	-0.19580697
131	0x3e15e727	0.14638959
132	0xbd70df28	-0.05880657
133	0xbe2ddb5d	-0.16978212
134	0xbdd00957	-0.101580314
135	0x3e376ba7	0.1791216
136	0x3e0b354f	0.13594554
137	0x3dcaa0b2	0.098939314
138	0xbccb7be8	-0.024839357
139	0x3e11fad9	0.14255847
140	0xbdc9c43d	-0.098518826
141	0x3d65ebd4	0.056133106
142	0xbe05e3b8	-0.13075149
143	0x3e49df97	0.19714199
144	0xbde0f640	-0.109844685
145	0x3c1571d0	0.009121373
146	0x3e2ec535	0.17067416
147	0x3dc616e2	0.09672333
148	0xbe497045	-0.19671734
149	0xbcc41818	-0.02393727
150	0x3e2bba31	0.16770245
151	0x3de89f52	0.11358513
152	0xbe1cf08a	-0.15326133
153	0x3e460e53	0.19341402
154	0x3d8688ee	0.06569086
155	0x3d98d716	0.074628994
156	0x3dacf872	0.08445825
157	0xbe43043a	-0.19044581
158	0xbdb47420	-0.088112116
159	0xbda8fedd	-0.08251736
160	0x3e2fee11	0.17180659
161	0xbc836ae8	-0.016042188
162	0x3c88f790	0.01671961
163	0x3e1b6a03	0.15177159
164	0x3b2b7a80	0.0026165545
165	0x3dcf799e	0.101306185
166	0x3d247a60	0.04015577
167	0xbdd52307	-0.104070716
168	0xbdf7e21d	-0.121036746
169	0xbd7bdf60	-0.061492324
170	0x39f08000	0.00045871735
171	0xbd933c34	-0.07189217
172	0x3e370509	0.17873015
173	0xbe323647	-0.17403518
174	0xbaf75100	-0.0018868744
175	0x3e3500d9	0.17676105
176	0x3e1db5a5	0.15401323
177	0x3e009799	0.1255783
178	0xbdf8eea0	-0.12154889
179	0x3e28f4d5	0.16499646
180	0xbe00e71a	-0.12588158
181	0xbd50b158	-0.05095038
182	0x3db09116	0.08621423
183	0xbddb8fcd	-0.10720787
184	0x3e045ebf	0.12926768
185	0xbe1152be	-0.1419172
186	0x3e33e5e9	0.17568173
187	0x3e27fb51	0.16404463
188	0x3d991112	0.07473959
189	0xbd2da418	-0.04239282
190	0x3cf49da8	0.029860333
191	0xbd5b2eb8	-0.05351135
192	0xbd8a5734	-0.06754914
193	0x3e24dba3	0.1609941
194	0xbe49e845	-0.1971751
195	0x3d825426	0.06363706
196	0xbdea065d	-0.11426995
197	0x3de9baa2	0.114125505
198	0x3e44ee41	0.19231512
199	0x3e036999	0.12833251
200	0x3e125357	0.14289604
201	0x3e2f1721	0.17098667
202	0x3e420be5	0.1894985
203	0xbcd5fe40	-0.026122212
204	0x3dc20722	0.09474017
205	0xbcd53eb0	-0.026030868
206	0x3dcd9bd2	0.10039486
207	0x3c57afd0	0.013164476
208	0xbe0e97cd	-0.13925095
209	0x3e26c069	0.16284336
210	0xbe00e65a	-0.12587872
211	0xbda420aa	-0.08014043
212	0x3dcd3356	0.10019557
213	0x3cd68840	0.026188016
214	0x3dd982ce	0.10620652
215	0xbe34f337	-0.17670904
216	0xbe39c383	-0.18140988
217	0x3e120caf	0.14262651
218	0x3d8993de	0.067176566
219	0x3d950892	0.07277025
220	0x3de4055a	0.11133833
221	0xbe1defda	-0.15423527
222	0xbd0f37d4	-0.03496535
223	0x3e4b56a1	0.19857265
224	0xbe196625	-0.14980371
225	0xbd5e6538	-0.05429575
226	0x3e3b17d3	0.18270807
227	0x3df22f5a	0.11825438
228	0xbd47686c	-0.04868357
229	0xbe23bf7d	-0.15991016
230	0x3d259b6c	0.040431425
231	0xbd34def4	-0.044157937
232	0xbdc3f400	-0.09568024
233	0xbe304d00	-0.17216873
234	0x3d700404	0.05859758
235	0x3c9db658	0.019251987
236	0x3d1c14f8	0.038105935
237	0x3dd2d79a	0.10295029
238	0xbe365b0f	-0.17808174
239	0xbce6dff0	-0.028182954
240	0x3c6554d0	0.013997272
241	0xbe2aed5d	-0.1669211
242	0x3d82cd52	0.06386818
243	0xbd751798	-0.059836954
244	0xbe195d46	-0.14976987
245	0xbd9001dc	-0.07031605
246	0xbe23f5fb	-0.16011803
247	0x3e072e53	0.13201265
248	0xbd5c24ac	-0.05374591
249	0x3d9a1a16	0.07524507
250	0xbdf8b73a	-0.12144323
251	0xbca9d6c0	-0.020732284
252	0xbb10e280	-0.002210766
253	0x3dfc2e32	0.123134986
254	0x3df502c2	0.11963417
255	0x3c2e87a0	0.010652453

bias f4 [25]
0	0xbe3a0310	-0.18165231
1	0x3d76bfd4	0.060241535
2	0x3d592d1c	0.053021535
3	0x3df78f92	0.12087931
4	0x3d772a04	0.060342804
5	0x3dc0c8b2	0.094132796
6	0x3d7f25fc	0.062292084
7	0x3e08c409	0.13356031
8	0xbdb603a7	-0.088874154
9	0x3ba2fec0	0.004974216
10	0x3d5a0ae4	0.053233042
11	0xbe4691a8	-0.19391501
12	0xbca34830	-0.019931883
13	0xbe3d85b8	-0.18508041
14	0x3d9a0586	0.07520585
15	0x3c821ef0	0.015883893
16	0xbe1ba923	-0.1520124
17	0xbe0af770	-0.13570952
18	0xbe139970	-0.14414
19	0x3ca44ed8	0.020057127
20	0x3e00102d	0.1250617
21	0xbd70ba68	-0.05877152
22	0x3d7aca1c	0.061227903
23	0xbe254d80	-0.16142845
24	0x3d367974	0.04454942

weight f4 [25, 25]
0	0xbe2f1db8	-0.1710118
1	0x3e1fbae3	0.15598635
2	0xbdccb307	-0.09995084
3	0x3de000ca	0.109376505
4	0xbe21f033	-0.15814285
5	0xbe2732f0	-0.16328025
6	0xbe0f84b3	-0.14015464
7	0xbd161d78	-0.036649197
8	0xbd01b1e0	-0.031663775
9	0xbe1df40e	-0.1542513
10	0x3d977e56	0.073971435
11	0x3cc1ff18	0.023681208
12	0x3e22b969	0.15891041
13	0x3dd0f1c2	0.10202362
14	0x3e41d1db	0.1892771
15	0xbe133230	-0.14374614
16	0xbe2ef07d	-0.17083926
17	0x3db6d572	0.0892743
18	0xbe2c30f2	-0.16815546
19	0xbbcc01a0	-0.0062257797
20	0xbd409b00	-0.04702282
21	0x3cb87fb0	0.022521824
22	0xbc0358d0	-0.00801678
23	0xbe22646a	-0.15858617
24	0xbe2548f5	-0.16141112
25	0x3e3c9dc1	0.18419553
26	0x3cdf6de8	0.027274087
27	0x3d009b94	0.03139837
28	0x3df82992	0.12117304
29	0xbe1584dd	-0.14601465
30	0xbe3d94ff	-0.18513869
31	0xbe3da63a	-0.18520442
32	0x3dcda88a	0.10041912
33	0xbd5dbd34	-0.054135516
34	0xbe466048	-0.19372666
35	0xbd0f30b4	-0.034958556
36	0x3dfc9592	0.12333216
37	0x3db63dfa	0.0889854
38	0x3e0f6033	0.14001541
39	0x3df5e132	0.12005843
40	0x3b816200	0.00394845
41	0xbd287b8c	-0.04113345
42	0x3de49692	0.111615315
43	0xbdfcfa57	-0.12352436
44	0xbcd0a6f0	-0.025470227
45	0xbe462690	-0.19350648
46	0x3e28d50f	0.16487525
47	0x3c9aa3b0	0.01887688
48	0x3d183048	0.03715542
49	0x3e295577	0.16536509
50	0x3e2de655	0.16982396
51	0x3ddd34ea	0.10801108
52	0x3c5cfae0	0.013487548
53	0x3d391420	0.04518521
54	0xbcbb51d0	-0.02286616
55	0x3cd9a768	0.026569083
56	0x3b992640	0.004673749
57	0xbcb4a558	-0.022051498
58	0xbd51ae80	-0.051191807
59	0xbb0d34c0	-0.0021546334
60	0xbd88050a	-0.06641586
61	0x3deae98e	0.11470328
62	0x3dc9172a	0.09818871
63	0xbbe7e340	-0.007076651
64	0xbe077ab2	-0.13230398
65	0xbd070138	-0.032960147
66	0xbdc9dc93	-0.09856524
67	0xbd0972a8	-0.03355661
68	0x3dd3e392	0.1034614
69	0xbe2559e2	-0.16147569
70	0xbd637018	-0.055526823
71	0xbe313097	-0.17303692
72	0x3db3d19a	0.08780213
73	0xbcb0d928	-0.021587923
74	0x3d134e0c	0.035963103
75	0x3d90b49e	0.070657
76	0x3ce71350	0.028207451
77	0x3e0f43c3	0.13990693
78	0xbda80e33	-0.08205833
79	0xbc398700	-0.01132369
80	0x3dd50076	0.104004785
81	0xbdf6b217	-0.12045687
82	0x3cc2a900	0.023762226
83	0xbe06bc0d	-0.13157673
84	0x3d5c1af4	0.053736642
85	0x3d21a4e0	0.039463878
86	0xbdf3b4ed	-0.11899743
87	0x3e2075b5	0.15669902
88	0x3dc88cd2	0.09792484
89	0x3e194d71	0.14970948
90	0xbddb5d0d	-0.107111074
91	0x3e1b80b9	0.15185823
92	0xbd9da000	-0.07696533
93	0x3e09a789	0.13442816
94	0xbe3f774d	-0.18697853
95	0xbdaa0a00	-0.083026886
96	0x3e49cd87	0.19707309
97	0xbb8bcbc0	-0.0042662323
98	0x3c5657a0	0.013082415
99	0xbd1a7ae8	-0.03771487
100	0x3e094dcf	0.13408588
101	0xbe4c4a1d	-0.19950147
102	0x3bbe2660	0.0058029145
103	0x3bbf6900	0.0058413744
104	0x3a21a200	0.00061658025
105	0xbd106a6c	-0.03525774
106	0xbc963568	-0.018336013
107	0xbe24f91b	-0.16110651
108	0xbe264fdd	-0.16241403
109	0xbe0b4552	-0.13600662
110	0x3e0bebf5	0.13664229
111	0xbdeac970	-0.114642024
112	0xbe38eb3b	-0.18058483
113	0xbd2f4900	-0.042794228
114	0x3cfbfe10	0.030760795
115	0x3c4613d0	0.012089685
116	0x3dfd1896	0.12358205
117	0xbe2f0517	-0.17091785
118	0x3dcf34fa	0.10117526
119	0xbdc18860	-0.094498396
120	0xbe09d740	-0.13461018
121	0x3db971b6	0.09054892
122	0x3e36d695	0.17855294
123	0xbe471020	-0.19439745
124	0xbd286800	-0.041114807
125	0xbdc6227a	-0.09674545
126	0xbe421f23	-0.1895719
127	0x3e2f3989	0.17111792
128	0x3d437834	0.047722057
129	0xbe3d3765	-0.18478163
130	0xbd8444a0	-0.06458402
131	0x3d61e1e4	0.055147067
132	0x3dd42d26	0.10360174
133	0x3c403380	0.011731029
134	0xbdef1750	-0.116743684
135	0x3e198d17	0.14995228
136	0x3c41be00	0.011825085
137	0x3dc80892	0.0976726
138	0x3d4f818c	0.050660655
139	0xbb8dd740	-0.0043286383
140	0xbe35bda2	-0.1774812
141	0xbd3f80e0	-0.046753764
142	0x3d4481f8	0.04797551
143	0xbe42d807	-0.1902772
144	0xbd7984a8	-0.060917526
145	0xbe3291c2	-0.17438415
146	0x3d91b39e	0.071143374
147	0xbdbbf73a	-0.09178014
148	0xbd81bc0a	-0.06334694
149	0xbcbc7fc0	-0.023010135
150	0xbda57477	-0.080788545
151	0xbe08f20d	-0.13373585
152	0xbe1f8055	-0.15576299
153	0x3dedcaea	0.116109684
154	0x3e2890a5	0.16461428
155	0xbe3d5293	-0.18488531
156	0xbe200d30	-0.1563003
157	0xbd7e4594	-0.062078074
158	0xbe2007ee	-0.15628025
159	0x3e4a90ed	0.19781847
160	0x3e286a5f	0.16446827
161	0x3df40a52	0.11916031
162	0xbe33f9ea	-0.17575803
163	0xbe34f93a	-0.17673197
164	0xbb4fa280	-0.003168255
165	0x3ca5e4e8	0.020250753
166	0xbe1325fd	-0.1436996
167	0xbe1d9bd5	-0.15391476
168	0x3d20790c	0.03917794
169	0xbe1997f0	-0.14999366
170	0xbcde2410	-0.027116805
171	0xbcc08670	-0.023501605
172	0x3cd9cb58	0.02658622
173	0x3d3be8a8	0.045876175
174	0x3db30f82	0.08743192
175	0x3dfad012	0.122467175
176	0xbd8d1796	-0.06889264
177	0x3ccad340	0.024758935
178	0xbcfba4b0	-0.030718178
179	0xbcc08950	-0.023502976
180	0xbe221300	-0.1582756
181	0x3dcc22a2	0.09967543
182	0x3de3b2a6	0.11118059
183	0xbd0928f8	-0.033486336
184	0xbde301a0	-0.11084294
185	0x3d39dd6c	0.04537718
186	0xbc2d4120	-0.010574609
187	0xbcc4b740	-0.024013162
188	0xbda9cb63	-0.08290746
189	0xbe248a60	-0.16068411
190	0x3d1fc0ec	0.039002344
191	0x3e4c4faf	0.19952272
192	0x3e243bd1	0.16038443
193	0xbdca51e7	-0.09878903
194	0x3e173def	0.1476972
195	0x3e05f2bf	0.13080882
196	0x3dd44a92	0.10365786
197	0x3dafa95a	0.08577223
198	0xbe23b94a	-0.15988651
199	0xbe14f3b8	-0.14546096
200	0x3e07a1a5	0.13245256
201	0x3c2f22d0	0.010689452
202	0x3d5ae7c4	0.053443685
203	0x3d77ef64	0.060531035
204	0x3dda788e	0.10667525
205	0xbd177c08	-0.03698352
206	0x3d14bf94	0.036315516
207	0xbd43bff4	-0.047790483
208	0xbd12d754	-0.035849884
209	0xbe42065a	-0.18947735
210	0x3dc75da2	0.09734656
211	0x3d958e3a	0.07302518
212	0x3e1e62a9	0.15467323
213	0xbe3d4720	-0.18484163
214	0xbe3034ab	-0.17207591
215	0x3e40aa27	0.18814908
216	0x3e007773	0.12545566
217	0x3d9b6b6e	0.0758885
218	0xbd9c3380	-0.0762701
219	0xbe475d08	-0.19469082
220	0xbd242cc0	-0.04008174
221	0xbb3a0e80	-0.002838999
222	0x3e3cb45b	0.18428175
223	0x3d6e1e8c	0.0581346
224	0xbe1e308d	-0.15448208
225	0x3c3d7200	0.011562824
226	0xbe35df77	-0.17761026
227	0xbe272d08	-0.16325772
228	0xbe3a6530	-0.18202662
229	0xbd45a5d4	-0.04825385
230	0xbd252ca8	-0.04032579
231	0x3dab4d56	0.0836436
232	0x3d9723ba	0.07379861
233	0xbd88191c	-0.06645414
234	0x3e131e49	0.14367022
235	0xbc7b4200	-0.01533556
236	0x3e212b81	0.15739252
237	0xbe4b7a1d	-0.19870801
238	0xbdae6230	-0.085148215
239	0x3e01eef1	0.12688805
240	0x3e1f27bd	0.15542503
241	0x3dd7d352	0.10538353
242	0xbdcf40ad	-0.10119758
243	0x3e1f4bd9	0.15556277
244	0x3db03ee2	0.08605744
245	0x3e37f91d	0.17966123
246	0xbde2c1c0	-0.11072111
247	0x3e1e0f19	0.15435447
248	0x3cb36db0	0.021902889
249	0x3d195c68	0.03744164
250	0x3d43d0f4	0.047806695
251	0xbe38a95f	-0.1803336
252	0x3e294a53	0.16532259
253	0xbdd412bd	-0.103551365
254	0xbe3dbe7f	-0.185297
255	0x3e44a131	0.19202115

bias f4 [25]
0	0x3d8fbaf6	0.07018082
1	0x3e4758f9	0.19467534
2	0x3e39c899	0.18142928
3	0x3e008115	0.12549241
4	0xbbb1e8a0	-0.0054293424
5	0x3de925ea	0.11384185
6	0xbd35e9c8	-0.044412404
7	0xbe26a816	-0.16275057
8	0xbe23213e	-0.1593065
9	0x3e2a186d	0.1661088
10	0x3de023aa	0.109443024
11	0xbe1115e8	-0.14168513
12	0xbdbacd83	-0.091212295
13	0x3c1d7dd0	0.009612516
14	0xbe3dc438	-0.18531883
15	0xbe045a5a	-0.12925091
16	0xbe09038a	-0.13380256
17	0xbcf926e8	-0.03041406
18	0x3dea817e	0.1145048
19	0xbd74272c	-0.05960767
20	0x3dc916ee	0.098188266
21	0xbe0db7aa	-0.13839594
22	0xbdeec4aa	-0.116586044
23	0x3e2e90c5	0.17047413
24	0x3d4a3018	0.049362272

weight f4 [4, 25]
0	0xbc9d86a8	-0.019229248
1	0xbe289556	-0.16463217
2	0x3e41de81	0.18932535
3	0x3d539be4	0.05166234
4	0xbde1bf7a	-0.110228494
5	0xbe38a50a	-0.18031707
6	0xbe12f712	-0.14352062
7	0xbdb2d2c0	-0.087316036
8	0x3d5e57d4	0.05428298
9	0x3e289c49	0.16465868
10	0xbe0e3036	-0.13885579
11	0x3b53b880	0.0032306015
12	0xbdc71067	-0.097199254
13	0xbd761274	-0.060076192
14	0xbe267523	-0.16255622
15	0x3e359d13	0.177357
16	0x3d8fcde6	0.07021694
17	0x3bdc9c00	0.006732464
18	0xbd86f0b6	-0.06588881
19	0xbe37217f	-0.17883871
20	0xbd900834	-0.070328146
21	0x3de4eb8a	0.11177738
22	0x3e364fe1	0.17803909
23	0xbe1ae280	-0.15125465
24	0xbe277615	-0.16353638
25	0x3e4c7f8d	0.19970532
26	0xbe3581b8	-0.17725265
27	0xbd80ab96	-0.062827274
28	0x3dd68fee	0.10476671
29	0xbd90ede0	-0.07076621
30	0xbe3e0083	-0.18554883
31	0xbe3c5cc5	-0.18394764
32	0x3e2336a1	0.15938808
33	0xbd6f0e6c	-0.058363363
34	0xbe39d13b	-0.18146221
35	0xbe042150	-0.12903333
36	0x3db2b276	0.08725445
37	0xbdc5aedd	-0.09652493
38	0x3dfe37da	0.124129966
39	0x3e1cc335	0.1530884
40	0x3d684384	0.056705013
41	0xbd92580a	-0.07145698
42	0xbe3180e3	-0.17334323
43	0x3ca1de80	0.019759417
44	0xbe119d2a	-0.1422011
45	0x3d8677ae	0.06565796
46	0xbde3700d	-0.11105356
47	0x3e4ca03d	0.19983001
48	0xbe2cafd6	-0.16863951
49	0xbc898c28	-0.016790465
50	0x3d5835ac	0.05278556
51	0x3df3f8f6	0.1191272
52	0xbda7cfe3	-0.08193948
53	0xbdc2a2b7	-0.09503692
54	0x3de66802	0.11250307
55	0xbdfa2770	-0.12214553
56	0x3d051378	0.03248927
57	0x3df32462	0.11872174
58	0x3d2941b8	0.04132244
59	0x3e487639	0.19576348
60	0xbe341513	-0.17586164
61	0xbd8573cc	-0.06516227
62	0x3d27b288	0.040941745
63	0x3e147a13	0.14499693
64	0xbdcf7c83	-0.101311706
65	0x3da7d422	0.08194758
66	0xbe0af552	-0.13570145
67	0xbd8516f6	-0.0649852
68	0x3e3431e3	0.17597155
69	0xbdaf1aa0	-0.0855
70	0x3d1e4888	0.03864339
71	0xbdb281c3	-0.08716156
72	0x3d0dc0e0	0.034607768
73	0x3e255991	0.16147448
74	0xbe283415	-0.16426118
75	0x3e285199	0.16437377
76	0xbd829846	-0.063767
77	0xbd15a36c	-0.036532804
78	0xbe465b95	-0.19370873
79	0xbe2cc836	-0.1687325
80	0xbd90f136	-0.07077257
81	0xbe2495db	-0.1607279
82	0xbe1235ab	-0.14278285
83	0x3e0c8a1d	0.13724561
84	0x3dc8b966	0.09800987
85	0xbdbea34a	-0.09308489
86	0x3e00970f	0.12557624
87	0xbdbedfb3	-0.09320011
88	0xbd15ad38	-0.036542147
89	0xbc6b0e80	-0.014346719
90	0xbe275f58	-0.16344965
91	0xbd443434	-0.047901347
92	0xbd2866f8	-0.041113824
93	0x3e2b759b	0.16744082
94	0x3e168263	0.14698176
95	0x3e1332df	0.14374875
96	0xbe33d422	-0.17561391
97	0x3e0e81db	0.13916723
98	0x3de2c4fa	0.110727265
99	0xbd43852c	-0.047734424

bias f4 [4]
0	0xbe4397c7	-0.19100867
1	0x3e48abc1	0.19596769
2	0x3e33c041	0.17553808
3	0xbe075e8e	-0.13219664
