models/_brain_127.pt (torch, 14593 bytes, 12 tensors)

weight f4 [14]
0	0x3f800000	1.0
1	0x3f800000	1.0
2	0x3f800000	1.0
3	0x3f800000	1.0
4	0x3f800000	1.0
5	0x3f800000	1.0
6	0x3f800000	1.0
7	0x3f800000	1.0
8	0x3f800000	1.0
9	0x3f800000	1.0
10	0x3f800000	1.0
11	0x3f800000	1.0
12	0x3f800000	1.0
13	0x3f800000	1.0

bias f4 [14]
0	0x00000000	0.0
1	0x00000000	0.0
2	0x00000000	0.0
3	0x00000000	0.0
4	0x00000000	0.0
5	0x00000000	0.0
6	0x00000000	0.0
7	0x00000000	0.0
8	0x00000000	0.0
9	0x00000000	0.0
10	0x00000000	0.0
11	0x00000000	0.0
12	0x00000000	0.0
13	0x00000000	0.0

weight f4 [25, 14]
0	0xbdfab13e	-0.122408375
1	0xbe3bb4a9	-0.18330635
2	0x3e12c514	0.14332992
3	0x3e8526b9	0.26006106
4	0x3e0eaf00	0.13933945
5	0x3e34b51e	0.17647216
6	0xbe0c8490	-0.13722444
7	0x3e22812a	0.15869585
8	0x3dd3816c	0.1032742
9	0xbe12e086	-0.14343461
10	0xbe7819e8	-0.24228632
11	0x3e7708d2	0.24124458
12	0x3e7f8ac6	0.24955282
13	0xbca67368	-0.020318702
14	0x3df881c8	0.12134129
15	0x3e240f1a	0.16021386
16	0x3d466440	0.04843545
17	0x3e0584fe	0.13039014
18	0x3dae91a8	0.085238755
19	0x3e4b21f2	0.19837168
20	0xbe851546	-0.25992793
21	0xbe2d9a2e	-0.16953346
22	0xbe72f8d6	-0.23727736
23	0x3df2c348	0.11853653
24	0x3d429cc0	0.04751277
25	0x3e145764	0.14486462
26	0x3e813903	0.2523881
27	0xbdb2c4e0	-0.08728957
28	0xbe4f3839	-0.20236291
29	0x3e2fa640	0.17153263
30	0xbd0395d0	-0.032125294
31	0xbd31f484	-0.04344608
32	0xbe88574a	-0.26629096
33	0x3ddaa9dc	0.10676929
34	0x3e74ea76	0.23917565
35	0x3dbdba30	0.09264028
36	0x3e0e2080	0.13879585
37	0x3df05b60	0.117361784
38	0x3d225158	0.039628357
39	0x3e414cfa	0.1887702
40	0xbe75a6df	-0.23989438
41	0xbe01d3c8	-0.12678444
42	0xbd92bbe6	-0.07164745
43	0xbcae87a8	-0.02130492
44	0xbbdde6c0	-0.0067718923
45	0xbe72ed65	-0.23723371
46	0xbced4030	-0.028961271
47	0x3d9e9ff4	0.077453524
48	0xbd296108	-0.0413523
49	0x3d653c60	0.05596578
50	0x3cf84fe0	0.030311525
51	0xbd948734	-0.072523504
52	0x3d650468	0.055912405
53	0x3e433776	0.19064125
54	0xbe881c7d	-0.26584235
55	0xbe4d85c2	-0.20070556
56	0xbcc7b1c8	-0.024376765
57	0x3e862045	0.26196495
58	0xbd507058	-0.05088839
59	0xbe0ceffe	-0.13763425
60	0xbe3dfab6	-0.1855267
61	0x3d40aaa0	0.04703772
62	0xbd9c64da	-0.076364234
63	0xbe28b842	-0.16476539
64	0x3e2285f8	0.15871418
65	0x3db4c4fc	0.08826634
66	0x3dbf2040	0.09332323
67	0x3c345aa0	0.011007935
68	0xbdd6d26a	-0.10489352
69	0x3e61df6c	0.22057885
70	0xbe343367	-0.17597733
71	0xbe4d9fa0	-0.20080423
72	0xbe878408	-0.2646792
73	0x3c69b180	0.014263511
74	0xbe0c6913	-0.13711958
75	0x3d6f8450	0.058475792
76	0x3da313b4	0.079627424
77	0xbc42aea0	-0.011882454
78	0xbe4709ce	-0.19437334
79	0x3d4ece00	0.050489426
80	0x3d792580	0.06082678
81	0xbda93ec2	-0.08263923
82	0x3d91884c	0.07106075
83	0x3c159280	0.009129167
84	0xbd1d78d0	-0.038445294
85	0x3e30a052	0.17248657
86	0xbd818f4a	-0.06326158
87	0xbe722b8c	-0.23649424
88	0x3e88b737	0.26702282
89	0xbd691348	-0.056903154
90	0xbe74139d	-0.23835607
91	0x3de7b970	0.11314666
92	0xbe22977a	-0.15878096
93	0x3db6b74c	0.0892168
94	0x3e345db0	0.17613864
95	0x3e7b7266	0.24555358
96	0x3dae1aa8	0.08501178
97	0x3e5262f4	0.2054556
98	0x3d8220b0	0.06353891
99	0xbe204aca	-0.1565353
100	0xbd0db03c	-0.0345919
101	0xbd2a7aa0	-0.04162085
102	0xbe3a5ed8	-0.18200243
103	0x3d49ff98	0.04931602
104	0x3e2596ec	0.16170853
105	0x3e1f805e	0.15576312
106	0x3e447726	0.19186077
107	0x3d7e7760	0.062125564
108	0x3e813b93	0.25240764
109	0x3ddc8a20	0.10768533
110	0x3d165cb0	0.036709487
111	0x3d99b58c	0.075053304
112	0x3e809f5d	0.25121585
113	0x3d87c130	0.066286445
114	0xbe024cba	-0.12724581
115	0x3e083554	0.13301593
116	0xbe030469	-0.12794651
117	0x3e0c4128	0.1369673
118	0x3e153cd2	0.14573982
119	0xbe593d82	-0.2121487
120	0xbe047b5a	-0.1293768
121	0xbb8aff40	-0.004241854
122	0xbe459f3c	-0.19299024
123	0x3d6db258	0.05803141
124	0xbd3d9088	-0.046280414
125	0x3a61b800	0.0008610487
126	0xbe22fbe8	-0.15916407
127	0x3bb02fc0	0.005376786
128	0xbe56e1db	-0.20984595
129	0x3d22b8a0	0.039726853
130	0x3d397dd8	0.04528603
131	0xbe1d25f3	-0.15346508
132	0xbe8420db	-0.25806317
133	0xbc5ce3e0	-0.013482064
134	0xbe056ea2	-0.13030484
135	0xbb461c00	-0.0030229092
136	0xbdc041ee	-0.09387575
137	0xbd363f18	-0.044493765
138	0xbe1187f9	-0.14212026
139	0x3e3209ca	0.17386547
140	0x3e04f38c	0.12983531
141	0x3e7be576	0.24599251
142	0xbd64010c	-0.05566506
143	0x3e879931	0.26484063
144	0x3d48c390	0.049014628
145	0x3d922d30	0.07137525
146	0x3d0c6590	0.034276545
147	0x3e2c7886	0.16842851
148	0x3e61305a	0.21991101
149	0xbe016015	-0.12634309
150	0xbe529c05	-0.20567329
151	0x3e12a9b0	0.14322543
152	0xbd17e170	-0.03708023
153	0xbdb1d912	-0.08683981
154	0x3dbca16c	0.09210476
155	0x3e251338	0.16120613
156	0xbd061d60	-0.032742858
157	0xbe626498	-0.22108686
158	0xbe462724	-0.19350868
159	0x3e4b7320	0.19868135
160	0x3d1e1a88	0.03859952
161	0x3e839fbf	0.25707814
162	0x3d93e63c	0.07221648
163	0xbe054408	-0.13014233
164	0xbd62fb94	-0.055415705
165	0xbe39f092	-0.18158177
166	0xbcb8e6f8	-0.022571072
167	0xbe4bd4b4	-0.19905359
168	0xbbce6880	-0.0062990785
169	0x3e45d09e	0.19317862
170	0xbc95fd90	-0.018309385
171	0xbe16fa72	-0.14743975
172	0x3d68cf58	0.056838363
173	0xbd8e9b1a	-0.06963177
174	0xbe1f9b13	-0.155865
175	0xbe15cc01	-0.14628603
176	0xbdca957e	-0.098917946
177	0xbd92a3ae	-0.07160126
178	0x3e8074cb	0.25089106
179	0x37ec4000	2.8163195e-05
180	0xbdf34062	-0.118775144
181	0x3db74a1c	0.08949682
182	0x3e805821	0.25067237
183	0xbdb1613c	-0.08661124
184	0xbe02f9ad	-0.12790556
185	0x3e43a16c	0.19104546
186	0xbe395bc8	-0.18101418
187	0x3da19874	0.07890406
188	0x3cba3f50	0.022735268
189	0x3e5e6542	0.21718314
190	0xbe845519	-0.25846174
191	0x3e0c3c16	0.13694796
192	0x3d843c9c	0.06456873
193	0x3e2c1246	0.16803846
194	0x3dab6fec	0.08370957
195	0x3e20c058	0.15698373
196	0xbe772da8	-0.2413851
197	0x3d8788f8	0.066179216
198	0x3e7e95b6	0.24861798
199	0xbdc3c0c8	-0.095582545
200	0xbd39d42c	-0.04536836
201	0x3dd28590	0.10279381
202	0xbd478dd0	-0.048719227
203	0x3e7bde02	0.24596408
204	0x3e3ddec0	0.18542004
205	0xbdac759e	-0.08420871
206	0xbe11c547	-0.14235412
207	0xbe581d82	-0.21105006
208	0x3d54d7d8	0.051963657
209	0x3e8176eb	0.2528604
210	0xbd2fe4c8	-0.042942792
211	0x3d9c2178	0.07623571
212	0xbd4f9ea4	-0.0506884
213	0x3e0dba0c	0.13840503
214	0xbe7731f7	-0.24140154
215	0xbe88a32b	-0.26686987
216	0xbe6c8406	-0.23097238
217	0x3d3f7b18	0.04674825
218	0xbdea6654	-0.11445299
219	0x3e863e2d	0.2621931
220	0x3e041046	0.12896833
221	0x3ddb5e64	0.10711363
222	0xbe58ad09	-0.21159758
223	0xbe6bbad6	-0.23020491
224	0xbe8271da	-0.25477487
225	0xbe28f544	-0.16499811
226	0xbe6a4378	-0.228773
227	0xbdb3e14c	-0.08783206
228	0xbe303a8c	-0.17209834
229	0x3db7a9a8	0.08967906
230	0x3e750692	0.23928288
231	0xbe4e4454	-0.20143253
232	0x3dd760f0	0.10516536
233	0xbdcb76d8	-0.09934777
234	0xbe59267d	-0.21206088
235	0x3e014500	0.12623978
236	0x3e27f690	0.1640265
237	0x3d9271dc	0.07150623
238	0x3dea6f38	0.114469945
239	0xbd767c24	-0.060176983
240	0x3cc15120	0.023598254
241	0xbe5adcbb	-0.21373264
242	0xbe4002a1	-0.18751003
243	0xbdc99cf4	-0.098443896
244	0x3e5ed58e	0.21761152
245	0xbcc60d20	-0.02417618
246	0xbccedc28	-0.025251463
247	0xbe25f316	-0.16206011
248	0x3ccd94c0	0.025095344
249	0xbd54b4e8	-0.05193034
250	0x3e200808	0.15628064
251	0x3cd81250	0.02637592
252	0x3ddba298	0.10724372
253	0xbe0cf257	-0.1376432
254	0x3e8411bb	0.25794777
255	0xbe854773	-0.26031074

bias f4 [25]
0	0xbba93340	-0.00516358
1	0x3dc2cacc	0.09511337
2	0xbdda2a80	-0.106526375
3	0xbe1cbad2	-0.15305641
4	0xbc9c2930	-0.019062608
5	0x3e3c5c0a	0.18394485
6	0x3e3247ba	0.17410174
7	0x3e134fe0	0.14385939
8	0x3e728c32	0.23686293
9	0xbd9ed63a	-0.07755704
10	0x3df1e54c	0.11811313
11	0xbd299904	-0.041405693
12	0xbdbd0fd8	-0.092315376
13	0xbdde835c	-0.108648986
14	0xbd9430ea	-0.07235892
15	0x3e5872b8	0.21137512
16	0x3e08402a	0.13305727
17	0xbde13040	-0.10995531
18	0xbe81cd06	-0.25351733
19	0xbe86c89f	-0.26324937
20	0x3e733c46	0.23753461
21	0xbd86de64	-0.065853864
22	0x3e0830e0	0.13299894
23	0xbd3d79a4	-0.046258584
24	0x3ce811f0	0.028328866

weight f4 [25, 25]
0	0x3dad7f72	0.08471574
1	0x3df93682	0.121686
2	0x3e13ea7f	0.14444922
3	0x3e08f29f	0.13373803
4	0xbda46543	-0.08027127
5	0xbe4af14a	-0.19818607
6	0xbdfb0143	-0.122561
7	0xbd5de1e0	-0.05417049
8	0xbda59ced	-0.08086572
9	0x3d1b16c0	0.037863493
10	0xbe445f92	-0.19177082
11	0xbc46f400	-0.012143135
12	0x38c64000	9.453297e-05
13	0xbc71b980	-0.014753699
14	0x3cd80310	0.026368648
15	0x3dc06392	0.093939915
16	0xbdd08f1a	-0.101835445
17	0x3dd4fd1e	0.10399841
18	0xbe0e48d0	-0.13894963
19	0xbdb6efc0	-0.089324474
20	0x3e3a6581	0.18202783
21	0x3e39a7bd	0.18130393
22	0x3dae6e7a	0.085171655
23	0x3e0c222f	0.13684915
24	0xbd04e8a8	-0.03244844
25	0xbe25eaae	-0.16202804
26	0x3d8f0426	0.06983213
27	0x3dbd2ab2	0.09236659
28	0xbd3d7560	-0.046254516
29	0x3e30ca01	0.17264558
30	0x3c980610	0.018557578
31	0xbdba1e40	-0.09087801
32	0x3e0e284b	0.13882558
33	0xbe3d204a	-0.18469349
34	0x3e32628b	0.17420404
35	0x3e401b81	0.18760492
36	0xbdf85160	-0.12124896
37	0xbd8cf2c4	-0.06882241
38	0x3d446d34	0.047955707
39	0x3d3ae0ac	0.04562442
40	0x3da9b5d2	0.082866326
41	0xbe0d68dd	-0.13809533
42	0xbe4063e0	-0.187881
43	0x3ce29858	0.027660534
44	0x3c1a3a20	0.009413272
45	0x3e2f2ab3	0.17106132
46	0xbda895f0	-0.08231723
47	0x3dbc8176	0.0920438
48	0xbde8c6aa	-0.11366017
49	0x3db62166	0.08893089
50	0xbdc393dd	-0.09549687
51	0x3d8e240e	0.06940471
52	0xbdf16433	-0.117866896
53	0x3dea4ffa	0.114410356
54	0x3bf72bc0	0.007543057
55	0x3e3a8e21	0.1821828
56	0x3ca16d30	0.019705385
57	0xbd988920	-0.074480295
58	0x3d0afd28	0.033932835
59	0x3e025c19	0.12730445
60	0xbd69c220	-0.057069898
61	0x3e351679	0.17684354
62	0x3dfb1462	0.12259747
63	0xbd7aba40	-0.061212778
64	0xbdec02a3	-0.115239404
65	0xbe46dd1f	-0.19420289
66	0xbe1a20d0	-0.1505158
67	0x3e4c3d51	0.19945265
68	0xbd92fa34	-0.07176629
69	0x3dda3532	0.106546775
70	0x3d906db2	0.07052173
71	0xbd05c4d8	-0.032658428
72	0x3e1c0ff3	0.15240459
73	0xbdf7e45d	-0.12104104
74	0x3e0b473f	0.13601397
75	0x3e34f499	0.17671432
76	0x3e46d883	0.1941853
77	0xbda75c0a	-0.08171852
78	0x3d78c22c	0.06073205
79	0x3e3b0f87	0.18267642
80	0xbe105afd	-0.1409721
81	0x3e244369	0.1604134
82	0x3e2e6263	0.17029719
83	0x3ddd9c32	0.108208075
84	0x3dcfc0ce	0.101441965
85	0x3cc30000	0.023803711
86	0x3e36c5f1	0.17848946
87	0x3e1bd283	0.15217023
88	0x3dd0d59e	0.10196994
89	0xbd031b88	-0.032008678
90	0x3a90f280	0.0011058599
91	0xbe1a352d	-0.15059347
92	0x3e338fc1	0.17535307
93	0xbd873474	-0.066018015
94	0x3e161987	0.14658175
95	0x3dda6cba	0.10665269
96	0xbe39847d	-0.18116947
97	0x3d840212	0.064457074
98	0xbceab770	-0.028651923
99	0xbe4863d5	-0.19569333
100	0xbe093abc	-0.13401312
101	0xbd1afcc8	-0.037838727
102	0xbd18efec	-0.037338182
103	0xbe2de9d7	-0.16983734
104	0x3df3be4e	0.11901532
105	0x3e1978cf	0.14987491
106	0xbdcad55a	-0.09903975
107	0x3d6c730c	0.057726905
108	0x3d70bafc	0.058772072
109	0x3d8565c2	0.065135494
110	0x3ca6ef28	0.02037771
111	0x3e3aa079	0.18225278
112	0xbe27fd8a	-0.16405311
113	0x3e148127	0.14502393
114	0x3e0b82c9	0.1362411
115	0x3d88deee	0.066831455
116	0x3d12ad6c	0.03580992
117	0x3e255307	0.16144954
118	0xbdebdeba	-0.11517091
119	0x3e0260dd	0.12732263
120	0x3d983772	0.0743245
121	0x3c917968	0.017758086
122	0xbe08f616	-0.13375124
123	0x3cb34f70	0.021888465
124	0xbd06ae00	-0.032880783
125	0x3e0ee7cf	0.13955615
126	0x3e3b0c03	0.18266301
127	0x3d8d3aa2	0.06895949
128	0xbdc32390	-0.095282674
129	0xbe07708a	-0.13226524
130	0xbe10383a	-0.14083949
131	0xbdb86b7d	-0.09004877
132	0x3e09ad27	0.13444959
133	0x3dcd7c7e	0.100335106
134	0x3e3a4e95	0.18194039
135	0x3dd07732	0.10178985
136	0x3e1142f9	0.14185704
137	0x3e25f7e1	0.1620784
138	0x3d9cff5e	0.07665895
139	0xbdeb0383	-0.11475279
140	0xbe150b83	-0.14555173
141	0xbe13532d	-0.14387198
142	0xbd971e20	-0.07378793
143	0x3e42e825	0.19033869
144	0xbd82556a	-0.06363948
145	0xbe1ebdf2	-0.15502146
146	0xbde44963	-0.1114681
147	0xbe3a6c8f	-0.18205474
148	0xbda12a0a	-0.078693464
149	0xbe2a2243	-0.16614632
150	0x3e047a65	0.12937315
151	0x3d3e45b8	0.046453208
152	0x3e1b94eb	0.15193526
153	0xbd53d468	-0.05171624
154	0x3daa1aee	0.08305918
155	0x3d5b89cc	0.05359821
156	0x3e3e8587	0.18605624
157	0x3d8741a6	0.06604318
158	0x3c1a7ad0	0.009428695
159	0x3e306ffb	0.17230217
160	0x3de9f132	0.114229575
161	0x3dc546de	0.096326575
162	0xbe3df610	-0.18550897
163	0x3b3c5380	0.0028736293
164	0x3e4aceb1	0.19805409
165	0x3df33276	0.11874859
166	0xbd94b57c	-0.07261178
167	0xbe370fcd	-0.17877121
168	0xbd8041b6	-0.06262533
169	0xbd98d31c	-0.07462141
170	0x3c237e30	0.009978816
171	0x3d50fe64	0.051023856
172	0x3e18de87	0.14928637
173	0x3e10d4fd	0.14143749
174	0xbe289f36	-0.16466984
175	0x3e264bed	0.16239901
176	0x3df9d972	0.121996775
177	0x3d7fe8c4	0.062477842
178	0xbe1c84c2	-0.15285018
179	0xbe220a6a	-0.15824285
180	0x3d9cfb26	0.0766509
181	0x3e35dd6b	0.17760246
182	0xbde20003	-0.110351585
183	0x3d3ed580	0.04659033
184	0x3e35e7b1	0.17764165
185	0xbc68d120	-0.014210016
186	0x3ce1d7a8	0.027568653
187	0xbe3001d5	-0.17188199
188	0x3d8546f2	0.06507672
189	0xbe3ce285	-0.18445785
190	0x3d61e444	0.05514933
191	0x3e1d4605	0.15358742
192	0xbd67c38c	-0.056582972
193	0x3d8e649e	0.06952785
194	0xbe4c1058	-0.1992811
195	0xbe296b92	-0.16544941
196	0xbe0aa2c0	-0.13538647
197	0x3e35e8cd	0.17764588
198	0xbe200788	-0.15627873
199	0xbe21770b	-0.15768068
200	0xbda56cf3	-0.08077421
201	0xbdedee40	-0.11617708
202	0xbd879756	-0.06620662
203	0x3d9e2026	0.077209756
204	0x3ddd522e	0.1080669
205	0x3db07f2a	0.086180046
206	0xb8ec1000	-0.00011256337
207	0x3db0a8ee	0.08625971
208	0x3d79c04c	0.060974404
209	0xbc9af3d0	-0.018915087
210	0xbdbf6c50	-0.09346831
211	0x3e050b4f	0.12992595
212	0xbd2bc36c	-0.041934416
213	0x3e3ce9ad	0.18448515
214	0xbc87dd50	-0.016585022
215	0x3ce4c730	0.027927011
216	0x3dc86242	0.09784366
217	0x3d56662c	0.052343532
218	0x3d83bff6	0.06433098
219	0xbdaf6527	-0.08564215
220	0xbe4476a5	-0.19185884
221	0x3e11d173	0.14240055
222	0xbc5d7960	-0.013517708
223	0x3d90518a	0.07046802
224	0xbd94d1a0	-0.07266545
225	0x3e2d6a45	0.1693507
226	0xbe0cffa5	-0.13769396
227	0x3e446099	0.19177474
228	0x3c1d31b0	0.009594366
229	0xbe34502d	-0.1760871
230	0xbcf644d0	-0.03006211
231	0x3d717b44	0.058955446
232	0xbd64bec0	-0.055845976
233	0x3dc9c506	0.09852032
234	0xbd8869b4	-0.06660786
235	0xbdc8f85d	-0.098129965
236	0xbcc27dd8	-0.023741648
237	0xbd8a74d0	-0.067605615
238	0xbbe74160	-0.007057354
239	0xbe33e7e7	-0.17568932
240	0x3ca2cd50	0.019873291
241	0xbbbaaca0	-0.005696848
242	0xbe368393	-0.17823629
243	0xbe459980	-0.19296837
244	0xbc0117a0	-0.007879168
245	0xbddf21a0	-0.10895085
246	0xbc865470	-0.016397685
247	0x3d4f68e4	0.05063714
248	0xbdb8c23d	-0.09021423
249	0x3e16a609	0.14711775
250	0xbce6f8b0	-0.028194755
251	0x3d6d393c	0.05791591
252	0xbdaf80b7	-0.08569472
253	0xbd8be756	-0.06831233
254	0x3e37a8b9	0.17935456
255	0xbe096d42	-0.13420585

bias f4 [25]
0	0x3e33b931	0.17551114
1	0xbcfec9e8	-0.031102136
2	0x3d9ebd02	0.07750894
3	0x3e1e84c9	0.15480341
4	0xbe300723	-0.17190222
5	0x3bb5b2c0	0.0055449903
6	0xb9935a00	-0.0002810508
7	0xbd987320	-0.07443833
8	0x3d86656e	0.06562315
9	0x3d7fc8dc	0.062447414
10	0x3d4b1c14	0.049587324
11	0x3c3c28a0	0.011484295
12	0xbe211a4d	-0.15732689
13	0xbe0efba2	-0.13963178
14	0xbdad644a	-0.08466394
15	0xbd8338d0	-0.064073205
16	0x3dc420c2	0.095765606
17	0x3dd75ba2	0.105155244
18	0x3d59e194	0.053193644
19	0xbc7c6850	-0.015405729
20	0x3d8f62b2	0.070012465
21	0x3e4c9361	0.19978096
22	0x3e43c273	0.19117145
23	0x3d71bb2c	0.05901639
24	0x3e226519	0.15858878

weight f4 [25, 25]
0	0xbd558e0c	-0.05213742
1	0x3e1f8057	0.15576302
2	0xbdec9fd7	-0.115539245
3	0x3d8daebe	0.06918095
4	0x3dc2e826	0.09516935
5	0x3dded22a	0.10879929
6	0x3cf4bd50	0.029875427
7	0xbd2ba114	-0.041901663
8	0xbe2946f6	-0.16530976
9	0x3d8307a2	0.0639794
10	0x3b4e66c0	0.003149435
11	0xbdd76170	-0.105166316
12	0xbe2cfdaa	-0.1689364
13	0xbdb880b0	-0.0900892
14	0xbe47ef7f	-0.19524954
15	0xbd5a5168	-0.05330029
16	0x3de8316a	0.1133755
17	0xbd77ef2c	-0.060530826
18	0xbddc032a	-0.10742791
19	0x3e314707	0.17312251
20	0xbdc23e67	-0.094845586
21	0xbdbc713a	-0.09201284
22	0xbca354d8	-0.019937918
23	0x3dba831e	0.0910704
24	0xbd873334	-0.06601563
25	0xbd1d012c	-0.038331196
26	0xbd013640	-0.031545877
27	0xbde4b8d3	-0.11168065
28	0x3e39b031	0.18133618
29	0xbe415363	-0.18879466
30	0xbceb7910	-0.02874425
31	0x3db55cba	0.08855577
32	0xbdfca647	-0.123364024
33	0xbd7f04d8	-0.06226048
34	0x3e3fe4e1	0.18739654
35	0xbb9b1000	-0.004732132
36	0x3cb93d50	0.022612244
37	0x3ca6ea10	0.020375282
38	0x3dcaedaa	0.09908612
39	0x3e0b875f	0.13625859
40	0x3d38f7a0	0.04515803
41	0x3dfd7852	0.12376465
42	0xbd858bac	-0.06520781
43	0xbdc6d210	-0.09708035
44	0xbdb76347	-0.089544825
45	0xbd343c38	-0.04400274
46	0xbdc5dda3	-0.096614145
47	0xbd1c2578	-0.03812167
48	0xbe3307a5	-0.17483385
49	0xb9cd0a00	-0.00039108098
50	0x3e3cc17d	0.18433185
51	0x3e42b421	0.19014026
52	0xbe380c55	-0.17973454
53	0xbe42f385	-0.19038208
54	0xbd5159f8	-0.05111119
55	0xbd853926	-0.06505041
56	0x3dde603e	0.108582005
57	0x3e13de6f	0.1444032
58	0x3d201ad8	0.0390881
59	0x3db94bbe	0.0904765
60	0xbda884e0	-0.08228469
61	0x3e4100a3	0.18847899
62	0xbd8ce1c6	-0.06879
63	0xbdf873fd	-0.12131498
64	0x3e44dfa1	0.19225933
65	0x3dd6c122	0.10486056
66	0x3d389220	0.04506123
67	0x3e28ca89	0.16483511
68	0xbd75efe8	-0.060043246
69	0xbe35cd0b	-0.17753999
70	0xbd93f624	-0.07224682
71	0xba581a00	-0.00082436204
72	0xbded8e2a	-0.11599381
73	0x3e05b681	0.13057901
74	0x3cb311b0	0.02185902
75	0xbc0c5a30	-0.008566424
76	0x3de3be02	0.111202255
77	0x3d8b7b72	0.06810655
78	0xbd706934	-0.05869408
79	0xbd826cda	-0.06368418
80	0xbe32fe47	-0.17479812
81	0xbe3eccbf	-0.18632792
82	0xbe0224cc	-0.1270935
83	0xbdbfb55a	-0.09360762
84	0x3e12ca05	0.14334877
85	0x3e117469	0.14204563
86	0xbe3caa52	-0.18424347
87	0xbc90f9d8	-0.01769726
88	0xbe1a763e	-0.15084168
89	0x3c0034d0	0.0078250915
90	0xbd2897ac	-0.04116027
91	0xbdadcc87	-0.08486276
92	0x3d43526c	0.047686026
93	0x3df10e62	0.117703214
94	0xbd6273cc	-0.055286214
95	0x3e1cf66f	0.15328382
96	0x3e13132d	0.14362784
97	0xbd1e7878	-0.038689107
98	0xbdc362c3	-0.09540322
99	0xbd834c60	-0.06411052
100	0xbdae1530	-0.08500135
101	0x3da7737a	0.08176322
102	0xbe1f4396	-0.15553126
103	0xbcd34868	-0.025791362
104	0x3df8d65e	0.12150262
105	0x3e038ddd	0.12847085
106	0xbda45897	-0.0802471
107	0x3d4d12e4	0.050066844
108	0xbe18a14e	-0.14905283
109	0xbce527b0	-0.027973026
110	0x3d1800cc	0.037110135
111	0xbd7446ec	-0.05963795
112	0xbdde14da	-0.10843821
113	0xba021b00	-0.000496313
114	0xbe440dc3	-0.19145875
115	0x3e38b7fd	0.18038936
116	0xbdf33893	-0.11876025
117	0xbe08f298	-0.13373792
118	0xbd48f8a8	-0.049065262
119	0x3e3f35e1	0.18672897
120	0xbd548e2c	-0.0518934
121	0xbbf08f00	-0.0073412657
122	0xbc9c74d8	-0.019098684
123	0xbdf8db07	-0.12151151
124	0x3cb74a30	0.022374243
125	0x3e15312f	0.14569543
126	0x3e443387	0.19160281
127	0x3b458180	0.0030137002
128	0xbd6efc14	-0.05834587
129	0xbe4b8023	-0.19873099
130	0xbe0b1be0	-0.13584852
131	0xbde88217	-0.11352938
132	0xbcc8cd58	-0.024511978
133	0x3db992de	0.09061216
134	0x3e1756c1	0.14779188
135	0x3dedf3aa	0.11618741
136	0x3e4a2f4d	0.19744606
137	0x3d879602	0.066204086
138	0xbd766458	-0.06015429
139	0x3e0b7477	0.13618647
140	0x3d1e6614	0.038671568
141	0x3dc2108a	0.09475811
142	0x3e338c2f	0.17533945
143	0x3de13c1a	0.109977916
144	0x3dbbd79e	0.09171985
145	0xbe1cbbe3	-0.15306048
146	0x3d181cf4	0.037136987
147	0xbe3472f7	-0.1762198
148	0xbe4b7ffb	-0.1987304
149	0xbe4a0c63	-0.19731288
150	0x3e038ee7	0.12847482
151	0x3c900ff0	0.017585725
152	0x3d074dcc	0.033033177
153	0x3d84b37a	0.06479545
154	0xbd474520	-0.048649907
155	0x3d165ac0	0.03670764
156	0xbe3b3d03	-0.18284993
157	0x3cf06e98	0.02934961
158	0x3e346733	0.17617492
159	0x3e26fc65	0.16307218
160	0xbdfd5f77	-0.12371724
161	0xbe2f64cb	-0.17128293
162	0x3bcdb040	0.006277114
163	0xbe27d742	-0.16390708
164	0xbe08342e	-0.13301155
165	0xbd1c43c0	-0.03815055
166	0xbc806600	-0.015673637
167	0x3d0ab5a8	0.033864647
168	0xbd8cb640	-0.06870699
169	0xbd886914	-0.06660667
170	0x3dedd0c6	0.11612086
171	0xbe301d87	-0.17198764
172	0xbd8bcf94	-0.06826702
173	0xbdb6520d	-0.08902369
174	0x3e053f0b	0.1301233
175	0xbe1860b6	-0.14880642
176	0x3e2eba69	0.17063297
177	0xbd83fde6	-0.06444912
178	0xbe09a408	-0.13441479
179	0x3dd81e52	0.10552658
180	0x3d47e1c8	0.048799306
181	0xbdfa648d	-0.1222621
182	0x3e06d9cf	0.13169025
183	0x3d4f4d9c	0.050611123
184	0xbd642d60	-0.055707335
185	0xbdcad17a	-0.09903236
186	0xbe170b5e	-0.1475043
187	0xbc8c2c68	-0.017111018
188	0x3d7dc604	0.06195642
189	0xbdef944d	-0.11698208
190	0xbe099bf2	-0.13438395
191	0xbdb78383	-0.08960631
192	0xbdad32b3	-0.08456936
193	0xbca4f818	-0.020137832
194	0xbc913510	-0.017725497
195	0xbe01d02a	-0.12677065
196	0x3e1ec069	0.15503086
197	0x3de91a42	0.113819614
198	0x3ddd763e	0.108135685
199	0xbdb291b7	-0.08719199
200	0x3ddf44ea	0.10901816
201	0x3e13e609	0.1444322
202	0x3d84803e	0.06469773
203	0xbe06c635	-0.13161547
204	0xbe3add57	-0.18248497
205	0x3df4694a	0.11934145
206	0x3ddbb5b2	0.10728015
207	0x3d801f3a	0.06255956
208	0x3d6acc74	0.057323888
209	0xbdcf17ed	-0.10111985
210	0x3e46f32b	0.19428699
211	0x3e052a13	0.13004331
212	0x3dec217a	0.11529823
213	0xbca2e4d8	-0.019884512
214	0x3e368755	0.17825063
215	0xbcbacf58	-0.022803947
216	0xbc801a80	-0.015637636
217	0x3c9e3510	0.019312412
218	0x3d576d14	0.05259426
219	0x3b78f580	0.0037988126
220	0x3b5f3a80	0.0034061968
221	0x3e401f01	0.18761827
222	0x3e22d2e9	0.15900768
223	0xbd1135ac	-0.035451576
224	0xbde2d20a	-0.11075218
225	0x3c7babe0	0.015360802
226	0x3e14fd7d	0.14549823
227	0x39e64000	0.00043916702
228	0x3e39eb6d	0.18156214
229	0xbda1433a	-0.078741506
230	0x3dd8f3b2	0.10593356
231	0x3e4984e3	0.19679599
232	0xbe2f9337	-0.17146002
233	0x3e3610db	0.17779867
234	0x3c12b4a0	0.008954197
235	0x3e04f8cd	0.12985535
236	0x3b7abe80	0.003826052
237	0x3db03cba	0.08605333
238	0x3d818402	0.063240066
239	0x3cb8f1d0	0.022576243
240	0x3dad20ce	0.084535226
241	0x3de7e56e	0.11323057
242	0x3e46b121	0.19403507
243	0x3e276709	0.16347899
244	0x3dc771e2	0.09738518
245	0xbdf2259a	-0.11823578
246	0x3d9c2f92	0.07626261
247	0x3e121d8f	0.14269088
248	0xbde90aa0	-0.1137898
249	0x3e3505a7	0.17677937
250	0x3dae7e02	0.08520128
251	0x3e0a1ab1	0.13486744
252	0x3d1089c0	0.03528762
253	0xbe08c038	-0.13354576
254	0xbdec52ad	-0.11539207
255	0xbd4fc054	-0.050720528

bias f4 [25]
0	0x3e2ee549	0.17079653
1	0x3e2314ef	0.15925954
2	0xbe094946	-0.13406858
3	0xbd5bc9d8	-0.05365929
4	0xba193800	-0.00058448315
5	0x3dde8de2	0.10866906
6	0xbe0e2b23	-0.13883643
7	0xbddb510d	-0.107088186
8	0xbce63a28	-0.028103903
9	0x3d3f99ac	0.046777412
10	0x3e20caeb	0.15702407
11	0x3de467fa	0.111526445
12	0xbd842eba	-0.06454225
13	0x3e3dfce5	0.18553503
14	0x3e03bedd	0.12865777
15	0x3de68c6e	0.112572536
16	0x3de3cabe	0.111226544
17	0xbe3ebd10	-0.18626809
18	0x3e45a0af	0.19299577
19	0xbd2473d4	-0.040149525
20	0x3d0f3308	0.034960777
21	0xbd980cb4	-0.07424298
22	0x3d33b160	0.04387033
23	0xbe1e3e1d	-0.15453382
24	0xbcf11ed0	-0.029433638

weight f4 [25, 25]
0	0xbddcfc2a	-0.10790284
1	0xbe27ce06	-0.16387185
2	0xbdaab23a	-0.08334775
3	0x3d779a3c	0.060449824
4	0xbe432742	-0.19057944
5	0x3c0c2b00	0.008555174
6	0x3cd3eaf0	0.025868863
7	0xbdefa857	-0.1170203
8	0xbd6bde34	-0.057584956
9	0x3dce251a	0.1006567
10	0xbddcfb53	-0.10790124
11	0xbe0c2054	-0.13684207
12	0xbde64187	-0.11242967
13	0x3dc31352	0.095251694
14	0xbcadc700	-0.021213055
15	0xbe388cf7	-0.18022524
16	0x3e222111	0.15832926
17	0xbe2e3495	-0.17012246
18	0xbcaac728	-0.020846918
19	0x3dcecb3e	0.10097359
20	0xbe46bf22	-0.19408849
21	0x3c74a220	0.014931232
22	0xbd9f28ed	-0.07771478
23	0x3d48c560	0.049016356
24	0xbd3320b4	-0.04373236
25	0xbc8a9328	-0.016915873
26	0x3c9fa050	0.019485623
27	0x3cc072b0	0.023492187
28	0xbcdad6c0	-0.026713729
29	0x3e4a6965	0.19766767
30	0xbd808d4a	-0.06276949
31	0xbd8f9f96	-0.070128605
32	0xbd7d61e8	-0.06186095
33	0xbd331558	-0.043721527
34	0xbc2916d0	-0.01032038
35	0xbdfb8cea	-0.122827366
36	0xbdbb6263	-0.09149625
37	0x3ddc57c2	0.10758926
38	0x3e41e2bb	0.18934147
39	0x3dec1692	0.115277424
40	0xbe12f9a6	-0.14353046
41	0x3d1fa094	0.0389715
42	0xbe165b15	-0.14683183
43	0xbdae4b10	-0.08510411
44	0xbde96fca	-0.11398275
45	0xbe1954a3	-0.14973693
46	0xbb56bcc0	-0.0032766312
47	0x3e428495	0.18995889
48	0x3b3d08c0	0.0028844327
49	0x3e3b72a9	0.18305458
50	0x3e315bf1	0.17320229
51	0x3dd2b27a	0.10287948
52	0xbda52fe7	-0.08065777
53	0x3d8d0856	0.068863556
54	0xbe010fb8	-0.12603652
55	0xbd438740	-0.047736406
56	0x3cab2be8	0.02089496
57	0x3e2c765b	0.16842024
58	0x3e24336d	0.16035242
59	0xbddd8d3d	-0.10817955
60	0x3c619d50	0.013770416
61	0xbd4b3eec	-0.049620554
62	0x3d9d106a	0.07669146
63	0x3e44dd13	0.19224958
64	0xbd106914	-0.03525646
65	0x3cf2a0e8	0.029617742
66	0xbd798480	-0.060917377
67	0x3de8fa8a	0.113759115
68	0x3dada6be	0.08479069
69	0xbde98800	-0.11402893
70	0x3e158429	0.14601196
71	0x3e49bbc9	0.1970054
72	0xbe3869c2	-0.18009093
73	0x3d3a6694	0.045507982
74	0x3d0bdc34	0.03414555
75	0x3da3b8b2	0.07994212
76	0x3d9f7232	0.07785453
77	0x3e2d1313	0.16901807
78	0xbd6e11f8	-0.058122605
79	0xbe46db93	-0.19419698
80	0xbe34814d	-0.1762745
81	0xbda6d133	-0.0814537
82	0x3cccab80	0.024984121
83	0x3d464294	0.048403338
84	0xbde21870	-0.11039817
85	0xbca200d8	-0.019775793
86	0xbbf7b700	-0.007559657
87	0x3dd1c606	0.10242848
88	0xbd2f298c	-0.04276423
89	0x3bcd6f40	0.0062693655
90	0xbdad180d	-0.08451853
91	0xbe3fcc32	-0.18730238
92	0xbe25ab66	-0.16178665
93	0x3dcd926a	0.10037692
94	0x3dbc5bbe	0.09197186
95	0xbe29fdcb	-0.1660072
96	0x3c750fa0	0.014957339
97	0xbd44a3c0	-0.048007727
98	0x3ccde010	0.025131255
99	0xbdab49d7	-0.08363693
100	0x3e175fad	0.14782591
101	0xbd88b8ec	-0.06675896
102	0x3d91499e	0.070941195
103	0xbdfbbc4a	-0.12291773
104	0x3b6a1c00	0.0035722256
105	0x3e092f89	0.1339704
106	0x3e3660e9	0.17810406
107	0xbdd1fe33	-0.10253563
108	0x3d870fd6	0.06594817
109	0xbe2c3c4d	-0.16819878
110	0x3e179b9f	0.14805458
111	0xbc976840	-0.018482327
112	0xbd30c14c	-0.043153092
113	0x3c185ca0	0.009299427
114	0x3d09180c	0.0334702
115	0x3e4279e1	0.18991806
116	0xbe2958e3	-0.16537814
117	0xbe1cb1b8	-0.1530217
118	0x3cd9bc10	0.026578933
119	0xbe3b3a0f	-0.18283866
120	0x3e15b1cd	0.14618607
121	0xbd841d6a	-0.06450923
122	0x3cf42210	0.029801399
123	0x3c8ffe40	0.01757729
124	0x3d904a42	0.070454136
125	0x3d66d644	0.056356683
126	0xbd40acd4	-0.04703982
127	0x3e14677b	0.144926
128	0x3dc5b0d2	0.096528664
129	0x3e1c9cf5	0.1529425
130	0xbcd68c10	-0.026189834
131	0x3d017020	0.03160107
132	0x39b09000	0.00033676624
133	0x3de74cf6	0.11293976
134	0xbda1a193	-0.07892146
135	0x3e15d791	0.14633013
136	0xbd4802e8	-0.048830897
137	0xbc008c00	-0.007845879
138	0xbe098d18	-0.13432729
139	0x3cbf6c40	0.023367047
140	0xbcda96d0	-0.026683241
141	0xbe1e78fd	-0.15475841
142	0x3dc46b82	0.09590818
143	0x3d23ccb4	0.039990142
144	0x3d06438c	0.03277926
145	0x3e48f885	0.19626053
146	0x3e038d5f	0.12846898
147	0x3e241ccb	0.16026609
148	0x3ddcbc82	0.107781425
149	0xbdbce4c7	-0.09223323
150	0xbe426692	-0.1898444
151	0xbe0e56be	-0.13900277
152	0xbdd00140	-0.101564884
153	0x3e1cec61	0.15324546
154	0xbdbc3f5d	-0.09191773
155	0x3d8ac42a	0.067756966
156	0x3d1066a8	0.03525415
157	0x3e034bd7	0.128219
158	0x3d9123ce	0.07086907
159	0xbd895376	-0.06705372
160	0xbe16bdd3	-0.1472085
161	0xbe3503c3	-0.17677216
162	0xbe340793	-0.17581014
163	0x3d4e7404	0.05040361
164	0xbe134e56	-0.14385352
165	0xbdb61cc7	-0.088922076
166	0x3da66bce	0.08126031
167	0x3d120354	0.035647705
168	0xbe25b373	-0.16181736
169	0xbd70352c	-0.05864446
170	0x3e496c09	0.19670118
171	0x3e43909b	0.19098131
172	0xbcb0a0c0	-0.021561027
173	0x3bdaf7c0	0.006682366
174	0xbde1e770	-0.11030471
175	0x3d5b2704	0.053504005
176	0xbd161ab4	-0.03664656
177	0xbda9367a	-0.08262344
178	0x3e17b1fb	0.14813988
179	0x3e3c23d1	0.18373038
180	0xbc7f70e0	-0.015590876
181	0xbe077284	-0.13227278
182	0xbc17ae00	-0.009257793
183	0xbdfb7187	-0.12277513
184	0xbdc04c33	-0.09389534
185	0xbddd9e70	-0.10821235
186	0x3df1c9ca	0.11806066
187	0xbe13f5ee	-0.14449283
188	0x3e3c5995	0.18393548
189	0xbd973ce4	-0.07384661
190	0x3dabe126	0.08392553
191	0xbdef09aa	-0.11671765
192	0x3e403a41	0.18772222
193	0xbd8962ba	-0.06708284
194	0x3e46a4ef	0.19398855
195	0x3de5e786	0.112258
196	0x3de6547a	0.112465814
197	0x3e24657d	0.1605434
198	0xbe390b4a	-0.18070713
199	0x3de8e64a	0.11372049
200	0xbe466d07	-0.19377528
201	0x3e43ec2b	0.1913306
202	0x3e251619	0.16121711
203	0xbd460cd4	-0.048352078
204	0xbcf0d898	-0.029400155
205	0xbe2af9e6	-0.16696891
206	0x3d5b6acc	0.053568646
207	0xbd8e1c40	-0.06938982
208	0xbdae2f77	-0.08505147
209	0xbcd3c470	-0.025850505
210	0xbaa75700	-0.0012767017
211	0x3ce212a8	0.027596787
212	0x3e10a5cb	0.14125745
213	0xbdd55a87	-0.10417657
214	0xbe416a3b	-0.1888818
215	0xbdc43cb7	-0.09581893
216	0xbe01a0b0	-0.12658954
217	0xbe44fefa	-0.19237891
218	0xbcb87ec0	-0.022521377
219	0x3d9dcb4e	0.07704793
220	0xbd81eeca	-0.063443735
221	0x3da02622	0.07819773
222	0x3e3a53b7	0.18195997
223	0x3c184b60	0.009295315
224	0x3da479d2	0.08031048
225	0xbe128cb2	-0.14311484
226	0xbe2eb692	-0.17061833
227	0xbd889c2c	-0.066704124
228	0xbe0a5965	-0.13510664
229	0xbe32723a	-0.17426386
230	0xbe302b0a	-0.17203918
231	0xbbbdf540	-0.0057970583
232	0xbe1317ba	-0.1436452
233	0x3e0eb45b	0.13935988
234	0xbdf24803	-0.118301414
235	0xbe46ef5d	-0.19427247
236	0x3e1b9ff1	0.15197732
237	0x3dd932da	0.10605402
238	0xbcf4b190	-0.029869825
239	0xbe4b6b22	-0.19865087
240	0x3e0ae62d	0.13564368
241	0x3cb7c0d8	0.022430822
242	0x3e31b1bd	0.17352958
243	0xbe3788d8	-0.17923295
244	0x3e0febe3	0.14054827
245	0x3dd5e39e	0.10443805
246	0x3ccf0110	0.025269061
247	0x3c55f460	0.013058752
248	0x3dc08122	0.0939963
249	0xbd44b834	-0.048027232
250	0x3d87154e	0.065958604
251	0x3c595d50	0.013266876
252	0xbe366b68	-0.1781441
253	0xbd8d4fb6	-0.06899969
254	0x3e37a219	0.17932929
255	0x3e2b69f1	0.16739632

bias f4 [25]
0	0x3db423f6	0.087959215
1	0x3e01afcd	0.12664719
2	0x3da3c5e2	0.079967275
3	0x3d0a41d8	0.0337542
4	0xbe21fd78	-0.15819347
5	0x3c27e760	0.010248035
6	0xbdc9a8d3	-0.09846654
7	0x3e19c0a1	0.15014888
8	0xbd9d177a	-0.076704934
9	0x3c12ae00	0.008952618
10	0x3ce9a118	0.028519198
11	0x3be0f860	0.006865546
12	0xbd089a8c	-0.033350512
13	0xbd8eef5c	-0.06979248
14	0xbd2c1018	-0.042007536
15	0x3ce37d50	0.027769715
16	0xbc14cc20	-0.00908187
17	0x3dd43bd2	0.10362972
18	0x3e2c2359	0.16810359
19	0x3d9e10ca	0.07718046
20	0x3e017905	0.12643822
21	0xbe00fa0d	-0.12595387
22	0x3dc300fe	0.095216736
23	0xbda68a6d	-0.08131871
24	0x3d855e6e	0.06512152

weight f4 [4, 25]
0	0xbe18e7fd	-0.14932247
1	0xbdce4e67	-0.10073548
2	0xbe1071c6	-0.14105901
3	0xbcaa7930	-0.02080974
4	0x3d34938c	0.044086024
5	0x3d9f2bde	0.07772039
6	0x3c5f5820	0.0136318505
7	0xbd198620	-0.037481427
8	0x3df2aa2a	0.118488625
9	0x3d3147b4	0.043281272
10	0xbe2f5e2a	-0.17125764
11	0x3d8fd8ce	0.07023774
12	0x3e0f193f	0.13974474
13	0xbd17c894	-0.03705652
14	0x3dceadd2	0.10091747
15	0xbca5ac80	-0.020223856
16	0x3e0c33d9	0.13691653
17	0xbe1bd57e	-0.1521816
18	0x3e1c3b27	0.1525694
19	0x3df98092	0.12182726
20	0x3e279dc9	0.16368784
21	0xbc803d90	-0.015654355
22	0xbe4085a5	-0.18800981
23	0xbdde9c1a	-0.10869618
24	0x3d828612	0.06373228
25	0xbd3d1600	-0.04616356
26	0xbd6fe494	-0.0585676
27	0xbe3d34e2	-0.18477204
28	0x3c598d30	0.013278291
29	0x3c1e81b0	0.009674475
30	0x3d4f6664	0.050634757
31	0xbdafeaf0	-0.08589733
32	0xbd8ba3b0	-0.0681833
33	0xbd947b80	-0.07250118
34	0xbda371ad	-0.07980666
35	0xbe0732bc	-0.13202947
36	0xbe44ae78	-0.1920718
37	0xbe29aa22	-0.16568807
38	0x3bd5bfc0	0.0065231025
39	0xbe1f802a	-0.15576234
40	0x3cb9a8b0	0.022663444
41	0xbe33252a	-0.17494646
42	0x3d440648	0.047857553
43	0x3ced3990	0.028958112
44	0xbda5b143	-0.080904506
45	0xbe487caa	-0.19578806
46	0x3dfb38ae	0.1226667
47	0x3db68f4a	0.08914049
48	0xbd3ad1e0	-0.04561031
49	0x3de2d6a6	0.11076097
50	0xbe3d3ceb	-0.1848027
51	0xbdba9dfd	-0.09112165
52	0x3d3a94c8	0.045552045
53	0x3b66f480	0.0035240948
54	0x3d85ddd2	0.065364495
55	0x3e07b853	0.13253908
56	0x3df8f00a	0.12155159
57	0x3e0f0e5d	0.13970323
58	0xbe39d46f	-0.18147443
59	0xbd8d3bf4	-0.06896201
60	0xbdd21a43	-0.10258915
61	0xbe0625f6	-0.13100418
62	0x3e01d301	0.12678148
63	0x3de35aaa	0.11101277
64	0xbe306db8	-0.17229354
65	0x3e1d7e11	0.15380122
66	0xbd8a3074	-0.06747523
67	0xbe326405	-0.17420967
68	0xbc068930	-0.008211419
69	0xbda92b87	-0.08260255
70	0xbe32420f	-0.17408012
71	0x3c68ce20	0.0142093
72	0x3e32084d	0.17385979
73	0xbe3ee557	-0.18642174
74	0xbe2f1d32	-0.17100981
75	0x3d1cb454	0.03825791
76	0x3d103d48	0.035214692
77	0xbe42e372	-0.19032076
78	0x3dcb9f6e	0.09942518
79	0x3c2898d0	0.01029034
80	0xbe021bf5	-0.12705977
81	0x3ccf0eb0	0.025275558
82	0xbd8503cc	-0.06494865
83	0xbe03b3d4	-0.12861568
84	0xbcff9200	-0.031197548
85	0x3db8983e	0.09013413
86	0xbd92e5e0	-0.071727514
87	0xbe24d30a	-0.1609613
88	0x3e2534d1	0.16133429
89	0xbde974a7	-0.11399203
90	0xbd0f74f4	-0.035023645
91	0x3dcbe0ee	0.09955011
92	0x3d44d558	0.048055023
93	0x3de5e216	0.11224763
94	0x3bdb4e40	0.0066926777
95	0x3d9e704a	0.07736261
96	0x3e330f61	0.17486335
97	0x3d9c0506	0.07618146
98	0xbe0a4704	-0.13503653
99	0xbd12c04c	-0.03582792

bias f4 [4]
0	0x3e0b3aa7	0.13596593
1	0x3e20eedb	0.15716116
2	0x3dccf62a	0.100078896
3	0x3ca42950	0.02003923
