models/_brain_237.pt (torch, 14593 bytes, 12 tensors)

weight f4 [14]
0	0x3f800000	1.0
1	0x3f800000	1.0
2	0x3f800000	1.0
3	0x3f800000	1.0
4	0x3f800000	1.0
5	0x3f800000	1.0
6	0x3f800000	1.0
7	0x3f800000	1.0
8	0x3f800000	1.0
9	0x3f800000	1.0
10	0x3f800000	1.0
11	0x3f800000	1.0
12	0x3f800000	1.0
13	0x3f800000	1.0

bias f4 [14]
0	0x00000000	0.0
1	0x00000000	0.0
2	0x00000000	0.0
3	0x00000000	0.0
4	0x00000000	0.0
5	0x00000000	0.0
6	0x00000000	0.0
7	0x00000000	0.0
8	0x00000000	0.0
9	0x00000000	0.0
10	0x00000000	0.0
11	0x00000000	0.0
12	0x00000000	0.0
13	0x00000000	0.0

weight f4 [25, 14]
0	0xbe2297c0	-0.158782
1	0xbe0c2470	-0.13685775
2	0xbdaeab9c	-0.08528826
3	0xbd818738	-0.06324619
4	0xbe6f9bb0	-0.23399234
5	0xbd152bb8	-0.036418647
6	0x3e87f86f	0.26556727
7	0xbe211b7a	-0.15733138
8	0x3da13300	0.078710556
9	0xbdb7b5f6	-0.08970253
10	0x3d3c7578	0.046010464
11	0x3e5ac556	0.2136434
12	0xbe3ec242	-0.18628791
13	0x3d9452a4	0.07242325
14	0xbe69a68f	-0.22817443
15	0x3e2013b8	0.15632522
16	0x3e8544a3	0.26028928
17	0xbe4729bc	-0.19449514
18	0x3e881709	0.26580074
19	0xbdaeb924	-0.085314065
20	0xbe74e19f	-0.23914193
21	0x3a7a7000	0.00095534325
22	0xbbdf3000	-0.006811142
23	0x3dfd70d4	0.12375036
24	0x3da4a750	0.08039725
25	0x3dea9270	0.11453712
26	0x3da2abc8	0.07942921
27	0xbc6fe0e0	-0.014641017
28	0xbd79e7b0	-0.06101197
29	0xbe3c1d00	-0.18370438
30	0xbe810df4	-0.25205958
31	0x3e79ba5e	0.243875
32	0x3e56c652	0.2097409
33	0x3cc76d00	0.024343967
34	0x3e3545ba	0.1770238
35	0x3c9e0180	0.019287825
36	0xbdd5c2c2	-0.10437538
37	0xbe708f63	-0.23492198
38	0x3afbb500	0.0019203722
39	0x3e125e9c	0.14293903
40	0xbcc06e20	-0.023490012
41	0x3c4ed900	0.012624979
42	0x3df33c64	0.11876753
43	0x3e25cba4	0.16190964
44	0xbda14bb2	-0.07875766
45	0x3d3e74a0	0.04649794
46	0x3e875d7b	0.26438507
47	0xbd5a4bec	-0.05329506
48	0x3d7af710	0.061270773
49	0xbe0e4538	-0.13893592
50	0xbe1ea0de	-0.15491053
51	0x3e744c7e	0.23857304
52	0xbe1e8d46	-0.15483579
53	0xbe338166	-0.1752983
54	0x3d3c6468	0.045994192
55	0x3d36be58	0.04461512
56	0x3e7e35ca	0.24825206
57	0xbd650288	-0.055910617
58	0xbe025dce	-0.12731096
59	0xbe0ba5f7	-0.1363753
60	0x3d894d44	0.067041904
61	0xbdcf1fdc	-0.101134986
62	0x3db9a1c4	0.090640575
63	0x3d86e880	0.065873146
64	0x3e131f08	0.14367306
65	0x3e8549e3	0.26032934
66	0xbd8899aa	-0.06669934
67	0x3d9b2044	0.075745136
68	0xbe6a70ab	-0.22894542
69	0x3e876553	0.26444492
70	0x3e64097c	0.22269243
71	0x3d500b58	0.05079207
72	0x3b1b3480	0.0023682415
73	0x3e55a69e	0.2086434
74	0x3e15b5ca	0.14620128
75	0x3e06bd74	0.13158208
76	0x3e228246	0.15870008
77	0xbd9ea8a0	-0.077470064
78	0xbce4d8e0	-0.027935445
79	0x3e1132a2	0.14179471
80	0x3e3cdbec	0.18443269
81	0x3e8595e1	0.2609091
82	0x3e7ff652	0.24996307
83	0x3de304dc	0.11084911
84	0x3e6de0c0	0.23230267
85	0x3c28dac0	0.01030606
86	0xbe4ae8ae	-0.19815323
87	0x3e546f6e	0.20745632
88	0xbe829bc3	-0.25509462
89	0xbe3608bd	-0.17776771
90	0xbe5188cf	-0.20462345
91	0x3de3f970	0.11131561
92	0xbe5ece91	-0.21758486
93	0x3e47b152	0.19501236
94	0x3ded718c	0.11593923
95	0x3d5648f8	0.052315682
96	0xbcdf2fa8	-0.027244404
97	0xbe60a51b	-0.21937983
98	0x3ddaaa44	0.10677007
99	0x3daf20e4	0.08551195
100	0x3e570c7c	0.21000856
101	0x3d1c17b8	0.038108557
102	0xbb72bf80	-0.0037040412
103	0x3d4e5e00	0.050382614
104	0x3c9be770	0.019031256
105	0xbb6ff100	-0.0036612153
106	0xbe3e5fd2	-0.1859124
107	0x3dc7ab38	0.09749454
108	0xbd046e0c	-0.03233151
109	0x3cd45740	0.02592051
110	0xbd71288c	-0.05887656
111	0x3d095330	0.0335266
112	0xbda1a0aa	-0.07891972
113	0xbd15b2a8	-0.036547333
114	0xbe2e5228	-0.17023528
115	0x3e4be5da	0.199119
116	0x3d7caef8	0.0616903
117	0xbd98f4dc	-0.07468578
118	0x3e169ba0	0.14707804
119	0x3d4b1da8	0.04958883
120	0x3e0b5008	0.13604748
121	0x3d2f1480	0.04274416
122	0x3e619d0c	0.22032565
123	0xbd1b9a40	-0.0379889
124	0x3e363168	0.17792284
125	0x3d153338	0.0364258
126	0xbd94f160	-0.07272601
127	0x3cf83290	0.030297548
128	0xbe42a4be	-0.19008157
129	0xbcc8a4e0	-0.024492681
130	0xbdcb5cac	-0.09929785
131	0x3e81e125	0.25367084
132	0xbe4c6d3a	-0.19963542
133	0xbe6abf31	-0.22924496
134	0xbe4f9dd3	-0.20275049
135	0x3dd7efbc	0.105437726
136	0x3d500c60	0.05079305
137	0x3e0ce6f2	0.13759974
138	0xbe35b11c	-0.17743343
139	0xbcb55fa0	-0.022140324
140	0x3d816a7c	0.063191384
141	0x3e005b54	0.12534839
142	0x3e306e64	0.1722961
143	0xbe214aad	-0.15751143
144	0x3c92d250	0.01792255
145	0xbdb47e54	-0.08813158
146	0xbe09cb3a	-0.13456431
147	0xb8c29000	-9.277463e-05
148	0x3e2bcbe2	0.16776994
149	0x3d8134e4	0.06308916
150	0xbda54eb6	-0.080716535
151	0xbe888a43	-0.26667985
152	0x3e34ee50	0.17669034
153	0x3e15d85c	0.14633316
154	0x3e479ca0	0.19493341
155	0xbe376036	-0.17907795
156	0xbd2af330	-0.041735828
157	0x3da40618	0.08008975
158	0xbe024822	-0.12722829
159	0x3dcc6c5c	0.099816054
160	0x3e88af79	0.26696375
161	0x3e73f7ce	0.23824999
162	0xbd2b549c	-0.041828737
163	0x3e54340c	0.2072298
164	0xbe29e07e	-0.16589543
165	0xbd6d76bc	-0.057974562
166	0x3e0d47e6	0.13796958
167	0xbe05d7fe	-0.13070676
168	0xbd00176c	-0.031272337
169	0xbe77a885	-0.24185379
170	0xbb602e80	-0.0034207404
171	0xbe0a146a	-0.1348435
172	0xbe7caf80	-0.24676323
173	0x3e80c247	0.25148222
174	0x3e600076	0.21875176
175	0x3e3b8532	0.18312529
176	0xbe654cf7	-0.22392641
177	0x3e7bae12	0.24578121
178	0x3e057c08	0.13035595
179	0xbd63c4a8	-0.055607468
180	0xbe0a7579	-0.13521375
181	0x3e55bb7e	0.20872304
182	0x3e1beddc	0.15227455
183	0xbe176dba	-0.14787951
184	0x3e511c38	0.20420921
185	0xbc22bb20	-0.009932309
186	0xbe3fc956	-0.18729147
187	0x3c8241e0	0.015900552
188	0xbd3f02c8	-0.04663351
189	0x3c8e2d30	0.017355531
190	0xbe850cd2	-0.25986344
191	0xbdfe2624	-0.124096185
192	0x3d4d4490	0.050114214
193	0x3e6fe3ea	0.23426786
194	0x3dc009b4	0.09376851
195	0x3ca053c0	0.019571185
196	0x3ba9d480	0.0051828027
197	0xbd1d5e7c	-0.038420185
198	0x3d077500	0.033070564
199	0xbd06ea08	-0.032938033
200	0xbe82fdf0	-0.25584364
201	0xbe47c11b	-0.19507258
202	0x3d9a6a14	0.07539764
203	0x3dc18aa8	0.09450275
204	0x3e5e5390	0.21711564
205	0x3dfbce84	0.12295249
206	0x3d86fa44	0.06590703
207	0x3e50270c	0.20327395
208	0x3e85ce89	0.26134136
209	0x3e81eeeb	0.25377592
210	0xbdcb72bc	-0.09933993
211	0x3e71b43a	0.23603907
212	0x3e01a0d4	0.12659007
213	0x3e1d1de0	0.15343428
214	0xbdd24298	-0.10266608
215	0x3d098800	0.033576965
216	0x3d1719e0	0.03688991
217	0xbe06a8f3	-0.13150387
218	0x3e46f49c	0.19429249
219	0x3e36e396	0.17860255
220	0xbe5cbe56	-0.21556982
221	0xbcd64870	-0.026157588
222	0xbd1e5fdc	-0.038665637
223	0x3e244a1c	0.16043895
224	0xbe04e2df	-0.1297717
225	0xbe05e061	-0.13073875
226	0xbe441826	-0.19149837
227	0x3e3f56d0	0.1868546
228	0xbe7a6b60	-0.24455023
229	0xbd4390c0	-0.047745466
230	0x3d99e348	0.075140536
231	0xbe13058c	-0.14357585
232	0xbe2cf228	-0.1688925
233	0xbd654e90	-0.055983126
234	0xbd466968	-0.048440367
235	0xbe2d259c	-0.16908878
236	0x3e7ffb92	0.2499831
237	0xbe882e24	-0.26597703
238	0x3df188e4	0.11793688
239	0x3e3f54c4	0.1868468
240	0x3e47802a	0.19482484
241	0x3de46b80	0.111533165
242	0x3d7fef48	0.062484056
243	0x3e6d88fa	0.23196784
244	0x3e2204b8	0.15822113
245	0xbda5aed0	-0.080899835
246	0xbc9b7710	-0.018977672
247	0x3e7d95e6	0.24764213
248	0x3dbfd808	0.093673766
249	0xbe6cc9d7	-0.23123871
250	0xbe3a6ad4	-0.18204814
251	0xbdc76d42	-0.09737636
252	0xbd928c1c	-0.0715563
253	0x3e6e4678	0.23269069
254	0xbe17f942	-0.14841178
255	0x3e12299c	0.14273685

bias f4 [25]
0	0x3d3b0d18	0.045666784
1	0xbdcfc3ca	-0.10144766
2	0xbe64415a	-0.22290555
3	0x3d2ea708	0.042639762
4	0x3e2ec55c	0.17067474
5	0x3da4841c	0.0803301
6	0x3e1c26ee	0.15249225
7	0xbdab10e8	-0.08352834
8	0xbd73901c	-0.059463605
9	0xbe42423e	-0.18970582
10	0x3e4af022	0.19818166
11	0xbd432a40	-0.047647715
12	0xbe79c75a	-0.24392453
13	0xbe2feb6a	-0.17179647
14	0x3e6b374e	0.22970316
15	0xbe858f33	-0.26085815
16	0xbde6d1be	-0.11270474
17	0x3db481f8	0.08813852
18	0xbe2ca75a	-0.16860715
19	0x3e640fa6	0.22271594
20	0x3e4969e2	0.19669297
21	0xbe112483	-0.14174084
22	0x3e42dfbc	0.1903066
23	0x3e5f9bec	0.21836823
24	0xbe311adb	-0.17295401

weight f4 [25, 25]
0	0x3dcac3ae	0.09900604
1	0xbe328b37	-0.17435919
2	0x3dd5c926	0.10438757
3	0x3e13bc87	0.14427386
4	0xbe2232d3	-0.158397
5	0xbc568200	-0.013092518
6	0xbd03f934	-0.03222008
7	0xbc77ca50	-0.015123919
8	0xbe148aab	-0.14506023
9	0xbe092cc0	-0.13395977
10	0x3bb9c040	0.00566867
11	0x3e1e1ee1	0.15441467
12	0xbd685d2c	-0.05672948
13	0xbe229c83	-0.15880017
14	0xbdf82aad	-0.12117515
15	0xbe151a15	-0.14560731
16	0x3b348a00	0.0027548075
17	0xbddd5600	-0.10807419
18	0xbb8218c0	-0.0039702356
19	0xbe0426ed	-0.12905474
20	0x3d0341c8	0.032045156
21	0xbba1f460	-0.004942462
22	0xbe399980	-0.18124962
23	0x3c52f9d0	0.012876943
24	0x3d7830a4	0.060593262
25	0xbc0b36b0	-0.008496925
26	0x3c902af0	0.0175986
27	0x3d5275b4	0.05138178
28	0x3de70c1a	0.11281605
29	0x3d93fa9a	0.07225533
30	0xbdc05643	-0.09391453
31	0xbd1d0c34	-0.038341716
32	0xbd221d68	-0.039578825
33	0x3e13412d	0.14380331
34	0x3c5a05e0	0.013307065
35	0x3d6b18ec	0.057396814
36	0x3e0e8497	0.13917767
37	0x3d88c192	0.066775456
38	0xbd32bc14	-0.043636397
39	0xbd76638c	-0.06015353
40	0x3e16f509	0.14741911
41	0xbd9c3d6d	-0.076289035
42	0x3e41a417	0.18910252
43	0x3d5e12b4	0.054217055
44	0x3e19b1c9	0.15009226
45	0x3ceffcf0	0.029295415
46	0x3db84ca6	0.089989945
47	0x3de1a4e6	0.1101778
48	0xbc326e00	-0.010890484
49	0xbd218e14	-0.039442137
50	0x3d08ef28	0.033431202
51	0xbde64597	-0.11243742
52	0xbdbac2b7	-0.0911917
53	0xbde7a9ad	-0.1131166
54	0x3dfbca56	0.12294452
55	0xbde5cf0a	-0.1122113
56	0x3d9a2bde	0.07527898
57	0x3df5182e	0.119675025
58	0xbb99eec0	-0.0046976507
59	0xbe07acca	-0.13249508
60	0x3d478e28	0.048719555
61	0x3e093769	0.13400044
62	0xbe09f23d	-0.13471313
63	0xbc6dd520	-0.014516145
64	0x3d0dbed4	0.034605816
65	0x3e03d4db	0.12874167
66	0x3d7803e4	0.060550585
67	0x3d01a108	0.031647712
68	0x3e087b6b	0.1332833
69	0x3e38442b	0.17994754
70	0xbdd1dfc7	-0.1024776
71	0xbd0afe18	-0.03393373
72	0xbe420bed	-0.18949862
73	0xbd465794	-0.048423365
74	0xbb53d2c0	-0.0032321662
75	0xbe065848	-0.13119614
76	0x3be60ac0	0.0070203245
77	0xbdba1e0d	-0.09087763
78	0x3dc85466	0.09781723
79	0xbd6c5608	-0.057699233
80	0x3e3a2531	0.1817825
81	0xbde9a49a	-0.114083484
82	0xbe14a3c0	-0.1451559
83	0xbdd21713	-0.10258307
84	0xbe00fe96	-0.12597117
85	0x3d86ad32	0.06576003
86	0xba82a900	-0.0009968579
87	0x3e0f6d29	0.14006485
88	0xbe479023	-0.19488578
89	0xbdf42797	-0.11921614
90	0x3dfdcd0a	0.12392624
91	0xbe1c5450	-0.15266538
92	0xbe385f4d	-0.18005104
93	0xbe2d443f	-0.16920565
94	0xbe49b9ca	-0.19699779
95	0x3b25b400	0.002528429
96	0xbddd86ed	-0.10816751
97	0xbe1792f8	-0.14802158
98	0xbd5cc494	-0.05389841
99	0xbe15410e	-0.14575598
100	0x3dc236d6	0.094831154
101	0x3dc672ca	0.09689863
102	0xbd0bf220	-0.034166455
103	0x3da739ba	0.08165307
104	0xbcea8d30	-0.028631777
105	0x3e3be34f	0.1834843
106	0xbe055280	-0.13019753
107	0xbe39e98a	-0.18155494
108	0x3e367311	0.17817332
109	0xbe1c335a	-0.15253964
110	0x3da63b26	0.081167504
111	0xbe336267	-0.17518006
112	0xbe228348	-0.15870392
113	0xbd2d5058	-0.04231295
114	0xbdef3b57	-0.1168124
115	0x3e2b9d7d	0.16759296
116	0x3dbed44e	0.09317838
117	0x3e05ab19	0.1305355
118	0xbe00edc6	-0.12590703
119	0xbe018004	-0.1264649
120	0x3e4cbf25	0.19994791
121	0x3e33f731	0.17574765
122	0xbda2a9e7	-0.079425626
123	0xbdb68add	-0.08913205
124	0xbe2a83c3	-0.16651826
125	0x3e382b49	0.17985262
126	0x3e06929b	0.13141863
127	0x3e140a7d	0.14457126
128	0xbd7cae20	-0.061689496
129	0x3e3c8965	0.18411787
130	0xbc985c68	-0.01859875
131	0xbe3924cd	-0.18080445
132	0x3dc8db32	0.09807433
133	0xbe2253b6	-0.15852246
134	0x3e308fe3	0.17242388
135	0x3c7a8ba0	0.015292078
136	0x3d045358	0.032306045
137	0xbe30cb5b	-0.17265074
138	0xbe340f62	-0.17583993
139	0x3d1895ec	0.03725235
140	0xbd8a8b8a	-0.06764896
141	0x3d156388	0.036471874
142	0x3cd28b70	0.025701255
143	0xbda1fd53	-0.07909646
144	0xbd764614	-0.060125425
145	0x3dbb9412	0.091591015
146	0xbe48029d	-0.19532247
147	0xbd551038	-0.05201742
148	0xbe3fd422	-0.18733266
149	0xbdbfa65d	-0.09357903
150	0x3c2c92e0	0.010533065
151	0x3e1e3b81	0.15452386
152	0x3e12a3c1	0.1432028
153	0x3e3dbdd1	0.1852944
154	0xbdb1033d	-0.08643196
155	0xbc448100	-0.011993647
156	0x3dbf2672	0.09333505
157	0x3d17e9e8	0.037088305
158	0xbc566060	-0.013084501
159	0xbe274cf6	-0.16337952
160	0xbe13d316	-0.14435992
161	0xbda91ec3	-0.082578205
162	0x3e37cfdd	0.17950387
163	0x3d7503dc	0.059818134
164	0xbe23bf12	-0.15990856
165	0xbe42dc50	-0.19029355
166	0xbdfb7d2d	-0.12279735
167	0xbdc6376d	-0.096785404
168	0xbe25f0d8	-0.16205156
169	0x3bc0c1a0	0.005882457
170	0x3e0e5981	0.1390133
171	0xbe18140b	-0.14851396
172	0x3dcc6cda	0.09981699
173	0x3e0baf45	0.13641079
174	0xbbcfd700	-0.0063427687
175	0xbe3e06f5	-0.18557341
176	0x3d6e2c7c	0.058147892
177	0x3deda2ae	0.11603294
178	0xbe247795	-0.16061242
179	0xbddeb3f3	-0.10874166
180	0xbd5ae8cc	-0.05344467
181	0xbe317983	-0.1733151
182	0xbcb74380	-0.022371054
183	0x3e144069	0.14477696
184	0x3da98c22	0.08278681
185	0x3e4a8a0b	0.19779222
186	0x3da57cae	0.080804214
187	0xbbae8ac0	-0.005326599
188	0x3de38906	0.111101195
189	0x3d520a84	0.05127956
190	0xbe3c8bbd	-0.18412681
191	0xbe2f337b	-0.17109482
192	0xbd27c178	-0.04095599
193	0xbe364340	-0.17799091
194	0x3e0eb2d9	0.13935412
195	0xbdabdcca	-0.083917215
196	0xbe39c430	-0.18141246
197	0xbcbe1928	-0.023205355
198	0xbdb05f53	-0.08611932
199	0xbe019fea	-0.12658659
200	0xbd457558	-0.04820761
201	0x3e306aaf	0.17228197
202	0xbde90ba0	-0.113791704
203	0xbe1f3b6d	-0.15550013
204	0xbe1e8363	-0.15479808
205	0xbda51a9d	-0.08061717
206	0x3e0bdbb1	0.13658024
207	0xbcf684d0	-0.030092627
208	0x3cd5ff90	0.026122838
209	0x3c41cae0	0.011828154
210	0x3d8c87fa	0.06861873
211	0xbc930750	-0.017947823
212	0x3da3d9f2	0.08000554
213	0x3d27ec78	0.040997
214	0xbe122232	-0.14270857
215	0x3d2b6a98	0.041849703
216	0x3d06db58	0.032924026
217	0xbe3c441b	-0.18385355
218	0xbd9060dc	-0.070497245
219	0x3e241cd7	0.16026627
220	0x3d0a90cc	0.033829495
221	0x3bad9040	0.005296737
222	0xbd0ada54	-0.03389962
223	0x399d5c00	0.0003001392
224	0x3e427765	0.18990858
225	0x3deb9e7a	0.115048364
226	0x3d8b2446	0.06794028
227	0xbd8056e0	-0.0626657
228	0xbd638db4	-0.05555506
229	0x3ddc6f7a	0.1076345
230	0x3e195a0f	0.14975761
231	0xbe432f00	-0.19060898
232	0x3e092e05	0.13396461
233	0x3deb4632	0.11487998
234	0xbd8eecb0	-0.06978738
235	0x3e384ee1	0.1799884
236	0x3df7a18e	0.12091361
237	0xbdab1163	-0.08352926
238	0xbaa21a80	-0.0012367517
239	0xbe486dfa	-0.19573203
240	0xbc942b28	-0.018086985
241	0x3d722b44	0.059123293
242	0xbe38209f	-0.17981194
243	0xb7a50000	-1.9669533e-05
244	0xbe179d23	-0.14806037
245	0xbd86d884	-0.06584266
246	0xbde8ef8d	-0.11373816
247	0x3e15ef95	0.14642175
248	0x3d9696f2	0.07353009
249	0xbd6d98c8	-0.05800703
250	0x3a7ca300	0.0009637326
251	0xbe49f8d7	-0.19723831
252	0xbdf9089a	-0.12159844
253	0x3dd6247e	0.10456179
254	0x3e4a9337	0.1978272
255	0x3e24abf9	0.16081227

bias f4 [25]
0	0x3df34632	0.11878623
1	0xbe1f43b3	-0.15553169
2	0x3e11e7c5	0.1424857
3	0xbd54a034	-0.051910594
4	0x3e4197f9	0.18905629
5	0x3d865172	0.06558503
6	0xbe17c916	-0.14822802
7	0x3d6f1d84	0.058377758
8	0xbc514d60	-0.012774795
9	0x3dc8b89a	0.09800835
10	0x3d68cab4	0.056833938
11	0xbe21ad50	-0.1578877
12	0xbc7eb130	-0.0155451745
13	0x3e1eed33	0.15520172
14	0xbc7d21a0	-0.015449911
15	0x3d5f5324	0.05452265
16	0x3e2cd4d5	0.16878064
17	0xbe2e56fd	-0.17025371
18	0x3dfadee2	0.12249543
19	0x3d4247ac	0.047431633
20	0x3dc0dca2	0.09417082
21	0x3da1a756	0.07893245
22	0x3ddaa93e	0.10676812
23	0xbd829c5a	-0.06377478
24	0xbd349008	-0.04408267

weight f4 [25, 25]
0	0x3da75336	0.08170168
1	0xbe1997ae	-0.14999267
2	0xbdf38020	-0.11889672
3	0xbd2cbb0c	-0.04217057
4	0xbd852d36	-0.06502764
5	0x3e2e5301	0.17023851
6	0x3e09bf93	0.13451986
7	0x3d8a5156	0.06753795
8	0xbd3c8af4	-0.046030954
9	0xbdcfc380	-0.101447105
10	0xbe487d65	-0.19579084
11	0x3cef68d0	0.029224783
12	0xbe0aa8ae	-0.13540909
13	0xbdc38d83	-0.095484756
14	0x3e432b19	0.19059409
15	0xbe217ef6	-0.15771088
16	0x3e009be7	0.12559472
17	0xbd6b1498	-0.057392687
18	0xbd16442c	-0.036686108
19	0xbe1a7395	-0.15083154
20	0xbde66df3	-0.1125144
21	0x3e46d671	0.1941774
22	0xbdc9f6ba	-0.098615125
23	0xbd6aa028	-0.057281643
24	0x3e3b7451	0.1830609
25	0x3e12b209	0.14325728
26	0x3e175ff1	0.14782692
27	0xbe44266d	-0.19155283
28	0xbc6f2460	-0.014596075
29	0x3dfa2b96	0.122153446
30	0xbe3d686f	-0.1849687
31	0x3e1c5df9	0.15270223
32	0x3c137a20	0.009001285
33	0xbe015856	-0.12631354
34	0x3d3719a8	0.044702202
35	0xbe24f65b	-0.16109602
36	0x3d80fd9a	0.06298371
37	0x3dcad63a	0.09904142
38	0x3e357ad9	0.17722644
39	0x3e1bd5cd	0.15218277
40	0x3b895700	0.0041912794
41	0x3e32634f	0.17420696
42	0x3ddc0ba2	0.10744406
43	0xbdd48efd	-0.10378835
44	0x3b782a00	0.003786683
45	0xbe496707	-0.19668208
46	0x3c8c9b50	0.017163903
47	0xbe36cf8a	-0.17852607
48	0xbe380e1f	-0.17974137
49	0xbd8c9726	-0.06864767
50	0xbe426aea	-0.18986097
51	0x3e46b95f	0.19406651
52	0xbe3f683b	-0.18692105
53	0xbe1ec37d	-0.1550426
54	0xbe148790	-0.14504838
55	0x3cca8e68	0.024726108
56	0x3b4b4400	0.0031015873
57	0xbe4bf17d	-0.19916339
58	0xbe398e2d	-0.18120642
59	0x3e3d79fd	0.18503566
60	0x3d10124c	0.0351737
61	0x3dbe7fae	0.09301697
62	0xbe212e5a	-0.15740338
63	0x3deb02b2	0.114751235
64	0x3b9b8d40	0.004747063
65	0xbd4c2c40	-0.049846888
66	0xbcd270c0	-0.025688529
67	0xbdedf8a3	-0.11619689
68	0x3cea7c58	0.028623745
69	0x3e174eb9	0.14776124
70	0xbdc330f7	-0.09530824
71	0x3dbce58a	0.092234686
72	0xbdc4727a	-0.09592147
73	0x3e1eb8f5	0.15500243
74	0xbdb53ee3	-0.08849885
75	0x3c34cb60	0.0110348165
76	0x3d4c4d78	0.049878567
77	0x3d894f9e	0.06704639
78	0xbd5ab0c8	-0.053391248
79	0x3da8b43e	0.082375035
80	0xbd308f34	-0.04310532
81	0xbcbaf580	-0.022822142
82	0x3e13caad	0.14432783
83	0x3e32cfc1	0.17462064
84	0xbd3225ec	-0.043493196
85	0x3d25c56c	0.04047148
86	0xbe1bb346	-0.15205106
87	0x3df04262	0.117314115
88	0xbcbd9be8	-0.023145631
89	0xbd5391ac	-0.051652595
90	0x3dca66b2	0.09882869
91	0x3d2741ec	0.040834352
92	0x3d8d1ada	0.06889887
93	0x3dc811c2	0.09769012
94	0xbd9c98c3	-0.076463245
95	0xbdc857bd	-0.0978236
96	0xbdaa2a4d	-0.083088495
97	0xbe20bb10	-0.15696359
98	0xbdd2a8e0	-0.102861166
99	0x3dcc0d62	0.0996349
100	0x3d762c9c	0.060101137
101	0x3d99812a	0.07495339
102	0x3e3d482d	0.18484564
103	0xbe1a4e8e	-0.15069029
104	0x3d7fb7a4	0.062430993
105	0x3e0c0145	0.1367236
106	0x3cf32a00	0.029683113
107	0xbe387db0	-0.18016696
108	0xbd8d15bc	-0.06888911
109	0xbdf1b4b3	-0.11802044
110	0xbe482b13	-0.19547682
111	0xbcc73300	-0.02431631
112	0xbe44209a	-0.19153062
113	0xbb9317a0	-0.0044889003
114	0x3d858a9a	0.06520577
115	0xbc5b9520	-0.013402253
116	0xbd334600	-0.04376793
117	0xbe20076d	-0.15627833
118	0x3ddf855a	0.10914107
119	0xbddb2227	-0.106998734
120	0xbe1dcb1d	-0.15409513
121	0x3dab3bc2	0.08361007
122	0x3d90242e	0.07038151
123	0xbd456208	-0.048189193
124	0xbde7a347	-0.113104396
125	0xbde9c02d	-0.11413608
126	0x3d9ff172	0.07809724
127	0xbdd76a1d	-0.105182864
128	0x3d00d9ec	0.031457826
129	0xbc4ab150	-0.012371376
130	0x3e457061	0.1928115
131	0xbdcd2bdd	-0.10018132
132	0x3e36042b	0.17775027
133	0xbe0f87fb	-0.14016716
134	0x3d84ed42	0.06490566
135	0xbdc81afa	-0.0977077
136	0xbe1b1d08	-0.15147793
137	0x3dd4b3d2	0.103858605
138	0xbda518e7	-0.0806139
139	0xbe43d14b	-0.19122808
140	0xbde9b22a	-0.11410935
141	0x3dc954e2	0.09830643
142	0x3ca693b0	0.020334095
143	0xbdb41587	-0.087931685
144	0x3e275aa7	0.16343175
145	0xbd8722fa	-0.06598468
146	0xbd566100	-0.0523386
147	0x3e074503	0.1320992
148	0x3beab7a0	0.007163003
149	0xbe192a02	-0.14957431
150	0x3e4a8e79	0.19780912
151	0x3dde5e42	0.10857822
152	0x3dc7d65a	0.09757681
153	0xbc8bc210	-0.01706031
154	0x3da59c76	0.08086483
155	0xbdd241a3	-0.102664255
156	0xbe2d03a5	-0.16895922
157	0x3c342450	0.010994986
158	0xbd82f6a0	-0.06394696
159	0x3d18be18	0.037290663
160	0x3e2c4831	0.16824414
161	0xbd81b41a	-0.0633318
162	0x3c63b6e0	0.013898581
163	0x3e006b97	0.12541042
164	0x3e142d73	0.14470463
165	0xbe20144b	-0.15632741
166	0xbe0f875d	-0.1401648
167	0x3c38beb0	0.011275932
168	0xbe447192	-0.19183949
169	0x3e048511	0.12941386
170	0xbcf7a428	-0.030229643
171	0xbdc57910	-0.096422315
172	0xbe0d87e2	-0.13821366
173	0x3e188f53	0.14898424
174	0x3dab2ae2	0.083577886
175	0x3dce6b76	0.1007909
176	0x3e2cee11	0.1688769
177	0x3d795a24	0.06087698
178	0x3e23d1e1	0.15998031
179	0xbdc4e0f0	-0.09613216
180	0x3e0d3325	0.13789041
181	0xbe1ee233	-0.15515976
182	0x3e10b5db	0.14131872
183	0xbdf3bd30	-0.11901319
184	0x3ddc7a1a	0.107654765
185	0x3e0f9271	0.14020707
186	0xbe3db8a8	-0.18527472
187	0x3d68a2fc	0.05679606
188	0x3e28c36d	0.16480799
189	0xbe0f61db	-0.14002173
190	0x3e0fdb8f	0.14048599
191	0xbe0cf59a	-0.13765565
192	0x3e230599	0.15920104
193	0x3d9c112a	0.07620461
194	0xbdcf7bfa	-0.101310685
195	0x3e2ffb33	0.17185669
196	0x3e10fc71	0.14158799
197	0xbe23a50a	-0.15980926
198	0xbde498b3	-0.111619376
199	0xbd97c084	-0.07409766
200	0x3e11d287	0.14240466
201	0x3dccb836	0.09996073
202	0xbc8bef58	-0.017081901
203	0x3cde36a8	0.027125672
204	0x3e404839	0.18777551
205	0xbdb7faa7	-0.08983355
206	0x3da9454e	0.08265172
207	0xbe31f40a	-0.1737825
208	0x3e01b931	0.12668301
209	0x3d48c8b8	0.049019545
210	0x3c0537d0	0.0081309825
211	0xbe47c39b	-0.19508211
212	0xbe45d6f7	-0.19320284
213	0xbe32f5d5	-0.1747659
214	0xbd9dc1d0	-0.077029824
215	0xbe37146b	-0.17878883
216	0xbd7df740	-0.062003374
217	0x3e26450b	0.16237275
218	0xbdf040fa	-0.11731143
219	0x3d2b43b4	0.041812614
220	0xbdaaa92d	-0.08333049
221	0xbd65d08c	-0.05610709
222	0x3e39c35f	0.18140934
223	0xbdf23f33	-0.118284605
224	0xbe277f62	-0.16357186
225	0xbd2fbc6c	-0.042904302
226	0x3e25dabb	0.1619672
227	0x3e031f4b	0.12804906
228	0xbd86fbf0	-0.06591022
229	0x3d8215ae	0.06351791
230	0xbd517368	-0.05113545
231	0x3e4c374d	0.1994297
232	0xbe191c35	-0.14952166
233	0x3cc37880	0.02386117
234	0x3e06f87f	0.13180731
235	0xbe12eaca	-0.14347377
236	0xbe14ba75	-0.14524253
237	0xbd1f8ee0	-0.038954616
238	0x3d79080c	0.06079869
239	0x3d2811d4	0.041032627
240	0xbdb3791a	-0.08763333
241	0x3cf4c770	0.029880255
242	0xbe418cd2	-0.18901375
243	0xbd4ecb94	-0.050487116
244	0x3e1ecbc9	0.15507425
245	0xbe0c013c	-0.13672346
246	0x3e496ae1	0.19669677
247	0x3dffbb62	0.12486912
248	0x3e272643	0.1632319
249	0xbd4e752c	-0.050404713
250	0xbbe58e60	-0.007005498
251	0xbe0bad5d	-0.13640352
252	0xbdc5aa93	-0.09651675
253	0x3e4b4317	0.19849811
254	0x3c9eded0	0.019393355
255	0x3d8bf51e	0.06833862

bias f4 [25]
0	0xbd8b897c	-0.068133324
1	0xbdc0a38a	-0.094061926
2	0x3d74c4e4	0.059758082
3	0xbe0c5dd8	-0.13707674
4	0xbcd01698	-0.025401399
5	0xbcfbdf68	-0.030746177
6	0xbe2387ae	-0.15969726
7	0xbe29945b	-0.165605
8	0xbc918858	-0.01776521
9	0x3d810c62	0.0630119
10	0xbe2faaa8	-0.17154944
11	0x3e1e051f	0.15431641
12	0x3d661f94	0.05618246
13	0xbe26d600	-0.16292572
14	0x3e0653a7	0.13117848
15	0x3d902562	0.0703838
16	0x3de45122	0.11148287
17	0x3dfc6906	0.12324719
18	0x3daf669a	0.085644916
19	0xbe079cee	-0.13243458
20	0x3e1e0adb	0.15433829
21	0xbde32e3d	-0.110928036
22	0xbdbb6c3a	-0.09151502
23	0xbdf9224d	-0.121647455
24	0xbc3f7c50	-0.011687353

weight f4 [25, 25]
0	0xbdc965c3	-0.09833863
1	0xbe103b73	-0.14085178
2	0x3e10abe9	0.14128079
3	0xbdb2db6d	-0.087332584
4	0x3e21f653	0.15816621
5	0xbe0469d6	-0.12930998
6	0xbe240b6e	-0.16019985
7	0xbd90ff0a	-0.07079895
8	0xbd7a5bd8	-0.061122745
9	0xbe21a72e	-0.1578643
10	0x3ca13490	0.019678384
11	0xbe2937d2	-0.165252
12	0xbde06630	-0.10956991
13	0xbe3f06aa	-0.18654886
14	0x3d87ba0e	0.06627284
15	0xbe299c8e	-0.16563627
16	0xbd4355e0	-0.04768932
17	0xbdf76e2d	-0.12081561
18	0xbe172ac2	-0.14762405
19	0xbe10155e	-0.14070651
20	0xbd1e8074	-0.03869672
21	0x3e1e85c1	0.1548071
22	0x3e3e0151	0.1855519
23	0xbe42d5d2	-0.19026878
24	0x3e0ded41	0.13860036
25	0xbd988e44	-0.0744901
26	0x3e3b4d09	0.18291105
27	0xbe429043	-0.19000344
28	0xbd82716a	-0.06369288
29	0x3dd99cca	0.10625608
30	0xbe052325	-0.13001688
31	0xbdf04fba	-0.11733957
32	0x3e2572bb	0.16157047
33	0xbdda20e7	-0.10650807
34	0x3e2f0a25	0.17093714
35	0xbd3312b4	-0.04371901
36	0xbdfd2590	-0.1236068
37	0xbb984340	-0.0046466887
38	0xbd65be18	-0.05608949
39	0xbe084464	-0.13307339
40	0x3d2a6d54	0.04160817
41	0xbc4891b0	-0.012241766
42	0xbe467772	-0.19381502
43	0x3db5787e	0.08860873
44	0xbe09c41e	-0.13453719
45	0xbb794000	-0.0038032532
46	0x3e321e49	0.17394365
47	0x3cf1bf90	0.02951029
48	0x3e0fac4b	0.14030568
49	0xbe0f74f3	-0.14009456
50	0xbe4c82e2	-0.19971803
51	0x3c13a320	0.00901106
52	0x3e0695f9	0.13143148
53	0x3cadc758	0.021213219
54	0xbcea3bc0	-0.028592944
55	0x3ddd173a	0.10795446
56	0xbe3158f7	-0.17319094
57	0x3e1a90c1	0.15094282
58	0x3d858ae6	0.065206334
59	0x3e15b851	0.14621092
60	0xbe2b4450	-0.16725278
61	0xbe05724c	-0.13031882
62	0xbd91237a	-0.07086845
63	0x3d9cede2	0.0766256
64	0xbdc929c7	-0.098224215
65	0x3d906bb6	0.07051794
66	0x3d979b32	0.07402648
67	0xbe28d972	-0.16489199
68	0x3e1def89	0.15423407
69	0x3e3e0365	0.18555982
70	0xbdb11fca	-0.086486414
71	0x3d8109ca	0.06300695
72	0xbd1ad518	-0.03780088
73	0x3d976892	0.07392992
74	0x3c91cc00	0.01779747
75	0xbddb846a	-0.10718615
76	0xbdcb3333	-0.09921875
77	0x3e0be695	0.13662179
78	0x3d303988	0.043023616
79	0x3d76ae64	0.060224906
80	0x3e3af8d9	0.1825899
81	0x3e0cb38f	0.13740371
82	0x3e15ceef	0.1462972
83	0xbe0cfc78	-0.13768184
84	0x3e273a0b	0.16330735
85	0xbe249245	-0.16071422
86	0x3d6f56a4	0.058432236
87	0xbe293fed	-0.16528292
88	0x3df433ee	0.11923967
89	0x3e355181	0.17706873
90	0xbbeb9dc0	-0.007190436
91	0x3e2b43cb	0.1672508
92	0xbe1300b0	-0.14355731
93	0xbe32dccd	-0.17467041
94	0x3e262225	0.16223963
95	0x3d6f6e84	0.058455005
96	0xbe1f8a90	-0.15580201
97	0xbd8de74a	-0.069288805
98	0xbe085cf0	-0.13316703
99	0xbd8cbb50	-0.068716645
100	0x3e1f25d7	0.15541779
101	0x3d0e75ec	0.034780428
102	0x3a591e00	0.00082823634
103	0xbde7366d	-0.11289678
104	0x3e35b46f	0.17744611
105	0xbd1e9320	-0.038714528
106	0x3e051777	0.12997232
107	0x3d89cd0a	0.06728561
108	0x3d30c3ac	0.043155357
109	0x3dd4fe66	0.10400085
110	0xbd9d453d	-0.07679222
111	0xbd941ed4	-0.072324425
112	0xbc9c2cf0	-0.019064397
113	0xbe1ea2a5	-0.15491731
114	0xbe42c48a	-0.19020286
115	0xbc98d9b0	-0.018658489
116	0x3e3fa34d	0.18714638
117	0x3d45164c	0.048116967
118	0x3e131625	0.14363916
119	0x3e344b45	0.17606838
120	0xbdb0b67a	-0.08628555
121	0x3d35ff14	0.044432715
122	0x3d3fe588	0.046849757
123	0xbe1f6f28	-0.15569746
124	0x3e24d0e1	0.16095306
125	0x3e311ca5	0.17296083
126	0xbd91efec	-0.071258396
127	0x3d093f54	0.03350766
128	0xbd48e174	-0.049043134
129	0xbd01fd68	-0.031735808
130	0x3d04b428	0.032398373
131	0xbe1a723a	-0.15082636
132	0xbd9b32e3	-0.07578065
133	0x3b094f80	0.0020951927
134	0x3e12c501	0.14332964
135	0xbdb04f87	-0.08608919
136	0x3e06ac43	0.1315165
137	0x3ddbc772	0.107314005
138	0xbe24964e	-0.16072962
139	0x3e487813	0.19577055
140	0x3e285f31	0.16442563
141	0xbdf8187d	-0.12114046
142	0xbdeb5bb0	-0.114920974
143	0xbe40f9ca	-0.18845287
144	0x3e0a854b	0.1352741
145	0xba825580	-0.0009943694
146	0xbe037334	-0.12836915
147	0xbd226560	-0.03964746
148	0x3df987d2	0.12184109
149	0xbe29d210	-0.16584039
150	0x3d83901e	0.064239725
151	0xbe2fbf6b	-0.17162864
152	0x3c27b150	0.010235146
153	0x3e3e8ddf	0.18608807
154	0xbced7fa8	-0.028991535
155	0x3e39539d	0.18098302
156	0xbdd2f5b7	-0.10300773
157	0xbd5c73b4	-0.05382128
158	0xbc0e6bb0	-0.008692667
159	0xbdd90aba	-0.10597749
160	0xbe437dab	-0.19090907
161	0xbd33a094	-0.04385431
162	0x3dd90b1e	0.105978236
163	0xbccfe0b0	-0.025375694
164	0xbe3f16a0	-0.18660975
165	0xbde50173	-0.11181917
166	0x3e2d205d	0.16906877
167	0x3c7ccf00	0.015430212
168	0xbd231e48	-0.0398238
169	0xbd032e6c	-0.032026693
170	0xbdc4ef23	-0.09615924
171	0xbdebcf83	-0.11514189
172	0x3df8270e	0.12116824
173	0xbe0fc62e	-0.14040443
174	0xbd4a7874	-0.04943128
175	0xbe40bb93	-0.18821554
176	0xbdfa6d7a	-0.12227912
177	0x3a9c5580	0.0011927336
178	0x3d838862	0.06422497
179	0xbe033a8d	-0.12815304
180	0x3e1320df	0.14368008
181	0xbdf79707	-0.12089353
182	0xbe1da996	-0.15396723
183	0xbe0db38d	-0.13838024
184	0x3dd3926a	0.10330661
185	0xbdf518aa	-0.11967595
186	0xbe361367	-0.17780839
187	0x3de0c9fe	0.10976027
188	0x3e0af259	0.13569011
189	0x3c878fb0	0.016548008
190	0x3e42b61d	0.19014783
191	0xbd02faf4	-0.03197761
192	0x3d942a6e	0.07234655
193	0x3e3bc6fd	0.18337627
194	0xbb036080	-0.0020046532
195	0x3e01cebb	0.12676518
196	0xbe308385	-0.1723767
197	0xbd7e5fb8	-0.062103003
198	0x3d073498	0.03300914
199	0xbe24b2c2	-0.16083816
200	0x3e1792f1	0.14802147
201	0xbc8dd5f0	-0.017313927
202	0xbdd6b973	-0.104845904
203	0x3d153a94	0.036432818
204	0x3cee3610	0.029078513
205	0xbc625c50	-0.013815954
206	0xbe3719f2	-0.17880991
207	0xbdbab22d	-0.091160156
208	0xbd35f7cc	-0.04442577
209	0xbd3aa7e0	-0.045570254
210	0x3e433fcd	0.19067307
211	0x3ca41228	0.020028189
212	0x3dbe953e	0.093058094
213	0xbd827194	-0.063693196
214	0xbd8d96c6	-0.069135234
215	0xbe317635	-0.17330249
216	0x3db544e6	0.08851032
217	0x3e3fbc43	0.1872416
218	0xbd5ce4ac	-0.053929016
219	0xbdb8d77d	-0.09025476
220	0xbdad821a	-0.084720805
221	0xbbea61c0	-0.007152766
222	0xbdf33983	-0.11876204
223	0xbdb1b177	-0.08676427
224	0x3dd43b1e	0.10362838
225	0x3e2b85e5	0.16750295
226	0xbe216012	-0.15759304
227	0xbd0736ac	-0.033011124
228	0x3c1f5db0	0.009726927
229	0xbca1e2a8	-0.019761398
230	0xbdfa28cd	-0.122148134
231	0xbe04a57a	-0.1295375
232	0xbe3f214b	-0.18665044
233	0x3dc1283e	0.09431504
234	0x3d4df20c	0.050279662
235	0xbe254178	-0.16138256
236	0x3ccbbde8	0.024870828
237	0xbe414297	-0.18873058
238	0x3d3edc08	0.046596557
239	0x3e0475b1	0.1293552
240	0x3db01c36	0.08599131
241	0x3d85e59e	0.06537937
242	0xbe212c65	-0.15739591
243	0xbda69f57	-0.081358604
244	0x3d172948	0.036904603
245	0xbe2ef797	-0.17086636
246	0xbddfc600	-0.109264374
247	0xbe481ce5	-0.19542272
248	0xbd040268	-0.032228857
249	0xbe0e02fe	-0.13868329
250	0x3e332e73	0.17498188
251	0x3dfed6d2	0.124433175
252	0xbe437165	-0.19086225
253	0xbe42cfab	-0.19024532
254	0x3b5fa140	0.0034123212
255	0x3df97692	0.121808186

bias f4 [25]
0	0xbda6917a	-0.08133216
1	0xbe002d4e	-0.12517282
2	0xbe2f1470	-0.1709764
3	0x3deae7a6	0.11469965
4	0xbe3d0915	-0.18460496
5	0xbd768360	-0.060183883
6	0x3dd77ed2	0.10522236
7	0x3d179014	0.037002638
8	0xbdf9e523	-0.122019075
9	0xb9c01000	-0.00036633015
10	0xbe4b9860	-0.19882345
11	0x3df01416	0.11722581
12	0x3e3af0bd	0.18255897
13	0x3e00a361	0.12562324
14	0x3de216c2	0.11039497
15	0xbe2d61c5	-0.16931827
16	0xbe406b20	-0.18790865
17	0xbe1b6018	-0.15173376
18	0xbe31eb7b	-0.17374985
19	0x3c30c7e0	0.010789841
20	0x3dea0e6e	0.114285335
21	0xbdb64ff7	-0.08901971
22	0x3cc669d0	0.024220377
23	0xbdf741ad	-0.120730735
24	0xbe496167	-0.19666062

weight f4 [4, 25]
0	0x3c430700	0.011903524
1	0xbd3743f8	-0.044742554
2	0xbb3ec680	-0.0029110014
3	0x3e42bfcb	0.19018476
4	0xbd44e594	-0.048070505
5	0xbe018668	-0.12648928
6	0x3db97cb2	0.09056987
7	0x3d613984	0.05498649
8	0xbd15c560	-0.036565185
9	0xbe348f4b	-0.17632787
10	0xbe34736d	-0.17622156
11	0x3bf38aa0	0.007432297
12	0xbca87180	-0.020561934
13	0x3dd0e0ea	0.10199149
14	0x3d9e493a	0.077288106
15	0x3da37b72	0.0798253
16	0x3dba58be	0.090989575
17	0xbe00aa9a	-0.1256508
18	0xbc6dc730	-0.014512822
19	0x3e2e7501	0.17036821
20	0x3c9257c0	0.017864108
21	0x3dcc48b2	0.09974803
22	0x3e1cefc1	0.15325834
23	0xbe18c263	-0.14917903
24	0x3d4825ec	0.04886429
25	0x3df9c46a	0.12195666
26	0xbe2cabad	-0.16862364
27	0x3db47502	0.0881138
28	0x3d3653cc	0.04451351
29	0x3e019287	0.12653552
30	0xbe23e536	-0.16005406
31	0x3d264660	0.04059446
32	0x3e027f67	0.12743913
33	0x3e19f01b	0.15032999
34	0x3dd0c4a2	0.10193755
35	0xbe2b8b05	-0.1675225
36	0xbda60dc3	-0.081080936
37	0x3da109c6	0.07863192
38	0xbe1721e5	-0.14759023
39	0xbd805814	-0.062667996
40	0xbdcc47ca	-0.0997463
41	0x3b61f580	0.0034478605
42	0xbd866124	-0.06561497
43	0xbdf0f653	-0.117657326
44	0x3e086187	0.13318454
45	0x3e38f939	0.18063821
46	0x3d20a918	0.03922376
47	0x3e23c18b	0.159918
48	0x3de07b62	0.109610334
49	0xbca1cb40	-0.019750237
50	0x3e45779d	0.1928391
51	0xbe3be44b	-0.18348806
52	0xbd312248	-0.043245584
53	0x3e4b0cb7	0.19829069
54	0x3e125cc9	0.14293207
55	0xbdc1eb5d	-0.0946872
56	0xbe10bc86	-0.14134416
57	0xbe22b88b	-0.1589071
58	0x3dee320e	0.11630641
59	0xbe007128	-0.12543166
60	0x3e428a53	0.18998079
61	0xbe0bda38	-0.13657463
62	0x3e04cb09	0.12968077
63	0xbd384dc8	-0.044996053
64	0x3d7b0dc4	0.061292425
65	0xbe39a9b8	-0.18131149
66	0x3e0bd687	0.13656054
67	0x3dd3403e	0.103149876
68	0xbdc78c93	-0.09743609
69	0xbdb6c087	-0.089234404
70	0xbd8fcb1a	-0.070211604
71	0xbdc3ce6a	-0.09560855
72	0x3de2e6d2	0.11079182
73	0x3e419d63	0.18907695
74	0xbd577878	-0.052605122
75	0x3dbdec16	0.092735454
76	0x3e30e3c1	0.17274381
77	0xbda62e53	-0.081143044
78	0xbde2326d	-0.11044774
79	0xbe1e2a28	-0.15445769
80	0x3ccc8900	0.02496767
81	0x3d3ff468	0.046863943
82	0xbda95fb3	-0.08270206
83	0xbe4b1882	-0.19833568
84	0xbe2d57ea	-0.16928068
85	0x3e0790f3	0.13238887
86	0xbe2072b0	-0.1566875
87	0xbe14765a	-0.14498273
88	0xbcc00ee8	-0.023444608
89	0xbe362dcb	-0.17790906
90	0xbe458078	-0.19287288
91	0x3e1b02f3	0.15137844
92	0xbcaeb070	-0.021324366
93	0x3c5a9060	0.013340086
94	0xbe4bbce3	-0.19896273
95	0xbca07a68	-0.019589618
96	0xbe384590	-0.17995286
97	0xbdbe391d	-0.09288237
98	0xbde0810d	-0.109621145
99	0xbd028520	-0.03186524

bias f4 [4]
0	0xbc1de1e0	-0.009636372
1	0x3e262261	0.16224052
2	0x3cc60868	0.02417393
3	0xbd9d2073	-0.07672205
