models/_brain_253.pt (torch, 14593 bytes, 12 tensors)

weight f4 [14]
00000000: 0000 803f 0000 803f 0000 803f 0000 803f
00000010: 0000 803f 0000 803f 0000 803f 0000 803f
00000020: 0000 803f 0000 803f 0000 803f 0000 803f
00000030: 0000 803f 0000 803f
1.0 1.0 1.0 1.0 1.0 1.0 1.0 1.0
1.0 1.0 1.0 1.0 1.0 1.0

bias f4 [14]
00000000: 0000 0000 0000 0000 0000 0000 0000 0000
00000010: 0000 0000 0000 0000 0000 0000 0000 0000
00000020: 0000 0000 0000 0000 0000 0000 0000 0000
00000030: 0000 0000 0000 0000
0.0 0.0 0.0 0.0 0.0 0.0 0.0 0.0
0.0 0.0 0.0 0.0 0.0 0.0

weight f4 [25, 14]
00000000: 0618 033e fcfb 133e 2c5e f3bd e0aa d1bd
00000010: 00f8 b6ba 6007 89bc de2c 0abe 2af7 7e3e
00000020: 6cd5 05bd 00e9 bfba 383f cabd a43f 8c3d
00000030: 2021 37bc 141f b53d 90db 9f3d 9282 273e
00000040: 9090 693d f000 843c bf82 873e b210 a6bd
00000050: ac64 6fbd 1a67 793e 661f 1e3e 3a4b 1b3e
00000060: 492c 7abe 7415 903d 82df 70be a487 f53d
00000070: 2631 413e 28fc d6bc 8daf 10be 5a24 74be
00000080: 369b 4b3e e053 313c c2b1 703e aa44 70be
00000090: 5ef8 a8bd c06f 83bb faa1 693e 78c9 81be
000000a0: 24d1 55be 1c91 443e 4861 0ebd 41b9 7ebe
000000b0: 808c d3bd c910 11be 4613 0a3e 4085 5fbc
000000c0: f860 1bbe 803a 613b 70e3 bb3d d085 8b3c
000000d0: 70fb c03c 5a0c 2b3e f579 79be d6d4 493e
000000e0: 4e0c 31be 5081 383d 0830 0d3d e081 6d3d
000000f0: 3ae9 363e df02 29be 64e2 93bd da9e 78be
00000100: 58e6 c23d 480f 6fbe 4537 81be b083 4a3e
00000110: 00bc 993b 058a 60be e0bb 223d af58 883e
00000120: fc5e 513e 00c7 603c 2997 873e 90f0 c8bc
00000130: 9cdf 13be e915 86be 3100 67be bcf8 4bbe
00000140: 0816 b93d e2d8 643e b886 6c3d f84c 103d
00000150: 9e81 f5bd a634 763e 3007 603e c8b6 cebc
00000160: 6222 743e 501b 5d3e 001a 39ba 9aa1 26be
00000170: 2097 3cbe b84d 9c3d 80db 8d3c 2ccc 9a3d
00000180: 8004 37be 28fc 1fbe fc31 54be a8ce ffbd
00000190: bf47 84be 7c8b 4abe 207c 3c3d ba76 053e
000001a0: e267 053e 4850 eabd 5521 803e eea9 61be
000001b0: 1058 273d 900b 253d 7254 e0bd 244a 133e
000001c0: 90f2 3a3d 2030 103d 66bc ddbd fc49 43be
000001d0: b437 3f3e 71a4 6abe 4016 46bc 94b3 ed3d
000001e0: c3b8 0fbe 68a7 5b3e 0058 31ba 366b 45be
000001f0: 84c5 b03d d159 72be cce2 943d 88f5 48be
00000200: cc34 20be 0095 493c 9cb2 4abe f0b4 1cbe
00000210: e885 ee3d 1602 14be e10a 813e d8cc e53d
00000220: 34e3 2b3e e8e8 043d 621a 15be f0fd ba3c
00000230: d2f3 44be 00cb b7bc eab7 563e 4000 b73b
00000240: 00fb e6ba 66f1 543e 507d a7bc 54ee 8cbd
00000250: 0a2d 9fbd 6450 1f3e 441d 13be 50c8 163d
00000260: 286b 983d 447f ab3d 4621 5c3e cbd9 78be
00000270: 001d 84ba 8a37 2a3e 04d5 893d 2ccf 34bd
00000280: 588a 77be 0024 2ebb 7838 be3d 94a1 fdbd
00000290: dafb 433e 4ed5 753e e184 24be ce16 103e
000002a0: 8ccb bfbd 90bb ff3c f0e4 a43d 684d 173e
000002b0: 807d 70bd b23f 93bd 907c 7cbd 8e06 6d3e
000002c0: a1e1 813e 6d28 01be e8c8 633d 6c25 95bd
000002d0: 4c84 fb3d 7898 d83d 706c 943c d02f a0bd
000002e0: 685b 87bd 7cdf 62be 24ad 923d bc62 113e
000002f0: 64ad 843d 283c e0bd 0d0e 81be 4cd3 20bd
00000300: 2c6f c3bd 4a2a 80be f005 b13c f648 513e
00000310: c15f 3ebe 26f2 523e 782b c53d bab5 3a3e
00000320: 1fb5 87be d5bc 7fbe 00d0 bdbb 1062 de3d
00000330: 98fd 863d 885b c73d 38f7 f0bd cee4 213e
00000340: 4f68 10be 3046 b33c 6c93 553e 74ba 02bd
00000350: f891 5b3e a02c 4c3e 1229 4c3e 3071 2dbe
00000360: c86a 613d 001d 9bbc e440 16be 32fe 4ebe
00000370: cca6 fc3d df13 843e 08c9 383e c8c5 9abd
00000380: e29e 343e 14bb ca3d 0801 7fbd e830 9c3d
00000390: 2628 04be a0d3 aabc 5073 2e3e 8691 a4bd
000003a0: 8cbf 67bd 505c d13d d35c 803e aee9 30be
000003b0: e867 40bd 5850 d3bd 2642 703e a6da 703e
000003c0: 309b 333e 8eab c2bd a8aa 90bc 0062 e63a
000003d0: 5869 04be 0866 c3bc d7ee 83be 5283 253e
000003e0: 10fa fe3d 8ba3 71be 0ac2 63be 9637 37be
000003f0: 6d11 0dbe 20f9 833d f56d 08be cc53 4cbd
0.12802133 0.14451593 -0.11883196 -0.1023767 -0.0013959408 -0.01672715 -0.13493678 0.24898973
-0.032674238 -0.0014641583 -0.09875339 0.06848076 -0.011177331 0.08843818 0.0780555 0.16358402
0.05702263 0.016113728 0.2646694 -0.08108653 -0.058445618 0.24355736 0.15441665 0.15165415
-0.24430956 0.07035342 -0.23522761 0.11988762 0.18866405 -0.026243284 -0.14129467 -0.23841992
0.19883427 0.01082322 0.23505309 -0.23463693 -0.08250497 -0.0040111244 0.22815695 -0.2534902
-0.20880562 0.1919598 -0.034760743 -0.24875356 -0.103295326 -0.1416656 0.13483915 -0.013642609
-0.1517371 0.0034367144 0.0917424 0.01703158 0.023557395 0.1670393 -0.24362929 0.19710097
-0.1728985 0.045045197 0.034469634 0.057985187 0.17862406 -0.16505001 -0.07220915 -0.24279347
0.09516591 -0.23345673 -0.2523748 0.19776797 0.004691601 -0.2192765 0.039729953 0.2663016
0.2044639 0.01371932 0.26482514 -0.024528772 -0.14440769 -0.2618859 -0.22558667 -0.19919103
0.09037405 0.22348359 0.057745665 0.035229653 -0.11987613 0.24043521 0.21877742 -0.025233641
0.23841241 0.2159245 -0.0007061064 -0.16272584 -0.18417025 0.07632011 0.01731658 0.07558474
-0.1787281 -0.15623534 -0.20722193 -0.124905884 -0.25835988 -0.19779772 0.046016812 0.13033572
0.1302791 -0.11441094 0.2502543 -0.2203748 0.040855467 0.04029423 -0.10953607 0.14383751
0.045641482 0.035202146 -0.1082695 -0.19071192 0.18673593 -0.22914292 -0.012090266 0.116065174
-0.14035325 0.21450579 -0.0006765127 -0.19279179 0.08631423 -0.23667075 0.072698206 -0.19624913
-0.1564514 0.012303591 -0.19794697 -0.15303397 0.11646634 -0.1445392 0.25203612 0.112207115
0.1678589 0.03244868 -0.14560845 0.022826165 -0.19233635 -0.022435665 0.20968595 0.0055847466
-0.0017622411 0.20795211 -0.020445496 -0.06881395 -0.077722624 0.1555801 -0.14366633 0.036812127
0.074423134 0.08373883 0.21497068 -0.24301831 -0.0010079443 0.16622749 0.06730083 -0.044142887
-0.24173868 -0.002657175 0.09288114 -0.12384334 0.19139042 0.2400715 -0.16066314 0.140712
-0.09364995 0.031217366 0.08051479 0.14775622 -0.058713436 -0.07189883 -0.06164223 0.23147032
0.25367454 -0.12613077 0.05561152 -0.07282528 0.12281093 0.10575956 0.018118113 -0.078216195
-0.06609231 -0.22155565 0.0716193 0.1419782 0.06478384 -0.10948974 -0.25206032 -0.03926401
-0.09542689 -0.25032264 0.021609277 0.20437989 -0.18591215 0.20600185 0.09627432 0.18233386
-0.26505372 -0.24974377 -0.005792618 0.10858548 0.06591338 0.09734255 -0.11765903 0.15809938
-0.1410229 0.021884054 0.20857018 -0.031916097 0.21442401 0.19938898 0.19937542 -0.16937709
0.055033475 -0.018934727 -0.14673191 -0.20214155 0.123365015 0.2579641 0.18045437 -0.07557255
0.17638734 0.098989636 -0.062256843 0.076265156 -0.1290594 -0.020852864 0.17036176 -0.08035569
-0.056579158 0.10222685 0.2507082 -0.17276642 -0.046974093 -0.10318059 0.23462734 0.23520908
0.17539668 -0.09505378 -0.0176595 0.0017576814 -0.1293081 -0.023852363 -0.25768158 0.16163376
0.124500394 -0.23597543 -0.22241989 -0.17892298 -0.13776179 0.06444001 -0.13323195 -0.049884602

bias f4 [25]
00000000: c02c 973b 0cb0 87bd caa4 45be 4062 db3b
00000010: 66b5 6f3e 3c76 22be d379 833e 506e 35be
00000020: 3e95 723e 56fa 043e 5406 1fbe abd7 1abe
00000030: a8c5 dfbc a820 82bd 7687 2a3e 2639 103e
00000040: 6029 9a3d 9e64 65be 9802 6b3e 96ba 193e
00000050: 04dd 2abe dc2c 883d acba b13d 7838 33bd
00000060: f629 483e
0.004613489 -0.06625375 -0.19301143 0.006695062 0.23409042 -0.15865415 0.25678882 -0.17717862
0.23689744 0.1298612 -0.15529758 -0.15121333 -0.02731593 -0.06353885 0.16653237 0.140843
0.07527423 -0.22401664 0.22950208 0.15012583 -0.16685873 0.06649181 0.08678183 -0.043755025
0.19547257

weight f4 [25, 25]
00000000: 384c 173d 007f 06bc 6200 de3d a04e 473c
00000010: f50d 2ebe b05c 753c 8cf9 7ebd 0c34 2c3d
00000020: 00ed 73bc 2170 353e 2cd9 1ebd 498d 0b3e
00000030: ceca e83d 8a94 06be 1d2f bfbd 3e90 04be
00000040: 32ac 9d3d f247 39be f77c 283e eec7 8f3d
00000050: 0102 0e3e cf27 293e 5480 103d e286 da3d
00000060: a62e b83d 3055 073c b398 e6bd f225 ed3d
00000070: d886 2b3d f056 f9bc 6c3e 313d bac7 e8bd
00000080: e9ef 113e baaf 903d c24b f73d da58 cbbd
00000090: fa61 bbbd 6a52 e3bd 8db8 99bd cc8f 3c3d
000000a0: 2a1a e8bd 398a 3b3e c17a 323e a72c 39be
000000b0: 8289 f43d 0e45 b93d a352 3b3e 58bb 1bbd
000000c0: 89c4 2d3e c157 363e b0ef a33c a812 24bd
000000d0: 0dd0 37be ae7f f93d adb1 d0bd 74a3 7bbd
000000e0: 42cd 893d b2f1 1ebe 5283 c23d d505 2abe
000000f0: 2307 b8bd 3264 e73d 1b75 26be 00be a23b
00000100: e6c5 9c3d 0ca3 6fbd 1904 453e 6085 d7bd
00000110: e7c5 1a3e 5302 b4bd 6c1b 08bd a052 e5bd
00000120: 5da6 3b3e 11c7 2c3e 9090 1ebe f602 863d
00000130: 2496 503d 803b 8abd f239 a73d 4cfb 6cbd
00000140: 0045 f43c 247c 583d 1b7a 0f3e 74eb 703d
00000150: 34f1 73bd 90e6 e83c 53df 31be 8d57 d7bd
00000160: 138a fabd 9d10 f6bd 002b b8bc 00a3 1d3c
00000170: 215e 2f3e c048 8ebd 6154 313e 7700 f1bd
00000180: 893b 163e c1ae 123e a7b0 163e a02a eabb
00000190: d0b9 d43c fed2 813d f2d2 8d3d b285 e73d
000001a0: 33e5 3cbe 00a2 3cbe a133 3b3e 4ecd 11be
000001b0: fc6a 88bd 5022 c6bc 280a ddbc 9f46 44be
000001c0: c355 1fbe 5506 2dbe 426f 9f3d b93a 133e
000001d0: c534 3c3e c0bc a83b 9d0f 39be 60f4 1a3d
000001e0: 4a53 80bd c2ea 1cbe d56f 333e 89f9 4a3e
000001f0: 55ed 29be 3032 b93c ac58 0abe 11fd 3b3e
00000200: 9899 af3c e7f3 2e3e d036 7e3c 5aa5 c2bd
00000210: 16ce ab3d 945f 11bd 20f3 54bd 9c43 99bd
00000220: c3fb c7bd 35e4 063e e877 1d3d 4a89 07be
00000230: ac73 3bbd d0a7 7ebc a2bc 9b3d 00c8 3b3c
00000240: 8db4 32be 9a9c 31be 8354 acbd f816 6fbd
00000250: 8096 293d 72ef 0ebe e3c0 d4bd ca9d 883d
00000260: 628f da3d 9af1 d83d f8c8 39bd e1be 473e
00000270: 0649 ad3d 05f9 41be 774d ffbd 6398 41be
00000280: 4144 033e ca69 85bd e0ce 7ebd 7a8d 1fbe
00000290: 501e 08be 2b03 1c3e a2fa a83d 68d2 c33c
000002a0: 47a3 bfbd 325a f03d eafa dd3d d07d 6abc
000002b0: f092 f1bd 52b5 f53d 3a8f f4bd 6026 96bb
000002c0: 60c0 59bc 2e33 fd3d 8032 023d d048 6c3c
000002d0: 74af 0bbd b419 68bd a67b 16be 501d 94bd
000002e0: a131 263e 84af 783d 355d 3d3e 3e86 8f3d
000002f0: c6dc 15be 519a 043e 725e eb3d ecef 593d
00000300: 6bd9 023e b6d3 e43d d10d 383e bb3b 1ebe
00000310: 71a3 353e 5026 4ebc 70a2 cbbd 1126 163e
00000320: e56d 37be b01a c6bd 3f11 283e c3b9 9dbd
00000330: a5ed 13be f492 6dbd c65a c53d d9ae 473e
00000340: b09d b93c ea91 b23d badf b03d a8f3 bc3c
00000350: 3498 5bbd 51b5 353e 8567 18be 8e03 c13d
00000360: 5f54 33be f0ea aabd 9a85 05be c08c 45bb
00000370: da5a 38be da2f b7bd 01fb 2e3e 6d01 1b3e
00000380: 52bf d13d 8075 f8bc 3939 2d3e 0028 ea3b
00000390: 120d 30be b55b 0f3e d274 f83d 9db7 263e
000003a0: f489 40bd 8301 e7bd e9c0 253e 02c9 3cbe
000003b0: 803b 053d 9182 373e 91f3 213e 0356 d0bd
000003c0: d369 aabd 429d ec3d 0027 85ba 1449 07bd
000003d0: f3d3 48be 9f5f 163e 8185 363e b0ce debc
000003e0: 1b35 113e 0099 a3ba a01d 7e3c 57e8 013e
000003f0: 184b 98bc b061 493c c010 d5bc d829 033d
0.036937922 -0.00820899 0.10839917 0.012164742 -0.16997512 0.014975712 -0.062249705 0.042041823
-0.014888048 0.17718555 -0.03878133 0.13628115 0.11366807 -0.131426 -0.09335158 -0.12945649
0.07698859 -0.18093851 0.1645392 0.070205554 0.13867952 0.16519092 0.035278633 0.10670258
0.089932725 0.008260056 -0.11259594 0.11579503 0.041876644 -0.030436963 0.04327242 -0.1136622
0.14251675 0.07064767 0.120749965 -0.099290565 -0.09149547 -0.110997036 -0.075059034 0.046035573
-0.113331154 0.18314447 0.1742964 -0.1808344 0.1194029 0.09046374 0.18293242 -0.03802046
0.16969503 0.17806913 0.020011753 -0.040056854 -0.17950459 0.12182556 -0.10190139 -0.061435178
0.06728603 -0.15521887 0.094977036 -0.16603787 -0.08985736 0.112984076 -0.1625561 0.0049664974
0.07654934 -0.058505103 0.19239844 -0.10523486 0.15114556 -0.08789506 -0.033229277 -0.111974
0.18325181 0.16872813 -0.15484834 0.065435335 0.050924435 -0.0674963 0.08165349 -0.057856843
0.029818058 0.052852765 0.14011423 0.058818296 -0.0595562 0.028430253 -0.17370348 -0.10514746
-0.12233367 -0.120148875 -0.022481441 0.009621382 0.17125751 -0.0694747 0.17317344 -0.11767667
0.14671148 0.14324476 0.14715825 -0.0071461946 0.025967509 0.06339072 0.06925 0.11304797
-0.18446808 -0.18421173 0.18281414 -0.14238474 -0.06661031 -0.024186283 -0.026982382 -0.19167565
-0.15560059 -0.16896947 0.077848926 0.1437787 0.18379505 0.005149454 -0.18072362 0.03783071
-0.06265886 -0.15323928 0.1752313 0.19821753 -0.16594441 0.02260694 -0.13510388 0.18358256
0.021435544 0.17085229 0.015515998 -0.095041946 0.08388917 -0.03549154 -0.051989675 -0.074835986
-0.097648166 0.13172992 0.03844443 -0.13235965 -0.04576461 -0.015542939 0.07604338 0.011461258
-0.17451687 -0.17344895 -0.08414557 -0.058371514 0.041403294 -0.13958529 -0.10388353 0.06670721
0.10671879 0.10592957 -0.045357674 0.19506408 0.08461194 -0.1894265 -0.12465947 -0.18905787
0.12819006 -0.06514318 -0.06220901 -0.15581313 -0.13292813 0.15235583 0.082509294 0.02390404
-0.093573146 0.117359534 0.10838874 -0.014312223 -0.11795604 0.11997475 -0.11941381 -0.0045822114
-0.013290495 0.123632774 0.03178644 0.014421657 -0.034102872 -0.056665137 -0.14695606 -0.072321534
0.1622987 0.06071426 0.18492587 0.070080265 -0.14635 0.12949492 0.114926234 0.053207323
0.12778251 0.11173193 0.1797402 -0.15452473 0.17738129 -0.012582377 -0.09943092 0.14662959
-0.17913015 -0.09673059 0.16412829 -0.07701447 -0.14446123 -0.058001474 0.09636454 0.19500293
0.0226582 0.08719237 0.086364225 0.023065403 -0.05361195 0.17744948 -0.1488324 0.09424506
-0.17512654 -0.08345592 -0.13039246 -0.0030143708 -0.18003407 -0.08944674 0.17087938 0.15137263
0.102415696 -0.030329466 0.1691636 0.0071458817 -0.17192486 0.13999827 0.12131657 0.1628098
-0.047006562 -0.11279585 0.1618687 -0.18436053 0.032527447 0.17920901 0.1581557 -0.101726554
-0.083209656 0.11553432 -0.0010158718 -0.033028677 -0.19612102 0.14684914 0.17824365 -0.027198166
0.14180414 -0.0012481511 0.015509993 0.12686287 -0.018590495 0.012291357 -0.026008964 0.032022327

bias f4 [25]
00000000: 73cf cabd 0a78 a2bd 74c2 16bd 0869 7fbd
00000010: 20c5 f9bd f364 a2bd 856d 05be ce39 d13d
00000020: 2b15 2cbe d88a 53bd a0f9 0dbe 7afa e2bd
00000030: cc22 543d 0064 7e3c 370b dabd fd94 40be
00000040: e3cc d4bd b4ba 023d 2021 65bd 239d afbd
00000050: 6016 aebb d025 8b3c bd9f 283e 7a71 a93d
00000060: bdd7 14be
-0.09902849 -0.07933052 -0.03680654 -0.062356025 -0.12195802 -0.07929411 -0.1303006 0.102161035
-0.1680495 -0.051646084 -0.13864756 -0.11082931 0.051790997 0.015526772 -0.1064667 -0.18806835
-0.103906415 0.031916335 -0.055939794 -0.08574893 -0.005312726 0.016985804 0.16467185 0.08273597
-0.14535423

weight f4 [25, 25]
00000000: b05f 1bbe 5f99 343e 987c c23c 389d 193d
00000010: 2b61 423e 4017 423b 7466 663d 14ec 3d3d
00000020: e6f8 eb3d a85a 2bbe 588a 89bc 7460 8abd
00000030: 7f66 383e 5c1d 6c3d 2293 37be 5244 cc3d
00000040: c06b a0bb bac7 adbd 007f 22bc 9b03 46be
00000050: 8e2a ac3d 98ad 27be a018 743c 0084 3bbb
00000060: 818d 043e 3561 05be 70d6 f6bd 7d13 f0bd
00000070: 17cc 3fbe 8887 113d 80ce 733c 94ff 4fbd
00000080: f419 4abd a0df 833b f8d4 45be 92ba af3d
00000090: 2ca3 5abd 97ab 073e edb5 303e 6d97 c8bd
000000a0: 8671 b33d 9ef9 9b3d 9385 b8bd f4ee 443d
000000b0: 1ff9 1f3e bd98 23be aa0b 9d3d 461c 8cbd
000000c0: 000e 753c 2deb 29be 18e0 5dbd de25 f63d
000000d0: 5701 443e 914f 453e 2013 0ebe 9fb0 083e
000000e0: 6223 ac3d e83b 1dbd 0b4a 1abe 0da8 d3bd
000000f0: 2c2e 59bd 28b2 3abe 1861 93bc 5594 2d3e
00000100: 6a90 0bbe c519 3ebe f712 fdbd b4eb 78bd
00000110: 3ba0 1a3e 7227 ab3d d812 52bd e5aa 1e3e
00000120: f588 413e 20dd 6dbd 5c3b 08be 90e3 c1bd
00000130: 3642 ee3d 9d2b 2e3e 9b5a 16be ad2e 18be
00000140: 4218 c03d 08af 1b3d c389 2e3e faeb ac3d
00000150: 83b8 243e f4ce 533d 1711 36be 6618 15be
00000160: d4ea 33bd e107 0d3e c39f 0d3e f808 0ebd
00000170: b44b 003d 00d5 95bb 5af2 e43d 2765 dcbd
00000180: 18d8 bb3c 9af4 85bd 37df 49be 001a 8b3b
00000190: 11eb 0c3e 6295 f03d 2b8d 1cbe f1bc 123e
000001a0: c334 b9bd 401b f83c f23a ae3d 60a5 6abc
000001b0: 88ae 42be 142d 46bd a8db 3dbe b2a9 f03d
000001c0: c58d 34be 1840 bebc ee99 fc3d efd7 3f3e
000001d0: 97de 9abd 8cbb 1d3d 3a51 9f3d 4071 bc3b
000001e0: e3de 0ebe 30ff 17be 4b6f 123e b07a 7dbc
000001f0: 10cb 9ebc 3712 debd cc47 91bd 501c 053c
00000200: 8f12 063e 759f 373e a03a 2e3d 85aa 26be
00000210: 0ce5 32bd cff4 0b3e 7408 4dbd 8393 12be
00000220: ddb3 103e 78d7 3fbd 4e6b f33d dad0 c6bd
00000230: c82a 41be 8261 cf3d 8ef9 1abe 52c0 f73d
00000240: f8c7 30bd 42ad 803d b006 f2bd 0074 af39
00000250: 1519 3b3e 0046 5d3b e898 6cbd 37a5 003e
00000260: 405e 283d 424f 30be 35cb 2dbe ddac 383e
00000270: b41c 2d3d 5d92 4b3e a66e 8b3d 1f00 37be
00000280: f03c adbc e2a2 9e3d 2c71 06bd ed07 adbd
00000290: daee d4bd 4af8 c2bd 004f 13be 39a7 3a3e
000002a0: 0870 373d 50be aa3c 7786 b8bd 8e9c a43d
000002b0: b723 cebd 6094 29bd 45c0 20be c76d 1f3e
000002c0: dd1a 25be 40b6 953c a93d 0b3e fd98 3c3e
000002d0: 8091 eabc d4e4 68bd 7900 033e 4747 2c3e
000002e0: b5f1 14be 4cf3 49bd f0f5 1abe 3086 ebbc
000002f0: 256c 25be 406a adbc 31fe 013e aeb3 bc3d
00000300: 549e 063d 0f79 123e 7993 2e3e 1dd7 1f3e
00000310: a41e 583d 4009 a43b 2ad9 18be d089 5abc
00000320: 746f 7e3d 6032 223c da27 e93d ace4 98bd
00000330: 9df1 22be b094 c23c 505f b4bd b40b 393d
00000340: 12dc af3d 9db3 0abe b399 35be 7081 8cbd
00000350: 4d7d 30be 0ef6 bc3d 087e 18be 8abe 40be
00000360: d1b5 363e b7d5 47be 502d 2cbc b7cb 053e
00000370: fadb fb3d 792f 0e3e a820 e03c b024 e43c
00000380: 0a56 c1bd b70a 133e 7b6f 153e 8367 313e
00000390: 060c f23d cc02 6d3d 0d66 3c3e 7ad4 d43d
000003a0: b950 0c3e ae5a ed3d 2299 d73d b831 64bd
000003b0: 1639 1cbe b391 3ebe 60ed eabd 7d49 2a3e
000003c0: 6766 f9bd 1244 c73d 2269 bd3d 0aae a43d
000003d0: a80b a63c 389c 66bd 7d4e 40be e216 40be
000003e0: cc9d 6a3d 9f93 1c3e c373 fbbd d827 5dbd
000003f0: 0ac3 05be 9882 3e3d b452 383d 86fc 95bd
-0.1517322 0.17636631 0.023741052 0.03750345 0.18982379 0.002961591 0.05625005 0.04636772
0.11522083 -0.16733801 -0.0167896 -0.06756678 0.18007849 0.057645187 -0.1792722 0.099739686
-0.0048956573 -0.084853604 -0.0099179745 -0.19337313 0.08406554 -0.16374815 0.014898449 -0.0028612614
0.12944604 -0.13025363 -0.120526195 -0.11722467 -0.18730198 0.035529643 0.014880776 -0.050780848
-0.049341157 0.004024461 -0.19319522 0.08580507 -0.05337827 0.1324905 0.17256899 -0.09794507
0.08761887 0.0761597 -0.09009852 0.048079446 0.15622376 -0.15976234 0.0766824 -0.0684133
0.014956951 -0.16593619 -0.05416879 0.12018941 0.19141136 0.19268633 -0.13874483 0.13348626
0.08405186 -0.03838721 -0.15067308 -0.103347875 -0.05302255 -0.18232024 -0.017990634 0.16951115
-0.13629308 -0.18564518 -0.12357133 -0.06077166 0.15100186 0.08357133 -0.051287502 0.15494879
0.18899901 -0.05807221 -0.13303894 -0.09467232 0.116337225 0.17008825 -0.14683 -0.14861555
0.09379627 0.03800872 0.1704474 0.084434465 0.1608601 0.051711038 -0.17779957 -0.14560089
-0.04392512 0.13772537 0.13830476 -0.034676522 0.031322196 -0.0045725107 0.111790374 -0.10761481
0.02293019 -0.06540795 -0.19714056 0.004245043 0.13761546 0.117472425 -0.15288226 0.14329888
-0.090432666 0.030286431 0.08507337 -0.014321655 -0.19011891 -0.048382834 -0.18540823 0.11751117
-0.17632206 -0.023223922 0.12334047 0.18734716 -0.07561987 0.038508937 0.077791646 0.005750805
-0.13952212 -0.1484344 0.14300267 -0.0154711455 -0.019383937 -0.10843318 -0.07093772 0.008124426
0.13093017 0.17931922 0.042536378 -0.16275986 -0.043675467 0.13667606 -0.05005689 -0.14314084
0.14131112 -0.046836346 0.11885701 -0.09707804 -0.18863976 0.1012602 -0.1513426 0.12097229
-0.043159455 0.06283046 -0.11817682 0.00033465028 0.18271287 0.0033763647 -0.05776301 0.12563024
0.04110551 -0.17217734 -0.16972049 0.18034692 0.0422637 0.19880052 0.06808214 -0.1787114
-0.021147221 0.07745911 -0.032822773 -0.08448777 -0.1039712 -0.09520014 -0.14385605 0.18227853
0.044784576 0.020842701 -0.09010022 0.08037673 -0.10065406 -0.041401267 -0.15698345 0.1556922
-0.16123529 0.01827538 0.1359774 0.18417735 -0.028633833 -0.056858853 0.12793149 0.16824065
-0.14545329 -0.04930429 -0.1513288 -0.028750509 -0.16154535 -0.021168828 0.12694623 0.09213959
0.032865837 0.14303993 0.17048444 0.15609403 0.052763596 0.0050059855 -0.14926592 -0.013338521
0.06211801 0.009899706 0.11384554 -0.07465491 -0.1591248 0.02375254 -0.08807242 0.045177177
0.08586897 -0.1354508 -0.17734413 -0.06860626 -0.17235298 0.09226619 -0.14891827 -0.18822685
0.17842795 -0.1951512 -0.01050885 0.13065992 0.122978166 0.13885297 0.027359322 0.027849525
-0.09440239 0.14359556 0.14593308 0.17324643 0.118186995 0.057863995 0.18398304 0.10392089
0.13702668 0.115895614 0.10527255 -0.055711478 -0.15256152 -0.18610267 -0.11471057 0.16629596
-0.12177735 0.0972978 0.09248568 0.08041008 0.02026923 -0.056301326 -0.18779941 -0.18758729
0.057279393 0.15290688 -0.12277939 -0.053993076 -0.13062683 0.046511263 0.045000747 -0.07323556

bias f4 [25]
00000000: cd19 20be 4d22 2cbe 509a 0ebe 0143 2b3e
00000010: c491 01be a7a2 493e 5d60 e1bd f2fd db3d
00000020: 6aa9 b53d 835b a7bd 8f99 32be 1d17 f5bd
00000030: d196 183e d04f 48be e82a 10be a0f1 2fbd
00000040: 6693 19be 264a 19be b363 34be d217 d93d
00000050: 946c 43bd 1d6d 2ebe bede 843d 4cb6 20bd
00000060: a641 1cbe
-0.15634842 -0.1680996 -0.13926053 0.16724779 -0.12653261 0.19690953 -0.11004708 0.107417956
0.08870204 -0.08171751 -0.1744139 -0.11967299 0.14901282 -0.19561696 -0.14078867 -0.04295504
-0.14997634 -0.14969692 -0.17616157 0.106002465 -0.04771097 -0.17033811 0.06487797 -0.03923635
-0.15259418

weight f4 [25, 25]
00000000: f8a4 6ebd a2ab d83d f8d8 2bbd d04c af3c
00000010: b0c2 3e3c d332 cbbd 081b 383d 0ff7 3abe
00000020: 50e3 f0bd 6234 c83d f0c0 f2bc 48e8 053d
00000030: 1064 05be b002 223c 23da f0bd 6d03 17be
00000040: c537 1dbe e858 2f3d 1aae 9dbd 706b a53c
00000050: 57e6 073e bbbd 30be f18d 023e 58ac 2ebe
00000060: 40a0 dcbb b8ce 463d 9060 dabd 9328 10be
00000070: 2c45 2d3d 32b4 803d b4e4 6abd 1f47 283e
00000080: 002a dcbd 51c0 1a3e e82e febc 9139 263e
00000090: 7078 ffbd 9862 62bd 3475 1fbd ff46 433e
000000a0: 28b7 c4bc 5d9f e9bd 0f95 44be ec2a 243d
000000b0: b64a ed3d 7b91 203e 3f22 493e f4f0 19bd
000000c0: 0033 7dbd ec4f 583d b92a 3b3e dab1 a1bd
000000d0: 2a59 bdbd ca45 d33d 6731 9abd 40fd 8f3c
000000e0: ae91 12be 80ff ddbc f316 25be fbbf 20be
000000f0: 98f1 3cbd c887 6dbd 404f 39be 8053 ab3c
00000100: 10c5 ef3c cf5c 0f3e d6b1 993d ec45 7c3d
00000110: f767 e1bd 00bb 89bb 3352 f1bd 1db7 093e
00000120: 1d69 07be 0048 3839 085b 64bd bf45 183e
00000130: fe43 2abe d370 3bbe f990 013e eca0 093d
00000140: 662b 26be c923 403e 9a7b cc3d 994d 143e
00000150: 321b a03d 6afc 2cbe b40d 7bbd 0ded a3bd
00000160: e19b 263e d22c 14be dcdf 683d 627d e73d
00000170: 4a8a 34be 6111 2b3e 803d e83a 93fe 023e
00000180: 42d0 35be 0d39 32be df55 233e edc9 9abd
00000190: 3c4d 5b3d 8035 acba 2a12 ddbd e2ab b03d
000001a0: c1f9 1d3e d21b 40be 4b73 3ebe 952a 253e
000001b0: 896d 433e bb80 12be b07f d0bd 0868 32be
000001c0: 47bf 193e 2374 25be 4040 febb f69b d83d
000001d0: 434d 21be 8b94 0b3e 58fa d03c 3143 2b3e
000001e0: 1972 323e fa6d f13d e0db b6bd 4aff 92bd
000001f0: 9a07 debd 7dfd 3fbe 207c 6c3c cdb5 a8bd
00000200: ac13 24bd 0c8c 613d dd9c c3bd 9800 093d
00000210: 32f9 e53d f3a1 013e 5106 183e ca82 07be
00000220: 0216 8a3d 921a fc3d 90b7 9cbd e2f1 ca3d
00000230: e98f 1d3e e872 bc3c ea83 f43d a31e 33be
00000240: bd25 9ebd e3ae 1e3e a930 393e 50f9 15bc
00000250: 788e 08be b199 1a3e 3465 0abd f6ef cb3d
00000260: 92ca e53d d0e1 bd3c 2750 3fbe 6d97 463e
00000270: c902 2c3e d369 e8bd c357 debd 7a1d 98bd
00000280: a837 eabc cb7f 0b3e 53b2 003e e020 15bc
00000290: f90d 0a3e 5023 0f3c 3dcf fbbd c041 0fbd
000002a0: 0989 013e 00ec c9bb 9d4d aabd 09ff 043e
000002b0: 51f1 3d3e 9a8c a7bd bdae 07be e3b9 263e
000002c0: da25 aa3d f9ff 3b3e dd92 483e b8d9 3a3d
000002d0: db11 49be 88f8 30be 4978 093e f410 5b3d
000002e0: cd79 bfbd c8f7 3fbe 42af 813d bf5b 1a3e
000002f0: 3352 c9bd 62fc 943d 9349 283e 3a02 ffbd
00000300: 1071 d0bd e011 79bc 0380 153e 76fd a53d
00000310: 805f 55bc 5a3a e13d 3085 bb3c 5d70 41be
00000320: da57 cdbd 1dcb 3f3e 3151 343e 29ef 123e
00000330: c69a 18be da7d 94bd ca7b d13d bfc9 333e
00000340: e073 24be 88d3 05bd c3b3 373e 1876 00be
00000350: 2b8d 323e 8f6b 38be 3312 10be cccb 92bd
00000360: b041 a83c 8440 90bd 0478 703d 8c71 98bd
00000370: 8647 d53d f093 ecbd c2b4 e53d 425e de3d
00000380: 0853 05be 60d2 6ebc 3da3 02be 10de bdbd
00000390: 20be 2e3d 2185 433e 682b 6bbd bdbc 0a3e
000003a0: 0519 063e 8ad7 1cbe 88ba 423d 0235 d73d
000003b0: 0a50 dd3d 25f6 12be 8ba6 46be 239e 1fbe
000003c0: 3a93 9e3d 5338 a5bd 140b 4cbd c0fd 373d
000003d0: 58a3 8ebc 3fa7 1c3e e229 f63d 6818 a73c
000003e0: 000e efbd 0d2e 43be 5aa6 973d 936a 0dbe
000003f0: 538d d4bd 50c7 8dbc eb5b 35be a0d8 37bd
-0.058262795 0.10579611 -0.041954964 0.021398932 0.011643097 -0.09921803 0.044947654 -0.18258308
-0.117621064 0.09775616 -0.029633015 0.032692224 -0.13026452 0.009888336 -0.11760356 -0.147474
-0.15353306 0.042809397 -0.07699223 0.020192832 0.13271461 -0.17259876 0.12749459 -0.17057931
-0.0067329705 0.048536986 -0.10662949 -0.14077978 0.042302296 0.062843695 -0.057347015 0.1643338
-0.10750198 0.15112425 -0.031028226 0.16232897 -0.124741435 -0.055269808 -0.038930133 0.19070052
-0.024013117 -0.11407349 -0.19197486 0.040079996 0.115865156 0.15680496 0.1964197 -0.037583306
-0.061816216 0.052810594 0.18278016 -0.078952506 -0.09245522 0.103160456 -0.07528954 0.017576814
-0.14313385 -0.027099371 -0.16122036 -0.15698235 -0.04612884 -0.05799082 -0.18096638 0.02091384
0.029268771 0.14000247 0.07504623 0.06159012 -0.11006158 -0.0042032003 -0.117832564 0.13448758
-0.13223691 0.0001757443 -0.055750877 0.14870356 -0.166275 -0.18304758 0.12652959 0.033600733
-0.16227493 0.18763651 0.099845126 0.14482726 0.07817687 -0.16893163 -0.061292365 -0.08004198
0.162704 -0.14470223 0.056854114 0.11303212 -0.17630878 0.16705848 0.0017718524 0.12792425
-0.17755225 -0.17404576 0.15950726 -0.075580455 0.053540453 -0.0013138503 -0.1079448 0.08626534
0.15427305 -0.18760613 -0.18598668 0.16129525 0.19084753 -0.1430692 -0.101806045 -0.17422497
0.15014373 -0.16157584 -0.007759124 0.10576622 -0.1575213 0.13630883 0.025509998 0.1672485
0.17426337 0.117885545 -0.089286566 -0.07177599 -0.10841294 -0.18749042 0.014433891 -0.08237801
-0.040057823 0.0550652 -0.09551404 0.033447832 0.11229171 0.12659435 0.1484616 -0.13233486
0.06742479 0.123097554 -0.07652199 0.09909417 0.15386929 0.02300401 0.11939223 -0.17492156
-0.07722042 0.15496401 0.18084969 -0.009153679 -0.13335598 0.15097691 -0.03378792 0.09957878
0.11220278 0.023178965 -0.1868292 0.19393702 0.16797937 -0.11348309 -0.10856583 -0.07427497
-0.028590992 0.13622968 0.12568025 -0.009102076 0.13481893 0.0087364465 -0.12295387 -0.034974813
0.12649931 -0.0061621666 -0.08315585 0.12987913 0.18549086 -0.081811145 -0.13250251 0.16281848
0.08308001 0.18359365 0.19587274 0.04561779 -0.19635718 -0.17282307 0.13424791 0.053482965
-0.093494035 -0.18746865 0.06332256 0.15074061 -0.098301314 0.07274701 0.16434316 -0.124515966
-0.10177815 -0.015202016 0.14599614 0.081049845 -0.013023257 0.10997458 0.022890657 -0.1889052
-0.10026522 0.18729825 0.17609097 0.14349045 -0.14902791 -0.07250567 0.10228689 0.17557429
-0.16059828 -0.032672435 0.17939667 -0.12545049 0.17436664 -0.1800978 -0.14069442 -0.071677774
0.020539135 -0.070435554 0.058708206 -0.07443532 0.10414033 -0.11551654 0.112161174 0.10857822
-0.13019955 -0.0145765245 -0.12757583 -0.09270871 0.042661786 0.19093753 -0.057414442 0.1354856
0.13095482 -0.15316597 0.04754117 0.10508157 0.10806282 -0.14351709 -0.19399469 -0.15587668
0.07742925 -0.080673836 -0.049815252 0.04491973 -0.017411873 0.15298174 0.12019707 0.02039738
-0.11672592 -0.19060536 0.07404776 -0.13810186 -0.10378518 -0.017306954 -0.17710845 -0.044884324

bias f4 [25]
00000000: d0da 27bc 08ce 14be 5841 f7bc 4533 20be
00000010: ca2c debd 0a8b ff3d 086e 02be 8b4f 173e
00000020: 1742 403e bdc7 06be 60fa 273d cecd f93d
00000030: 126a 4bbe d0c0 a4bc 72a9 fb3d 72ba f43d
00000040: c808 353d 9560 2bbe d89b 113d da4f 18be
00000050: 0264 993d ebf3 1dbe b78f 123e b3fe e4bd
00000060: 2a2f d5bd
-0.01024504 -0.1453172 -0.030182526 -0.15644558 -0.108483866 0.124776915 -0.12737286 0.14776437
0.18775211 -0.13162132 0.04101026 0.12197457 -0.19864681 -0.020111471 0.122881785 0.11949624
0.044197828 -0.16736062 0.035549015 -0.14874211 0.07489778 -0.15425079 0.14312635 -0.111813925
-0.104093865

weight f4 [4, 25]
00000000: 3a0e 15be 4031 adbb 0211 c83d 705a bdbd
00000010: 0044 f939 5af2 ee3d c9ac 403e 5d61 ffbd
00000020: 60df 23bc b4c4 3c3d ccac 72bd dbbe 483e
00000030: e0ad 393d 8a10 b2bd d8e7 eabc c0cc a5bc
00000040: 72fc 01be e031 ddbd c02c 2bbe c41b 03be
00000050: 356a 29be 716e 3c3e 5084 3ebe 1957 353e
00000060: 46f3 d73d ec23 223d abb7 3b3e 3000 ad3c
00000070: edb3 a3bd c772 013e 1889 a8bc 60f6 1fbd
00000080: d058 49be f860 23bd 7132 3d3e dadb 10be
00000090: ae0f 8a3d a047 473c 98ca b03c 00ec dfba
000000a0: 7a26 b93d 787d 7fbd b6cf d03d d677 04be
000000b0: 357e 34be 89ea 1a3e 1cb7 8ebd fd4d e5bd
000000c0: c08d f53b ccdb 313d a8b7 62bd 8a9d d5bd
000000d0: fab7 d4bd f288 873d 50f5 353c 4013 9ebb
000000e0: d251 f23d f735 a6bd d4a1 1ebd f5af 143e
000000f0: 8b31 463e b83a 3ebd e482 06be 7a7b b63d
00000100: ce1f af3d 89dc 3e3e 91d1 363e b4c1 0a3d
00000110: 940a 703d 2102 283e 507b 19be ea04 d6bd
00000120: d046 d03c 61d2 2e3e 86ce c43d a867 ff3c
00000130: be30 05be 8c29 03bd e272 cd3d cfd7 453e
00000140: 7a19 46be 6d8e b8bd 3f04 0e3e 2348 273e
00000150: 74d0 89bd b42e 21bd 829b 923d d841 f33c
00000160: ea4c 9e3d 3047 07be f88b 10be 4d95 3dbe
00000170: bc5f 87bd c3da f0bd e0e9 42be 04f1 5a3d
00000180: 13de 14be e894 8d3c 8909 223e c3b0 2dbe
-0.14556208 -0.005285412 0.09768869 -0.09245765 0.00047543645 0.11667319 0.18815912 -0.124697424
-0.010001987 0.04608603 -0.059246823 0.19604056 0.045331836 -0.08694561 -0.028675005 -0.020239234
-0.12693956 -0.108005285 -0.1671629 -0.1280356 -0.16544421 0.18401505 -0.1860516 0.17709006
0.105444476 0.03958504 0.18331783 0.021118253 -0.079933025 0.1264144 -0.020573184 -0.03905332
-0.19662786 -0.0398874 0.18476273 -0.14146367 0.06741272 0.012163073 0.02158098 -0.0017083883
0.09040542 -0.062375516 0.10195868 -0.12936339 -0.17626269 0.1512853 -0.06968519 -0.11196516
0.0074937046 0.043422505 -0.05535093 -0.10430439 -0.10386653 0.06617917 0.01110585 -0.004824072
0.11832012 -0.08115762 -0.03872855 0.14520247 0.19354837 -0.046442717 -0.13135868 0.0891027
0.08550988 0.18638815 0.1785338 0.033876136 0.058603838 0.16407062 -0.14988446 -0.10450156
0.025424391 0.1707244 0.09609704 0.031177357 -0.13006875 -0.032022044 0.10031678 0.19320606
-0.19345656 -0.090115406 0.13868807 0.16336112 -0.067292124 -0.03935118 0.07158567 0.029694483
0.07729514 -0.1321075 -0.14115894 -0.18513985 -0.06610057 -0.117604755 -0.19034529 0.053452507
-0.1453784 0.017282918 0.1582395 -0.1696196

bias f4 [4]
00000000: 003d 67bc 910a 003e fce7 6c3d 7f1c 433e
-0.014113665 0.12504031 0.057838425 0.19053839
