models/_brain_31.pt (torch, 14593 bytes, 12 tensors)

weight f4 [14]
00000000: 0000 803f 0000 803f 0000 803f 0000 803f
00000010: 0000 803f 0000 803f 0000 803f 0000 803f
00000020: 0000 803f 0000 803f 0000 803f 0000 803f
00000030: 0000 803f 0000 803f
1.0 1.0 1.0 1.0 1.0 1.0 1.0 1.0
1.0 1.0 1.0 1.0 1.0 1.0

bias f4 [14]
00000000: 0000 0000 0000 0000 0000 0000 0000 0000
00000010: 0000 0000 0000 0000 0000 0000 0000 0000
00000020: 0000 0000 0000 0000 0000 0000 0000 0000
00000030: 0000 0000 0000 0000
0.0 0.0 0.0 0.0 0.0 0.0 0.0 0.0
0.0 0.0 0.0 0.0 0.0 0.0

weight f4 [25, 14]
00000000: a839 763d c532 883e d08e e03c ce1a 0e3e
00000010: 8e8c 5d3e 0881 85be b014 233e 34ab d73d
00000020: 3074 57be a0da 613c 0411 33bd 6cdb ef3d
00000030: 12ca 93bd 00a7 79bb a205 b7bd aad2 703e
00000040: 0068 423b d693 513e b4ff 8f3d aec8 80be
00000050: 70f4 2c3e 1082 ce3d c007 213c c007 c33c
00000060: 8044 183b 5023 94bc 8822 c13d c815 5f3d
00000070: c410 80be feff b2bd 68b0 e83d 08c8 fabc
00000080: 3ccd c93d 3ee1 273e ba41 a4bd 703e d53c
00000090: b262 84be ec7b 303e e260 4d3e ec6a 82be
000000a0: 0451 24bd c0c0 16be 38fd 83be 3c49 4fbe
000000b0: a01a 6c3d c487 f33d 10be d93c 94f1 3dbd
000000c0: aec7 8cbd a7a4 833e 48c0 1cbe 1a2a 86be
000000d0: 4ce4 5e3e 3166 49be 00c2 95bb d96c 813e
000000e0: 1e61 6e3e fedb 5abe c0b6 823c 8219 413e
000000f0: ecba b2bd e88b 3b3e ae04 4d3e 2274 743e
00000100: 7028 2e3e a88f a83d f821 023e 8d05 3abe
00000110: 7a53 6f3e 144a 513e f27b 87bd dda8 823e
00000120: d0f6 48be 38ed 353d a5e8 853e b3d0 833e
00000130: 9c30 7ebe e451 c53d 1e72 a9bd 64f9 0dbe
00000140: 3932 813e 1021 68bd 1958 873e ecd5 40be
00000150: 1893 23be b03e 35be 8ecc 753e e81b 19be
00000160: 2016 f53c d8cc 20be bc0f 85be e072 1cbc
00000170: 801f 703c 4605 7dbe eee8 76be 485b f53d
00000180: a2bf 533e 9e34 64be 9c67 293e 3890 0b3e
00000190: b270 73be a0fa 51bc aa45 6d3e fc93 77be
000001a0: a0a4 b43c 9c12 033e 7002 5f3d 3037 b43d
000001b0: 4271 b2bd fc1e b5bd e472 e0bd a0b2 5f3e
000001c0: 0ea0 35be f00e 193e 76ac 10be 505f e0bc
000001d0: e847 6a3d b43c 52bd e340 6abe a291 9bbd
000001e0: a4dc 2a3e d2b4 c1bd d020 eb3c 24bd d73d
000001f0: 20a5 cf3c 103b c63d 9511 883e 9053 a0bd
00000200: 7ec4 5f3e bc88 86be 668f eebd 4017 ab3c
00000210: 4c20 ef3d ca9d 3f3e 44cd 6abe 22d2 52be
00000220: 496c 13be 6062 8e3c be3c b8bd ee0b 013e
00000230: 809e 3abb 3274 0d3e 6f14 87be 4c8c a43d
00000240: 3441 9cbd 1a7c 793e 150e 833e 76a4 033e
00000250: 808d 31bc 8f79 66be 9cc7 20be ee42 4bbe
00000260: e495 43bd b10e 67be 48cc 253e c1a3 80be
00000270: 52fd 203e 31fc 51be b505 30be 6c24 a5bd
00000280: 86d3 2bbe 80dc 7fbe 2069 903c d45b cb3d
00000290: ae09 e0bd c6b5 93bd 054c 0dbe 000c 123a
000002a0: 813e 58be a00c 1c3d c4fb f83d 8626 a5bd
000002b0: 8c5c a1bd 47f6 853e 6af5 093e 1119 82be
000002c0: f440 283e a016 1fbc 385c 29bd e016 5abc
000002d0: 32c0 24be 6ea3 33be da94 c8bd 506a 0f3e
000002e0: c1aa 67be 8a4e 57be 0e11 40be 1cdc 043e
000002f0: 42b5 b0bd 60d3 293c be68 50be 16b2 0d3e
00000300: 62df 7e3e d435 2d3e d09a 6e3d da4e 473e
00000310: aa34 413e e00b 67bc 205f 1fbc 962c 02be
00000320: d0d6 75bd bcdf cebd 80de 113d b8bb df3d
00000330: 2af7 58be f4b6 343e 205a e2bc 460a 683e
00000340: 2d31 83be 508c 2e3d 448a 483e 5846 35bd
00000350: 063b f4bd d6a9 84bd 68c2 e1bd e43b 40be
00000360: 7c8f f53d 562c 223e 7453 24bd 64a4 893d
00000370: b155 27be d40d 9b3d 08b6 5ebe c0e2 c93d
00000380: 5882 243d 64e1 603e b03d c1bd 5436 a53d
00000390: d712 88be f948 83be fc5d 34bd a4ff fb3d
000003a0: c037 1fbe cec9 54be c057 41bd b05d 46be
000003b0: 5cb8 f5bd 36c6 753e b4d7 58bd 74c5 c73d
000003c0: 5a9b 5b3e 391a 6fbe cf31 813e 4a27 f5bd
000003d0: 1c13 f83d b6b7 bdbd 8224 8abd a690 253e
000003e0: e6e4 83bd b6a8 3cbe e4f8 b73d dee3 45be
000003f0: 4105 863e 5d70 0bbe 408d 5abc bcbd b93d
0.06011358 0.26601234 0.027411848 0.13877413 0.21635649 -0.26075006 0.1592586 0.10530701
-0.21040416 0.013785034 -0.0437174 0.11711773 -0.07216276 -0.0038093925 -0.08936621 0.23517862
0.002966404 0.20466551 0.070311934 -0.25153106 0.1689012 0.10083401 0.009828508 0.023807406
0.0023234189 -0.018083245 0.094304144 0.05446413 -0.2501279 -0.08740233 0.11361772 -0.03061296
0.098535985 0.16394517 -0.08020349 0.02603075 -0.2585655 0.17234772 0.20056489 -0.254722
-0.040116325 -0.14721966 -0.25779128 -0.2024278 0.05764258 0.118911296 0.026579887 -0.046372965
-0.068740234 0.25711557 -0.15307724 -0.26203996 0.21766776 -0.19667889 -0.0045702457 0.25278357
0.23279235 -0.21372983 0.015956283 0.18857387 -0.08727059 0.18315089 0.20021316 0.23872426
0.17007613 0.08230525 0.1270827 -0.1816618 0.23371688 0.20438415 -0.066154376 0.25519457
-0.19625401 0.044415683 0.26154056 0.25745162 -0.2482323 0.0963476 -0.08273719 -0.13864666
0.2523363 -0.056672156 0.264344 -0.18831605 -0.1597408 -0.17699695 0.24003813 -0.14952052
0.029917777 -0.15703142 -0.25988567 -0.009548873 0.014655948 -0.24709043 -0.24112293 0.11980301
0.20678571 -0.22285697 0.1654343 0.13629234 -0.23773459 -0.012816101 0.23171106 -0.24177545
0.022051156 0.12800068 0.054445684 0.08799589 -0.087130085 -0.088438004 -0.10959414 0.21845484
-0.17736837 0.14947104 -0.14128289 -0.027389199 0.05719748 -0.051327422 -0.22876315 -0.07596137
0.1668573 -0.09458317 0.02870217 0.105341226 0.025347292 0.09679234 0.26575914 -0.07828438
0.218523 -0.26276195 -0.11648445 0.02088511 0.11676082 0.18712536 -0.22929865 -0.20587972
-0.14396776 0.017380893 -0.08995961 0.12602207 -0.002847582 0.13813856 -0.26382777 0.08034572
-0.07629624 0.24363747 0.2559668 0.12855706 -0.010836959 -0.22507308 -0.15701145 -0.1984975
-0.04775037 -0.22564198 0.16191208 -0.25124934 0.15721634 -0.2050636 -0.17189677 -0.080635875
-0.16779909 -0.24986458 0.017628253 0.09929624 -0.10939346 -0.07212405 -0.1379853 0.0005571246
-0.21117593 0.038097978 0.121573955 -0.080639884 -0.0787898 0.26164457 0.13472524 -0.2540975
0.16431028 -0.009709984 -0.041347712 -0.013311118 -0.16088942 -0.17542812 -0.09794016 0.14005399
-0.22623731 -0.21026054 -0.18756506 0.1297459 -0.08628322 0.010365337 -0.20352456 0.13837466
0.24889901 0.16915065 0.05825311 0.19463673 0.18867746 -0.014101952 -0.009727269 -0.1271232
-0.060019314 -0.10101268 0.035612583 0.109244764 -0.21188036 0.17647916 -0.027630866 0.22660169
-0.25623456 0.04261428 0.19583994 -0.04425654 -0.1192532 -0.06477706 -0.11023408 -0.18772846
0.11990258 0.15837225 -0.04011865 0.06720808 -0.16341282 0.07570997 -0.21749127 0.09857702
0.040163368 0.2196098 -0.09435594 0.08067003 -0.26576874 -0.2564161 -0.044034943 0.12304619
-0.1554861 -0.20780107 -0.047202826 -0.19371676 -0.119980544 0.24001393 -0.052940086 0.09754458
0.2144598 -0.23349847 0.25233313 -0.119703844 0.1211302 -0.09263556 -0.067452446 0.1616846
-0.06440143 -0.18423733 0.08983019 -0.19325206 0.26175883 -0.13617082 -0.013339341 0.09069392

bias f4 [25]
00000000: 8ab4 cfbd 6818 7c3d 88c1 3bbd b448 b2bd
00000010: a09a c4bc 324a 0bbe 7e89 703e 303a 1e3e
00000020: bed7 753e 12d0 87be 62ff 263e 7aee afbd
00000030: 6bd2 78be 33e5 1dbe e081 843c 64a8 09be
00000040: ea1a 793e d48a ab3d 0027 23be 3294 173e
00000050: 3449 77bd 040f d43d cc57 87be 22e9 573e
00000060: e2f3 033e
-0.10141857 0.061546713 -0.045838863 -0.08705273 -0.023999512 -0.13602522 0.23489949 0.15451884
0.2400808 -0.26525933 0.16308358 -0.08590408 -0.24299018 -0.15419464 0.01617521 -0.13443142
0.24326673 0.08376089 -0.15932846 0.14802626 -0.060372546 0.103544265 -0.2643417 0.21085027
0.12886003

weight f4 [25, 25]
00000000: fdcd c4bd 60db 9abb 7dc2 bfbd 657b 44be
00000010: aa1c f0bd bd63 eebd 9b94 143e 4a7c b83d
00000020: 99e3 0c3e d873 e73c ba1c 0fbe a084 90bd
00000030: 263d fa3d 00fc 96ba f409 50bd 6dfd 223e
00000040: 50cf ec3c e00b 62bc 60cc 03bc d04d a83c
00000050: 438a 1c3e fc98 95bd 43c2 0dbe 6874 7cbd
00000060: fdd4 aabd da9a 16be c7d5 c9bd e9a7 3c3e
00000070: 89e0 193e f45a 30bd 566c 87bd bdc4 4b3e
00000080: c91d 043e d322 273e c9d7 143e 33ad 083e
00000090: 4290 32be 12ff ea3d 07b4 473e afcd 123e
000000a0: 0036 babc b087 e8bc ba12 ddbd f120 023e
000000b0: b0f5 edbd 7690 9f3d 5a55 a5bd 9ac4 ae3d
000000c0: 7bb1 0d3e 425f 973d 651a 0c3e 14b7 10bd
000000d0: e1c7 033e 7b63 1abe a049 95bb b555 073e
000000e0: 63ff 20be 5414 36bd 1107 4b3e 6824 943c
000000f0: d0df 9ebc 94e4 7d3d 8e5f c73d 3d0a ebbd
00000100: d297 c73d 6310 bfbd 597e 293e 5027 963c
00000110: 5845 013d b83b 55bd 0089 41bd c65c ea3d
00000120: 2795 4c3e 8020 b03c 546e 6e3d 00af 06bc
00000130: aebf 0bbe f445 233d c231 ba3d 02d6 d73d
00000140: b0b6 45be 189c 8e3c 7d6a cfbd 9129 143e
00000150: f065 a13c 883d 303d 75de 16be 3085 153c
00000160: e2cf 19be ba24 3dbe 82b7 1cbe 69c0 0f3e
00000170: 2881 4dbd 29e8 3a3e 92d5 1cbe 3073 1dbe
00000180: e0ed f4bd 1a2b 27be e29c 8d3d 7323 3c3e
00000190: b2eb bf3d 6a10 2cbe d601 d63d 22dd 20be
000001a0: 2aaa d13d 7d0b 3d3e a0b1 663c dd06 a1bd
000001b0: 8045 5f3b 2eb9 1dbe 885f 203d 582c af3c
000001c0: 1a47 d83d 64b7 0abe 6d95 493e 1069 d9bc
000001d0: adf4 f9bd a81c 373d 8089 c23a 701e d83c
000001e0: be56 f13d 9654 b73d 5d82 cdbd 67c2 eebd
000001f0: 2c43 06be b014 cfbd 50ad 9fbd d5a3 2dbe
00000200: 0393 393e e90e 253e b3d5 32be 5213 d93d
00000210: 88b4 24bd 8d1e 38be 396a 073e 9b89 48be
00000220: c29c e63d 4adf 34be 9efd fc3d 98cf 60bd
00000230: a42d 683d 0440 08be 4cea 6f3d 6078 43bd
00000240: 1d8f 2cbe 8d44 413e 46cd de3d b7d4 e1bd
00000250: 1db5 18be 7869 2bbd e0ec 25be 40b2 39bd
00000260: 5d55 21be 5866 ffbc d6db 823d 80cd 113d
00000270: a538 0dbe bdb3 3cbe c0cd b3bc 3ba0 163e
00000280: 2e02 983d aeab bb3d a071 2a3c 0a7d 823d
00000290: e26d 8e3d 6235 37be eb34 273e d07b 503c
000002a0: b06b 14be 8066 1a3b a4dc 81bd 9a57 903d
000002b0: dd06 b5bd 2401 8fbd 4739 c6bd 98df 49be
000002c0: 4d80 473e ae38 d53d 128a c23d 60ac 18bc
000002d0: 30c5 003c 48dd 0e3d 006b 873a 7935 123e
000002e0: 50db f2bc 2a22 d03d a790 b6bd 6aad 84bd
000002f0: 12af 22be fa62 84bd f217 883d b3f2 0ebe
00000300: ca2f 00be 5133 0e3e 837a 19be c03b d7bd
00000310: cce4 7a3d 007c 78bc 7ddf 0e3e fa9b 30be
00000320: 5ca6 5b3d a444 663d 8af9 98bd 3551 1d3e
00000330: 9e23 933d 1758 2e3e 9816 963c 0e74 d13d
00000340: 6bdd 1b3e 7663 df3d 18eb 25bd e13a 033e
00000350: e05a 25be f38b 373e ac21 533d 88be 38bd
00000360: d486 213d 10ad aa3c c25d f83d 2791 46be
00000370: 960b f63d f307 f8bd f8c3 6ebd afae 31be
00000380: a817 c03c 6af4 e83d 40f3 d23c 8538 19be
00000390: 821b 943d 3cd2 513d 8d19 423e 9204 23be
000003a0: 51f1 243e da7a ebbd 4045 8f3b d68c 8a3d
000003b0: 4292 bb3d 3dd8 e0bd 65a4 123e 2cac 6a3d
000003c0: 3862 10bd 40b9 f5bd 33a2 d7bd d80b dd3c
000003d0: c697 883d 80ea cd3a e7b0 ddbd c2b5 49be
000003e0: 40bc b13c a303 eebd b99d 2c3e fa82 a13d
000003f0: 47a1 413e 82dd f73d fb77 4c3e e393 013e
-0.09609602 -0.0047258586 -0.093632676 -0.19187696 -0.11724217 -0.11640117 0.14509813 0.09008081
0.13758697 0.02825348 -0.13975802 -0.07056546 0.122186944 -0.0011519194 -0.050790742 0.15916987
0.028907448 -0.0137967765 -0.008044332 0.020544916 0.15287118 -0.0730457 -0.13843636 -0.06163445
-0.083414055 -0.14707509 -0.09855228 0.18423428 0.1502706 -0.04305549 -0.0661246 0.19899268
0.12901987 0.16321878 0.1453544 0.1334732 -0.17437842 0.11474432 0.19502269 0.14336275
-0.022730827 -0.028385013 -0.107945874 0.12707879 -0.11619127 0.077912256 -0.0807292 0.085335925
0.13837235 0.07391216 0.13681944 -0.035330847 0.12869217 -0.15077011 -0.004555896 0.13216288
-0.15722422 -0.04445298 0.19826914 0.018083766 -0.019393831 0.061985567 0.097350225 -0.11476562
0.09745754 -0.093292974 0.16552104 0.018329293 0.031560272 -0.052058905 -0.047249794 0.114434764
0.19978772 0.021499872 0.058210686 -0.008220434 -0.13647339 0.039861634 0.09091522 0.105388656
-0.19307971 0.017408416 -0.10127733 0.14468981 0.019701928 0.04302743 -0.14733298 0.009125993
-0.15020707 -0.18471041 -0.15304378 0.14038242 -0.050172 0.18252625 -0.15315846 -0.15375972
-0.119594336 -0.16325036 0.06914689 0.18372898 0.09371127 -0.16803136 0.10449569 -0.15709355
0.10237534 0.18461414 0.014080435 -0.07862637 0.0034068525 -0.15402672 0.039153606 0.02138345
0.105604365 -0.1354652 0.19685908 -0.026539356 -0.12204871 0.044705063 0.0014842004 0.026381701
0.11784123 0.0895168 -0.100346304 -0.11658173 -0.13111562 -0.10111368 -0.077967286 -0.16957028
0.18122487 0.16118969 -0.17464332 0.10599388 -0.04021123 -0.17980404 0.13224114 -0.19583742
0.11260368 -0.17663303 0.12353061 -0.054885477 0.05668415 -0.1330567 0.058573052 -0.04772222
-0.16851468 0.18873806 0.108789966 -0.110269 -0.14912839 -0.04184863 -0.16203642 -0.045336008
-0.1575522 -0.031176731 0.06389587 0.03559637 -0.1379114 -0.1842794 -0.021948695 0.1470956
0.07422291 0.09163605 0.010403067 0.063715056 0.06954552 -0.17891458 0.1632878 0.012724832
-0.14494205 0.002355963 -0.06340912 0.07047959 -0.088392 -0.069826394 -0.096788935 -0.197142
0.19482537 0.104112014 0.09498991 -0.009318441 0.007859513 0.034879 0.0010331571 0.1427821
-0.029645592 0.10162766 -0.08914309 -0.064783886 -0.15887097 -0.06464191 0.06645192 -0.1395977
-0.1251823 0.13886763 -0.14988141 -0.10509443 0.061253354 -0.015166283 0.13952442 -0.17247
0.05362545 0.056217805 -0.07469471 0.1536301 0.07184528 0.17025791 0.01832132 0.10227214
0.15221183 0.109076425 -0.040507406 0.1281543 -0.16147947 0.1792448 0.051545784 -0.04510358
0.039435223 0.020834476 0.12127258 -0.19391309 0.120139286 -0.12110891 -0.05829236 -0.17351793
0.02344878 0.11374743 0.025750756 -0.14962967 0.07231809 0.051225886 0.1895506 -0.15919712
0.1610768 -0.114980415 0.004372269 0.067651436 0.09158756 -0.10978744 0.14320524 0.057293102
-0.03524992 -0.11998224 -0.10528984 0.026983187 0.066695735 0.0015710145 -0.10824757 -0.19698241
0.02169621 -0.116217874 0.16857041 0.0788631 0.18909179 0.12102796 0.19967644 0.1265407

bias f4 [25]
00000000: 7424 0abd e4aa 83bd 9840 b0bc ff2a 013e
00000010: b0d3 0abc 37a5 cbbd 6367 1b3e 68f5 2cbe
00000020: 3812 18be 349e 0dbd 2615 8cbd 36d5 f03d
00000030: 0c0b 223d 2fb3 31be 8588 053e 5098 313c
00000040: 4429 6e3d 2cbf 7a3d 7f46 343e a054 1fbd
00000050: ef79 4bbe f885 22be a1b6 463e e379 d3bd
00000060: 12cc b23d
-0.03372617 -0.06429079 -0.021515176 0.12614058 -0.008473322 -0.099436216 0.15176158 -0.1689049
-0.148507 -0.034574702 -0.06839971 0.11759417 0.039561316 -0.1735351 0.1304036 0.010839537
0.058144823 0.061217472 0.17605017 -0.038899064 -0.19870733 -0.15871418 0.19405605 -0.103259824
0.087303296

weight f4 [25, 25]
00000000: a900 343e 4653 d93d 94a7 3a3d 53d3 22be
00000010: 652c 49be e321 3dbe de0c 973d 2c93 8fbd
00000020: 94b2 6a3d f212 f03d a9e0 1a3e fbc8 033e
00000030: 2952 303e c2e7 b23d 824d b13d c0b6 f4bc
00000040: 2c74 303d d207 b13d b4e2 51bd 6606 21be
00000050: ea4c 8abd 80f4 d23c ffa8 1d3e 30d2 25be
00000060: 7b37 2e3e b26f e53d b6f5 27be 9903 133e
00000070: 8718 2f3e 5ec9 20be b292 c53d 003c b63a
00000080: 1a2d 90bd 505d e4bc 1d9f c8bd 40cf b3bb
00000090: 275d 313e dd20 00be 8a5f bfbd f054 a4bd
000000a0: 60a5 1d3d a0f6 56bd b62b d63d 148b 4fbd
000000b0: 47b9 173e ad6b 42be c782 b4bd 4076 59bd
000000c0: 37e3 203e ea2a a3bd 42bd a63d 40f2 4abd
000000d0: d0cf b2bd 008c eb3a d506 3a3e 9f27 3f3e
000000e0: 7aa4 a3bd c99d 3e3e 00b7 7fbc 522b b53d
000000f0: 3b23 263e aab6 ad3d bd84 f0bd 3ab7 d1bd
00000100: ced7 963d 60b6 9d3b eb55 433e d287 42be
00000110: 50bb febc 9568 39be d4b6 1dbd f507 22be
00000120: 5250 4abe 40fc 903c 5083 6e3c 888d 233d
00000130: b3b9 dfbd 10dd b5bc e879 0e3d 9017 e93c
00000140: 6f06 1f3e 0ac6 96bd 4951 163e da95 15be
00000150: 8dec 383e 1996 023e 0253 973d 9687 a83d
00000160: edbe f2bd 7a17 b93d ba15 2fbe b75b 43be
00000170: 3003 f4bc 745e 113d 6c8f 613d 0cf4 30bd
00000180: 88bb 0cbe 8ace 843d fbb7 4c3e 40e8 e03b
00000190: d48d 81bd 9855 9abc a0d5 edbb 097b 3d3e
000001a0: 0c79 07bd d0f3 90bd d19b 2f3e b029 04bc
000001b0: 72a0 a53d a092 f33b 04e8 623d 4090 acbc
000001c0: 9a8a a83d 604b 20bd a434 03be acb3 8cbd
000001d0: 789d 5abd 5955 253e 9309 1fbe cb9a 2cbe
000001e0: cccf 303d 52e3 cc3d 6876 813c a1c8 3b3e
000001f0: ec47 30bd 7c91 523d cea5 b53d 1337 3bbe
00000200: d067 f1bc 54b7 313d b5d8 023e 178f e3bd
00000210: 1d74 e8bd 37c5 103e 6d3b d8bd 03bc 253e
00000220: a88c 60bd 7b44 1d3e 6257 c83d 28fe 79bd
00000230: 286d 953c 5014 d2bc 432e eebd 0545 1cbe
00000240: 6072 a9bb 9515 3ebe afe6 193e 15a1 4b3e
00000250: aa67 9dbd 8aac 893d 4b83 47be 9795 48be
00000260: 8206 ea3d 7099 98bc aed9 bd3d 62e5 b13d
00000270: 1a0e 823d d27a c83d a938 393e 00f1 3a3c
00000280: e055 753c 30ee f03c 9812 f83c 6c3e 4fbd
00000290: 0e4c b23d 2aa5 9a3d 00d3 e1ba d036 cfbd
000002a0: 6634 d53d c63c 08be 65e7 19be 22ec c03d
000002b0: 34c9 103d 4703 49be 4e68 0bbe 0c49 233d
000002c0: 8084 04bb e0a9 01be 6dd4 acbd 35b9 213e
000002d0: 8bb8 1cbe ae6e f03d 2f98 2e3e 1e6b 913d
000002e0: d860 a0bc abca 11be 1f0a 223e eb31 373e
000002f0: 40a3 34bd 305c 7dbc 0a0b f93d 23a4 a0bd
00000300: 6227 14be 98d3 19bd aa92 45be bdda b6bd
00000310: 5adc e53d c0cf 16bd 78af 2dbe 80c9 4e3c
00000320: b9dc 453e 3f8b 493e ec78 753d 20bb 2dbc
00000330: e848 8b3c 40de 43bd dacf cc3d 2a57 b6bd
00000340: 621e af3d e00f 04be 59d9 283e 8065 1e3c
00000350: d4b2 1ebd 54cc 5fbd a88f db3c 29f4 2c3e
00000360: 2592 06be e188 083e 11ff 2b3e 2726 c4bd
00000370: f3cb f0bd 40f9 f4bb b080 e13c e08a 363d
00000380: dd02 1b3e f2cb 813d c0b5 a73b 4a09 fe3d
00000390: 33cb b2bd 001e d2bc 78d4 163d c05b b6bb
000003a0: b0d0 3ebe 3284 b63d a772 bbbd 1d4f 14be
000003b0: c809 6abd 1a53 a33d 3611 21be c7fb 9dbd
000003c0: 9557 103e abf0 28be 3fdb 38be 603e 8bbb
000003d0: be36 17be f7dd acbd 6808 5fbd 14dd 4cbd
000003e0: 6048 adbb 8021 f53a 32e2 913d c75d 383e
000003f0: e6a2 82bd 750d 083e 038f b5bd 78ba 28be
0.17578377 0.10611586 0.04556997 -0.15900926 -0.19645841 -0.18469958 0.07375501 -0.07010493
0.05729921 0.117223635 0.15124764 0.12869637 0.17218842 0.087356105 0.086573616 -0.029872298
0.04307954 0.0864407 -0.05124159 -0.15725097 -0.067529514 0.025751352 0.15396498 -0.16193461
0.17013352 0.11202945 -0.16402325 0.14356841 0.170992 -0.15701815 0.096471205 0.001390338
-0.070398524 -0.027876526 -0.097959734 -0.0054873526 0.17320691 -0.12512536 -0.093443945 -0.08024013
0.038487792 -0.052481294 0.10457556 -0.050669745 0.14816771 -0.18986388 -0.08814006 -0.053091288
0.15711676 -0.079671696 0.08141567 -0.049547434 -0.08731043 0.00179708 0.18166669 0.18667458
-0.07990356 0.18614878 -0.015607595 0.08846153 0.16224377 0.08482106 -0.11744068 -0.10240026
0.0736538 0.0048130006 0.19075744 -0.18997124 -0.031095177 -0.18106301 -0.038504437 -0.15823348
-0.19757202 0.017698407 0.0145576745 0.039929897 -0.10924091 -0.022200137 0.034784228 0.028453618
0.15529798 -0.07361992 0.14679445 -0.14607945 0.18058987 0.1275257 0.07388879 0.08228986
-0.118528225 0.09037681 -0.17098132 -0.19077955 -0.029786676 0.03549047 0.05506842 -0.04320149
-0.13743412 0.06484707 0.19992058 0.006863624 -0.0632588 -0.018839642 -0.007258132 0.18503965
-0.033074424 -0.070777535 0.17149283 -0.00806658 0.08087243 0.0074332505 0.05539705 -0.021064878
0.08229561 -0.039134383 -0.1281305 -0.06870207 -0.05337283 0.16145839 -0.15530996 -0.16855924
0.04316692 0.100042954 0.01580353 0.18338253 -0.04303734 0.051408276 0.08869515 -0.18282728
-0.029468447 0.043387726 0.1277798 -0.111112766 -0.11350272 0.14137731 -0.105582096 0.16185002
-0.05482164 0.15358154 0.09782292 -0.061033398 0.018240526 -0.025644451 -0.116299175 -0.15260704
-0.0051711053 -0.1856292 0.15029405 0.19885667 -0.07685788 0.06722362 -0.19483678 -0.19588314
0.114270225 -0.018627852 0.09270035 0.086863294 0.06350346 0.09789051 0.1808802 0.011409998
0.0149740875 0.029410452 0.030282304 -0.05059664 0.087059125 0.07551034 -0.0017229021 -0.101178765
0.10410385 -0.13304433 -0.15029676 0.09420039 0.035348132 -0.19630156 -0.13614008 0.039864585
-0.0020220578 -0.12662458 -0.084389545 0.15793307 -0.15304773 0.117398605 0.17050241 0.07100509
-0.019577429 -0.14237468 0.15824173 0.17890136 -0.044101 -0.015463874 0.12160309 -0.078438066
-0.14468148 -0.037555307 -0.19294229 -0.0892844 0.11223669 -0.03681922 -0.16961467 0.0126212835
0.1932248 0.19682024 0.059929773 -0.010603696 0.017002538 -0.047819376 0.10000582 -0.08903344
0.08550717 -0.12896681 0.16489162 0.009667754 -0.038744763 -0.05463822 0.0268019 0.16890015
-0.13141687 0.13333465 0.16796519 -0.095775895 -0.1175765 -0.007476002 0.027527183 0.044566035
0.15137811 0.063377276 0.005118102 0.124041155 -0.087301634 -0.02564907 0.03682372 -0.0055651367
-0.18634295 0.08911933 -0.091527276 -0.14483304 -0.057138234 0.07974835 -0.15729222 -0.07714038
0.1409591 -0.16498058 -0.18052386 -0.004249379 -0.14766976 -0.08440774 -0.054451376 -0.050015524
-0.005288169 0.0018702 0.071232215 0.18004523 -0.06378727 0.13286383 -0.08865168 -0.16477382

bias f4 [25]
00000000: cb12 32be 3735 0f3e fbbd 44be 00e3 013c
00000010: e47c 723d 28b6 06bd d4a1 2f3d ab7d 48be
00000020: ab9b 4a3e b0c4 dcbc f8ac 64bd 4858 6dbd
00000030: 0953 353e 26c5 2cbe 2288 e83d c08b 073d
00000040: a032 a63b f412 653d 87bb d9bd 6d04 f9bd
00000050: 1115 483e 429f a23d ed17 1cbe dffa 143e
00000060: ea1c d3bd
-0.17389981 0.13985144 -0.19213097 0.007927656 0.059201136 -0.03288856 0.04287894 -0.19579189
0.19785945 -0.026949257 -0.05582902 -0.05794552 0.17707457 -0.16872081 0.1135409 0.03309226
0.005071953 0.05592628 -0.10631471 -0.12159047 0.19539286 0.07940532 -0.15243502 0.14548825
-0.10308249

weight f4 [25, 25]
00000000: 702a 823c 42f3 d23d 14cf 3e3d a714 e0bd
00000010: 6d1a a9bd c2af 16be c213 f03d 534f dcbd
00000020: 7487 8dbd 08f7 14be ee89 19be a82d 20bd
00000030: 8375 a6bd 1867 c0bc e722 ecbd 8035 a63c
00000040: d693 df3d 365e 0dbe 5084 e3bc 100a c7bc
00000050: 9faf 193e ad11 1d3e 3008 3c3c 1b3f 2c3e
00000060: 8094 0e3d 29c4 473e 531b 2b3e d764 473e
00000070: 9257 34be 8ac7 ba3d 1739 b7bd 6784 433e
00000080: b0f2 4c3c 106c 92bc 2a9b bc3d c08e 3d3d
00000090: 0260 bd3d b711 48be 3a19 863d 2897 f73c
000000a0: a4d1 703d a2a0 8f3d f4f1 15bd c5d4 483e
000000b0: 0c53 89bd 5ca6 04be b71e bfbd d797 f1bd
000000c0: 2863 bbbc 0869 0dbe 6c75 5bbd 6aa0 e6bd
000000d0: 688f 123d 8044 14be a005 20be 485b 01be
000000e0: 54e8 46bd 0057 09bc 3eb6 cb3d c07c f3bb
000000f0: a061 68bd 6890 19be 424c 31be ba12 18be
00000100: 22a8 a03d 7eb4 0ebe 1ee4 953d 50de 1fbc
00000110: 5293 d63d bec9 b83d 0061 e7ba caf8 40be
00000120: 132c a4bd dad3 aabd f273 9e3d c019 62bd
00000130: a565 4a3e 802c 7bbd 80b5 37be 15ed 113e
00000140: e258 e53d ef93 363e 991e 073e 104d 40be
00000150: e0d3 47bd 6d04 02be 42e4 0fbe b35d 3cbe
00000160: 5494 4c3d 0a0c bf3d 29ab 233e 18a4 df3c
00000170: 475e b3bd d7b3 453e f148 193e 77d3 1e3e
00000180: ff24 3f3e b99e 1f3e 7657 98bd 5622 e83d
00000190: e540 1fbe 8054 06bb 6678 e93d f0b6 45be
000001a0: cdb9 aabd 9bc9 16be 58f1 ccbc 6880 34be
000001b0: b7a1 f4bd 4091 92bc 43ae f6bd 5533 443e
000001c0: 5159 463e 9e2f f03d 30e3 cdbc ac14 4bbd
000001d0: 5070 fabc d361 f6bd 4fec 3fbe 804e 083d
000001e0: 8026 66bc c8bf 0f3d acc8 52bd 0023 79bc
000001f0: 02c7 f53d 3e0a 0dbe 7ec2 863d 9a28 b03d
00000200: b4b9 5a3d 1b73 3bbe 55fe 18be 62bb 10be
00000210: 8082 05be 622d f63d a0af 73bc f663 983d
00000220: bb54 3bbe 6221 b93d 2b5f 4cbe a4f4 4f3d
00000230: f397 fcbd 4c0c 1ebd 3a2b fc3d d81f 28be
00000240: 44c3 553d 2d7c 1fbe 0c0a 6b3d b521 403e
00000250: 974b b4bd 08fe 74bd f401 583d 18b4 813c
00000260: 8e1c d43d b0e4 5dbc 2395 12be 4975 203e
00000270: 3823 40be 673f 323e 7cc4 03be f443 46bd
00000280: 333d 4c3e e8e0 19bd ec64 223d 16f3 f63d
00000290: 0ff3 463e b02b 4d3c f78b 193e b65a 923d
000002a0: 1c21 89bd 949c 3ebd f55e 3b3e 279e 2e3e
000002b0: 8539 3fbe 067c bf3d 1879 9e3c 75d4 4bbe
000002c0: 227b 16be 3237 bb3d 1a60 e4bd 533b 473e
000002d0: 8ce3 5d3d 98b8 47be 715d 1b3e d43f 6b3d
000002e0: a0c5 4d3c 2c6b 433d 2cc5 01bd 9033 37be
000002f0: 113c 1e3e 7a20 04be 80ab aebc 6d8e 05be
00000300: e68a 0abe d9a4 163e 4045 833c 40e2 27bd
00000310: 9ae3 35be b0d0 1b3c c2b9 bf3d bbab 4c3e
00000320: b198 3d3e d014 54bc 11b6 473e 2eee dd3d
00000330: 2a5e fb3d d0d7 10be 13f6 42be 992f 1e3e
00000340: a007 c0bb 25e9 063e 8635 b23d 801e aaba
00000350: 1ded 343e f855 5abd 3973 063e f0a0 98bc
00000360: 58aa 043d b3f7 33be ea6e 9e3d e638 8cbd
00000370: 4929 463e 4262 853d 67c6 b4bd 8735 0e3e
00000380: 7d8e 333e afac 153e 74d4 41bd 6922 3e3e
00000390: f030 c9bd 26ef a83d cd2d 483e 2df5 1e3e
000003a0: 9786 34be 901d 86bc 564c b13d de54 853d
000003b0: 5c21 89bd 5e49 893d b0c9 cabd 2a12 91bd
000003c0: 8216 eb3d bf26 3f3e 5322 aebd 007f b1bb
000003d0: 3a2a 97bd 80c4 ed3c 43d9 f3bd c506 26be
000003e0: 7612 923d 00b6 b5bb d63d c33d c765 4b3e
000003f0: 0d57 0abe 408f 253d a0c6 41be 2a05 d73d
0.015889376 0.10300304 0.046584204 -0.10941439 -0.082569934 -0.14715484 0.117225185 -0.107573174
-0.06910601 -0.1454736 -0.14994022 -0.03910604 -0.08127882 -0.023486659 -0.115300946 0.020289183
0.10916869 -0.1380547 -0.027773052 -0.02429679 0.150084 0.15338774 0.011476561 0.16820948
0.03480959 0.19508423 0.16709642 0.19472061 -0.1761153 0.0912009 -0.08946436 0.19093476
0.012509033 -0.017873794 0.09209283 0.046278715 0.09246828 -0.19538008 0.0654778 0.030223444
0.05879368 0.0701306 -0.036607698 0.19612415 -0.06705293 -0.12954086 -0.0933203 -0.11796539
-0.02287443 -0.13809597 -0.05357878 -0.11261065 0.035781294 -0.14479256 -0.15627146 -0.12632477
-0.04856141 -0.008382559 0.09946869 -0.007430643 -0.056733727 -0.14996493 -0.17314246 -0.14850894
0.07844569 -0.1393604 0.073189005 -0.009757593 0.10477318 0.09022854 -0.001765281 -0.18844905
-0.08016219 -0.08341189 0.077369586 -0.05520034 0.19765337 -0.061321735 -0.1794033 0.14250596
0.11198594 0.1782987 0.13195266 -0.18779397 -0.048786044 -0.12697001 -0.14051917 -0.18395118
0.049946144 0.09328468 0.15983261 0.027299926 -0.08758216 0.19306885 0.14969231 0.15510355
0.18666457 0.15587892 -0.07438557 0.11334674 -0.15552099 -0.0020497143 0.11399917 -0.19308066
-0.0833622 -0.14725344 -0.025017425 -0.17627108 -0.11944907 -0.017891526 -0.120449565 0.19160207
0.19370009 0.11727832 -0.025132746 -0.04958026 -0.030571133 -0.12030377 -0.18742488 0.03327799
-0.014047265 0.035095006 -0.051460907 -0.015206099 0.12000848 -0.13773438 0.06580065 0.08601494
0.053399757 -0.18305628 -0.1494077 -0.14133981 -0.13038063 0.12020375 -0.014873415 0.07440941
-0.18294041 0.090395704 -0.19958179 0.050770417 -0.123336695 -0.038585946 0.12312932 -0.16418397
0.052188173 -0.15574713 0.05738263 0.18762858 -0.0880348 -0.059812576 0.052736238 0.015832946
0.10357009 -0.013543293 -0.14314704 0.1566974 -0.18763435 0.17406999 -0.12867922 -0.04840465
0.1994522 -0.037568003 0.039647028 0.12058084 0.19428657 0.012522623 0.14994799 0.07146208
-0.06695768 -0.046536043 0.18297942 0.17052518 -0.18674286 0.093498275 0.019344851 -0.19905265
-0.14695409 0.09141387 -0.111511424 0.19456224 0.054172084 -0.1950401 0.15172364 0.057433918
0.0125593245 0.04770963 -0.03168218 -0.17890763 0.15452601 -0.12903014 -0.021322012 -0.13042612
-0.13529548 0.14711322 0.016024232 -0.040987253 -0.17762604 0.009510204 0.09361602 0.19987385
0.18515278 -0.012944415 0.19503047 0.10836445 0.1227382 -0.14144826 -0.19039182 0.15447845
-0.005860284 0.13174875 0.08701615 -0.001297906 0.17668577 -0.053304642 0.13129891 -0.018631428
0.032389015 -0.17574959 0.07735999 -0.0684679 0.19351687 0.06512882 -0.08826905 0.13887607
0.17534824 0.14616655 -0.04732175 0.18567814 -0.09823787 0.08248739 0.19548722 0.15523215
-0.17629467 -0.016371518 0.08657138 0.06510328 -0.06695816 0.06703447 -0.0990175 -0.07083543
0.114789024 0.18667124 -0.085026406 -0.005416751 -0.07381101 0.029024363 -0.11906674 -0.1621352
0.071324274 -0.0055453777 0.09533279 0.19863044 -0.1350977 0.040419817 -0.18923426 0.10499032

bias f4 [25]
00000000: 80fa fc3c 7d76 313e 6c65 87bd 943d 603d
00000010: 1780 ffbd 8b25 0c3e 788e 35be 822f 993d
00000020: 2cfa 483d 80e4 293d 8aa9 8fbd e0b1 f3bd
00000030: 1612 933d d217 2bbe b31c 27be d0e7 23bc
00000040: f558 22be e9fa 053e 9497 62bd db3a 0c3e
00000050: 51e0 243e d124 153e 7086 a23c 3ba2 3e3e
00000060: 99a7 143e
0.030881166 0.17330356 -0.066111416 0.054746225 -0.12475603 0.13686197 -0.17730129 0.074797645
0.049066707 0.04147768 -0.07014759 -0.11899161 0.07181184 -0.16708305 -0.16319542 -0.010003999
-0.15854247 0.13083996 -0.055320337 0.13694327 0.16101195 0.14564826 0.019839495 0.18616574
0.14517058

weight f4 [4, 25]
00000000: 6e0d cb3d 88b3 0cbd c063 c63c 570a 40be
00000010: fb90 113e 4800 1d3d c022 363b a0d3 063c
00000020: 47f3 b1bd c376 373e 1fe2 213e c4a4 4d3d
00000030: 6008 35bc 560a 00be 95e0 15be 4d5b 043e
00000040: f03b d0bd 2cc9 05bd 32cc 33be 56ab 94bd
00000050: b2a9 0bbe e367 133e e764 1e3e 43e5 a9bd
00000060: f9ab 1f3e 68c2 5abd eac5 46be e032 34bc
00000070: 8017 d7bc 57ea a9bd 98db c03c 0179 133e
00000080: cb58 083e a224 943d 8315 2f3e 404e f7bb
00000090: 442b 513d 4756 f2bd 200c 3abc 1e06 f23d
000000a0: 807b d03c 7434 08be 1e3e d83d 023c 933d
000000b0: 3864 08be 7188 263e d0c9 bdbd c2ec 34be
000000c0: 58e0 42be 500e 3abe 5a63 14be a32c bcbd
000000d0: 38fc 0f3d 0709 e1bd decd 803d 07cd ccbd
000000e0: 760f 1dbe e043 32be 101d 33be 1124 433e
000000f0: e06b d7bd 4809 2b3d 6205 a93d 9711 0e3e
00000100: 7dc2 283e 716c 0f3e c137 3b3e 64e5 643d
00000110: 0a79 ca3d f66a 813d 5824 45be 9db6 193e
00000120: 7874 5ebd cf17 313e 6450 85bd ca2a c8bd
00000130: f0bb 8ebc d8c6 f1bc f078 ce3c 9231 d43d
00000140: 2187 383e 83cb 1abe d269 fb3d e34b b6bd
00000150: f021 eabc d8e4 c7bc e857 bdbc 6e5e 28be
00000160: 9725 f2bd cbb4 37be 2294 9c3d 00b1 a7bb
00000170: 6805 63bd 78ab 473d 9f77 383e 6d97 0abe
00000180: bfbe 2f3e 0a5a b4bd 90ad b93c 0225 863d
0.09914671 -0.0343509 0.024217486 -0.18753944 0.14215462 0.038330346 0.0027791709 0.008229166
-0.086889796 0.17916398 0.15808915 0.05020596 -0.01104936 -0.12503943 -0.14636452 0.12925453
-0.10167682 -0.032662556 -0.17558363 -0.07259242 -0.13638952 0.14395098 0.15468179 -0.08295681
0.15592946 -0.053408056 -0.19411436 -0.010998458 -0.026256323 -0.0829665 0.02354221 0.14401628
0.13315122 0.0723355 0.1709805 -0.00754717 0.051066652 -0.11832862 -0.01135543 0.11817573
0.025449514 -0.1330126 0.10558723 0.0718918 -0.1331948 0.16262986 -0.09267008 -0.17668441
-0.19030893 -0.18169522 -0.14491025 -0.09188201 0.035152644 -0.1098805 0.06289266 -0.10000043
-0.15337929 -0.17408705 -0.17491555 0.19056727 -0.105186224 0.0417569 0.0825298 0.13873897
0.16480441 0.14006211 0.18282987 0.055882826 0.098863676 0.06319229 -0.19252145 0.15011068
-0.054310292 0.17294239 -0.06509474 -0.09773786 -0.0174236 -0.029513761 0.025204152 0.10361017
0.18020298 -0.15116696 0.12276043 -0.08901193 -0.028580636 -0.024401113 -0.023113206 -0.16442272
-0.11823576 -0.17940061 0.076454416 -0.0051175356 -0.055425078 0.04874751 0.18014382 -0.13534327
0.17162608 -0.08806236 0.022665769 0.065500274

bias f4 [4]
00000000: c8cd 303d 453b 4c3e c371 aabd 2255 e33d
0.043165 0.19944485 -0.083224796 0.11100222
