models/_brain_54.pt (torch, 14593 bytes, 12 tensors)

weight f4 [14]
000000 00 00 80 3f 00 00 80 3f 00 00 80 3f 00 00 80 3f
       1.0 1.0 1.0 1.0
000010 00 00 80 3f 00 00 80 3f 00 00 80 3f 00 00 80 3f
       1.0 1.0 1.0 1.0
000020 00 00 80 3f 00 00 80 3f 00 00 80 3f 00 00 80 3f
       1.0 1.0 1.0 1.0
000030 00 00 80 3f 00 00 80 3f
       1.0 1.0

bias f4 [14]
000000 00 00 00 00 00 00 00 00 00 00 00 00 00 00 00 00
       0.0 0.0 0.0 0.0
000010 00 00 00 00 00 00 00 00 00 00 00 00 00 00 00 00
       0.0 0.0 0.0 0.0
000020 00 00 00 00 00 00 00 00 00 00 00 00 00 00 00 00
       0.0 0.0 0.0 0.0
000030 00 00 00 00 00 00 00 00
       0.0 0.0

weight f4 [25, 14]
000000 0f c8 77 be e4 76 79 be 00 23 7f bd 00 59 a2 3b
       -0.2419741 -0.2436176 -0.062289238 0.0049544573
000010 10 5a 84 3d 2f f0 18 be 96 df 09 3e 7c fa ee 3d
       0.064624906 -0.14935373 0.13464198 0.1166887
000020 04 a1 12 3e 48 2a 53 3e 8c 4a 3a be 00 d8 61 39
       0.14319235 0.20621598 -0.181925 0.00021538138
000030 80 08 0e 3c ee 5a 04 be 70 30 ec 3d 58 12 fc bc
       0.008669019 -0.12925312 0.11532676 -0.030770466
000040 72 a6 2c 3e 04 a9 81 3d e0 5d a4 3d 00 ad b3 3d
       0.16860369 0.06331065 0.08025718 0.087732315
000050 12 0c 28 3e 6e 6c fd bd 5c 11 9f 3d 30 94 43 be
       0.16410854 -0.12374197 0.07766983 -0.19099498
000060 f0 73 15 3d aa d6 68 be 02 10 5a be 2c f8 21 3e
       0.03648752 -0.22738138 -0.21295169 0.15817326
000070 4c 02 00 bd 2c ba b9 3d d8 9b 25 3d e6 3c 61 3e
       -0.03125219 0.090687126 0.040431827 0.21995887
000080 78 b0 43 3d 37 f4 80 3e 20 ef 7d bc 20 a6 9b bd
       0.047775716 0.2518632 -0.015498906 -0.07600045
000090 f6 5e 4f be 51 2c 79 be 66 30 29 be 98 4e 86 3d
       -0.20251068 -0.24333312 -0.16522369 0.06557959
0000a0 f8 b5 25 bd b0 d4 55 3d b0 7b 04 bd 14 66 fb 3d
       -0.040456742 0.052204788 -0.03234452 0.12275329
0000b0 68 d2 dd bc e5 9e 67 be 3e 2e ce bd 10 db 10 3e
       -0.027077869 -0.22619207 -0.10067414 0.14146066
0000c0 80 28 df 3c bc ec 52 3e 80 f0 c6 3c 4b cc 54 be
       0.027240992 0.2059812 0.024284601 -0.20781057
0000d0 ac d1 1d be 52 68 75 3e 3b cd 38 be 14 ea 32 3e
       -0.15412015 0.23965576 -0.18047039 0.17472106
0000e0 2a e8 7f 3e 70 b2 20 3e 28 43 15 be 96 43 59 be
       0.24990907 0.15693069 -0.145764 -0.21217188
0000f0 d8 8f c3 bc dc fb d8 bd f8 68 33 3e a4 26 eb 3d
       -0.023872301 -0.10594913 0.17520511 0.114819795
000100 2a 80 40 3e a0 26 85 3d 84 37 e0 3d 9c 77 5d 3e
       0.1879889 0.06501508 0.10948089 0.21627659
000110 b8 47 f9 bd 9a 03 15 be 20 0b 3f bc 8c 4a fa 3d
       -0.121718824 -0.14552155 -0.011660367 0.1222125
000120 38 99 ac bc 84 0b 3a be 88 47 3c bd fc 80 81 3d
       -0.021069154 -0.18168455 -0.045966655 0.0632343
000130 69 2c 22 be 00 4c bf ba 78 d3 8c 3d f2 72 7a 3e
       -0.15837254 -0.0014594793 0.06876272 0.2445791
000140 32 38 03 3e f8 15 e7 3d 57 9a 86 3e 18 6b 40 be
       0.12814406 0.11283487 0.26289627 -0.18790853
000150 1e 89 1d 3e ba 06 43 be 63 b2 6f be d0 d7 8b bd
       0.15384337 -0.19045535 -0.23407893 -0.06828272
000160 00 2d 19 3e d8 52 eb 3d 00 d1 6d bc 2a f7 49 3e
       0.14958572 0.114904106 -0.0145151615 0.19723192
000170 e4 37 55 3e 60 0a 6e 3d 6b a6 85 3e 9a 89 66 be
       0.20822102 0.058115363 0.2610353 -0.22513428
000180 b9 07 88 3e bc 3b ab bd cc 2b 30 bd 2a 29 43 3e
       0.26568392 -0.08361003 -0.043010518 0.19058672
000190 cf 35 86 be 08 e2 62 be 80 53 ff 3d cc 9b 8c 3d
       -0.26212928 -0.22156537 0.12467098 0.068656534
0001a0 c0 0c be 3b f8 02 2c bd 48 ee 9e bd 10 39 f1 3d
       0.0057998598 -0.04199502 -0.07760292 0.11778462
0001b0 58 36 c9 bd 00 fe 13 bc 44 06 05 3e 10 16 ee bd
       -0.098248184 -0.009032726 0.12990671 -0.11625302
0001c0 c2 dd 7b 3e 5e 4e 90 bd 30 4f d8 bc 04 53 88 be
       0.24596313 -0.07046197 -0.026404947 -0.26625836
0001d0 2e 5f 36 3e 34 e2 d1 3d c0 09 2c 3e f8 17 08 bd
       0.17809746 0.10248223 0.16800594 -0.033225983
0001e0 20 c1 19 3d 90 09 60 3e 50 be 9c 3d 7c 76 b8 bd
       0.037537694 0.21878648 0.07653487 -0.09006974
0001f0 05 06 5a be a8 0a 47 be 00 23 5e 3e c0 6e ab 3b
       -0.21291359 -0.19437659 0.21693039 0.0052317083
000200 7e b4 49 be bc 11 04 be 6e 4e 2e be 5c 0c 3a bd
       -0.19697759 -0.1289739 -0.17022106 -0.045421943
000210 ac 47 a6 3d 8c 24 60 bd 58 4e a4 3d 10 e6 85 bc
       0.08119139 -0.054722354 0.080227554 -0.016345054
000220 78 d0 ef 3d 3e 2e 28 3e 8e 64 41 be 88 d4 37 bd
       0.11709684 0.1642389 -0.18886015 -0.04488042
000230 6e cd 61 be f8 b1 6b 3e e4 68 4f 3e a8 b1 8a bd
       -0.22051021 0.23017108 0.20254856 -0.067721665
000240 24 b5 d4 bd d9 5a 0d be 82 1f 08 3e 00 fe 56 bb
       -0.10386112 -0.13804187 0.1329327 -0.0032805204
000250 0c d4 80 3d 16 c7 00 3e bc d7 08 be 60 bd 79 3c
       0.06290445 0.12575945 -0.13363546 0.015242904
000260 9a aa 1b 3e e0 22 36 3d d8 bb 5d 3d b6 56 a9 bd
       0.15201798 0.044466853 0.05413422 -0.08268492
000270 aa bb 50 3e d6 ce 7d 3e 98 a3 35 3e 66 8f 6e 3e
       0.20384088 0.24785933 0.17738187 0.2329689
000280 a2 ee d3 bd 24 b4 ca bd f2 e0 48 3e d6 ff 7c 3e
       -0.1034825 -0.0989764 0.1961706 0.24706969
000290 c0 d0 f8 3b c0 c2 fe bb c0 19 36 bc 7b 5e 87 3e
       0.0075932443 -0.007774681 -0.011114538 0.2643927
0002a0 80 de c4 3c 93 08 60 be b3 53 82 3e 9c 8a 1f be
       0.024031878 -0.21878271 0.25454482 -0.15580219
0002b0 26 f7 49 be 06 52 4c 3e 74 a8 25 3e 6c 5d 55 bd
       -0.19723186 0.19953164 0.16177541 -0.052091047
0002c0 28 5a da bc 60 76 bd 3d 62 c0 5a 3e 02 05 31 be
       -0.026654318 0.09251094 0.2136245 -0.17287067
0002d0 db 18 0f be 00 89 85 bd 50 05 38 be 30 1b e1 bc
       -0.13974325 -0.06520271 -0.17970777 -0.027478784
0002e0 2c a9 9d 3d b4 35 f1 3d ba 9c ff bd 97 ad 2b be
       0.076982826 0.11777821 -0.12481065 -0.16765438
0002f0 34 4f 96 bd af b2 62 be e8 4f 40 3d b4 79 9d bd
       -0.073393255 -0.22138475 0.046951205 -0.07689229
000300 00 f5 57 3d 80 81 ee bb 18 61 0b 3d 44 53 09 be
       0.052723885 -0.007278621 0.034028143 -0.1341067
000310 8b f5 7d be c0 85 37 bd 6c 82 b2 3d 30 e1 b9 3d
       -0.24800698 -0.04480529 0.08716282 0.09076154
000320 08 2f 35 3d 4a a3 53 3e dc 16 69 3e 6a e3 1d 3e
       0.044234306 0.20667759 0.22762626 0.15418783
000330 dc bc 83 3d c4 9a 22 bd 48 49 d7 bc b0 07 00 3e
       0.064325064 -0.039698377 -0.02628006 0.12502933
000340 82 eb 7d 3e 18 ae 09 be 87 49 03 be 0c 58 37 bd
       0.2479687 -0.13445318 -0.12821017 -0.044761702
000350 a2 cf 65 be 22 84 a0 bd f0 05 2d 3d 2f ac 6a be
       -0.22442487 -0.07837702 0.04224199 -0.22917245
000360 b6 b1 7b be 7b 86 0e be 48 58 4b bd 10 be aa 3c
       -0.2457951 -0.13918488 -0.04964474 0.020842582
000370 4a d9 11 be c2 34 45 3e 18 d2 71 3d 00 ec 8f 3b
       -0.14243045 0.19258407 0.05903825 0.004392147
000380 18 7c 7c 3d 38 a0 95 3d cc 7d 70 be 4c 88 e9 3d
       0.061641783 0.0730595 -0.23485488 0.1140295
000390 a0 65 64 3d 47 17 3e be 04 5b 65 bd 70 69 7e 3d
       0.05576098 -0.18563567 -0.055995002 0.06211227
0003a0 98 4b 0a 3d 60 8c 50 3e 62 85 30 be b8 e1 b3 3d
       0.033763498 0.20366049 -0.17238382 0.08783287
0003b0 19 64 6d be b8 7f 13 be 60 8a f9 bc d4 af 5f bd
       -0.23182715 -0.1440419 -0.03046149 -0.054611042
0003c0 3c 87 5f 3e 56 10 6f be 8b d0 87 3e e0 32 54 be
       0.21828932 -0.23346075 0.26526293 -0.20722532
0003d0 30 69 16 bd d8 e1 6e bd a2 0c 06 3e 10 a3 f0 3c
       -0.03672141 -0.05832085 0.13090757 0.02937463
0003e0 12 9c d4 bd 7e 85 37 be 90 a2 0f 3e 78 ac da bc
       -0.103813305 -0.17922017 0.14026856 -0.026693568
0003f0 ef 0c 7a be 04 02 12 3e ca 0d 75 3e 94 5a 1b 3e
       -0.24418996 0.14258581 0.23931041 0.15171272

bias f4 [25]
000000 4e 26 24 3e dc 69 db 3d 82 6f 0d be 44 ec 5e 3e
       0.16030237 0.107135504 -0.13812068 0.21769816
000010 d0 c1 ce 3d 20 f2 4d bc 03 52 81 3e f5 52 37 be
       0.100955606 -0.012569934 0.25257882 -0.1790274
000020 60 e3 48 3c 60 12 65 3c aa 95 72 be ab 79 74 be
       0.012261242 0.013981432 -0.23689905 -0.23874538
000030 40 8c 0a 3e 5c fc 3d be 74 23 35 3e 58 a4 a8 bd
       0.13530064 -0.18553299 0.17689306 -0.08234471
000040 5f 5a 83 3e 5d 23 83 be b0 00 29 3d fc 0e 53 be
       0.25654885 -0.25612918 0.04126042 -0.20611185
000050 00 b4 20 3d ee be 6c be 76 d6 61 be c0 2c b9 3b
       0.03923416 -0.23119709 -0.22054467 0.0056510866
000060 40 7e 11 3c
       0.008880198

weight f4 [25, 25]
000000 3f 6d 36 be 89 65 0d 3e 5f 6b 0f 3e c5 18 42 be
       -0.17815112 0.13808264 0.14005803 -0.18954761
000010 cf f1 0a 3e b4 89 5f bd b0 67 e6 bc 68 ad 31 bd
       0.13568805 -0.054574683 -0.028125614 -0.043378264
000020 1d 80 9c bd d7 91 dd bd a3 5a 16 3e 30 e8 6c bc
       -0.07641623 -0.10818832 0.14683013 -0.014459655
000030 cd 38 ba bd 08 20 3a be 34 48 1f 3d e2 a0 bf 3d
       -0.09092865 -0.18176281 0.038887218 0.09356858
000040 9e 65 ef 3d 09 92 0e 3e 40 81 46 be 97 bd ab bd
       0.11689304 0.13922895 -0.19385242 -0.08385771
000050 c0 06 88 bd d3 f7 99 bd ec e7 7f bd da b3 c9 bd
       -0.066419125 -0.07517972 -0.062477037 -0.09848757
000060 97 d9 e7 bd 8e d6 82 3d a7 53 ec bd 71 cb 46 3e
       -0.11320799 0.06388579 -0.11539393 0.19413544
000070 6c b9 94 bd b8 72 39 3d 14 45 7a bd 28 e5 b1 3c
       -0.07261929 0.04527542 -0.061101034 0.021715716
000080 1f 5f 47 3e 92 24 f2 3d 80 ed 81 3c c3 6f 24 3e
       0.1946988 0.118233815 0.01586032 0.16058259
000090 3a ed ef 3d cc ef 83 bd 07 62 1d 3e f3 48 c4 bd
       0.11715169 -0.06442222 0.15369426 -0.095842265
0000a0 ad a5 f9 bd d8 7c 1f bd 1c 4f 99 bd 31 b8 20 3e
       -0.12189803 -0.03893742 -0.07485792 0.15695263
0000b0 34 7c 72 3d b8 76 27 be be 36 c6 3d a8 e5 85 bc
       0.05920048 -0.16353881 0.0967841 -0.01634486
0000c0 b8 fd 18 3d b7 80 03 3e b4 32 62 bd 38 f2 38 bd
       0.03735134 0.1284207 -0.055224136 -0.045152873
0000d0 ba 63 dd bd 30 74 62 3c d0 b9 e0 3c c0 10 30 bd
       -0.10810037 0.013821647 0.027432352 -0.042984724
0000e0 73 58 ee bd 28 bf e0 bc 49 b9 3b 3e 68 54 7a bd
       -0.11637964 -0.0274349 0.183324 -0.061115652
0000f0 e1 b8 3b 3e 4d 35 38 be a2 7c 01 be 68 4a d5 3c
       0.18332244 -0.17989083 -0.126452 0.026036456
000100 30 e9 12 bc 58 91 0b be 46 64 c4 3d 6d a4 1e be
       -0.008966729 -0.13629663 0.09589438 -0.15492411
000110 60 de e5 bb 98 ca 99 3c f2 bd f6 3d cf a5 0b 3e
       -0.0070150346 0.018773362 0.12047948 0.1363747
000120 e0 87 b6 bd 00 f8 8a bb 78 ba 20 3d 08 9a 24 be
       -0.08912635 -0.0042409897 0.03924033 -0.16074383
000130 95 74 4b 3e e3 9c de bd 50 ea c5 bd 7c 9d 5f 3d
       0.19868691 -0.108697675 -0.09663832 0.05459355
000140 58 b8 17 bd e8 64 0b 3d c6 da 99 3d 24 aa 65 3d
       -0.03704104 0.03403178 0.07512431 0.056070462
000150 a8 52 30 3d cd 52 4c be 18 73 d1 bc 11 23 45 3e
       0.043047577 -0.19953461 -0.025567576 0.19251658
000160 0f e9 48 be c9 f0 49 3e 81 e6 11 3e 4a 7d 8c bd
       -0.19620155 0.19720758 0.14248087 -0.068598345
000170 a0 b5 b6 bb 1b 22 2b 3e 2c 84 05 be 9a 9f f1 3d
       -0.0055758506 0.16712229 -0.13038701 0.1179802
000180 d0 50 f4 bc 58 7d db 3c dd d5 34 be 50 94 e0 bc
       -0.02982369 0.026793167 -0.17659707 -0.02741447
000190 9a a5 a3 3d d1 5b 18 3e c0 6f 8c 3c 62 73 dd 3d
       0.0799057 0.14878775 0.01714313 0.10813023
0001a0 70 2a db 3c 89 5b 43 3e 94 46 7e bd b5 26 10 3e
       0.026753634 0.19077887 -0.062079027 0.14077266
0001b0 99 36 03 3e ea bc d0 3d 14 4a 26 3d 05 5e 48 3e
       0.12813796 0.101922825 0.04059799 0.19567116
0001c0 3d 34 3f 3e ec 9e 30 3d e7 d5 32 3e 38 4d 47 be
       0.18672271 0.04312031 0.1746441 -0.1946305
0001d0 cd 63 e4 bd af 72 03 3e 13 09 2a 3e 8d e2 0a be
       -0.11151848 0.12836717 0.16605024 -0.13562985
0001e0 50 b3 12 bc 6e a7 11 be 2b 1b 1f 3e 62 ac bf 3d
       -0.008953884 -0.14224026 0.15537708 0.09359051
0001f0 60 fa 50 3c 44 61 75 3d 21 fe 34 3e 08 a4 3d be
       0.012755007 0.059907213 0.17675067 -0.18519604
000200 96 3e b2 3d da 08 8a bd c8 e1 6e bd 22 37 9f 3d
       0.087033436 -0.067399696 -0.05832079 0.077741876
000210 7a 52 99 3d 81 14 39 3e 36 ae eb 3d 55 86 44 3e
       0.07486434 0.18074228 0.115078375 0.19191869
000220 00 27 92 ba 14 87 54 bd 20 fb 44 be e1 51 21 3e
       -0.0011150539 -0.051886633 -0.19236422 0.1575389
000230 c2 fd 8e 3d 30 0a 82 3c 26 65 ad 3d 48 bf 12 3d
       0.06981994 0.015873998 0.08466558 0.03582695
000240 ad 93 fe bd fa bc a0 bd 62 41 03 be 2d 1d 0d be
       -0.12430511 -0.078485444 -0.1281791 -0.13780661
000250 6c 9d 63 bd 0c 80 30 bd f2 57 95 3d 15 11 3d be
       -0.05557005 -0.043090865 0.07292165 -0.18463548
000260 5d 03 33 3e b8 e5 0b 3d 43 3e 1f 3e 20 b0 15 bc
       0.17481752 0.034154624 0.15551095 -0.00913623
000270 c6 0e af 3d 73 a1 3b 3e c1 f2 2a 3e 53 a0 24 3e
       0.0854774 0.18323307 0.16694166 0.16076784
000280 6c aa 7a bd b8 d3 2c bd ff 9f 3d 3e 27 1a fb bd
       -0.061197683 -0.0421941 0.18518065 -0.122608475
000290 b0 75 77 bc 58 cc d8 bc 30 b1 62 3c a3 ce fa bd
       -0.0151037425 -0.026464626 0.01383619 -0.12246444
0002a0 82 47 fa 3d 05 a9 18 3e ec b3 7e 3d 8d 1a c2 bd
       0.1222067 0.14908226 0.062183306 -0.094777204
0002b0 73 e9 3c be 12 7d d4 3d 77 f8 a5 bd a3 46 0c 3e
       -0.18448429 0.10375418 -0.081040315 0.13698821
0002c0 ca 0d b2 bd 18 4c 5e bd 8f f1 34 be f0 07 14 be
       -0.08694036 -0.054271787 -0.17670272 -0.14456153
0002d0 70 48 b5 bc 80 7c 28 3d 36 4d ba 3d 16 17 89 3d
       -0.022129267 0.041134357 0.09096758 0.066938564
0002e0 e0 4b 40 3c 00 79 fe bd 76 94 91 3d ee ae 10 be
       0.01173684 -0.12425423 0.07108395 -0.1412923
0002f0 99 28 41 3e 40 b3 26 bb 5b 16 4a 3e 5d 9b 1f 3e
       0.18863143 -0.0025436431 0.1973509 0.1558661
000300 43 e4 4b 3e 5e 87 29 be 5a 5b eb bd 80 f6 00 bb
       0.19911294 -0.16555545 -0.11492033 -0.0019678175
000310 78 c8 7e bd 50 b9 0e be e6 3c a5 3d c3 5e b2 bd
       -0.0622029 -0.13937879 0.08068256 -0.087094806
000320 63 c8 f5 bd e8 45 bb 3c c7 11 f9 bd 1e 0a b9 3d
       -0.12001111 0.022860482 -0.12161594 0.09035133
000330 71 59 33 3e 3d 58 35 be 8a f7 bb bd a0 45 b0 bb
       0.17514588 -0.17709441 -0.09178074 -0.0053793937
000340 40 c1 4a be 54 2a 8b bd a8 ef b5 bc 80 56 f4 ba
       -0.19800282 -0.06795183 -0.022209004 -0.0018641502
000350 22 c2 ca 3d 4e d4 9f 3d 0a 69 3e be 68 31 7a bd
       0.09900309 0.07804166 -0.18594757 -0.061082274
000360 02 69 1c be a6 66 b9 3d 00 da 23 ba 94 c0 1c 3d
       -0.15274432 0.09052782 -0.0006250441 0.038269594
000370 a7 96 d1 bd 2e 1b c6 3d 40 b9 41 be b7 6d b9 bd
       -0.10233813 0.09673153 -0.18918324 -0.090541296
000380 d9 43 3f 3e a0 61 ca bb 3c a2 0a be f6 a4 fa 3d
       0.18678226 -0.0061761886 -0.1353845 0.12238495
000390 06 2e aa 3d 13 d9 2d 3e 20 45 e9 bd 31 7b 13 3e
       0.083095595 0.16977338 -0.11390138 0.14402463
0003a0 fd 9a ce bd a7 7e 42 3e 1a 22 ff bd 60 b9 2d 3d
       -0.100881554 0.18993627 -0.12457676 0.042413116
0003b0 53 48 9b bd 80 26 a0 ba 23 da 32 be 34 37 95 bd
       -0.07582154 -0.0012218505 -0.17466025 -0.0728592
0003c0 c4 43 6b 3d 16 af 0f be a8 49 66 bd e5 10 1e 3e
       0.057437673 -0.14031634 -0.056222588 0.15436132
0003d0 63 fe 3a be b6 dc 1e be e8 60 df bc f8 4f 2f bd
       -0.18261103 -0.15513882 -0.027267888 -0.042800874
0003e0 47 f7 0e 3e 80 ff 05 bc 65 79 21 3e 22 e8 b5 3d
       0.13961516 -0.008178592 0.15768965 0.088821664
0003f0 aa f2 d4 bd 58 27 25 3d b6 02 1a be b6 99 86 bd
       -0.10397847 0.040320724 -0.15040097 -0.06572287

bias f4 [25]
000000 f9 0f 2a 3e 37 d9 cc bd 40 db 3c bb ba fc 98 3d
       0.16607656 -0.10002368 -0.0028817207 0.07470079
000010 fd 75 1e be ca 07 f7 bd 3a d1 de 3d 40 3f b7 bb
       -0.15474696 -0.120620325 0.108797505 -0.005592257
000020 95 9d 3e 3e 4c b3 2b 3d e1 69 25 3e ad c7 42 3e
       0.186148 0.041919038 0.16153671 0.19021483
000030 94 00 4a 3d 00 2e d2 bb 5f de 2d be 58 16 0a 3d
       0.049316958 -0.006414175 -0.16979359 0.033712715
000040 d7 65 ba bd f2 89 82 3d 91 68 21 3e 60 9b 39 be
       -0.09101456 0.06373967 0.15762545 -0.18125677
000050 98 72 45 3d 15 e0 17 be 58 b7 16 3d 1a 25 fe 3d
       0.04820499 -0.14831574 0.036795944 0.1240942
000060 56 18 fa 3d
       0.12211673

weight f4 [25, 25]
000000 0f bc 43 3e 5f 10 0f 3e 38 f8 36 3d 1a e9 c8 bd
       0.19114707 0.13971089 0.044670314 -0.098100856
000010 52 58 ab 3d 38 19 25 be 92 28 86 3d f9 f2 41 3e
       0.08366455 -0.16122901 0.06550707 0.18940343
000020 30 be d6 3c 00 39 26 bd c3 de c1 bd cf 53 02 3e
       0.026213735 -0.040581703 -0.094663166 0.12727283
000030 50 96 9b 3c 3e 24 cd 3d 31 b2 3b 3e 4a ea ac 3d
       0.018992573 0.10016678 0.18329693 0.084431246
000040 58 78 0e 3d 34 dc 19 bd d9 9d 45 3e 60 81 f2 bd
       0.034782737 -0.037563518 0.19298495 -0.118410826
000050 f7 1f fb bd 29 41 1e 3e 57 0c 0e 3e 9a a7 ac bd
       -0.12261956 0.15454544 0.13871895 -0.08430405
000060 c2 5b e0 3d 7b 92 48 be 54 56 5c bd 38 ee 17 be
       0.109550014 -0.19587128 -0.053793266 -0.14836967
000070 14 9a 97 bd c0 14 d4 bd 2d f0 c8 bd 00 12 3b bc
       -0.07402435 -0.1035552 -0.09811435 -0.011417866
000080 00 4a ad bc 50 94 b7 bd 50 68 a9 bc bf 3b 33 3e
       -0.02115345 -0.08963835 -0.020679623 0.1750326
000090 53 7a 9d bd 51 f4 1d 3e 1c 17 62 3d 59 3f 06 3e
       -0.07689347 0.1542523 0.05519782 0.13110103
0000a0 0e 8d c8 3d f0 ec a6 bd c2 1a c3 3d 79 cf 1d 3e
       0.09792529 -0.08150661 0.09526588 0.15411176
0000b0 0f d3 3b 3e f0 f7 f0 3c 37 ac fa bd 50 3f 9f bc
       0.18342231 0.0294151 -0.122398786 -0.01943937
0000c0 a0 f4 e2 3b 44 81 6f 3d 5a 36 97 bd 91 11 10 3e
       0.006926134 0.058472887 -0.073834136 0.14069201
0000d0 94 3c 6d bd 60 7b 99 3b 56 85 e8 3d 98 01 8e 3c
       -0.0579191 0.004683897 0.11353557 0.017334744
0000e0 4d a4 bf bd 72 92 be 3d 14 a8 37 bd b7 57 b7 bd
       -0.0935751 0.09305276 -0.044838026 -0.08952277
0000f0 40 27 f8 3c 54 1a 58 3d c2 af b9 3d f2 cf 12 be
       0.030292153 0.052759483 0.09066726 -0.14337137
000100 aa e0 91 bd 55 01 0d be 42 fd 46 be 28 3d 16 3d
       -0.071229294 -0.1377004 -0.19432548 0.036679417
000110 ca 91 90 3d f1 79 3b 3e f0 f9 ad bd 0e ef f4 3d
       0.07059057 0.18308236 -0.084949374 0.119596586
000120 ba 15 ee bd 8c 91 76 3d 62 3d a7 3d a5 aa 2e 3e
       -0.11625238 0.060197398 0.08166005 0.17057283
000130 d9 a1 07 3e 1d 8a d0 bd cb ea 2a be 6c 51 10 bd
       0.13245334 -0.10182593 -0.16691129 -0.0352339
000140 24 70 70 3d 03 fb c0 bd ea 77 d5 3d 3d 5b dc bd
       0.058700696 -0.09422877 0.104232624 -0.1075959
000150 94 a2 29 bd 18 4e 9b 3c 20 61 48 3c ed d3 ec bd
       -0.041414812 0.018958136 0.012230188 -0.11563859
000160 86 34 f0 3d d0 0a 8f bd 1a ba 1f be 65 37 24 be
       0.11728768 -0.06984484 -0.15598336 -0.16036756
000170 96 72 fc 3d 6c 98 1e bd c0 db 88 bc 16 db e4 3d
       0.12326543 -0.03871958 -0.016706347 0.111746
000180 37 6e ae bd 95 bb 0b be d4 95 1d 3d 00 fd a9 ba
       -0.085171156 -0.13645776 0.038472965 -0.0012969077
000190 01 d8 27 3e 15 ed 32 3e a6 58 8c 3d d5 5c 22 be
       0.16390993 0.17473252 0.06852846 -0.15855725
0001a0 6d c3 1d 3e 2f 08 1b 3e 1a 6a 95 bd 75 e5 16 be
       0.1540658 0.1513984 -0.07295628 -0.14735968
0001b0 5c 95 0b be b9 b2 09 3e fd 9f bc bd bf 83 20 3e
       -0.13631195 0.13447084 -0.09210203 0.15675257
0001c0 ed d0 48 be 42 95 de 3d a3 6a eb bd 5a 69 cd 3d
       -0.19610949 0.108683124 -0.11494949 0.1002986
0001d0 72 01 f5 3d ca 00 c7 bd 1a c0 9f bd f0 37 90 bc
       0.11963166 -0.097169474 -0.07800312 -0.017604798
0001e0 78 26 00 bd d2 a5 8d 3d 30 a0 50 bc cd d1 30 3e
       -0.031286687 0.06916393 -0.012733504 0.17267533
0001f0 05 ea 25 be 1a 1f c1 bd 40 09 04 bd 1a 7f c1 bd
       -0.16202553 -0.0942976 -0.032235384 -0.09448071
000200 a3 b6 d6 bd 03 c3 eb bd a1 8b 1a 3e 07 c4 1f 3e
       -0.10484054 -0.11511805 0.15092327 0.15602122
000210 ea 12 ce bd 98 ff bb bc a0 db 5d bc 37 b2 a5 bd
       -0.10062201 -0.022949025 -0.013541132 -0.080906324
000220 12 85 8d 3d 20 a8 76 3c 52 9d 39 be 93 80 a2 bd
       0.06910147 0.015054733 -0.18126419 -0.0793468
000230 47 e1 3e be bb b8 4a 3e 60 a5 0a be 82 68 83 3d
       -0.18640624 0.19797032 -0.13539648 0.06416418
000240 18 ae e9 3c 40 e4 80 bd 04 12 60 3d 98 64 5e bd
       0.028525397 -0.06293535 0.05470468 -0.054295152
000250 e8 bc 3d bd 90 11 3f be a3 f9 c1 bd e7 b8 2f 3e
       -0.046322733 -0.18659043 -0.094714426 0.17160378
000260 50 b3 cb bc 41 14 18 3e 89 87 40 3e 1d 73 22 3e
       -0.024865776 0.14851476 0.18801703 0.15864225
000270 a1 ed 22 3e f5 10 4a 3e d7 b8 e3 bd 9c 64 4f 3d
       0.1591096 0.19733031 -0.1111924 0.050633058
000280 68 17 38 3d b7 c0 48 3e 60 df 0e bc ea 7e ef bd
       0.044944197 0.19604765 -0.008720249 -0.11694129
000290 1f ef 2e be 59 0a 34 3e bd 76 01 be 34 1f 4e bd
       -0.17083405 0.17582072 -0.12642951 -0.050322726
0002a0 a0 ec d2 3b 6a 31 04 be 65 fe 07 be 92 03 b6 3d
       0.0064368993 -0.12909475 -0.13280638 0.088874
0002b0 f9 23 49 3e cf 0a 2c 3e 96 4f 15 be c9 76 2e 3e
       0.19642629 0.16800998 -0.14581141 0.170375
0002c0 a6 f6 de 3d 30 71 2a bc a5 b0 36 be a8 a4 48 bd
       0.10886888 -0.010402963 -0.17840822 -0.048985153
0002d0 ec 34 33 3d c0 7e 47 3d dd 5f 00 be 00 56 c1 b9
       0.043751642 0.048704863 -0.12536569 -0.00036875904
0002e0 af 17 2c 3e f2 6e 8b 3d 40 03 41 bb 2a 62 f5 bd
       0.1680591 0.068082705 -0.00294514 -0.11981614
0002f0 30 cf af 3c 2a a9 11 be 10 07 49 be 9f e9 23 3e
       0.0214611 -0.14224687 -0.196316 0.16007088
000300 a2 2c 36 be 2d c5 b7 bd f0 d4 a8 3c f6 10 a8 3d
       -0.17790464 -0.08973155 0.020609349 0.0820636
000310 59 42 47 3e 47 50 1c 3e b2 31 ef 3d b4 8b 5a bd
       0.19458903 0.15264998 0.116794005 -0.053355888
000320 90 bd b5 3c b0 15 f7 bc 63 c3 3a 3e 12 b1 f3 3d
       0.022185117 -0.030161709 0.18238597 0.11899008
000330 4f 78 40 be b0 48 3e bc fc 55 52 3d 0a 71 32 be
       -0.18795894 -0.01161401 0.051351532 -0.17425933
000340 b4 15 06 be 82 69 d6 3d 30 fb d1 bd f6 8e e0 3d
       -0.13094217 0.10469343 -0.10252988 0.10964768
000350 a0 e8 60 bc 29 03 42 3e 6c f5 14 bd 02 06 df 3d
       -0.013727337 0.18946518 -0.036366865 0.10889818
000360 0c a5 0b be 15 9b 15 be 5a a2 85 bd 32 32 b1 3d
       -0.13637179 -0.1460994 -0.06525107 0.08652152
000370 62 58 d5 3d f0 f0 e2 bd a8 91 81 bc 30 e3 41 3c
       0.10417248 -0.110811114 -0.015816525 0.011833951
000380 3b 04 04 3e 11 45 32 3e c6 95 2a be 32 23 ff 3d
       0.12892239 0.17409159 -0.16658697 0.12457885
000390 d0 e2 02 be d4 55 43 bd 46 43 ab 3d 98 d8 f4 3c
       -0.12781835 -0.047689274 0.08362441 0.029888436
0003a0 00 1a 90 3b 98 75 f6 3c b8 67 0c be de 9b 87 3d
       0.0043976307 0.03008537 -0.1371144 0.06621526
0003b0 32 c2 f1 3d f9 6c 36 3e 50 73 d8 bc 31 27 0d 3e
       0.11804618 0.17815007 -0.026422173 0.13784482
0003c0 20 53 27 3d 2b bb 3f be 98 30 3d bd 26 e7 94 3d
       0.04085076 -0.18723743 -0.04618892 0.072706506
0003d0 61 a6 17 3e d2 71 88 3d 2a 4a f5 bd 68 3c f0 bc
       0.14809562 0.066623345 -0.11977036 -0.029325679
0003e0 bd 5b 9c bd 5b ae 3b be f2 90 03 be e8 89 0d bd
       -0.07634685 -0.1832823 -0.12848261 -0.034555346
0003f0 83 cb 26 be e2 b8 a1 3d 12 51 b2 3d ab 6a 3f be
       -0.16288571 0.07896592 0.08706869 -0.18693034

bias f4 [25]
000000 90 c9 ad 3c 70 06 97 bc 09 da 0f 3e fb 49 35 be
       0.021214277 -0.018435687 0.14048018 -0.17704003
000010 52 60 c5 3d 20 27 2a bc 3a 5d f3 bd c8 f1 11 bd
       0.09637512 -0.010385305 -0.11883016 -0.03563097
000020 b0 48 d6 bd da 04 b8 bd 43 9f 26 3e 87 d7 24 3e
       -0.10463083 -0.089853 0.16271691 0.16097842
000030 bf 12 39 be f8 62 4e bd 29 02 10 3e 31 10 3e 3e
       -0.18073557 -0.050387353 0.14063324 0.18560864
000040 c8 89 38 be 2a 72 fa 3d 08 f7 26 3d 28 2d f3 bc
       -0.1802131 0.12228806 0.04076293 -0.029684618
000050 80 62 3b be 06 ba bf 3d e7 01 1a 3e 61 4b 19 3e
       -0.18299294 0.09361653 0.15039788 0.14970161
000060 0b c5 1a be
       -0.15114228

weight f4 [25, 25]
000000 01 95 3a 3e e8 f4 86 bc db 8c 09 3e 9d 07 49 3e
       0.18220903 -0.016474202 0.13432638 0.1963181
000010 28 41 35 be b8 c8 48 be 00 df f1 bb 80 34 b8 bd
       -0.17700636 -0.19607818 -0.00738132 -0.089943886
000020 55 73 4b 3e 49 67 13 3e 28 11 c3 3c 62 fc db 3d
       0.19868214 0.14394869 0.023811892 0.107414976
000030 a5 29 17 be 05 bf 3e be 14 a0 7e 3d 09 8e 3e 3e
       -0.1476198 -0.18627556 0.06216438 0.1860887
000040 80 30 14 be c7 d7 39 3e 73 ae e3 bd c3 52 44 3e
       -0.14471626 0.18148719 -0.11117258 0.19172196
000050 ef 46 2b 3e 2b 29 30 3e b4 56 30 bd d8 33 cb bc
       0.16726278 0.17203204 -0.043051437 -0.024804994
000060 02 ee 13 be 18 dd 63 bd d8 0c f0 3c ae c5 f2 3d
       -0.14446262 -0.055630773 0.029303 0.11854111
000070 52 68 a7 3d b1 4e 1f 3e 45 aa 3a 3e 37 2f 07 3e
       0.081741944 0.15557362 0.18229015 0.13201605
000080 a1 83 46 3e 92 31 81 3d e0 d6 63 bd 5a e0 fd bd
       0.1938615 0.06308283 -0.055624843 -0.12396307
000090 40 b1 8c 3b 18 5a 20 be d0 90 11 3c b0 41 1d be
       0.004293591 -0.15659368 0.008884624 -0.15357089
0000a0 80 41 08 3b c2 8b 84 3d 0e 5b e8 3d 4c 56 1c 3d
       0.0020790994 0.06471969 0.11345492 0.038168237
0000b0 85 41 34 be 75 21 42 be 44 d4 97 bd 50 52 08 3c
       -0.17603119 -0.18958075 -0.07413533 0.008320406
0000c0 00 bf ab bc 13 5e cc bd 40 63 dd bd 98 0e 22 bd
       -0.0209651 -0.09978881 -0.10809946 -0.0395647
0000d0 c0 cc 93 3c 71 80 28 3e 00 39 a9 bb af 60 25 3e
       0.018041968 0.16455247 -0.0051642656 0.16150163
0000e0 b4 84 6f bd cd 90 29 be e5 c2 00 be ea 67 41 be
       -0.058476165 -0.16559143 -0.12574346 -0.18887296
0000f0 98 1e 88 bc 3a 08 8a bd 00 58 b0 38 e6 ba 29 be
       -0.01661615 -0.0673985 8.408725e-05 -0.16575202
000100 e3 64 3b be b2 f4 d2 3d e7 c4 9e bd c2 94 bc 3d
       -0.18300204 0.10300578 -0.077524 0.09208061
000110 3f cb 3e be 76 5a e8 3d a0 58 7f 3c f5 b8 43 be
       -0.1863222 0.11345379 0.015585095 -0.19113524
000120 40 36 03 3d b4 4b 58 3d 00 aa 2a be ed e8 32 be
       0.03203416 0.05280657 -0.16666412 -0.17471667
000130 82 f0 bd 3d 87 6a a3 bd a0 99 d5 3b 06 e8 e7 3d
       0.09274389 -0.07979303 0.0065185577 0.11323552
000140 4a 9e ce bd 18 ba 0a bd 48 61 1e be c0 c4 e1 bd
       -0.10088785 -0.03386888 -0.15466797 -0.11023855
000150 28 6b 0e 3d 67 6d 3e 3e 16 6d 87 3d 69 67 43 3e
       0.03477016 0.18596421 0.06612603 0.19082417
000160 10 1d f1 bd 8a 6a e8 bd 00 d5 71 3c 88 29 5b bd
       -0.11773121 -0.11348446 0.014760256 -0.053506404
000170 80 67 32 bc 74 7b 2e 3d 6a be b5 bd 7d a3 23 be
       -0.010888934 0.042598203 -0.08874209 -0.15980335
000180 43 b1 47 3e a0 05 5a 3c a8 5e c9 bc 0a 57 e9 bd
       0.19501214 0.013307005 -0.024581268 -0.113935545
000190 2a a8 47 be ae e0 09 be 40 34 e6 bb f4 0e 55 bd
       -0.19497743 -0.13464615 -0.0070252717 -0.052016214
0001a0 60 80 51 3c 6a 27 a5 3d 58 5e f6 bc 41 04 0a 3e
       0.012786955 0.08064158 -0.030074283 0.13478185
0001b0 20 7c bc bd 00 c8 92 bd ed f9 e1 bd 13 b6 25 be
       -0.092033625 -0.07167053 -0.11033998 -0.16182737
0001c0 9a 9c 4c be c0 8b 41 3d 56 c3 b9 3d e8 97 d0 3c
       -0.19981614 0.047252417 0.090704605 0.02546306
0001d0 a0 ab 11 3c cd 85 ba bd 2d 3e 0e be 10 5d bc bd
       0.008891016 -0.09107552 -0.13890906 -0.09197438
0001e0 64 29 68 3d 23 99 38 3e 22 ab 16 be 95 59 37 3e
       0.0566801 0.18027167 -0.1471372 0.17905267
0001f0 82 99 bd 3d f0 58 a8 bc cb ff 1f 3e 3c de 4d 3d
       0.09257795 -0.020550221 0.15624921 0.050260767
000200 45 21 02 be 62 52 27 be 1d 7e dc bd 74 bb 63 3d
       -0.12708004 -0.1634002 -0.10766242 0.05559869
000210 8b 3e 4a be c5 50 2a be 80 19 21 3b 1c b1 53 3d
       -0.19750421 -0.16632374 0.002458185 0.051682577
000220 c8 e0 3a 3d a0 e6 da 3b a0 61 9c bb 17 e8 49 be
       0.045624524 0.0066803247 -0.00477238 -0.19717441
000230 80 fb 6e bc 58 f7 fe 3c bd fa bb bd 40 c8 17 3d
       -0.014586329 0.031123802 -0.09178684 0.037056208
000240 3f 1f 18 3e d7 e0 b7 bd 22 2a 45 be 51 0d 3c 3e
       0.1485567 -0.08978432 -0.19254354 0.18364455
000250 98 96 4b 3d 7d 2e 01 3e 9a 81 9c 3d 4c b5 0f bd
       0.049704164 0.1261539 0.07641907 -0.035085008
000260 1b 95 0f be 80 1f 17 bd a8 37 79 bd 03 3c 39 be
       -0.14021723 -0.036895275 -0.060844094 -0.18089299
000270 69 03 24 3e 80 33 0d bc 62 36 f8 3d 6b 5a 34 be
       0.16016926 -0.008618236 0.12119748 -0.17612617
000280 66 be dc 3d 8e 36 26 be 37 00 42 be c8 4e 47 bd
       0.10778503 -0.16231748 -0.18945394 -0.048659116
000290 54 ee 4c bd 33 55 9b bd 2b 6d 37 be c0 d0 e5 3b
       -0.050031975 -0.0758461 -0.17912738 0.0070134103
0002a0 51 10 16 3e 9d 86 47 be 90 b3 41 be 6e 20 2a be
       0.14654662 -0.19484945 -0.18916154 -0.16613933
0002b0 ef d3 45 be 96 55 a8 3d 65 27 10 3e ba 0f 27 be
       -0.19319128 0.08219449 0.14077528 -0.16314593
0002c0 2e 8f d0 3d c0 0e ca 3b 8d bf 47 3e cd 2e 2a be
       0.10183559 0.006166309 0.19506665 -0.16619416
0002d0 1d 25 c1 bd 8e 9d 1b be 98 f7 06 bd 24 ce 7a 3d
       -0.09430907 -0.15196821 -0.032950968 0.061231747
0002e0 00 65 ff 3c 38 1c 5e bd 44 5e 56 3d e2 3e 95 3d
       0.03117609 -0.05422613 0.052335992 0.072873846
0002f0 88 d3 12 bd 40 40 a9 3c da 0f c5 bd a3 68 c4 bd
       -0.035846263 0.02066052 -0.09622164 -0.0959027
000300 07 76 1f 3e ed 78 b3 bd b1 82 30 3e ce 36 04 be
       0.15572368 -0.08763299 0.17237355 -0.12911531
000310 a0 5a ac 3b c2 91 ec 3d 00 e9 18 bd 90 7f 28 be
       0.005259827 0.115512386 -0.03733158 -0.16454911
000320 00 d7 e4 bd 90 f0 e8 bc 73 58 29 3e 30 a4 d9 bc
       -0.111738205 -0.028435022 0.16537647 -0.026567549
000330 64 ca 5c 3d 34 8d 5c 3d b2 6d e2 3d 54 f5 65 3d
       0.053903952 0.0538456 0.11056079 0.056142166
000340 08 0e 20 be 54 ff 22 bd 2e bb 97 3d 79 a6 3b 3e
       -0.15630352 -0.03979428 0.074087486 0.18325223
000350 7e a7 85 3d 70 70 8d bd 63 93 b6 bd a0 9d 3e bc
       0.06526087 -0.069062114 -0.089148305 -0.01163426
000360 80 b8 86 bd d8 88 33 bd 62 6b ff 3d a8 22 d7 3c
       -0.06578159 -0.043831676 0.124716535 0.026261643
000370 a1 c1 2e 3e 60 f8 35 3d f8 87 2d 3d 46 31 e9 3d
       0.17066051 0.044426322 0.042365998 0.11386351
000380 4d 2f df bd e8 03 46 be 5a 21 bf 3d 62 69 b6 3d
       -0.10897694 -0.19337428 0.09332533 0.08906819
000390 55 41 39 be 7d 7f 0e be 8d 16 f8 bd 6c 41 07 bd
       -0.18091328 -0.1391582 -0.12113676 -0.033021376
0003a0 09 ac 07 3e 28 d2 a6 3c 40 80 8f bd bd da b4 bd
       0.1324922 0.020363882 -0.070068836 -0.088307835
0003b0 72 8a df 3d 80 16 08 bc 80 b0 6e 3c 85 b5 37 3e
       0.10915078 -0.008306146 0.014568448 0.17940338
0003c0 68 32 99 3c 0d a5 d3 bd c0 bb c7 bc 36 56 ec 3d
       0.018700793 -0.10334215 -0.024381518 0.11539881
0003d0 60 72 53 3c 97 31 b1 bd 83 7e 1e 3e 7a 2f 97 bd
       0.012905687 -0.08652037 0.15477948 -0.07382102
0003e0 70 83 eb bc 76 e0 a5 3d 82 7e e5 3d 4c d7 5a bd
       -0.028749198 0.08099453 0.1120577 -0.05342798
0003f0 51 01 32 3e ed ae f0 bd a3 50 4c 3e 80 cf 56 bb
       0.17383315 -0.117521144 0.19952635 -0.0032777488

bias f4 [25]
000000 62 f1 3c be 26 1a 82 3d d7 65 40 be 14 e0 36 3d
       -0.18451455 0.06352644 -0.18788849 0.04464729
000010 8c 29 38 3d fe 68 d6 3d db e3 1e be 7d a5 a8 bd
       0.044961497 0.104692444 -0.15516607 -0.082346894
000020 36 a7 ec 3d ec d5 85 bd 92 c5 8f 3d 97 e1 13 3e
       0.115553305 -0.06534943 0.070201054 0.14441524
000030 31 c8 0e 3e f0 92 8b bc d7 fc 33 be 60 59 21 3c
       0.13943554 -0.017037839 -0.1757692 0.009847969
000040 2d 3d 27 3e f0 36 24 be 2d eb 16 3e 42 ec a8 3d
       0.1633193 -0.16036582 0.1473815 0.082481876
000050 00 ab 76 3a 60 78 17 3c 08 69 3b be b0 e8 fa 3c
       0.0009409636 0.009245008 -0.18301785 0.030628532
000060 42 53 c8 3d
       0.09781505

weight f4 [4, 25]
000000 e7 64 d0 bd 80 4d d3 3c ed 7f 1e 3e c2 66 3d be
       -0.101754956 0.02579379 0.15478487 -0.1849623
000010 f4 0f 05 be 18 cc df 3c 09 a7 27 3e b8 aa 1e bd
       -0.12994367 0.027319 0.16372313 -0.03873703
000020 2b 1b 23 be 5e 4e 10 be e2 aa f3 3d 97 5b e7 bd
       -0.15928333 -0.14092395 0.11897828 -0.11296766
000030 e0 92 36 bc 40 e1 c1 bb 38 b0 68 bd 99 5d 03 3e
       -0.011143416 -0.0059167445 -0.05680868 0.12828673
000040 ab fe 0e 3e 40 58 83 bb 4b 42 26 be 62 71 de 3d
       0.13964336 -0.004008323 -0.16236226 0.1086147
000050 49 3a 3e 3e da 8b f2 bd 1b f8 29 3e 98 ef 34 3d
       0.18576922 -0.11843081 0.16598551 0.044173807
000060 e7 3e ac bd 23 9a df bd e6 41 26 be 00 63 58 3a
       -0.08410435 -0.10918071 -0.16236076 0.0008254498
000070 26 96 9a 3d ca 42 d8 3d da 9d ea 3d 48 cd 13 be
       0.0754817 0.10559614 0.11455889 -0.14433777
000080 28 d3 23 bd 20 cf 02 bd fb ec 4b be ca c9 a9 3d
       -0.039996296 -0.03193581 -0.1991462 0.08290441
000090 26 86 c6 3d 78 7e 0e be 7a ba 35 be f5 d7 1c be
       0.096935555 -0.13915431 -0.17746916 -0.15316756
0000a0 28 fd a6 3c 98 4c 3b bd 31 2e 41 3e 43 f9 17 3e
       0.020384386 -0.045727342 0.18865277 0.1484118
0000b0 99 37 40 3e 6a 02 d2 3d f7 92 e7 bd 91 d8 01 3e
       0.18771209 0.10254367 -0.11307328 0.1268027
0000c0 fb 1c 26 3e 85 14 0f 3e 25 b3 26 3e 7a 20 08 be
       0.16221993 0.13972671 0.16279276 -0.13293639
0000d0 9b 5f 48 3e 83 4d e7 bd c0 c3 e6 3c ee 63 d8 3d
       0.1956772 -0.11294081 0.028169513 0.10565935
0000e0 10 c0 dd bc 76 fe 25 be 70 8b a7 bd a0 9b cc bd
       -0.027069122 -0.1621035 -0.081808925 -0.099906206
0000f0 5a c6 a2 bd 42 96 ac 3d 60 16 75 bd 65 3a 13 3e
       -0.07947989 0.08427097 -0.05983579 0.14377744
000100 04 a7 4d 3d a0 f9 d8 3b 20 4b fd bd fa 21 1f be
       0.050208107 0.0066215545 -0.123678446 -0.15540305
000110 1d 2d 46 3e ce 10 16 be 88 9c 1e 3d f1 29 35 3e
       0.19353147 -0.14654848 0.0387235 0.1769178
000120 7f 8f 46 be 4f 6c 05 3e 5b fe 02 3e 1a 2c fc 3d
       -0.19390677 0.13029598 0.12792341 0.12313099
000130 bb 95 15 3e 13 14 15 be aa 35 08 be 93 8e a5 bd
       0.14607899 -0.14558439 -0.13301721 -0.080838345
000140 37 4a 43 be 2e 61 1d be ed 06 1b 3e 80 e5 6d 3c
       -0.1907128 -0.15369102 0.1513936 0.014520049
000150 73 da ce bd 3e 01 93 3d e0 d8 5d 3c b0 bd b4 3c
       -0.1010026 0.07177971 0.013540477 0.022063106
000160 4a d0 ac 3d 67 a7 bb bd ec 10 0a bd 0a e9 4a be
       0.084381655 -0.09162789 -0.033707544 -0.1981546
000170 0c f5 6f 3d b0 72 53 3c b8 cf 22 3d b4 32 33 bd
       0.058583304 0.012905762 0.039748877 -0.043749526
000180 00 a6 12 bd 06 9d d7 3d 62 64 e8 3d ff ec 40 be
       -0.03580284 0.10527997 0.113472715 -0.18840407

bias f4 [4]
000000 33 cd b5 bd 80 e6 57 bc f3 56 d7 bd 9c a6 86 bd
       -0.08877029 -0.013177514 -0.10514631 -0.06574747
