models/_brain_115.pt (torch, 14593 bytes, 12 tensors)

weight f4 [14]
1.0 1.0 1.0 1.0 1.0 1.0 1.0 1.0
1.0 1.0 1.0 1.0 1.0 1.0
00000000: 0000 803f 0000 803f 0000 803f 0000 803f
00000010: 0000 803f 0000 803f 0000 803f 0000 803f
00000020: 0000 803f 0000 803f 0000 803f 0000 803f
00000030: 0000 803f 0000 803f

bias f4 [14]
0.0 0.0 0.0 0.0 0.0 0.0 0.0 0.0
0.0 0.0 0.0 0.0 0.0 0.0
00000000: 0000 0000 0000 0000 0000 0000 0000 0000
00000010: 0000 0000 0000 0000 0000 0000 0000 0000
00000020: 0000 0000 0000 0000 0000 0000 0000 0000
00000030: 0000 0000 0000 0000

weight f4 [25, 14]
-0.011366785 -0.17635898 0.16606775 -0.16956946 -0.18489176 0.059243858 -0.21983115 -0.0012406409
0.053559035 -0.20458423 0.20428956 0.09008619 -0.15248996 0.18940008 0.029534578 0.10679108
-0.011599749 -0.13534246 0.012635231 -0.14017493 0.24216232 -0.1672909 -0.07748479 -0.06547868
0.08294189 -0.16448066 -0.2565912 -0.14235842 0.030911922 -0.18117237 -0.14777255 -0.058348194
0.15581903 -0.029115826 -0.003440231 -0.017260104 -0.2172781 -0.174827 0.12001556 -0.2630603
-0.19224197 0.16954923 -0.15660293 -0.14405572 0.23596719 0.11122003 -0.19841498 0.031094342
-0.11871089 -0.21769 0.059802502 -0.075043485 -0.14815745 -0.07854614 -0.19172132 -0.055021018
0.22363633 0.1826798 -0.20571248 -0.0861444 0.11388737 -0.10682611 0.18069121 0.016340375
0.24027589 -0.001428932 0.23817095 -0.08000533 0.008298099 -0.17646515 -0.20079705 0.25291762
-0.24932866 -0.054646313 0.05867526 -0.004221052 -0.26197773 -0.13958755 -0.1339357 -0.096067116
0.23154068 -0.24906522 0.0058898926 0.1664753 0.1292417 0.10754228 0.10253206 0.00025004148
0.138381 -0.22674417 -0.18465775 -0.027698025 0.20668936 0.042977393 0.029937744 0.19355288
0.0023842156 -0.18612367 -0.042463258 -0.12865396 -0.20985763 -0.22629482 0.09487599 -0.24354917
-0.26227313 0.26717183 -0.16895366 0.021194339 0.24626514 0.19443387 0.13894984 -0.00253281
0.08661029 -0.05775799 -0.13151498 -0.0898885 -0.2585286 -0.2389242 -0.16717142 -0.06981665
0.14557564 0.15853256 -0.111157 0.006806314 -0.26150218 -0.24063732 -0.20043856 -0.08663626
-0.042569354 0.072112024 0.23127913 -0.012788922 -0.14239384 0.20753303 0.1943165 0.034972697
0.24299535 0.034365296 -0.019243449 -0.12106255 0.19824871 -0.12359539 0.08101675 0.11166322
-0.042648107 -0.032310113 -0.14969128 -0.19068208 -0.110913694 -0.08645357 0.22473073 0.2324779
0.03680837 -0.08099496 0.022826523 0.08308932 0.10552728 -0.098471075 -0.16905168 -0.0505846
-0.14941576 -0.11709072 0.19294071 0.2646111 -0.19942087 -0.050655976 0.15405905 -0.18575624
-0.05260478 0.25890765 0.025644332 -0.16978556 -0.23148277 0.0160321 0.23070326 -0.23590729
-0.20937957 0.013010055 -0.24606426 -0.24082437 0.19994906 0.11273208 -0.26473427 -0.21730915
-0.011538446 0.1831491 -0.15195659 0.017506242 -0.012744844 0.22897223 0.2616897 0.14119151
0.026234955 -0.24672124 -0.10347246 0.20566407 0.22457853 0.06465575 -0.12503326 -0.012237817
0.20748314 -0.003303349 -0.16481781 -0.22016457 -0.008320838 0.2187401 -0.25926352 0.08631921
0.22307268 0.10706028 -0.11937091 -0.23698944 -0.02801703 0.005865544 -0.18621801 -0.07405339
-0.034388497 0.13895336 0.14355275 -0.01447618 -0.12308581 0.24021527 0.028784841 -0.107214585
0.085656345 -0.21361932 0.1477601 -0.07118769 0.06638163 -0.08496699 0.07958084 0.14897582
0.059565276 -0.0031582415 -0.13199452 0.1344369 0.022787273 0.26450267 -0.15835308 -0.25494927
-0.22347178 -0.1134322 -0.032923028 0.02144891 -0.08990079 -0.051206067 0.16842806 0.20764029
0.24736705 0.09404048 0.26220724 0.15948445 -0.103876665 -0.16792156 -0.1647543 0.14975321
00000000: c03b 3abc 7397 34be aa0d 2a3e 9ea3 2dbe
00000010: 4454 3dbe b0a9 723d 6b1b 61be 009d a2ba
00000020: b860 5b3d 877e 51be 4831 513e 1c7f b83d
00000030: 5426 1cbe 18f2 413e 80f2 f13c 48b5 da3d
00000040: e00c 3ebc 3797 0abe 0004 4f3c 048a 0fbe
00000050: 66f9 773e 4e4e 2bbe 58b0 9ebd b019 86bd
00000060: 70dd a93d 9e6d 28be ec5f 83be 68c6 11be
00000070: 003b fd3c 4085 39be b051 17be 84fe 6ebd
00000080: 068f 1f3e 5084 eebc 8075 61bb 1065 8dbc
00000090: 267e 5ebe d905 33be b8ca f53d d7af 86be
000000a0: 14db 44be 509e 2d3e 855c 20be 5883 13be
000000b0: 62a1 713e 54c7 e33d 4c2d 4bbe 90b9 fe3c
000000c0: b21e f3bd 21ea 5ebe 78f3 743d 66b0 99bd
000000d0: 96b6 17be ccdc a0bd 9852 44be b85d 61bd
000000e0: ec00 653e 6a10 3b3e 4ba6 52be 7a6c b0bd
000000f0: c83d e93d a6c7 dabd 1e07 393e 40dc 853c
00000100: e20a 763e 004b bbba 16e3 733e d6d9 a3bd
00000110: c0f4 073c 48b3 34be be9d 4dbe 6b7e 813e
00000120: 0350 7fbe d0d4 5fbd 7855 703d c050 8abb
00000130: f221 86be 0af0 0ebe 7126 09be d6be c4bd
00000140: 0019 6d3e f40a 7fbe 0000 c13b 8078 2a3e
00000150: f057 043e 203f dc3d 54fc d13d 0018 8339
00000160: c0b3 0d3e a02f 68be ec16 3dbe f8e6 e2bc
00000170: 60a6 533e 1009 303d 0040 f53c ba32 463e
00000180: 8040 1c3b 3497 3ebe f4ed 2dbd ddbd 03be
00000190: ebe4 56be d4b9 67be 584e c23d f464 79be
000001a0: aa48 86be bfca 883e 3002 2dbe c09f ad3c
000001b0: ee2c 7c3e ac19 473e de48 0e3e 80fd 25bb
000001c0: bc60 b13d a493 6cbd ddab 06be 7617 b8bd
000001d0: dc5d 84be 8ca8 74be fc2e 2bbe 08fc 8ebd
000001e0: c811 153e 5c56 223e 48a6 e3bd 8007 df3b
000001f0: 9de3 85be a169 76be c43f 4dbe 5a6e b1bd
00000200: 345d 2ebd 78af 933d 70d4 6c3e a088 51bc
00000210: b1cf 11be 8a83 543e e8fa 463e 883f 0f3d
00000220: c6d3 783e a0c2 0c3d 70a4 9dbc a4ef f7bd
00000230: b601 4b3e 941f fdbd 1cec a53d b0af e43d
00000240: c8af 2ebd 9c57 04bd ac48 19be 2a42 43be
00000250: b826 e3bd 920e b1bd d01f 663e b00e 6e3e
00000260: 60c4 163d b0e0 a5bd b0fe ba3c bc2a aa3d
00000270: b01e d83d 34ab c9bd e21b 2dbe cc31 4fbd
00000280: 7200 19be 42cd efbd 4092 453e 1b7b 873e
00000290: fc34 4cbe a47c 4fbd a8c1 1d3e e236 3ebe
000002a0: 1c78 57bd 8b8f 843e 1014 d23c 44dc 2dbe
000002b0: d209 6dbe c055 833c 7a3d 6c3e ae91 71be
000002c0: 9967 56be 2028 553c 45f8 7bbe aa9a 76be
000002d0: 72bf 4c3e 14e0 e63d 408b 87be 4a86 5ebe
000002e0: c00b 3dbc 708b 3b3e 829a 1bbe 4069 8f3c
000002f0: c0cf 50bc b277 6a3e 31fc 853e 8294 103e
00000300: b0ea d63c 7ea4 7cbe 5ee9 d3bd 9a99 523e
00000310: eaf7 653e 3c6a 843d b808 00be 2081 48bc
00000320: 7676 543e 007d 58bb 00c6 28be d272 61be
00000330: 2054 08bc 68fd 5f3e 30be 84be 20c8 b03d
00000340: 2a6d 643e 6c42 db3d bc78 f4bd 5cad 72be
00000350: f883 e5bc c033 c03b efaf 3ebe 4ea9 97bd
00000360: f4da 0cbd ca49 0e3e 7eff 123e 802d 6dbc
00000370: 6a14 fcbd fefa 753e 30ce eb3c 5293 dbbd
00000380: 986c af3d 06bf 5abe 6c4e 173e daca 91bd
00000390: 18f3 873d 2c03 aebd 48fb a23d 1e8d 183e
000003a0: b8fa 733d 80fa 4ebb 9229 07be d4a9 093e
000003b0: 60ac ba3c e56c 873e 4f27 22be b688 82be
000003c0: c9d5 64be 244f e8bd 4cda 06bd a0b5 af3c
000003d0: e81d b8bd 74bd 51bd 6878 2c3e a89f 543e
000003e0: ca4d 7d3e 4c98 c03d 0740 863e e44f 233e
000003f0: 4abd d4bd a1f3 2bbe 5ab5 28be e858 193e

bias f4 [25]
0.17679474 -0.10267086 0.1340383 -0.07220036 0.17240807 0.11162102 0.07112613 -0.04848236
-0.26533046 0.15493792 -0.23080085 0.16469803 0.038734853 -0.18136974 -0.0247626 0.06177786
-0.069648966 0.17016757 -0.1038146 0.13214624 0.056943 0.03012836 -0.07919331 0.0066521466
-0.047611743
00000000: ae09 353e 1a45 d2bd 5641 093e c8dd 93bd
00000010: be8b 303e 9099 e43d 94aa 913d 7095 46bd
00000020: 65d9 87be 0ca8 1e3e 0f57 6cbe 9aa6 283e
00000030: 70a8 1e3d fdb8 39be f0da cabc c80a 7d3d
00000040: 1ea4 8ebd 6840 2e3e c09c d4bd 5851 073e
00000050: 103d 693d c0cf f63c 1a30 a2bd 40fa d93b
00000060: 8804 43bd

weight f4 [25, 25]
0.05930157 -0.11065712 -0.110089205 -0.08013599 -0.18551221 -0.06576839 0.15484454 -0.16476777
0.06823094 -0.08428097 0.14831983 -0.070948765 -0.17927769 0.014308497 -0.056913823 -0.10193677
0.130502 0.14574553 -0.10050938 -0.07124117 0.17856742 -0.02901566 -0.11934972 -0.06777665
-0.056448072 -0.100520924 -0.1346946 0.16050203 -0.038294718 0.10914235 -0.11451819 -0.08661695
-0.051498935 -0.14897382 -0.029261306 -0.16145496 0.079219356 0.18935038 -0.15544459 0.13569875
0.041916773 0.18034448 -0.022935301 0.1265303 -0.13780737 -0.075678945 0.098345086 -0.17294212
-0.11685433 -0.028182268 0.07557483 -0.0841007 0.15664186 -0.066618174 0.13081975 0.13615315
0.13322367 0.013325736 -0.072626755 -0.056944758 -0.11359566 0.12030755 0.18843053 0.1559244
-0.104610465 -0.04113081 0.03324926 -0.03828211 0.048174262 -0.010036111 -0.09568217 0.1002536
-0.022485808 -0.02870369 -0.1491067 -0.050137877 -0.03268166 -0.10105171 -0.07334773 -0.1756955
0.19719024 0.06526984 0.121425405 -0.13406336 -0.09018564 0.18328197 -0.12893122 -0.084305786
0.0081835985 -0.12600848 -0.17096375 0.07795049 -0.18346472 0.19836651 -0.034429237 -0.054563284
0.1281314 0.07325603 -0.10221086 -0.028371885 0.17689432 -0.026750922 0.1617627 0.09804247
0.023965836 -0.18986686 -0.06749904 -0.1841201 0.16671689 0.17941917 0.13771321 0.027051836
-0.010920718 0.115819946 0.18962695 0.0007045269 -0.014665008 0.023196787 0.15778266 0.051602736
-0.12045536 -0.18913315 0.18431439 0.072596714 -0.09547291 0.19799031 -0.11184209 0.16428818
0.19461916 0.17497127 -0.17766438 0.029529497 0.08642329 -0.08677776 0.17656906 -0.1707844
-0.1351583 -0.13006695 -0.02393727 0.14892961 0.1259682 -0.028847784 0.14260696 0.008760452
-0.07290688 -0.0792793 -0.12224441 0.054193005 0.08819999 0.025766462 0.014180273 -0.028629944
0.08293979 -0.09064539 -0.030871585 0.14780198 0.19385399 0.01261124 0.15379952 -0.17588997
0.16040172 -0.00020511448 -0.17190842 0.070680514 0.12850665 0.1748613 0.13635911 0.14003207
0.060393587 0.0019376576 0.10012777 -0.074054554 -0.073779196 0.031623334 0.03993705 -0.11786785
0.15124588 -0.19834197 -0.14496818 -0.195014 0.06742822 0.013607308 0.10773219 0.1102422
0.12622522 -0.05593419 -0.008106306 0.15334179 0.009399861 0.17199548 -0.0022855997 -0.06740157
0.12025456 0.100065574 0.124704316 -0.041578412 -0.17095022 0.07288961 -0.06104973 -0.098873876
0.18207373 -0.05148168 0.10083081 0.13236587 -0.19365211 -0.15448436 0.11089982 0.18751843
-0.1506569 -0.14928272 0.0805905 -0.19130759 0.1813562 -0.10666068 0.067108974 0.0031453073
0.15519224 -0.18698089 0.09082104 0.09443472 -0.15455988 -0.07258198 0.110332385 -0.06996052
0.13800575 -0.13012692 0.1701837 0.06573339 0.041620776 0.0005168617 0.06443061 -0.17854586
0.19195236 0.1906942 0.15181641 0.056130156 0.053814575 0.16678078 -0.19858597 -0.17359214
-0.028281301 0.17857666 -0.07419141 0.081666246 0.07912351 0.10544108 0.07786296 -0.18784635
0.16425668 -0.08420046 0.0834326 -0.13545209 0.13077821 -0.19896618 0.052653775 0.072940156
00000000: 34e6 723d 33a0 e2bd 7376 e1bd 571e a4bd
00000010: eaf6 3dbe 94b1 86bd 918f 1e3e e2b8 28be
00000020: aabc 8b3d 809b acbd 27e1 173e 964d 91bd
00000030: 9294 37be 306e 6a3c 781e 69bd 3ac4 d0bd
00000040: 51a2 053e 513e 153e ddd7 cdbd e4e6 91bd
00000050: 61da 363e 40b2 edbc a06d f4bd 7cce 8abd
00000060: 1836 67bd eadd cdbd 62ed 09be a55a 243e
00000070: ecda 1cbd 0686 df3d 8388 eabd 3a64 b1bd
00000080: 8cf0 52bd 988c 18be 68b5 efbc 7354 25be
00000090: c23d a23d 11e5 413e de2c 1fbe 9df4 0a3e
000000a0: ecb0 2b3d 39ac 383e d0e2 bbbc 2991 013e
000000b0: 601d 0dbe 90fd 9abd 2669 c93d bd17 31be
000000c0: 5351 efbd 80de e6bc fac6 9a3d fd3c acbd
000000d0: b966 203e 1c6f 88bd 9df5 053e bb6b 0b3e
000000e0: c96b 083e 3054 5a3c 56bd 94bd e83e 69bd
000000f0: d7a4 e8bd ce63 f63d eff3 403e a5aa 1f3e
00000100: 033e d6bd c878 28bd 6030 083d b4cd 1cbd
00000110: 6052 453d 806e 24bc 03f5 c3bd c251 cd3d
00000120: 2834 b8bc 0024 ebbc 6daf 18be 605d 4dbd
00000130: 34dd 05bd 33f4 cebd 5637 96bd 85e9 33be
00000140: 3dec 493e 32ac 853d e2ad f83d e847 09be
00000150: 40b3 b8bd 45ae 3b3e 8c06 04be 83a8 acbd
00000160: 8014 063c 5e08 01be 1f11 2fbe 82a4 9f3d
00000170: 2dde 3bbe 9720 4b3e ac05 0dbd c07d 5fbd
00000180: e134 033e 4207 963d ed53 d1bd 286c e8bc
00000190: c923 353e c024 dbbc 1fa5 253e 7eca c83d
000001a0: 0054 c43c 756c 42be f03c 8abd fb89 3cbe
000001b0: d5b7 2a3e a9b9 373e b104 0d3e d09b dd3c
000001c0: d0ec 32bc 0233 ed3d 912d 423e 00b0 383a
000001d0: 8045 70bc 3007 be3c c791 213e 645d 533d
000001e0: 4db1 f6bd 1fac 41be e9bc 3c3e 96ad 943d
000001f0: 4d87 c3bd f9bd 4a3e 770d e5bd 293b 283e
00000200: 3f4a 473e ab2b 333e a7ed 35be d8e7 f13c
00000210: b2fe b03d 8ab8 b1bd 85ce 343e 1be2 2ebe
00000220: f066 0abe 4530 05be 1818 c4bc 0181 183e
00000230: cffd 003e 3052 ecbc 8f07 123e 0088 0f3c
00000240: 3450 95bd 305d a2bd 475b fabd 7cf9 5d3d
00000250: 32a2 b43d 3014 d33c 6054 683c 5889 eabc
00000260: 56dc a93d 4aa4 b9bd 68e6 fcbc 6759 173e
00000270: a981 463e 609f 4e3c 9f7d 1d3e 801c 34be
00000280: 5940 243e 0014 57b9 c308 30be f2c0 903d
00000290: 3f97 033e d70e 333e b9a1 0b3e 9164 0f3e
000002a0: 445f 773d 00f9 fd3a ca0f cd3d eaa9 97bd
000002b0: 8c19 97bd 7887 013d 0895 233d b364 f1bd
000002c0: 33e0 1a3e 281a 4bbe 8a72 14be c0b1 47be
000002d0: ce17 8a3d 30f1 5e3c b2a2 dc3d aac6 e13d
000002e0: 2f41 013e 401b 65bd 50d0 04bc a105 1d3e
000002f0: e001 1a3c 951f 303e 00ca 15bb d609 8abd
00000300: 0648 f63d 2eef cc3d fa64 ff3d 204e 2abd
00000310: 930d 2fbe 2647 953d 480f 7abd 637e cabd
00000320: 8971 3a3e 74de 52bd 6280 ce3d eb8a 073e
00000330: bd4c 46be 2631 1ebe 721f e33d d504 403e
00000340: cd45 1abe 92dd 18be a20c a53d 23e6 43be
00000350: 71b5 393e ea70 dabd 6e70 893d 8021 4e3b
00000360: b7ea 1e3e eb77 3fbe 6200 ba3d fe66 c13d
00000370: f244 1ebe dca5 94bd f2f5 e13d 7647 8fbd
00000380: 6151 0d3e fe3f 05be a344 2e3e 3a9f 863d
00000390: 8c7a 2a3d 007e 073a 32f4 833d bad4 36be
000003a0: 298f 443e 5745 433e c375 1b3e bce8 653d
000003b0: ac6c 5c3d 95c8 2a3e 1f5a 4bbe 23c2 31be
000003c0: 30ae e7bc cddc 363e aaf1 97bd a240 a73d
000003d0: 820b a23d 7ef1 d73d 9e76 9f3d cb5a 40be
000003e0: e732 283e 4a71 acbd b6de aa3d f4b3 0abe
000003f0: b9ea 053e cabd 4bbe 7cab 573d a661 953d

bias f4 [25]
-0.046109125 0.02366826 -0.1149117 0.119328514 -0.076779366 0.16951089 0.13719271 0.05438806
-0.05702862 0.11592616 -0.099379085 0.1003318 0.030891016 0.0061656684 0.06602998 0.13759263
0.14379208 -0.055344388 -0.017266244 0.036257416 0.1886517 -0.04891321 -0.19832861 0.061182663
-0.036360145
00000000: ecdc 3cbd f0e3 c13c d356 ebbd 8262 f43d
00000010: 803e 9dbd 4394 2d3e 3f7c 0c3e 04c6 5e3d
00000020: d896 69bd b26a ed3d 4387 cbbd c27a cd3d
00000030: 280f fd3c 6009 ca3b ba3a 873d 15e5 0c3e
00000040: 3b3e 133e ccb0 62bd f071 8dbc a882 143d
00000050: e92d 413e 3859 48bd a816 4bbe ac9a 7a3d
00000060: 60ee 14bd

weight f4 [25, 25]
-0.030559942 0.010376215 0.11595954 -0.06853211 -0.0351948 -0.062812954 0.12648411 0.16290729
0.14187683 0.14543153 0.040195227 0.05328472 -0.09066703 -0.16240847 -0.041205853 -0.14170809
0.14436172 0.012537152 0.045674995 -0.17582904 -0.16969569 0.13213603 -0.19623518 -0.10553794
-0.11006167 0.03476198 0.1883714 0.07279052 0.035234496 0.056217715 0.000598222 -0.054064423
0.052238807 -0.14873901 0.18270437 0.1780576 0.13806762 -0.024445027 0.06783964 0.06801756
0.18428762 -0.15124555 0.048437074 -0.19723867 -0.064714 -0.05119273 0.19922878 -0.016617328
-0.14071485 -0.137651 -0.017091557 -0.1704473 0.0058012456 0.079668865 0.15223183 -0.1606386
-0.19829683 -0.12811562 0.048632115 0.12888904 0.12512119 -0.19032978 -0.063948825 -0.199827
0.09250997 0.091469005 0.023554966 -0.18633173 -0.14174092 0.13945128 -0.083006576 -0.060422376
0.032000974 -0.09350874 0.07227759 0.00010943413 0.17297466 -0.088383794 0.092637435 -0.17860372
0.18899469 0.046764106 0.05825557 -0.013022542 0.107523605 0.17940246 -0.16104658 0.15748598
0.044229582 -0.07878611 -0.11525531 0.13756232 0.18429874 0.13968505 0.19575925 -0.15755816
0.114526734 0.03952439 -0.09299188 -0.066168696 0.16142203 0.1101958 -0.14521535 -0.12728214
0.13231592 -0.17185712 0.09011616 -0.08396113 -0.13591936 0.1909809 -0.15123264 0.18937702
-0.107644275 -0.1201418 -0.013109773 0.012422442 -0.004792303 -0.12574649 -0.0714421 -0.031132579
0.19573368 -0.10216532 0.057304367 0.11409883 0.040710613 0.14367144 0.08152862 -0.10564449
-0.15634009 0.054354593 -0.07568119 0.16013424 0.0115401 -0.1039567 0.12346403 0.013394952
-0.115560986 0.08400376 0.13790874 -0.08389547 0.02170685 -0.058236152 -0.15557382 -0.0601459
-0.12576301 -0.120131135 0.17713763 0.15206428 -0.15888277 -0.11002193 -0.010626912 0.1732495
0.19340985 0.0272239 -0.16784069 0.14853595 0.07315849 -0.13826427 0.109382495 -0.0945066
0.13815902 0.15828006 0.04516284 0.13077582 -0.16718027 -0.014530569 0.053466514 0.16850959
0.09145571 0.019200131 -0.17578247 0.058785245 -0.13733622 0.10179652 -0.14451702 -0.022138238
0.18636756 -0.059139803 0.03728971 0.1318676 -0.14806156 -0.15879662 0.052307025 -0.07022628
-0.09487634 0.08354242 0.13925858 -0.17315848 -0.10725639 -0.06912243 0.1404724 -0.046547845
0.051931962 -0.015682906 0.0073023587 -0.1373905 -0.104204394 0.025008708 0.12711056 0.082931176
0.035658076 -0.039120123 0.13041498 -0.0085502565 -0.06503658 -0.14136979 0.006166056 -0.08228085
0.09464146 0.08397056 0.103531316 0.11035241 0.089112535 0.05310656 0.1411738 0.15114595
-0.19145742 -0.1808807 -0.01761064 -0.13252175 -0.08830364 0.022527695 -0.17441778 -0.15395637
0.16629879 0.18923773 0.0014002323 0.11035432 -0.10091338 -0.04742782 0.173822 -0.090245984
0.15018655 -0.10657487 0.14894907 0.12767531 0.045054168 0.15532173 0.13542317 0.086563304
0.101654306 0.15309317 -0.07448359 0.0857247 -0.10829272 -0.14335427 -0.18806903 0.0484889
0.014509767 -0.09518933 0.1820278 0.009193808 -0.024262741 -0.12502891 -0.026821062 -0.04673052
00000000: d858 fabc 0001 2a3c 327c ed3d 905a 8cbd
00000010: 6c28 10bd 14a4 80bd 0d85 013e 2bd1 263e
00000020: 2948 113e 01ec 143e c0a3 243d 1441 5a3d
00000030: a3af b9bd 684e 26be 78c7 28bd ed1b 11be
00000040: 8fd3 133e a068 4d3c b415 3b3d 870c 34be
00000050: b5c4 2dbe ab4e 073e e0f1 48be 4724 d8bd
00000060: 0368 e1bd 9462 0e3d 6fe4 403e 3213 953d
00000070: 0c52 103d 8c44 663d 00d2 1c3a a872 5dbd
00000080: 5cf8 553d 0a4f 18be db16 3b3e bb54 363e
00000090: 9961 0d3e f040 c8bc 82ef 8a3d ca4c 8b3d
000000a0: e5b5 3c3e 1de0 1abe f465 463d eff8 49be
000000b0: c688 84bd 78af 51bd a102 4c3e 1021 88bc
000000c0: 8e17 10be 62f4 0cbe 9803 8cbc bd89 2ebe
000000d0: 6018 be3b 6e29 a33d a9e2 1b3e 727e 24be
000000e0: 530e 4bbe be30 03be 7832 473d 7dfb 033e
000000f0: c51f 003e cfe5 42be 9af7 82bd 739f 4cbe
00000100: de75 bd3d 1a54 bb3d 58f6 c03c bfcd 3ebe
00000110: 8824 11be 51cc 0e3e 5aff a9bd 747d 77bd
00000120: 7413 033d 8381 bfbd 4606 943d 0080 e538
00000130: 4520 313e 9002 b5bd b2b8 bd3d e5e3 36be
00000140: d387 413e b88b 3f3d 649d 6e3d 805c 55bc
00000150: 5635 dc3d 47b5 373e 65e9 24be 0144 213e
00000160: 142a 353d 9d5a a1bd fa0a ecbd 23dd 0c3e
00000170: cfb8 3c3e 9909 0f3e 1d75 483e ed56 21be
00000180: fe8c ea3d 54e4 213d 8772 bebd 7483 87bd
00000190: d14b 253e 56ae e13d 55b3 14be 4056 02be
000001a0: d37d 073e 50fb 2fbe d28e b83d d0f3 abbd
000001b0: 722e 0bbe 7f90 433e bbdc 1abe 0dec 413e
000001c0: 9a74 dcbd e70c f6bd 60ca 56bc 8087 4b3c
000001d0: c008 9dbb b0c3 00be 3c50 92bd c009 ffbc
000001e0: 696e 483e 0d3c d1bd fcb7 6a3d a6ac e93d
000001f0: 2cc0 263d 9b1e 133e 7af8 a63d 235c d8bd
00000200: 9e17 20be eca2 5e3d bdfe 9abd 3bfa 233e
00000210: b012 3d3c 40e7 d4bd b6da fc3d 8076 5b3c
00000220: 3dab ecbd 2a0a ac3d f337 0d3e 63d1 abbd
00000230: 90d2 b13c 0889 6ebd be4e 1fbe 8c5b 76bd
00000240: 05c8 00be 5007 f6bd 9163 353e bdb6 1b3e
00000250: 2ab2 22be 2d53 e1bd 801c 2ebc 5168 313e
00000260: 3b0d 463e a804 df3c 6ede 2bbe cf19 183e
00000270: 1ed4 953d 2695 0dbe ee03 e03d ad8c c1bd
00000280: 8f79 0d3e 2b14 223e acfc 383d 19ea 053e
00000290: 4e31 2bbe a011 6ebc b4ff 5a3d c78d 2c3e
000002a0: 224d bb3d 9849 9d3c 5200 34be ccc8 703d
000002b0: dea1 0cbe b27a d03d 45fc 13be 405b b5bc
000002c0: 23d7 3e3e 943c 72bd 18bd 183d 4d08 073e
000002d0: 739d 17be 959b 22be e43f 563d ccd2 8fbd
000002e0: 874e c2bd 4a18 ab3d cd99 0e3e 7550 31be
000002f0: 3da9 dbbd 1090 8dbd ffd7 0f3e f4a8 3ebd
00000300: 9cb6 543d 7079 80bc a048 ef3b 18b0 0cbe
00000310: 1d69 d5bd 10df cc3c 4529 023e d2d7 a93d
00000320: 340e 123d 6c3c 20bd 818b 053e 6016 0cbc
00000330: e631 85bd 3ec3 10be a00c ca3b dd82 a8bd
00000340: 62d3 c13d c2f8 ab3d 3a08 d43d 7200 e23d
00000350: a280 b63d 4486 593d dd8f 103e 01c6 1a3e
00000360: 6a0d 44be ca38 39be 3044 90bc c8b3 07be
00000370: 8ad8 b4bd 008c b83c 939a 32be bda6 1dbe
00000380: 3b4a 2a3e 89c7 413e 0088 b73a 7201 e23d
00000390: adab cebd ac43 42bd 65fe 313e e3d2 b8bd
000003a0: 81ca 193e ed43 dabd 1b86 183e 51bd 023e
000003b0: b88a 383d a90c 1f3e 5fac 0a3e 1a48 b13d
000003c0: 2230 d03d 75c4 1c3e da8a 98bd 6e90 af3d
000003d0: 93c8 ddbd 76cb 12be 2b95 40be 4c9c 463d
000003e0: 60ba 6d3c a0f2 c2bd 7f65 3a3e a0a1 163c
000003f0: a8c2 c6bc 9407 00be d8b7 dbbc 8068 3fbd

bias f4 [25]
-0.061392337 0.01004374 -0.04676576 -0.042291 -0.07682586 0.09128727 -0.19920845 0.118949875
0.10939275 0.0013078004 0.017261177 -0.19591896 0.099011526 -0.026521772 0.12311198 0.08158113
0.15799083 -0.066441014 0.17452763 -0.10918567 0.15043713 -0.046898752 0.044134423 0.108376876
-0.16143493
00000000: 8876 7bbd 808e 243c 748d 3fbd 5439 2dbd
00000010: e056 9dbd d2f4 ba3d 4dfd 4bbe fe9b f33d
00000020: 4e09 e03d 806a ab3a 5067 8d3c fb9e 48be
00000030: 8ec6 ca3d 3044 d9bc 2222 fc3d 0214 a73d
00000040: 59c8 213e 3a12 88bd 5fb7 323e bd9c dfbd
00000050: 310c 1a3e e818 40bd 4cc6 343d b2f4 dd3d
00000060: 334f 25be

weight f4 [25, 25]
0.112527624 0.086320296 0.117876664 0.18814062 -0.050501466 0.16519408 0.001992315 -0.024595112
-0.023693234 -0.082235694 -0.07004826 -0.17613402 -0.082558446 -0.104480125 0.09874131 0.029024124
-0.16671231 -0.0564667 0.189508 0.19486655 0.034953073 0.13929577 0.04903376 -0.15075633
-0.18650077 0.16959722 0.104621395 -0.1587336 0.10449664 0.06409408 0.038321465 0.06802033
0.008116558 -1.4618039e-05 -0.15267293 0.03934662 -0.048984855 -0.17080526 0.096670374 0.13974924
-0.1874198 -0.10075422 0.1267152 -0.15977284 0.06319608 -0.02722828 0.1325038 0.06737913
0.19491704 0.059834793 0.18501224 -0.14802746 -0.16037016 0.07705055 -0.020627216 -0.084025025
0.05522318 0.12726738 0.14210503 0.14472283 -0.12448352 -0.1222946 -0.13796902 0.08423819
0.030216292 0.104262695 0.17377616 0.052459016 -0.1984844 0.033651948 -0.1270101 0.14531769
-0.07775545 -0.18771811 0.10084008 -0.11525519 0.1916195 0.011412904 -0.13729644 0.17321758
-0.100646354 0.15006427 0.14394332 -0.15246777 0.16174711 -0.027186126 0.11435722 -0.08581831
0.060116902 0.14541371 -0.048353717 -0.010418296 -0.063270286 0.17420684 0.10738431 -0.10109792
0.027584389 0.15454327 0.0050810277 0.013188601 0.18671845 -0.04100366 -0.19130741 -0.11306167
-0.021109894 -0.10027211 -0.10510335 0.12138598 -0.07406099 -0.19160263 0.05561544 0.13486226
-0.06201105 0.0032219142 -0.07176897 -0.14808524 0.008387491 0.06278859 0.15453555 0.16107915
-0.19708256 -0.18106535 0.087488815 -0.018774182 -0.13482219 -0.08574488 -0.06844258 -0.13895197
-0.17285793 0.13996805 0.10433437 -0.054522634 -0.0077011883 -0.19125843 -0.032070324 0.13803007
0.06800832 0.16236047 0.06503604 0.11481957 0.043070912 -0.18474725 0.051129714 0.12554063
-0.013140678 -0.1894226 0.1436388 -0.18987744 -0.036817953 -0.04134038 0.15243985 0.09210487
0.09960343 -0.08441408 -0.14961517 -0.19677846 0.13084255 0.042155474 0.11229886 0.050502494
0.12067141 -0.03448066 0.05229999 -0.084373094 0.18044089 -0.023260668 -0.06324394 -0.097572856
-0.01736781 0.0860299 0.10013904 -0.10969241 -0.1613198 0.0932983 0.104714885 -0.058496624
0.1947438 -0.15359478 0.1956032 -0.08882298 -0.022485808 0.025247902 0.16361399 0.10903226
0.03852293 0.1829841 -0.18797949 0.05196871 -0.19889002 0.09681611 0.11728157 0.11495401
0.032518387 0.11520694 0.10927345 0.16795178 0.042904705 -0.008715838 0.10131197 -0.082674004
-0.1273674 0.050395712 0.16105227 0.113784805 -0.010560513 -0.15168302 0.1550069 -0.13538677
-0.19269155 -0.009332493 -0.06950903 -0.1260193 0.12199153 -0.14330009 0.19694854 -0.09850898
-0.0020324439 -0.11547971 0.07148065 0.19991927 -0.08729346 -0.11954129 -0.17725079 0.18707849
0.13629149 0.049921706 -0.009782642 0.11465596 0.07993628 -0.17202063 0.06688894 -0.10438521
-0.03708431 0.1468191 -0.17132738 0.054941937 0.14145617 -0.008663818 -0.10474854 0.17732243
0.08140887 0.1583712 0.15633364 0.16310115 0.0109077245 0.16828234 0.10694362 0.15269838
0.15923719 0.010619596 0.17367603 -0.009161398 0.11957447 -0.024826571 -0.15082748 0.009153277
00000000: e274 e63d b2c8 b03d 5269 f13d efa7 403e
00000010: a0da 4ebd a328 293e 8091 023b b07b c9bc
00000020: 5018 c2bc 306b a8bd 7675 8fbd 7a5c 34be
00000030: 6714 a9bd adf9 d5bd e238 ca3d 00c4 ed3c
00000040: a2b6 2abe a049 67bd 630e 423e 198b 473e
00000050: f42a 0f3d 8da3 0e3e a0d7 483d de5f 1abe
00000060: 0ffa 3ebe e5aa 2d3e be43 d63d 108b 22be
00000070: 5602 d63d c243 833d f8f6 1c3d 3e4e 8b3d
00000080: 50fb 043c 0040 75b7 4b56 1cbe ec29 213d
00000090: 58a4 48bd 93e7 2ebe 1efb c53d 6d1a 0f3e
000000a0: faea 3fbe 3a58 cebd a1c1 013e 7e9b 23be
000000b0: f26c 813d d80d dfbc 13af 073e 12fe 893d
000000c0: 5598 473e 5415 753d d973 3d3e 8394 17be
000000d0: 1338 24be aecc 9d3d 68fa a8bc 5015 acbd
000000e0: b431 623d 6152 023e fb83 113e 3932 143e
000000f0: 37f1 febd 9775 fabd c047 0dbe 1285 ac3d
00000100: 2888 f73c ae87 d53d 61f2 313e 44df 563d
00000110: 7f3f 4bbe a0d6 093d f00e 02be 29ce 143e
00000120: 403e 9fbd 2d39 40be 3e85 ce3d ea0a ecbd
00000130: e737 443e 30fd 3a3c 7097 0cbe f35f 313e
00000140: ad1f cebd 73aa 193e e165 133e 8320 1cbe
00000150: 09a1 253e 70b5 debc 1e34 ea3d 83c1 afbd
00000160: 243d 763d 55e7 143e 8c0e 46bd 80b1 2abc
00000170: da93 81bd 4763 323e 4eec db3d 6d0c cfbd
00000180: a8f8 e13c 9740 1e3e c07e a63b 0015 583c
00000190: 1f33 3f3e 74f3 27bd 17e6 43be e08c e7bd
000001a0: a8ee acbc 775b cdbd 6d40 d7bd 3699 f83d
000001b0: 4aad 97bd 7b33 44be 04cd 633d 5519 0a3e
000001c0: 4cff 7dbd c026 533b 9cfb 92bd a8a3 17be
000001d0: b06b 093c 4e97 803d 913e 1e3e eff1 243e
000001e0: 03d0 49be 3269 39be 562d b33d 50cc 99bc
000001f0: d40e 0abe 039b afbd a02b 8cbd 6d49 0ebe
00000200: ab01 31be c953 0f3e 42ad d53d 2053 5fbd
00000210: 405a fcbb 40d9 43be 2c5c 03bd c157 0d3e
00000220: f247 8b3d d341 263e 9e31 853d 8626 eb3d
00000230: 206b 303d 622e 3dbe 646d 513d b98d 003e
00000240: 004c 57bc 00f8 41be 0d16 133e 3b6f 42be
00000250: 6cce 16bd 8854 29bd 3119 1c3e 7aa1 bc3d
00000260: e2fc cb3d 4ae1 acbd b834 19be 4b80 49be
00000270: 97fb 053e 38ab 2c3d f2fc e53d b4db 4e3d
00000280: 9222 f73d 983b 0dbd 8438 563d cdcb acbd
00000290: 7fc5 383e 288d bebc 0a86 81bd 47d4 c7bd
000002a0: f046 8ebc 7230 b03d b215 cd3d 6aa6 e0bd
000002b0: 0531 25be 2e13 bf3d c274 d63d 289a 6fbd
000002c0: eb6a 473e f347 1dbe 354c 483e d3e8 b5bd
000002d0: 2834 b8bc b0d4 ce3c 6d8a 273e 4e4c df3d
000002e0: 38ca 1d3d 2f60 3b3e b27d 40be 24dd 543d
000002f0: d3a9 4bbe 8647 c63d 5231 f03d 026d eb3d
00000300: 0032 053d 9ef1 eb3d c2ca df3d 8dfb 2b3e
00000310: d8bc 2f3d e0cc 0ebc a67c cf3d fd50 a9bd
00000320: 9a6c 02be bc6b 4e3d e3ea 243e 0208 e93d
00000330: 0006 2dbc cb52 1bbe 21ba 1e3e d4a2 0abe
00000340: ef50 45be 50e7 18bc c05a 8ebd 340b 01be
00000350: b2d6 f93d 42bd 12be e1ac 493e 13bf c9bd
00000360: c032 05bb a080 ecbd 7264 923d a3b7 4c3e
00000370: eac6 b2bd 10d2 f4bd 3b81 35be 8191 3f3e
00000380: ff8f 0b3e b47a 4c3d 6047 20bc bed0 ea3d
00000390: a2b5 a33d 2d26 30be 12fd 883d eac7 d5bd
000003a0: b8e5 17bd bf57 163e 7270 2fbe cc0a 613d
000003b0: e3d9 103e b0f2 0dbc 6786 d6bd 0394 353e
000003c0: b2b9 a63d 0f2c 223e ed15 203e fd03 273e
000003d0: 50b6 323c 3552 2c3e 4205 db3d f75c 1c3e
000003e0: 130f 233e d0fd 2d3c 21d8 313e b019 16bc
000003f0: 76e3 f43d 1861 cbbc 8572 1abe a0f7 153c

bias f4 [25]
-0.12168687 -0.18654452 0.030043036 0.0017410219 0.04069154 -0.019436926 -0.17299087 -0.19642714
0.050250784 0.054897115 0.104253545 0.12818436 0.1484545 0.18427794 -0.09859853 0.024042875
0.060896292 -0.1534873 0.15486945 0.1354068 0.1581086 -0.16870145 -0.16880274 0.15349002
0.067163244
00000000: f736 f9bd 8705 3fbe d01c f63c 0033 e43a
00000010: 2cac 263d 303a 9fbc 8524 31be 3224 49be
00000020: c4d3 4d3d ccdb 603d e282 d53d c342 033e
00000030: 7504 183e 5bb3 3c3e 07ee c9bd 90f5 c43c
00000040: 646e 793d c62b 1dbe 1996 1e3e 15a8 0a3e
00000050: 39e7 213e 13c0 2cbe a0da 2cbe 7d2c 1d3e
00000060: e28c 893d

weight f4 [4, 25]
-0.19997787 -0.054955453 -0.17492986 -0.0033581704 0.0687422 0.052370533 0.13560583 -0.18634056
0.19311593 -0.063139156 -0.015256718 0.17596917 0.15626939 -0.07829721 0.19179447 -0.018360063
0.05969481 0.04987757 0.027643591 -0.07954111 0.083243564 0.14659409 -0.153929 -0.121849895
-0.012972549 -0.098251656 0.028817698 0.17373435 0.06400038 -0.17987464 0.16685812 0.17358498
-0.12604934 0.12100433 0.18470107 0.09301208 0.12841155 -0.027016312 0.18268849 -0.037799552
-0.19620983 0.16353367 -0.18151994 -0.0041222125 -0.10270476 0.05467762 0.05420579 -0.1311506
-0.04696524 -0.17128538 0.08606912 0.07222946 0.0925691 -0.006785989 -0.103196144 0.0693482
-0.06253478 0.031376883 -0.051699758 -0.15235588 0.15172388 0.05798869 0.025630742 0.04480891
-0.11263426 -0.1986525 -0.07971835 0.07032131 0.13713388 -0.1285344 0.11134513 -0.011388421
0.19900067 0.18794553 -0.1528488 -0.18668664 -0.10775924 0.08750726 -0.13457316 -0.059626967
0.0512328 -0.106626175 0.15133862 -0.09093144 0.011891454 0.12451993 0.17119254 -0.12335296
-0.1447244 -0.05264795 0.06395887 0.11914165 0.011876628 -0.13511866 -0.111835554 -0.19280167
0.08781852 0.03729871 -0.10372098 0.045782253
00000000: 00c7 4cbe f818 61bd d020 33be c014 5cbb
00000010: b6c8 8c3d 7c82 563d 41dc 0a3e 0fd0 3ebe
00000020: 2fc0 453e 1a4f 81bd 50f7 79bc 4331 343e
00000030: 1505 203e 4a5a a0bd c565 443e d867 96bc
00000040: 8c82 743d 6c4c 4c3d d074 e23c 73e6 a2bd
00000050: 9a7b aa3d c31c 163e 909f 1dbe 708c f9bd
00000060: d08a 54bc 2a38 c9bd 1813 ec3c 6be7 313e
00000070: a212 833d 0f31 38be dbdc 2a3e 43c0 313e
00000080: 1413 01be 1ed1 f73d 4722 3d3e 1e7d be3d
00000090: 517e 033e 5051 ddbc b112 3b3e b4d3 1abd
000000a0: 3beb 48be 5f75 273e 5de0 39be a013 87bb
000000b0: e056 d2bd a4f5 5f3d e406 5e3d 584c 06be
000000c0: a05e 40bd 6f65 2fbe 0245 b03d 0aed 933d
000000d0: de94 bd3d 005d debb 8058 d3bd 6e06 8e3d
000000e0: 3c12 80bd 0c85 003d 20c3 53bd 2e03 1cbe
000000f0: 815d 1b3e 8c85 6d3d 90f7 d13c 8c89 373d
00000100: caac e6bd 906b 4bbe 6043 a3bd 9e04 903d
00000110: d36c 0c3e 869e 03be ea08 e43d 8096 3abc
00000120: d5c6 4b3e cb74 403e 6584 1cbe c82a 3fbe
00000130: e0b0 dcbd 0237 b33d 8ccd 09be 683b 74bd
00000140: 7cd9 513d d35e dabd 83f8 1a3e 433a babd
00000150: 60d4 423c 4e04 ff3d 194d 2f3e 7aa0 fcbd
00000160: a232 14be 60a5 57bd defc 823d 8a00 f43d
00000170: 3096 423c 8c5c 0abe 0a0a e5bd cd6d 45be
00000180: 32da b33d 88c6 183d aa6b d4bd 2c86 3b3d

bias f4 [4]
0.10653202 0.05366303 -0.13855311 0.015194654
00000000: 762d da3d c4cd 5b3d dee0 0dbe 00f3 783c
