models/_brain_116.pt (torch, 14593 bytes, 12 tensors)

weight f4 [14]
00000000: 0000 803f 0000 803f 0000 803f 0000 803f
00000010: 0000 803f 0000 803f 0000 803f 0000 803f
00000020: 0000 803f 0000 803f 0000 803f 0000 803f
00000030: 0000 803f 0000 803f
1.0 1.0 1.0 1.0 1.0 1.0 1.0 1.0
1.0 1.0 1.0 1.0 1.0 1.0

bias f4 [14]
00000000: 0000 0000 0000 0000 0000 0000 0000 0000
00000010: 0000 0000 0000 0000 0000 0000 0000 0000
00000020: 0000 0000 0000 0000 0000 0000 0000 0000
00000030: 0000 0000 0000 0000
0.0 0.0 0.0 0.0 0.0 0.0 0.0 0.0
0.0 0.0 0.0 0.0 0.0 0.0

weight f4 [25, 14]
00000000: 78b9 0e3d 16bc 683e 5bde 803e d435 063e
00000010: d018 d93d 5823 4f3e 6e4c 453e 1ef4 a5bd
00000020: e632 93bd 42eb f7bd 5a00 7cbe 6046 4f3e
00000030: 083e bbbc 3e47 87be 2c42 d23d e0bf bfbc
00000040: 7037 1fbe 008e d3bb 986d 8e3d 043b 86be
00000050: 0c18 16bd 781e e1bc daa0 403e b08f 313d
00000060: 54e2 1ebd 323e 2d3e e241 31be 7c31 513e
00000070: f0c3 813d 22ab 343e 6c4a c43d eb12 81be
00000080: 9b6d 4ebe cc12 6b3e b852 053d 5330 06be
00000090: 180d 7c3d a0a2 373d 1066 de3d 1d51 03be
000000a0: 38da 32bd 4a14 8abd 3957 02be 9ce3 0ebe
000000b0: e011 683d 86df 213e a72d 7fbe 16b9 753e
000000c0: ba8d 173e 7c00 ccbd d8fd 253d c282 b6bd
000000d0: a0e3 e6bd eaef 523e 90e3 f13d f06c 4bbe
000000e0: 8073 4bbe a0d1 58bc 8430 d33d 30cd 99bc
000000f0: 00cf 9cbb 104e cfbc 4499 81be 0a2b 1c3e
00000100: c8a4 49be a001 69be 00a3 0c3e 5e5a 2b3e
00000110: b7f2 833e 75d4 823e c02b 5a3e 8093 293e
00000120: 30ec 803c c829 6fbe dca3 913d 782a ecbd
00000130: 94fc 76be fb6b 0cbe 7317 87be 9806 34bd
00000140: 9e0a 193e e601 2b3e 003d a5ba f683 623e
00000150: 28c5 70bd ce9e 573e 1025 073d a019 ba3c
00000160: 183f 34bd d075 55be 30bf 6b3d d0a2 a4bd
00000170: f0e5 e3bc d11a 20be e0df a5bc 9069 eabc
00000180: 4c72 b9bd c05a c03c 50a8 b53c 9821 603e
00000190: 0c82 b43d 40ef 7e3c e62f 503e fa5d cebd
000001a0: 164a 7e3e 5e81 b9bd 986b c7bd 428f 733e
000001b0: f89e 583e 0c16 8e3d 20b2 2ebe cc76 bf3d
000001c0: 045f 63be 64b7 4fbe 8be9 2cbe f429 85bd
000001d0: 78bb debd a477 a63d 6604 7d3e ce60 2cbe
000001e0: f02d d63c 8036 36bc 7a83 93bd 041f 05bd
000001f0: b463 0ebe d501 833e e128 05be 0cf6 6dbe
00000200: aae4 1b3e 1533 73be 7806 bd3d 6188 70be
00000210: 1c59 39be ea75 53be 9024 663d 602d d03d
00000220: 32fd 0c3e 0c51 84be ec28 80bd d4ed cbbd
00000230: 0c7e 863d e4b6 ebbd b6d1 51be 4c43 14be
00000240: 7491 913d a0a5 69be 2aa5 f3bd 205c 0dbe
00000250: b025 f1bd 4012 88bb fce8 f73d 5492 9f3d
00000260: 30a7 a3bd bd9b 52be c045 93bb c0c8 4b3d
00000270: 00f3 dfbb 04d8 1abd 56c9 6e3e a86a 04be
00000280: b6ab 48be 7e09 22be 06aa 8bbd 20a4 04be
00000290: 60ce bfbc 7e1a 003e ea24 8bbd d089 f13c
000002a0: c66b 033e 2ecb 2bbe c820 ec3d b404 d73d
000002b0: c935 83be c665 22be f8be db3d c359 74be
000002c0: 3cd1 f5bd 3f7d 01be bd65 2bbe 36bc 7f3e
000002d0: 1cca 96bd ea4e 433e a0aa 9e3d ba1e 083e
000002e0: d024 293d 947e 493e 1218 593e bced 3fbd
000002f0: 60eb ef3d 25ed 853e e8fd 303e 9ce1 0fbe
00000300: 441f 8bbd 3812 f43d 403d 81be 26ec 4e3e
00000310: 70ac 5cbe a269 693e 80e3 f4bb cebd 0e3e
00000320: 09c3 873e bed8 723e 2d17 12be ded1 203e
00000330: 24df 7bbd 1149 5dbe 3cc0 a0bd 5c89 12bd
00000340: 5167 853e 8047 663d e63e 79be beff 1a3e
00000350: 9a4e 203e 7e49 4cbe 44cf dabd e4fa f03d
00000360: d6bf 4f3e 8236 673e 3077 5a3e cec3 81be
00000370: e05f 503d d970 03be 125d 703e ac99 aebd
00000380: 3006 88bc 1836 79bd 4f79 853e 4031 393c
00000390: 2004 933c f5de 08be 8c4e 60bd b871 c03d
000003a0: 7362 863e 0d21 76be 40b0 4d3c 23df 75be
000003b0: 56fc 643e 4373 82be a738 7cbe c8b0 183e
000003c0: 8f2e 11be 8ad0 723e ae3c c5bd 5ee8 26be
000003d0: 6c65 7dbe 1cda 15be f82d 0c3e 49eb 6ebe
000003e0: 1484 62be 5a9c 5dbe e8b4 4abe 5c7b 103e
000003f0: 5837 443e c533 5abe e458 5f3e 3c78 03bd
0.034844846 0.22727999 0.25169644 0.13106471 0.10600436 0.20228326 0.19267437 -0.08103202
-0.071874425 -0.12105419 -0.24609509 0.2024169 -0.022856727 -0.2642154 0.102665275 -0.023406923
-0.15548491 -0.0064561367 0.06954497 -0.262169 -0.036644027 -0.027480349 0.1881136 0.04334992
-0.038790062 0.16918257 -0.17310289 0.20429033 0.063362 0.17643407 0.09584507 -0.25209746
-0.20158999 0.22956389 0.03254959 -0.13104372 0.061535925 0.044832826 0.108593106 -0.12823911
-0.04366514 -0.06742151 -0.12728585 -0.13954014 0.056657672 0.15807924 -0.24919759 0.23996386
0.14800158 -0.0996103 0.040525287 -0.08911659 -0.11273885 0.20599332 0.11810982 -0.19865775
-0.19868279 -0.013233572 0.10311988 -0.018774599 -0.0047854185 -0.025305778 -0.25312245 0.15250793
-0.19691765 -0.22754526 0.13734055 0.16733691 0.25771114 0.25552717 0.21305752 0.16560173
0.015737623 -0.23355782 0.07111332 -0.11531538 -0.24119788 -0.13713066 -0.26385078 -0.0439516
0.14945456 0.16699943 -0.001260668 0.22120652 -0.058781773 0.21056673 0.03299433 0.022717297
-0.044005483 -0.20845723 0.057555377 -0.080388665 -0.027819604 -0.1563523 -0.020248353 -0.02861479
-0.090550035 0.023480773 0.022174984 0.21887815 0.08813867 0.015559971 0.20330772 -0.10076518
0.24832949 -0.09057878 -0.09737319 0.23785117 0.21154392 0.06937799 -0.17060137 0.093488306
-0.22204214 -0.20284802 -0.16885965 -0.065021425 -0.108756006 0.081282884 0.24708709 -0.16833803
0.026144952 -0.011121392 -0.072028115 -0.032500282 -0.13905221 0.25587335 -0.13003875 -0.2323839
0.15223947 -0.23749955 0.092297494 -0.23489524 -0.18100399 -0.2065045 0.056187212 0.101649046
0.13768461 -0.25843084 -0.06257805 -0.099574715 0.0656701 -0.11509493 -0.20490155 -0.14478797
0.07107821 -0.22817087 -0.11896737 -0.13804674 -0.117747664 -0.004152566 0.12104985 0.07791582
-0.07990873 -0.20567222 -0.004494399 0.049751997 -0.006834388 -0.037803665 0.23318991 -0.12931311
-0.19596753 -0.15823933 -0.06819539 -0.12953234 -0.023413837 0.12510106 -0.0679415 0.02948466
0.12834081 -0.16776726 0.1152969 0.10498944 -0.25626972 -0.15859136 0.10729784 -0.23862366
-0.12002799 -0.12645434 -0.16738029 0.2497414 -0.07362768 0.19073072 0.07747388 0.13292971
0.041294873 0.19677192 0.21200588 -0.04685758 0.11714816 0.2615749 0.17284358 -0.14050907
-0.06793073 0.119175375 -0.25242043 0.20207271 -0.21550155 0.22794202 -0.007473409 0.13939592
0.26515988 0.23715493 -0.14266653 0.15705058 -0.0614921 -0.21609904 -0.07849166 -0.035775527
0.26055387 0.05622053 -0.243404 0.1513662 0.15654984 -0.1994991 -0.10684064 0.117666036
0.20288023 0.22579387 0.21334529 -0.253447 0.050872684 -0.12836017 0.23473004 -0.08525404
-0.016604513 -0.060842603 0.26069114 0.011303246 0.017946303 -0.13366301 -0.054762408 0.0939669
0.26246986 -0.24036045 0.012554228 -0.24010901 0.22361884 -0.25478563 -0.24630986 0.14911187
-0.14177917 0.23712364 -0.09630714 -0.16299579 -0.2474572 -0.14633983 0.1368941 -0.23331942
-0.22120696 -0.21641675 -0.19795573 0.14109558 0.19161737 -0.21308811 0.21811253 -0.032097086

bias f4 [25]
00000000: 20e6 a43d e8aa 45bd 0821 d6bd 886b 14bd
00000010: 006e 83be c0dc 9c3d 8070 0cbe 5c07 63bd
00000020: b60c 72be 1cf1 7bbe 28c5 b6bd 9437 523e
00000030: 896d 58be e88c b8bc ccba f13d 6ad0 6e3e
00000040: 6aaf 18be dce8 6cbe da63 7e3e d090 c2bc
00000050: fe6b 2dbe bf62 1ebe 0c96 353e c97b 70be
00000060: 6325 883e
0.08051705 -0.048258692 -0.10455519 -0.036235362 -0.2566986 0.07659292 -0.1371479 -0.05542694
-0.23637661 -0.24603695 -0.08924323 0.20529014 -0.21135534 -0.022528127 0.11803207 0.23321691
-0.14910665 -0.23135704 0.24842778 -0.023750693 -0.16935727 -0.15467356 0.1773302 -0.2348472
0.26591024

weight f4 [25, 25]
00000000: 5264 21be 92c1 ed3d e2d7 893d 52a3 0bbe
00000010: 063d 0abe da20 0fbe 7005 d43c a243 16be
00000020: 60ef 22bd e1fb 303e 6760 3b3e 686b 05bd
00000030: 00d2 39bd 7da8 1abe e037 cebd 139e 1dbe
00000040: a589 113e 849c 7d3d 948a 25bd aa52 8f3d
00000050: 8014 3cbe 0927 013e 6845 c43c 5044 0cbe
00000060: 56c5 9b3d af51 033e 601c b93b dc7e 83bd
00000070: 3d53 e2bd 1aae 26be a284 b13d 20e7 debd
00000080: c0a0 0c3b 6c0c 6dbd 3190 433e 3a03 9dbd
00000090: 02fb 843d b02c 34bc 5804 63bd 402e 1cbe
000000a0: 0e73 d73d 57d8 a2bd 4191 353e f0db a8bd
000000b0: aa99 3bbe 9714 ccbd aac3 cd3d 7e3b 983d
000000c0: fbf9 3abe 183f f73c 601e 10bd 2d7f 11be
000000d0: 0cf7 243d 7445 093d b099 5f3c e80b 31bd
000000e0: 2f98 003e 3642 c73d 98e9 943c a861 be3c
000000f0: 8ad2 98bd 725b b23d e1e2 183e 8759 453e
00000100: ccc9 38bd 4a9e 48be bd98 21be 5085 a2bc
00000110: a1fc 493e ea5d ffbd e4ad 783d 03f8 103e
00000120: 50e1 013c 94ad 133d 6a03 84bd f4d5 083d
00000130: 0ab8 eebd 0573 14be c0b5 a53c 8015 c6bc
00000140: be2e 20be f8e1 21bd 2731 d9bd d4b7 0e3d
00000150: c4e5 5d3d 7208 a13d f3e6 0b3e a0dc 963b
00000160: 608e 843b 6351 0b3e b97d 2c3e 1014 9e3c
00000170: 8ba4 25be 12ad 34be 2435 793d 60c0 6bbc
00000180: 804c 7d3b 5016 ff3c 02bb 933d 274a 463e
00000190: 5601 1ebe 0d87 e9bd 78ca 413d 7dbe a9bd
000001a0: 404f b9bd 7548 41be a8bb 31bd e261 d53d
000001b0: 2a1d f03d 8225 2bbe 38b6 483d 9bed 2abe
000001c0: f16a 303e a0db ca3b f9e5 483e 0041 7ebd
000001d0: 1469 2d3d b78d 3bbe f778 b0bd ba60 0fbe
000001e0: 1510 3cbe 007a 9bbc e238 b33d bfe6 253e
000001f0: a46a 773d d46d 8fbd 608e efbd 96dc f53d
00000200: a098 053c c485 783d 5d91 353e cd2d c4bd
00000210: e8b6 e33c 20fc 49be a059 d93b 45e2 41be
00000220: 9f2e 253e 15c3 4b3e a9ae 2f3e 003d 0cbc
00000230: 1f68 173e 8021 adbd 18a9 5cbd 1c53 623d
00000240: 588b 873c 5bf3 17be 2e35 963d 37aa b3bd
00000250: 5748 a0bd f18b 0d3e 645d 81bd ca4d b7bd
00000260: 77e6 acbd 1262 e63d b0ef 2abc 061c bc3d
00000270: 5d62 a8bd 68c5 06be 0a9d fcbd c970 103e
00000280: 4713 2a3e 0f32 3ebe 7a61 d5bd 4a23 95bd
00000290: fdd4 0a3e 3e17 a23d dab1 e2bd a0c4 21bc
000002a0: e033 76bc c2a5 bd3d 22d1 bb3d e1d4 3b3e
000002b0: 90a3 c93c 4a25 edbd 6fc2 063e b027 ae3c
000002c0: 1841 f6bc 2250 11be 13fc edbd 036c 21be
000002d0: 7da0 a0bd ecd5 5dbd 50ac 333c a048 3fbc
000002e0: cc1d 11bd d034 3abc e64f b03d c05d 6dbd
000002f0: b228 c93d 0c5e 71bd cf54 493e 5694 b53d
00000300: 5991 0d3e b9c7 113e 5b7c 24be 59a9 0a3e
00000310: ccc9 4a3d 40e5 eb3c ff4a 1f3e a8a8 42bd
00000320: 1200 fa3d 7dcb c2bd 6a26 c93d ca54 a4bd
00000330: 6c1e 5d3d 91f0 3d3e e0e4 e1bd f024 a1bc
00000340: cab7 0ebe 505c 7d3c 0d2e 01be a3e2 14be
00000350: 7e6f 823d 5b50 33be 30c3 acbc f482 2fbd
00000360: 7b5b 31be 2055 313d 8abc bdbd 7859 3a3d
00000370: b865 25bd a822 e8bc 658c 1d3e a081 0cbd
00000380: 531f 3f3e ebfd 3cbe 3255 e33d bfc9 193e
00000390: 0061 993a e276 c23d 14f1 743d 5a11 e13d
000003a0: d067 bfbc 98e1 6dbd 20bb 5b3c 885f 1bbe
000003b0: 72fb ff3d 8ddf 2cbe f820 133d d26a fd3d
000003c0: 1497 593d c037 73bd 7dd8 3dbe e0c5 523c
000003d0: 90f5 8fbd 5df4 393e 239e 36be 7218 db3d
000003e0: 6c29 6cbd 408c c53c c7aa 3c3e 13e6 c4bd
000003f0: b009 97bd 90dc bcbc b7fa 263e c0c3 bbbc
-0.15760925 0.11609186 0.067306295 -0.1363652 -0.13499841 -0.13977376 0.025881499 -0.14674237
-0.039779067 0.17283584 0.18298493 -0.032573134 -0.045366287 -0.15103336 -0.10069251 -0.15392332
0.14212663 0.061916843 -0.04041536 0.06998189 -0.18367195 0.12612547 0.023958877 -0.13697934
0.07605998 0.12824129 0.0056491345 -0.06420681 -0.11051033 -0.16277352 0.08667876 -0.10883927
0.002145812 -0.057873175 0.19097973 -0.07666631 0.064931884 -0.010996982 -0.055424064 -0.15252018
0.10519992 -0.0795142 0.17731191 -0.08245075 -0.18320337 -0.09964865 0.100470856 0.07433222
-0.18259422 0.030181453 -0.035185218 -0.1420867 0.040274665 0.0335135 0.013647482 -0.043224245
0.12558053 0.097294256 0.018177792 0.023239926 -0.07462032 0.08708848 0.14930297 0.19272433
-0.045114323 -0.19591632 -0.15780921 -0.019838959 0.19725277 -0.124690846 0.06071271 0.14157109
0.007927254 0.03605421 -0.06445964 0.033407167 -0.116561964 -0.14497001 0.020228267 -0.024180174
-0.1564283 -0.03952214 -0.10605078 0.03484328 0.0541742 0.07862939 0.13662319 0.0046039373
0.0040452927 0.13605265 0.16844834 0.019296676 -0.1617605 -0.17644146 0.060841694 -0.0143891275
0.0038650334 0.03113857 0.07213403 0.19364224 -0.15430197 -0.11402712 0.04731223 -0.08288286
-0.09048319 -0.18875296 -0.043391854 0.1041906 0.117243126 -0.16713527 0.049001902 -0.16692202
0.17228295 0.006190732 0.19618978 -0.062073708 0.04233654 -0.18315779 -0.08616822 -0.14001742
-0.1836551 -0.018979073 0.08751084 0.16201304 0.060404435 -0.0700337 -0.11697078 0.12004964
0.008154064 0.060674444 0.17731233 -0.09579048 0.027797177 -0.19725084 0.0066329986 -0.18933971
0.16131066 0.19898637 0.17156471 -0.008559465 0.14785813 -0.08453655 -0.053872198 0.05525504
0.016545936 -0.14838926 0.07334362 -0.087727 -0.07826298 0.13822915 -0.06316641 -0.08950384
-0.08442395 0.11249174 -0.0104331225 0.091850325 -0.08221886 -0.13161242 -0.1233464 0.14105524
0.16608916 -0.18573783 -0.10418983 -0.072821215 0.13557811 0.07914589 -0.11069079 -0.009873539
-0.015027016 0.092601314 0.09170748 0.18342926 0.024614125 -0.11579378 0.13160108 0.021259159
-0.030060336 -0.14190724 -0.11620345 -0.1576386 -0.07843111 -0.05415909 0.0109663755 -0.01167503
-0.035428807 -0.011365131 0.086089894 -0.057950735 0.09822215 -0.05892758 0.19661258 0.088661835
0.13824977 0.14236344 -0.16063063 0.13541164 0.049508855 0.028795838 0.15555952 -0.047524124
0.12207045 -0.095114686 0.0982178 -0.08023985 0.05398409 0.185488 -0.110299826 -0.019670933
-0.13937297 0.015463904 -0.12615223 -0.1453958 0.06368922 -0.17511122 -0.021089166 -0.042849496
-0.17320053 0.043294072 -0.092644766 0.04549548 -0.04038021 -0.028336838 0.15385588 -0.034303308
0.18664293 -0.18456237 0.11100234 0.15018366 0.0011701882 0.09495331 0.059800223 0.10989638
-0.023364931 -0.05807647 0.013411313 -0.15173161 0.12499131 -0.16882153 0.035920113 0.1237389
0.053122595 -0.05937934 -0.18539615 0.01286456 -0.07029259 0.18159623 -0.17833762 0.10698022
-0.05765669 0.024114728 0.18424521 -0.09614196 -0.073748946 -0.023054391 0.16306578 -0.02292049

bias f4 [25]
00000000: 305f 17be 6f3e 253e beeb 0cbe 5827 d83c
00000010: 23f3 3dbe 5d69 0d3e 65b3 39be 3001 fbbc
00000020: 0289 ef3d 00a9 f8bc 0d95 4c3e 52f8 e63d
00000030: 7065 84bd 81d3 443e 9943 103e 3dcb 113e
00000040: e202 00be 20ac 733c 6090 58bc ae1e 843d
00000050: 6afb 20be 7e7d e13d ac9c 143d 9646 b93d
00000060: 703a 803c
-0.14782405 0.16137098 -0.13761804 0.026385948 -0.1854978 0.13809724 -0.1813484 -0.030640215
0.11696054 -0.030354023 0.19978733 0.11277832 -0.0646466 0.19221307 0.14088286 0.14237686
-0.125011 0.014872581 -0.013218015 0.06451164 -0.15720907 0.11010264 0.036282226 0.09046666
0.015652865

weight f4 [25, 25]
00000000: ca13 f6bd da99 8e3d 8009 70bd 7217 c93d
00000010: d1ac 123e 7863 78bd 4241 d03d 32b4 dd3d
00000020: 2f30 39be 607f 58bc 9275 0dbe b054 1dbe
00000030: a760 1d3e 83b7 c9bd 93a2 fbbd f35a edbd
00000040: e460 503d c04a dfbd 286b ddbc d071 3e3c
00000050: ea86 c43d 405d 9abc aec6 ce3d b522 3a3e
00000060: dbcd 29be 0d95 3f3e 9075 05be fd4e 373e
00000070: e230 e63d e8e1 53bd 0803 03bd 9685 d73d
00000080: d7e9 cdbd 7b83 2f3e e870 04bd a069 9bbb
00000090: b5bc 0a3e 70df ddbc e430 513d 698c 2f3e
000000a0: 3034 afbd e01d fcbd b7da efbd 3ee4 f53d
000000b0: 9999 0a3e acff 703d 4771 e5bd e891 d3bc
000000c0: 12ef 903d 1d89 18be ca81 a6bd dbc5 253e
000000d0: a41a 623d 8e6e 2abe a48c 83bd 0b5d 46be
000000e0: a6fa cf3d 6161 2c3e 201a 61bd 208c 6e3c
000000f0: 40e2 53bd 425f 14be 5801 f1bc e9f9 223e
00000100: ea05 adbd 009b af3c b788 ddbd 4ac6 90bd
00000110: 74d5 1f3d d9ee 0c3e a0a9 4abe 89a6 0b3e
00000120: ba85 4bbe c62f ed3d 4ce1 783d c0bf bb3b
00000130: 4ec5 813d 227e eb3d c978 2b3e 9f0b 1f3e
00000140: a8b1 0dbe e869 9ebc e071 293c 0631 d93d
00000150: b101 183e cc1e 5a3d 6280 923d f176 1e3e
00000160: 4a57 81bd 826d e13d a69c ca3d 60a8 593c
00000170: 42bb e63d 60a3 4d3c a827 15be 0acd 02be
00000180: ae4f be3d db8a 2c3e 91bc 113e c6ee 953d
00000190: 282d 3cbe 80a1 76bc aebf a63d 5d8d 44be
000001a0: 5343 28be ec7e 663d 408c e4bc 8aba 93bd
000001b0: aa77 b53d d7f7 2cbe c5d8 2dbe e08a 263c
000001c0: 28d7 1abd a8cf 39be 0822 453d a004 4abe
000001d0: f376 d6bd 4145 453e 503d 653c 6e98 0ebe
000001e0: 03f3 dabd c3f6 b6bd a413 593d be9f 1ebe
000001f0: 00b0 ddba 0038 253c 68b1 83bc ae8d c63d
00000200: 66cb fa3d 4d1c 05be f6c3 83bd 1af5 9ebd
00000210: 10b3 df3c e072 2bbd 4729 f6bd cab0 21be
00000220: f052 f3bc 8866 57bd 4eab 24be 532a 333e
00000230: a81c 053d 60e0 fabd 6567 073e ebed 2dbe
00000240: 41de 453e 7a69 913d 9a12 d83d 600a bebd
00000250: e046 253c cdd5 013e b26e 31be 7a24 923d
00000260: d2d7 df3d b209 a33d 455c 29be 610d 313e
00000270: 3a07 843d c6bb ce3d 366e a03d a0ac 45be
00000280: 8711 b5bd d987 1f3e 5970 3e3e 47c7 d4bd
00000290: 7bc4 453e 93d1 b5bd ca7f a33d 4bfe 283e
000002a0: 80e3 953c eae4 cfbd f08f 913c caa0 d43d
000002b0: e8c3 dabc 467c 09be 73f1 1a3e d7b7 353e
000002c0: 7268 d43d 6472 6b3d d0cd bc3c 4119 1e3e
000002d0: 9342 bebd c870 42be 5f08 4b3e 6416 7b3d
000002e0: 7339 c2bd 749f 2c3d f884 483d 43b5 1dbe
000002f0: 3354 473e c3d1 27be 33dd 063e 5bfe 213e
00000300: 8069 de3a 6695 97bd 4b6c 39be 154c 383e
00000310: 93a9 0ebe a2e2 b13d 9232 f13d 879f bebd
00000320: 84f4 633d 6223 e63d 92b3 fd3d c0e3 58bd
00000330: 9857 64bd cd98 3dbe aab5 b7bd 0228 2bbe
00000340: 0c1d 283d fe5a 06be edde b1bd a043 28bd
00000350: c0f2 cf3b 7457 96bd 2022 64bc faf4 da3d
00000360: ed02 f8bd 587a 0c3d d6bf 14be 0ca9 143d
00000370: ec19 1e3d e47f 5d3d e49a 743d 6a76 bd3d
00000380: 805c 58bd 0897 483d b21a bd3d e1f7 373e
00000390: c6db a43d e2ce 9f3d 8379 063e 43e7 2dbe
000003a0: d299 c63d 1205 d13d b98a 0e3e 9756 4c3e
000003b0: e2a6 44be 1b31 38be 13f6 f6bd 8b37 1bbe
000003c0: 0063 90bd 9daf 053e 1afb 8f3d 92f9 af3d
000003d0: 8332 223e 6089 383d 3ffe 253e 879f e7bd
000003e0: f1e9 1b3e c047 48be e057 2e3c 58ab 8a3c
000003f0: ec11 63bd 79b1 0a3e 55db 44be 06bc 05be
-0.12015493 0.069629386 -0.05860281 0.09818925 0.14323737 -0.060641736 0.10168697 0.10825385
-0.18084787 -0.013213962 -0.13814381 -0.15364337 0.15368901 -0.09849455 -0.12286868 -0.11589613
0.050873652 -0.10902929 -0.027028635 0.011623815 0.09596045 -0.018843293 0.10096489 0.18177302
-0.16582434 0.18709202 -0.13033128 0.17901225 0.112397924 -0.051729113 -0.031985313 0.10523526
-0.10054367 0.1714 -0.03233424 -0.004742816 0.13548549 -0.027084082 0.051072016 0.17143406
-0.08554876 -0.12310386 -0.117116384 0.12006424 0.13535155 0.058837578 -0.112032466 -0.02582641
0.07076849 -0.14896055 -0.08130224 0.16188757 0.055201188 -0.16643736 -0.064233094 -0.1937143
0.10155229 0.16834022 -0.054956555 0.014559776 -0.05172944 -0.14489463 -0.029419586 0.15915646
-0.08448394 0.021436214 -0.10817092 -0.07069071 0.039021924 0.13762988 -0.1979127 0.13637747
-0.19875231 0.11581378 0.060761735 0.0057296455 0.06336461 0.11498667 0.16745295 0.15531777
-0.13837302 -0.01933761 0.010342091 0.106050536 0.14844395 0.053252026 0.07153393 0.1547506
-0.06315477 0.11007215 0.098931596 0.013284773 0.11266185 0.012551159 -0.14565909 -0.12773529
0.092925414 0.16849844 0.14232089 0.07320933 -0.183766 -0.015053153 0.08142029 -0.19194551
-0.16431932 0.056273386 -0.027898908 -0.07213314 0.08860715 -0.16891418 -0.16977222 0.010164946
-0.037802845 -0.18145621 0.048128158 -0.19728327 -0.104719065 0.192647 0.013991669 -0.13925335
-0.10690882 -0.08933785 0.052997246 -0.15490624 -0.0016913414 0.010084152 -0.016075805 0.09694992
0.122458264 -0.12999077 -0.06433861 -0.07761593 0.027307063 -0.0418576 -0.12019592 -0.15790096
-0.029702634 -0.052588016 -0.16080973 0.17496614 0.03249803 -0.122498274 0.13223036 -0.1698529
0.19323064 0.07100196 0.10550423 -0.092793226 0.010087699 0.12679215 -0.17327383 0.071358636
0.10929836 0.079608336 -0.16539104 0.1729026 0.06446691 0.10094409 0.07833521 -0.19304132
-0.08841234 0.15579166 0.18597545 -0.10389572 0.19313233 -0.08877864 0.07983358 0.16503255
0.018296957 -0.10151084 0.01776883 0.103822306 -0.026704744 -0.13426313 0.15131168 0.1774591
0.10371484 0.05748214 0.023047358 0.15439321 -0.09290042 -0.18988335 0.19827412 0.06130065
-0.09483614 0.042144254 0.048954934 -0.15401177 0.19465713 -0.16388611 0.13170318 0.15819685
0.0016968697 -0.07401542 -0.18107717 0.17997773 -0.13931875 0.08685805 0.11777224 -0.09307771
0.05565311 0.112372175 0.12387766 -0.052951574 -0.0557476 -0.1851532 -0.089701965 -0.1671448
0.041043326 -0.13120648 -0.08685098 -0.041080117 0.0063460767 -0.07340899 -0.013924152 0.10691257
-0.12109933 0.034296364 -0.14526305 0.03629403 0.03859894 0.054077044 0.059718028 0.09251101
-0.05282259 0.04897216 0.09233607 0.17965652 0.08049731 0.07803132 0.1313229 -0.1698275
0.09697308 0.10206045 0.13920106 0.19954906 -0.19204286 -0.17987482 -0.12058654 -0.15157907
-0.07050133 0.13055272 0.07030316 0.08592524 0.15839581 0.045052886 0.16210268 -0.11309724
0.1522596 -0.1955862 0.010641068 0.016927406 -0.055437014 0.13544263 -0.19224294 -0.13060006

bias f4 [25]
00000000: 578e a4bd 0740 273e 64d6 623d 1b09 38be
00000010: 24a7 95bd 9280 e03d b047 cfbc 24e3 603d
00000020: c8ec 063d b248 fb3d 6358 eabd 1d6e 3abe
00000030: e81a 3bbd d706 193e cea5 20be c3fc a4bd
00000040: 0ce6 96bd 401a e2bb 17a9 35be e05c aabd
00000050: 194c 2d3e a9b1 473e 1893 b4bc 06c5 963d
00000060: ac3f 10bd
-0.08034962 0.16333018 0.05538024 -0.17972223 -0.0730727 0.10962023 -0.025302738 0.05490412
0.032940656 0.12269725 -0.1144264 -0.18206067 -0.045679957 0.14944015 -0.1568825 -0.08056023
-0.07368097 -0.006900102 -0.17740284 -0.08318496 0.1692356 0.19501366 -0.022042796 0.07361798
-0.035216972

weight f4 [25, 25]
00000000: 04ab 533d b074 7ebc 5cef 723d 1323 9ebd
00000010: 09a5 073e a364 dbbd c23b 2abe 4f39 403e
00000020: ef29 073e cc80 6a3d 3305 483e 6806 5fbd
00000030: 00ae a03c 3a36 863d ba2e c8bd 8598 14be
00000040: fdde cebd 9ceb 4c3d 28cf 883c 6024 31bd
00000050: 8178 013e a32b c3bd 389e 23bd 8069 39bb
00000060: 43e5 2cbe 0b8a 013e db48 39be 1881 a43c
00000070: 67cc 1a3e 2ebf bf3d 66ad dc3d 7798 f8bd
00000080: e0db ddbd 6b5f 123e 7776 273e 2dd4 9bbd
00000090: 43c4 f7bd bb12 353e 2990 423e 4a62 98bd
000000a0: 1283 f63d 6296 b93d b27c c73d a065 cdbd
000000b0: fe35 1abe 2e29 dc3d 5d17 d1bd 191e 233e
000000c0: 7f9a 193e f60f 93bd 88eb 1dbe 7ca4 633d
000000d0: 3a89 e53d 1ab3 27be f1ed 113e 742f 3abd
000000e0: 6e88 28be 5aac 983d 22e6 ca3d da09 28be
000000f0: 607a 5ebc b0b9 38bc 5402 373d c068 1abb
00000100: 826e dd3d c2b8 aa3d 2283 903d 0d8d a5bd
00000110: 0333 d0bd 7d31 a6bd 608b 27bd fa60 20be
00000120: f792 173e c613 1abe e234 f13d 022a e93d
00000130: 01ac 203e 9024 bfbd 6e2b ec3d d289 f83d
00000140: 1222 803d 42f5 e43d 68b6 53bd 9922 083e
00000150: 6649 18be c627 d23d b739 3dbe 19c1 363e
00000160: ea0e ebbd 2d96 d4bd a888 f03c cc96 7cbd
00000170: 872c 1a3e 63b0 4b3e 1ccb 573d 30c8 443c
00000180: 4e24 f43d 9d2f 473e 633b 4c3e b21f 963d
00000190: da9f 823d 5827 42be 0047 9f3b 2c7e 763d
000001a0: f396 b1bd 6cb2 563d b0e8 c1bc 6360 1c3e
000001b0: 5833 0dbd 4065 1abb 9022 883c 11fa 013e
000001c0: 3d8f 47be 006f b6ba 3fa9 43be 973d 233e
000001d0: d2aa cf3d 88f6 43be 80d6 2fbb d860 853c
000001e0: 10a5 dabc 383f 363d e211 e23d 9286 eb3d
000001f0: 2181 013e 0bbf 473e 13b6 b8bd 6878 97bc
00000200: 8404 613d 6855 123d 97b6 9ebd 8268 ad3d
00000210: bf5f 2f3e 2855 85bc c09d fcbc f0f3 febd
00000220: c6af 953d b3cd 2fbe 2b15 1c3e aca3 613d
00000230: ad42 30be fa24 c83d 3159 2d3e 4dae 05be
00000240: 0dba 013e 641e 623d fe4b 1fbe 9030 87bd
00000250: 004c 98b9 f04e a6bd 4739 d8bd c2e9 fe3d
00000260: e460 7e3d 59b4 063e 93d2 3a3e 40f0 b7bd
00000270: 6002 4fbd 1914 363e e8d6 06bd 1b76 4abe
00000280: aa5d a63d 3386 2c3e e7ce 32be c1e0 223e
00000290: c09d edbb e524 20be 5a63 cabd d25a 12be
000002a0: 7d1b c6bd 46da 8ebd f6a2 843d 57b1 333e
000002b0: e8fd b43c 75aa 0e3e 5864 c5bc 850b 223e
000002c0: 02f4 fc3d 20b0 6ebc fd2b a7bd 6b21 033e
000002d0: c5fc 183e c20c 30be e027 333d 340b 6b3d
000002e0: aa71 fdbd b42b 2fbd 6f2a 46be a1a3 493e
000002f0: 6e07 c83d 46d5 b63d 00d7 e2bd 719f 3d3e
00000300: 6b61 2f3e 1ef8 2abe 6443 623d f730 debd
00000310: a264 1abe f423 093d fb73 013e aaea e03d
00000320: b14f 213e 32b7 f13d 4e01 f23d 6f17 1c3e
00000330: d0be 72bc 146e 79bd 9581 48be 40b2 47bd
00000340: 77cb d3bd 548b 4fbd 0c87 1c3d 2260 893d
00000350: 8bb3 373e 903a 45be dab3 f13d 80be 14bc
00000360: 74df 8fbd f4fc 77bd 8a85 37be e0b9 1ebd
00000370: ac89 1abd 081d 45bd 684d 5fbd 58fa 12bd
00000380: 224b 9e3d 6256 16be d66e 13be fa17 fc3d
00000390: 0257 bc3d f0cb fe3c 81d6 3a3e 053e 2cbe
000003a0: 34d6 0abe e02e 2cbc 30e6 ea3c 155f 42be
000003b0: 24e2 733d b7e4 34be 6969 4c3e 01f0 453e
000003c0: 1cd2 8ebd 4d02 bbbd f07c f2bc 9e24 9f3d
000003d0: 70d4 b4bd ecae 49bd cb8b 243e 8014 0abd
000003e0: 0eb8 b53d b89e 08be 8869 1cbd ea75 9b3d
000003f0: 6cdc 52bd 335b 38be 807a 2ebe 5309 343e
0.051676765 -0.01553075 0.059310302 -0.077215336 0.1324655 -0.10712554 -0.16624358 0.18771861
0.1319959 0.057251737 0.19533233 -0.05444947 0.01961422 0.06553312 -0.097745374 -0.14511307
-0.101011254 0.050029382 0.016700342 -0.04324758 0.12643625 -0.095298074 -0.03994581 -0.0028291643
-0.16884331 0.12650315 -0.18094198 0.020081088 0.15117036 0.093626365 0.107752606 -0.12138455
-0.108329535 0.14294212 0.16353785 -0.07608829 -0.12097981 0.17682926 0.19000305 -0.07440622
0.120367184 0.09061886 0.097405806 -0.10029149 -0.15059659 0.10750042 -0.10209534 0.1592945
0.15000342 -0.07180779 -0.1542188 0.055576786 0.112078145 -0.16376916 0.14250924 -0.04545541
-0.16458294 0.074547485 0.099071756 -0.16410008 -0.013578981 -0.01127474 0.044679955 -0.002356097
0.10812093 0.08336021 0.070562616 -0.08083544 -0.1016598 -0.08114908 -0.040904403 -0.15661994
0.14802156 -0.15046605 0.11777665 0.113849655 0.15690614 -0.093331456 0.11531721 0.12135662
0.062564984 0.11179592 -0.051687628 0.13294448 -0.1487175 0.102614924 -0.18479048 0.17847098
-0.11477454 -0.10380206 0.029362038 -0.06166725 0.15056048 0.19891505 0.052683935 0.012010619
0.11920987 0.19451757 0.19944529 0.07330264 0.063781455 -0.18960321 0.004860759 0.06017892
-0.086713694 0.05241625 -0.023670524 0.15271144 -0.034472793 -0.0023558885 0.016618043 0.12693049
-0.19488235 -0.0013918579 -0.19107531 0.15941463 0.10140003 -0.19137013 -0.0026830733 0.01628153
-0.026690036 0.044493884 0.11038567 0.115002766 0.12646915 0.19506471 -0.09019103 -0.018490031
0.054935947 0.03572598 -0.0774967 0.08467199 0.17126368 -0.016275957 -0.03083694 -0.12448871
0.07308917 -0.17168312 0.1524245 0.05508773 -0.17212935 0.09772678 0.16928555 -0.13054772
0.12668629 0.055204764 -0.15556332 -0.066010594 -0.00029048324 -0.08120525 -0.105578 0.124469295
0.06210412 0.13154735 0.1824439 -0.08981371 -0.050539374 0.17781104 -0.032919794 -0.19771616
0.08123334 0.16848068 -0.1746174 0.1590605 -0.0072514713 -0.15639074 -0.09882231 -0.14292458
-0.09673212 -0.06975226 0.06476395 0.17548119 0.022093728 0.13932212 -0.0240957 0.15824707
0.12351228 -0.014568359 -0.08162687 0.12805717 0.14940174 -0.17192367 0.0437392 0.05738373
-0.12375195 -0.042766288 -0.19352125 0.19691326 0.09767042 0.089273974 -0.11076164 0.18517853
0.17127006 -0.16696212 0.05524005 -0.10849183 -0.15077451 0.033481553 0.126419 0.109822586
0.15753056 0.1180252 0.11816655 0.15243314 -0.014816001 -0.060895994 -0.19580682 -0.048753977
-0.10341542 -0.050669983 0.03821473 0.06707789 0.17939584 -0.19260621 0.11801882 -0.009078622
-0.07025042 -0.06054397 -0.17922035 -0.038751483 -0.03772895 -0.04812339 -0.05451718 -0.035883278
0.07729174 -0.1468139 -0.1439775 0.12309261 0.09196283 0.031103104 0.18245889 -0.16820534
-0.13558275 -0.010509223 0.028674215 -0.18981583 0.059541836 -0.17665373 0.19962086 0.19329835
-0.06973669 -0.09131298 -0.02960059 0.07770656 -0.08829582 -0.049239084 0.16068952 -0.033710957
0.08872996 -0.13341796 -0.03818658 0.0759085 -0.051479742 -0.1800354 -0.17038918 0.17581682

bias f4 [25]
00000000: 0791 463e f1d8 3f3e 4923 313e 77a1 453e
00000010: 34cc 4c3d 7fe8 223e 1003 de3c c03f d7bb
00000020: e580 1c3e 9891 bb3c 27d8 cbbd 00e5 acbb
00000030: e1cb 1d3e 7c52 91bd 80fd 76bc 284d e03c
00000040: c3e7 163e b0a2 7bbc 80c9 61bc 3a7f ea3d
00000050: aaaa f63d 9896 15be f460 463d 631e 11be
00000060: 41ca 013e
0.19391261 0.187351 0.17298616 0.19299875 0.04999943 0.15909003 0.02710107 -0.006568879
0.15283544 0.022896573 -0.09953337 -0.0052763224 0.15409805 -0.07095811 -0.015075088 0.027380541
0.14736848 -0.015358612 -0.0137809515 0.11450048 0.1204427 -0.14608228 0.048432305 -0.14171748
0.1267481

weight f4 [4, 25]
00000000: c063 dfbb 8c96 95bd 50e9 dcbd c077 64bd
00000010: 971f c4bd 3074 debd a5b6 073e 25d0 363e
00000020: b61e ff3d a8e9 edbc 6572 3abe be04 843d
00000030: d3f8 fabd d00d 57bc 9a65 b83d 231a 29be
00000040: 1898 3fbd 8871 47bd 23d0 b6bd 5e40 1abe
00000050: 9048 d23c a015 8abb cc59 643d 6304 19be
00000060: 4a3b 08be 8416 713d 782b 233d c666 993d
00000070: 8075 293d 8002 9b3a 0261 cd3d 3488 263d
00000080: 9a5f 34be 1589 33be 8a2e 40be cec9 b33d
00000090: 742b 303d b0a2 08be 1fb5 45be e313 083e
000000a0: a0df 97bb 5da7 20be f432 85bd da66 bc3d
000000b0: cda5 f3bd aa61 df3d 98be 9d3c 2af1 ec3d
000000c0: 92a1 3ebe d3a9 ccbd 7aef a7bd 3fad 423e
000000d0: 63ce 14be 3766 033e 1b5d 34be d03f f8bc
000000e0: 21b8 373e 607b f8bb b8cf 34be 0e2d 03be
000000f0: 3e3f fc3d 1452 0ebd e108 033e 311a 033e
00000100: 7248 29be 5e1d a73d ff3a 3bbe fb58 3ebe
00000110: c1b9 103e 00ac f63b b046 a63c 8dce 19be
00000120: 7af3 dbbd 0c1c 2c3d 71c4 4a3e 81a7 0f3e
00000130: c350 ffbd e4c1 80bd 2c75 133d de20 b73d
00000140: d8a8 56bd 12c3 35be 3dea 05be f4f5 5abd
00000150: 6078 edbd 3c98 6f3d 5476 5d3d 74da 663d
00000160: 9d0a 2d3e c9c3 453e fdeb 19be 192a 203e
00000170: fe94 c93d 3acc 813d 617a 3c3e e363 4b3e
00000180: 20b7 24be d2c9 ad3d 681f 203d d0d7 3f3c
-0.006817311 -0.07304105 -0.10786688 -0.055778265 -0.09576338 -0.10862005 0.13253267 0.17852838
0.124570295 -0.02904208 -0.182077 0.06446217 -0.12254491 -0.013125852 0.09003754 -0.16513877
-0.046775907 -0.048692256 -0.08926418 -0.15063617 0.025669366 -0.0042140037 0.0557497 -0.1494308
-0.13303867 0.058859363 0.039836377 0.074903056 0.041371822 0.0011826307 0.100282684 0.040657237
-0.17614594 -0.17532761 -0.18767753 0.087787256 0.04301019 -0.1334331 -0.19307373 0.13288836
-0.0046348125 -0.15688844 -0.06503859 0.09199305 -0.11896858 0.109073 0.019255921 0.11569436
-0.18616322 -0.09993329 -0.081999734 0.190114 -0.14531855 0.1283196 -0.17613642 -0.030303866
0.17941333 -0.007583067 -0.17657363 -0.12810156 0.1231675 -0.034746245 0.12796356 0.1280296
-0.16531542 0.08159898 -0.18284224 -0.18588631 0.1413336 0.007527828 0.020297378 -0.15020199
-0.10739799 0.042018935 0.19801499 0.14028741 -0.12466576 -0.06286982 0.036000416 0.08941816
-0.052407116 -0.17750195 -0.13077636 -0.053457215 -0.11595225 0.05849479 0.054067925 0.056360677
0.1689858 0.19312967 -0.15031429 0.15641059 0.09842871 0.06337781 0.18406059 0.19862323
-0.16085482 0.0848576 0.03909245 0.011709169

bias f4 [4]
00000000: 2a53 8c3d 573b 033e 89b1 4b3e 08d6 22be
0.068518 0.12815605 0.19891943 -0.15901959
