models/_brain_247.pt (torch, 14593 bytes, 12 tensors)

weight f4 [14]
1.0 1.0 1.0 1.0 1.0 1.0 1.0 1.0
1.0 1.0 1.0 1.0 1.0 1.0
00000000: 0000 803f 0000 803f 0000 803f 0000 803f
00000010: 0000 803f 0000 803f 0000 803f 0000 803f
00000020: 0000 803f 0000 803f 0000 803f 0000 803f
00000030: 0000 803f 0000 803f

bias f4 [14]
0.0 0.0 0.0 0.0 0.0 0.0 0.0 0.0
0.0 0.0 0.0 0.0 0.0 0.0
00000000: 0000 0000 0000 0000 0000 0000 0000 0000
00000010: 0000 0000 0000 0000 0000 0000 0000 0000
00000020: 0000 0000 0000 0000 0000 0000 0000 0000
00000030: 0000 0000 0000 0000

weight f4 [25, 14]
-0.061412647 -0.19279127 -0.10667975 -0.22259861 0.14368606 -0.14660262 0.0771718 0.13927257
0.10649729 -0.22929025 0.12470043 -0.2661677 0.20698896 -0.1197744 0.10427612 0.007699907
-0.042149305 0.1998682 -0.15315807 -0.07411364 -0.021670833 -0.17024156 -0.22857976 0.16259691
0.12366906 0.11476722 -0.15748565 -0.25212643 0.17929375 -0.024325415 0.07652357 -0.021577418
0.11177459 -0.19946645 0.20457035 0.060916364 -0.12395279 0.24684706 0.014643252 -0.17955461
0.06625959 0.070004344 0.26390603 -0.12597594 -0.028418154 -0.10403457 0.02117607 -0.043231726
0.16939396 -0.22001591 0.18841082 0.13509563 -0.16570158 -0.00034812093 0.1369468 0.25253794
0.23423341 -0.15967736 -0.18742283 -0.19716454 -0.26640353 0.0984548 0.12076053 -0.08362788
-0.18128805 0.15939632 -0.013242573 -0.15000877 -0.23110588 -0.17525896 0.07867184 0.25857982
-0.10137795 0.1925148 0.17434657 -0.18627834 0.09997228 -0.044517085 0.24662575 -0.25587538
-0.10576463 0.10430139 0.04065922 -0.17447594 0.1574083 0.10479215 -0.03185846 0.001136601
0.065353334 0.123007 -0.16914183 0.15565604 -0.14722621 0.15087724 -0.24675561 0.037941605
-0.22447348 0.21283454 0.021843463 0.102053165 0.20406553 0.04540968 0.19011289 -0.024859011
0.24097016 0.05670625 -0.011752695 0.23168367 -0.046268657 0.018988281 -0.11871484 -0.011611313
-0.21883847 -0.21752991 0.15107653 -0.008174568 0.14585647 -0.18615517 0.03597781 -0.07342027
0.010630488 0.24887899 0.0881241 -0.17712815 -0.04206562 -0.25650996 -0.021699995 -0.24101037
0.0789991 -0.07144177 -0.057320997 -0.05591555 -0.14693084 -0.07838324 0.03826344 0.114810914
0.07605526 -0.24502937 0.15855882 -0.057037503 0.17858335 0.03234771 -0.17032433 -0.23734187
-0.052210063 0.14441395 0.23948446 -0.13634609 -0.19201386 0.08073568 -0.24156617 0.1568858
-0.049765542 0.016356587 -0.25318432 0.21878484 0.080525994 0.10510659 0.098531246 -0.25089484
-0.1341298 -0.028008267 -0.23360932 0.21836615 -0.14768994 -0.009640306 0.037024587 -0.1512114
-0.0037926733 -0.09650378 -0.25403345 0.03581208 0.15531838 0.1778385 -0.11058572 -0.010311633
0.21529567 -0.08145684 -0.2617308 0.014969617 -0.12848501 0.21682984 0.08401096 0.074608
0.13699028 -0.060865253 -0.013262689 -0.21127221 -0.073554054 -0.013718456 0.10531336 0.05731073
-0.06323446 -0.055768162 0.18677354 0.09117249 0.16424286 0.028743833 -0.16302311 0.15824974
0.20548746 0.17371324 -0.16716842 -0.060736105 -0.07681939 0.043881297 -0.22851624 -0.0021927059
0.09696627 0.22522914 -0.18136092 -0.16595894 -0.116008654 -0.1407463 -0.081447884 0.24521354
-0.20482773 0.12878957 0.1962651 -0.064993516 -0.18700689 0.21539506 0.1558544 0.21776602
-0.14873177 -0.24611796 0.2605671 0.17696202 0.14004472 -0.25340867 0.17039561 0.100277245
0.24936536 -0.10300782 0.0008215308 -0.2534581 -0.019456178 0.10712084 -0.22687459 0.19551793
0.15304187 -0.0049136877 0.06821874 0.036489815 0.258697 -0.2614474 -0.16941194 0.12388906
-0.0425366 -0.19636437 -0.058581024 0.05684012 0.22136354 -0.028291315 -0.016154349 -0.1439037
00000000: d48b 7bbd 136b 45be ea7a dabd e4f0 63be
00000010: 7022 133e ff1e 16be 400c 9e3d 789d 0e3e
00000020: 401b da3d 10cb 6abe f062 ff3d 2247 88be
00000030: eaf4 533e 484c f5bd b88e d53d 804f fc3b
00000040: c0a4 2cbd 40aa 4c3e 78d5 1cbe e4c8 97bd
00000050: 0887 b1bc ce53 2ebe d010 6abe ce7f 263e
00000060: 3446 fd3d 140b eb3d eb43 21be b716 81be
00000070: c898 373e 1846 c7bc 64b8 9c3d 20c3 b0bc
00000080: 14ea e43d ef40 4cbe e47a 513e 7083 793d
00000090: f6da fdbd 7ac5 7c3e 40ea 6f3c 2add 37be
000000a0: 1cb3 873d 705e 8f3d b11e 873e d6ff 00be
000000b0: 30cd e8bc 1410 d5bd 7079 ad3c c013 31bd
000000c0: 9c75 2d3e da4b 61be c4ee 403e 8256 0a3e
000000d0: adad 29be 0084 b6b9 c83b 0c3e a74c 813e
000000e0: e2da 6f3e 7682 23be c5eb 3fbe 80e5 49be
000000f0: 0b66 88be aca2 c93d 4c51 f73d 1845 abbd
00000100: 93a3 39be ca38 233e 60f7 58bc e69b 19be
00000110: 05a7 6cbe 1677 33be b41e a13d 9364 843e
00000120: 3e9f cfbd 9a22 453e e887 323e c0bf 3ebe
00000130: 44be cc3d 8c57 36bd 768b 7c3e 1902 83be
00000140: 209b d8bd f89b d53d 488a 263d d2a9 32be
00000150: a42f 213e 449d d63d 047e 02bd 00fa 943a
00000160: f8d7 853d 18eb fb3d 8433 2dbe 4c64 1f3e
00000170: 78c2 16be 907f 1a3e 81ad 7cbe a868 1b3d
00000180: 60dc 65be 4cf1 593e 10f1 b23c 4001 d13d
00000190: 8ef6 503e 80ff 393d f4ac 423e 20a5 cbbc
000001a0: e2c0 763e d044 683d 608e 40bc 7c3e 6d3e
000001b0: 3484 3dbd 508d 9b3c c420 f3bd 603d 3ebc
000001c0: 3117 60be 29c0 5ebe ceb3 1a3e a0ee 05bc
000001d0: 665b 153e 769f 3ebe 785d 133d 5e5d 96bd
000001e0: 802b 2e3c 22da 7e3e 687a b43d 1561 35be
000001f0: 004d 2cbd 4655 83be 30c4 b1bc 6ccb 76be
00000200: 48ca a13d 1050 92bd 6cc9 6abd b407 65bd
00000210: 0a75 16be 6487 a0bd 20ba 1c3d fc21 eb3d
00000220: dcc2 9b3d fbe8 7abe 3e5d 223e 28a0 69bd
00000230: 8ede 363e 087f 043d 8069 2ebe bf09 73be
00000240: 38da 55bd 40e1 133e 6a3b 753e 4f9e 0bbe
00000250: 489f 44be c058 a53d 1f5d 77be aca6 203e
00000260: f4d6 4bbd 40fe 853c 60a1 81be 2209 603e
00000270: d0ea a43d 2042 d73d c0ca c93d 4a75 80be
00000280: 5359 09be 9871 e5bc 4837 6fbe 609b 5f3e
00000290: 083c 17be 60f2 1dbc 18a7 173d 29d7 1abe
000002a0: 808e 78bb c6a3 c5bd ac10 82be b0af 123d
000002b0: c80b 1f3e 4c1b 363e c47a e2bd 20f2 28bc
000002c0: 7876 5c3e d8d2 a6bd 9401 86be 2043 753c
000002d0: 9391 03be a408 5e3e f00d ac3d 14cc 983d
000002e0: 2e47 0c3e d84d 79bd c04b 59bc be57 58be
000002f0: 82a3 96bd 60c3 60bc 88ae d73d a8be 6a3d
00000300: 1281 81bd 286d 64bd 9041 3f3e a4b8 ba3d
00000310: 482f 283e 3078 eb3c 88ef 26be 380c 223e
00000320: 4e6b 523e e2e1 313e 332e 2bbe 6cc6 78bd
00000330: 7c53 9dbd e0bc 333d 2900 6abe 80b3 0fbb
00000340: 4096 c63d 78a2 663e adb6 39be 24f1 29be
00000350: f295 edbd cc1f 10be 26ce a6bd 4219 7b3e
00000360: 5cbe 51be 6ae1 033e b8f9 483e 521b 85bd
00000370: bc7e 3fbe 8690 5c3e 4c98 1f3e 0efe 5e3e
00000380: 244d 18be 5906 7cbe 0d69 853e 8835 353e
00000390: e267 0f3e c8be 81be 307c 2e3e 285e cd3d
000003a0: a259 7f3e c4f5 d2bd 005c 573a 43c5 81be
000003b0: 9062 9fbc 2c62 db3d d051 68be da35 483e
000003c0: 02b7 1c3e 0003 a1bb 44b6 8b3d 5876 153d
000003d0: ef73 843e 6fdc 85be 537a 2dbe 8cb9 fd3d
000003e0: dc3a 2ebd be13 49be a8f2 6fbd 30d1 683d
000003f0: 20ad 623e 30c3 e7bc 2056 84bc 7e5b 13be

bias f4 [25]
0.16993901 0.04104203 -0.09329426 0.107207805 -0.19888538 0.12981716 0.12415746 -0.018079251
0.115189165 -0.1098575 0.01216045 0.20649004 -0.18648471 -0.17313662 -0.080056936 -0.25186515
-0.087296784 0.09245908 -0.1397762 -0.17079848 -0.11423528 0.107783645 0.037331343 0.26601312
-0.20311806
00000000: 7e04 2e3e b01b 283d 1011 bfbd c48f db3d
00000010: 9ca8 4bbe caee 043e 4446 fe3d f01a 94bc
00000020: 4ce8 eb3d f8fc e0bd a03c 473c 2072 533e
00000030: d9f5 3ebe ba4a 31be e4f4 a3bd 78f4 80be
00000040: a8c8 b2bd 305b bd3d 7e21 0fbe cce5 2ebe
00000050: 30f4 e9bd acbd dc3d c0e8 183d df32 883e
00000060: 2efe 4fbe

weight f4 [25, 25]
-0.06820062 -0.030239195 0.030042648 0.09130894 0.049230173 -0.0012396574 -0.14036448 0.07037003
0.194371 0.10206701 0.08511348 -0.13822834 -0.0312905 -0.09568274 -0.019565389 -0.059747607
0.19461347 0.16898645 0.11606075 0.16219361 0.08129193 -0.00659962 0.1440052 0.0033111274
0.16883565 -0.032614738 -0.11269014 0.10023548 0.09891911 -0.052840114 0.110689506 -0.07212861
-0.12451339 0.08671312 0.05187778 0.013511658 0.16597684 -0.18262497 -0.1770715 -0.028714582
-0.1532583 -0.18804288 -0.16991666 -0.014012739 0.015603155 0.086605385 -0.055777714 -0.024678186
0.14879356 -0.13491364 0.03224261 0.18493985 0.16081609 0.038236663 -0.15655808 0.16950722
0.10707764 0.18940143 -0.100987844 0.04251635 0.016890839 0.1477486 0.15607174 -0.05554764
0.16409232 0.18206526 -0.05458787 0.016920641 0.024117231 -0.18109499 -0.15845844 0.17382114
-0.05877404 0.015856907 0.09703614 -0.18852332 -0.05275464 -0.14402759 0.02370283 -0.1393315
-0.049738914 0.18653826 0.12141393 0.08669688 0.19288824 0.15502043 -0.12428317 0.18709387
0.16453715 -0.06618717 0.09477909 -0.113447644 -0.10517297 0.0047961175 0.19866739 -0.08007908
0.021271914 -0.032422498 0.09834321 -0.004604742 0.0958478 -0.053569272 -0.04503365 0.039533705
0.13986517 0.09023042 0.14004557 -0.06490457 0.107939914 -0.15869126 -0.00886853 -0.105190136
0.18747856 -0.16785917 -0.11123085 0.038112447 0.13343306 0.018006802 -0.19105418 0.14291377
0.06480385 0.13638015 -0.17091809 0.0033454 -0.027405098 -0.16949998 -0.00012893975 0.069546714
0.10627462 0.16219948 0.15274005 0.046712086 0.009127334 0.09635164 0.12403701 0.16157378
-0.13604003 -0.07192476 0.06248288 -0.057112142 0.008423328 -0.038548738 0.14738192 0.16931914
-0.025532275 -0.11916969 0.062425718 -0.1491605 -0.1931793 0.16777016 -0.06960276 -0.006747395
0.10353629 0.13606055 0.1442254 0.14752711 -0.09576988 0.12755628 -0.19697033 0.19401692
0.19690533 0.11553307 -0.08431921 -0.074062824 -0.18416531 -0.013635516 -0.08466949 -0.1284535
-0.07095535 -0.05040291 0.103325024 0.12840305 -0.08379853 0.10788496 0.06753953 -0.017387077
-0.16103074 -0.1995502 0.07581653 0.16272391 0.034335524 -0.15433416 0.16750516 -0.09668098
0.046485335 0.11033578 0.17265116 -0.19113901 -0.12327462 -0.05989106 0.09133412 -0.10985201
-0.07914221 0.18622752 0.0030107796 -0.012917757 0.074327365 -0.14425531 0.14697896 -0.13258167
0.05323951 0.10613383 0.04031925 0.03984061 0.10933171 0.011917278 0.15078615 -0.19409597
-0.15513182 0.14467199 -0.07521229 -0.041929513 0.017660946 0.098979846 0.11839838 -0.16002664
0.07388486 -0.1643033 -0.09784856 -0.15198648 -0.004957348 -0.077746294 -0.049538136 -0.09471641
0.05249138 0.1313519 -0.09495635 0.13028066 -0.19266208 -0.03360267 0.037933737 -0.106408976
0.19794656 0.11651228 -0.18568401 0.098810986 -0.101556376 0.092471495 0.13229351 0.10051118
-0.13827005 -0.114491604 -0.11932261 -0.19392608 -0.1627702 -0.0088110715 -0.12664731 -0.19348669
0.06566836 -0.16238372 -0.1434215 -0.16025674 0.074270085 0.16464116 0.15762796 0.051331356
00000000: c4ac 8bbd 30b8 f7bc 001c f63c 2e00 bb3d
00000010: 94a5 493d 007c a2ba b5bb 0fbe 2a1e 903d
00000020: 3109 473e 8208 d13d fa4f ae3d bb8b 0dbe
00000030: 782a 00bd 50f5 c3bd 9847 a0bc e8b9 74bd
00000040: c148 473e c90a 2d3e 42b1 ed3d 1516 263e
00000050: 627c a63d a041 d8bb 1976 133e 80ff 583b
00000060: 41e3 2c3e 0897 05bd 17ca e6bd 4248 cd3d
00000070: 1a96 ca3d e06e 58bd 2eb1 e23d 2ab8 93bd
00000080: e000 ffbd a696 b13d cc7d 543d 0060 5d3c
00000090: d5f5 293e 0a02 3bbe 3b52 35be d83a ebbc
000000a0: beef 1cbe 508e 40be a2fe 2dbe b095 65bc
000000b0: 60a4 7f3c 2a5e b13d 2c77 64bd e829 cabc
000000c0: 575d 183e cd26 0abe d410 043d df60 3d3e
000000d0: f9ac 243e 0c9e 1c3d c350 20be 4d93 2d3e
000000e0: 864b db3d 73f2 413e b7d2 cebd a025 2e3d
000000f0: a85e 8a3c 694b 173e 45d1 1f3e ec85 63bd
00000100: d107 283e 516f 3a3e 8897 5fbd 289d 8a3c
00000110: 8091 c53c f770 39be ee42 22be 2bfe 313e
00000120: 0cbd 70bd 58e6 813c e2ba c63d 420c 41be
00000130: 4015 58bd f87b 13be 702c c23c ebac 0ebe
00000140: 08bb 4bbd e303 3f3e dea7 f83d 228e b13d
00000150: 7f84 453e adbd 1e3e 2d88 febd 8995 3f3e
00000160: 6d7c 283e 248d 87bd 8a1b c23d 3d57 e8bd
00000170: ed64 d7bd c028 9d3b 776f 4b3e 8000 a4bd
00000180: 7042 ae3c 74cd 04bd 2a68 c93d 60e3 96bb
00000190: da4b c43d 746b 5bbd 3475 38bd 18ee 213d
000001a0: d138 0f3e baca b83d 1b68 0f3e b0ec 84bd
000001b0: 9a0f dd3d f67f 22be 504d 11bc ed6d d7bd
000001c0: 61fa 3f3e 46e3 2bbe 00cd e3bd cc1b 1c3d
000001d0: ada2 083e 0083 933c b5a3 43be fd57 123e
000001e0: e2b7 843d 3da7 0b3e 2705 2fbe 803e 5b3b
000001f0: a880 e0bc 6791 2dbe 0034 07b9 826e 8e3d
00000200: 82a6 d93d 9f17 263e e367 1c3e 2c55 3f3d
00000210: d08a 153c 0254 c53d 1e07 fe3d 9973 253e
00000220: 144e 0bbe 4a4d 93bd 0cee 7f3d 6cee 69bd
00000230: 0002 0a3c 48e5 1dbd 49eb 163e ff61 2d3e
00000240: 1029 d1bc 3d0f f4bd 1cb2 7f3d 88bd 18be
00000250: cbd0 45be f1cb 2b3e e48b 8ebd 4019 ddbb
00000260: d60a d43d 7553 0b3e d3af 133e 5911 173e
00000270: 0023 c4bd 1d9e 023e 97b2 49be 5fac 463e
00000280: 8da1 493e 9a9c ec3d 8daf acbd 40ae 97bd
00000290: d595 3cbe 8067 5fbc 3367 adbd 5089 03be
000002a0: 0a51 91bd 4873 4ebd 129c d33d 177c 033e
000002b0: 909e abbd caf2 dc3d 2a52 8a3d 586f 8ebc
000002c0: 3ee5 24be e356 4cbe b245 9b3d 19a1 263e
000002d0: 68a3 0c3d c609 1ebe 7986 2b3e ad00 c6bd
000002e0: 6867 3e3d baf7 e13d 77cb 303e f2b9 43be
000002f0: 6777 fcbd 5450 75bd 620d bb3d 17fa e0bd
00000300: 5015 a2bd 6db2 3e3e 8050 453b 00a5 53bc
00000310: f238 983d aab7 13be a781 163e 7dc3 07be
00000320: ac11 5a3d b25c d93d cc25 253d e82f 233d
00000330: 4ee9 df3d b040 433c af67 1a3e 18c1 46be
00000340: e0da 1ebe e524 143e e708 9abd 48be 2bbd
00000350: b0ad 903c f2b5 ca3d da7a f23d 06de 23be
00000360: f250 973d 203f 28be d364 c8bd 58a2 1bbe
00000370: 4071 a2bb 7339 9fbd 80e8 4abd adfa c1bd
00000380: 3401 573d 1d81 063e 7a78 c2bd 4b68 053e
00000390: 3549 45be f4a2 09bd 6860 1b3d f3ec d9bd
000003a0: 81b2 4a3e fe9d ee3d f323 3ebe 6a5d ca3d
000003b0: cafc cfbd b261 bd3d f377 073e ced8 cd3d
000003c0: aa96 0dbe 937a eabd 6a5f f4bd 8f94 46be
000003d0: 3bad 26be 505c 10bc d5af 01be 6021 46be
000003e0: 227d 863d eb47 26be 16dd 12be 581a 24be
000003f0: ea1a 983d b197 283e 3969 213e d440 523d

bias f4 [25]
0.014012188 0.059706643 0.07991673 0.04069504 0.004831597 0.030427381 0.0066483766 -0.18664418
0.09670605 -0.06606385 0.03123045 -0.10449555 0.0030287504 -0.1425449 0.045055747 -0.18122895
0.04235944 -0.13001484 -0.06693764 0.009736031 -0.103098825 0.009918764 0.13822116 -0.14098923
-0.18394391
00000000: 6093 653c f48e 743d 62ab a33d d8af 263d
00000010: 6052 9e3b d842 f93c a0da d93b a71f 3fbe
00000020: d20d c63d 7c4c 87bd 00d7 ff3c c301 d6bd
00000030: 007e 463b 4af7 11be 608c 383d 1594 39be
00000040: 1881 2d3d 9c22 05be 9a16 89bd e083 1f3c
00000050: 7a25 d3bd 5082 223c d989 0d3e 7b5f 10be
00000060: cb5b 3cbe

weight f4 [25, 25]
-0.009231731 -0.08147724 0.012443066 -0.08105037 -0.108954094 0.10664286 0.19203843 0.14224984
-0.064818025 0.08007832 0.100927696 -0.007570833 -0.064643815 0.17828207 -0.1753631 -0.16767772
0.10488643 0.08171822 -0.15578198 0.14629789 0.08797558 -0.02668038 -0.05050996 0.18168916
-0.058254525 0.17282532 0.15523241 0.12010802 -0.027020484 -0.06203726 -0.039495036 -0.08742743
0.1120605 -0.08985641 -0.010243326 0.0702077 -0.012150019 -0.13442531 -0.14491665 -0.12459233
-0.049604326 -0.08087068 -0.055155665 0.01473324 0.15704109 -0.075512625 -0.19224647 0.16562836
-0.12871826 -0.14367196 -0.1785318 0.1927193 -0.023404881 0.06142904 -0.023569614 0.06461136
0.10969664 0.19973244 -0.17555304 -0.0813627 0.17690264 0.19360773 0.10159071 0.047807842
0.07092659 -0.04094155 0.06391032 0.08158077 0.0049730986 -0.061923742 -0.1733555 0.006792903
-0.19500008 -0.019928098 0.0055686533 0.18628396 -0.15468338 0.04901591 -0.091803335 0.18330611
-0.03727348 0.12411751 0.08966775 -0.06726155 0.07228999 0.19409402 0.17094938 0.17453869
0.13507654 0.16045596 0.026523545 0.17840494 0.023204088 -0.15961285 0.18274914 -0.061251327
-0.18891482 0.07131775 0.03662102 0.19622971 -0.07682836 0.009083912 0.177776 0.01306729
0.074331775 -0.061397865 -0.010089949 -0.17352925 -0.16589674 -0.17654271 -0.036391646 0.14996965
-0.11342416 -0.071876794 0.08398326 -0.0006646365 -0.11080535 0.13339768 0.14146088 -0.17317012
0.039180756 0.18121968 -0.12929924 0.114864424 -0.17815435 0.18648763 -0.121551275 -0.02188602
0.13871942 -0.046474904 0.04134342 -0.15063171 -0.14303336 0.18196 0.17830397 -0.1827712
0.16230337 -0.11348762 0.035089448 0.13959746 0.14456405 -0.076488376 -0.12188535 -0.09058988
0.17544584 0.001110822 0.11494993 0.14412238 0.15359594 -0.04691641 0.013231635 0.17276816
0.18401064 0.09267272 -0.18620518 0.038732797 -0.08470433 -0.009025723 -0.16376834 0.1400349
-0.17798273 0.10338764 -0.13227019 -0.15632185 -0.17245181 0.036232114 -0.04997441 -0.034659356
-0.15544358 -0.04321687 0.14538027 -0.19163267 -0.007822469 0.08084361 0.091520324 0.18912162
0.026312634 0.0723726 -0.16995838 -0.10336325 -0.06264396 -0.18090454 -0.1407691 -0.105159186
-0.058356807 -0.043671936 -0.07660265 0.06427477 0.06984918 -0.024835512 -0.1783537 -0.107128456
-0.003697589 -0.19257493 -0.16931303 -0.0069785565 0.059655026 0.10172738 -0.1817642 -0.12389286
0.07524066 0.1610289 -0.19320373 0.098527804 -0.07076697 0.09382333 -0.04176438 -0.096557595
-0.1515996 -0.031184241 -0.0093508065 0.04282543 -0.028693125 -0.031262755 -0.028592706 -0.036131456
-0.059541985 -0.020946816 -0.034087062 -0.18808143 -0.031376556 -0.051241845 0.12861834 0.1712435
0.0033942908 -0.11564334 -0.08445256 0.10693081 0.090149626 -0.14653544 0.16129117 0.1997099
-0.14604907 0.14854772 0.17864634 0.043015555 -0.02975002 -0.033128887 -0.02466695 -0.09856584
0.032384515 -0.055744484 -0.08501339 0.14176275 -0.13975151 -0.13456097 -0.08502138 -0.16025726
0.16882251 0.0031080693 -0.052961946 0.08764313 -0.19607468 -0.02386348 0.064076796 -0.19370118
00000000: b040 17bc 8add a6bd 00de 4b3c bdfd a5bd
00000010: 5323 dfbd 9267 da3d b9a5 443e f1a9 113e
00000020: 50bf 84bd 1a00 a43d 2eb3 ce3d c014 f8bb
00000030: fa63 84bd 938f 363e 6292 33be b5b3 2bbe
00000040: b2ce d63d e25b a73d 5085 1fbe 1dcf 153e
00000050: 8a2c b43d d090 dabc 88e3 4ebd b90c 3a3e
00000060: 4c9c 6ebd 1ff9 303e 3ff5 1e3e 32fb f53d
00000070: 105a ddbc c81a 7ebd 8cc5 21bd 270d b3bd
00000080: fa7f e53d a306 b8bd a0d3 27bc 0ec9 8f3d
00000090: e010 47bc caa6 09be 0865 14be 432a ffbd
000000a0: e82d 4bbd 879f a5bd e8ea 61bd b063 713c
000000b0: 61cf 203e 5da6 9abd 42dc 44be 7b9a 293e
000000c0: b8ce 03be be1e 13be 0ad1 36be 3558 453e
000000d0: 98bb bfbc 049d 7b3d 1015 c1bc f652 843d
000000e0: a2a8 e03d a986 4c3e 2dc4 33be 7da1 a6bd
000000f0: f725 353e 1b41 463e ca0e d03d 28d2 433d
00000100: f641 913d 54b2 27bd 6ae3 823d d213 a73d
00000110: 60f5 a23b c0a3 7dbd 1b84 31be 0097 de3b
00000120: 1aae 47be 4040 a3bc 4079 b63b 39c1 3e3e
00000130: 5265 1ebe e8c4 483d 6303 bcbd 99b4 3b3e
00000140: 14ac 18bd 5231 fe3d baa3 b73d 6cc0 89bd
00000150: c60c 943d 95c0 463e 5b0d 2f3e 45ba 323e
00000160: 8151 0a3e 914e 243e e847 d93c c9af 363e
00000170: 8016 be3c 8d71 23be 9722 3b3e ace2 7abd
00000180: e372 41be 0a0f 923d ecff 153d 71f0 483e
00000190: 3058 9dbd b0d4 143c e90a 363e 3018 563c
000001a0: 423b 983d 547c 7bbd 5050 25bc a7b1 31be
000001b0: d6e0 29be 9dc7 34be 680f 15bd a591 193e
000001c0: ed4a e8bd 2434 93bd 6aff ab3d 003b 2eba
000001d0: eaed e2bd 6799 083e 1fdb 103e 8253 31be
000001e0: 007c 203d a791 393e 0567 04be 0a3e eb3d
000001f0: 186e 36be 9df6 3e3e e0ef f8bd 504a b3bc
00000200: 770c 0e3e 785c 3ebd b857 293d 333f 1abe
00000210: 5677 12be b953 3a3e 5195 363e 6028 3bbe
00000220: db32 263e 336c e8bd f4b9 0f3d a3f2 0e3e
00000230: 9908 143e f0a5 9cbd 079f f9bd 3087 b9bd
00000240: 13a8 333e 0099 913a de6a eb3d d194 133e
00000250: 4148 1d3e 6c2b 40bd 80c9 583c 23ea 303e
00000260: 496d 3c3e 32cb bd3d 92ac 3ebe 48a6 1e3d
00000270: 7779 adbd a0e0 13bc e3b2 27be 4f65 0f3e
00000280: 1b41 36be e6bc d33d d671 07be d612 20be
00000290: 3597 30be 2068 143d f8b1 4cbd f8f6 0dbd
000002a0: 9a2c 1fbe 2c04 31bd 91de 143e 5b3b 44be
000002b0: d029 00bc 5691 a53d 026f bb3d 19a9 413e
000002c0: 988d d73c 1638 943d 9209 2ebe 1db0 d3bd
000002d0: 7a4b 80bd 0a3f 39be c625 10be b35d d7bd
000002e0: 8c07 6fbd 58e1 32bd dae1 9cbd 7ea2 833d
000002f0: 160d 8f3d d873 cbbc 5aa2 36be 2a66 dbbd
00000300: 4053 72bb 5d32 45be 6560 2dbe 60ac e4bb
00000310: d458 743d 7256 d03d 6520 3abe 8abb fdbd
00000320: c617 9a3d c3e4 243e 33d7 45be f2c8 c93d
00000330: 46ee 90bd 7226 c03d 2011 2bbd fdbf c5bd
00000340: ed3c 1bbe 1876 ffbc 2034 19bc b869 2f3d
00000350: d80d ebbc 600d 00bd 403b eabc 94fe 13bd
00000360: 4ce2 73bd a898 abbc e09e 0bbd 6b98 40be
00000370: b484 00bd f8e2 51bd 87b4 033e 755a 2f3e
00000380: c072 5e3b 6ad6 ecbd 77f5 acbd 8afe da3d
00000390: 5ea0 b83d 630d 16be 8329 253e c180 4c3e
000003a0: e38d 15be e51c 183e 11ef 363e 1431 303d
000003b0: 50b6 f3bc 28b2 07bd 5812 cabc e3dc c9bd
000003c0: a0a5 043d 5454 64bd 801b aebd 412a 113e
000003d0: 051b 0fbe 5aca 09be b01f aebd 7b1a 24be
000003e0: cfdf 2c3e c0b0 4b3b a0ee 58bd 3e7e b33d
000003f0: cdc7 48be 587d c3bc b23a 833d 9a59 46be

bias f4 [25]
0.16498838 0.19277994 0.16857101 0.18259953 0.06496377 0.16416682 0.023043126 0.15746905
-0.09403262 0.0936013 0.07206823 -0.002186969 -0.07682212 -0.13447066 0.027583152 0.12167753
0.10742827 0.1647638 -0.0739059 -0.10831137 -0.024065167 0.19389041 -0.10592687 -0.01987639
0.0861104
00000000: b7f2 283e 1b68 453e e19d 2c3e 5ffb 3a3e
00000010: ba0b 853d 591b 283e f0c4 bc3c 913f 213e
00000020: 2d94 c0bd 0ab2 bf3d 8298 933d 4053 0fbb
00000030: ea54 9dbd adb2 09be 10f6 e13c 1232 f93d
00000040: 5a03 dc3d d7b7 283e fa5b 97bd 5ad2 ddbd
00000050: 5024 c5bc 358b 463e 30f0 d8bd d0d3 a2bc
00000060: a65a b03d

weight f4 [25, 25]
0.051180586 -0.14961252 0.037031963 0.15935488 0.043791458 -0.084215544 -0.16418532 0.079476014
-0.16636547 0.16589187 -0.17787205 0.061701074 -0.1305702 -0.025860623 0.012879014 -0.06405957
0.07636477 0.19900064 -0.002634734 -0.1778874 -0.09032285 0.0805556 0.08134307 0.058096364
-0.18844251 0.1216362 -0.023649722 0.10545413 -0.10502062 0.032544583 0.11982159 -0.06626256
0.0786853 0.10753299 -0.099158004 0.018714637 0.15514334 0.053045556 -0.036988497 -0.024679989
0.16942032 0.12830968 0.09910838 0.078631535 0.030516341 -0.010726973 0.003191188 0.07839735
0.026232094 -0.088806584 -0.1600978 -0.08023667 -0.07043815 0.092158094 0.025826737 -0.024338037
-0.17083588 0.17697324 0.124606386 0.12223278 -0.06387785 -0.05831468 -0.09836774 -0.18345141
0.18201627 -0.12863365 0.19280298 0.16750635 0.09740867 0.07029094 -0.105900906 -0.11692031
-0.18259361 0.11666827 0.112670824 0.15294735 -0.0083298385 -0.0959317 -0.16584408 0.00246647
0.17930965 -0.1344089 0.10710175 -0.15586236 -0.026240513 0.19773628 -0.007329181 -0.17579666
-0.09255376 -0.03228672 0.15195002 -0.072340444 -0.043814972 0.18997367 -0.18719056 0.107669696
0.0889899 -0.09129908 0.010012478 0.17512663 -0.15751815 -0.18493393 0.098572865 -0.03746994
0.04178758 -0.16483858 -0.11179121 0.18562953 -0.1799889 -0.042257905 -0.036369443 0.00031521916
-0.10250466 0.1655194 -0.049517587 0.09965064 -0.17570236 -0.0056422204 0.13342156 -0.1741559
0.07676111 -0.017919332 -0.043518543 -0.027263016 0.12692188 -0.0055471957 0.16694729 -0.051098153
-0.09502151 0.016172096 -0.1348041 -0.11411047 0.051682666 -0.014286965 -0.0006456822 -0.046619937
0.037106544 0.051260665 0.16620164 -0.09002457 -0.0014988184 -0.02814424 0.15437402 -0.19336866
0.19011848 -0.1873555 -0.06640737 0.1787441 0.17500083 -0.18083258 -0.038770393 -0.116693474
0.15720038 -0.06969686 0.10123898 0.024241492 0.012270421 0.15547378 0.12043448 -0.17265144
-0.11726689 0.17266215 0.12535654 -0.15577824 -0.04353948 0.19796054 -0.17130533 -0.07157585
-0.19752513 -0.049926594 0.16676654 -0.11695125 0.17616381 -0.11146505 -0.008847743 -0.1881047
-0.07684872 -0.027118206 0.044933125 0.16493405 -0.07245317 0.16928972 -0.12330749 -0.1151635
-0.017047375 -0.059206203 -0.15364023 0.027583957 0.15904953 -0.055061698 -0.034081385 0.1344053
0.04712613 0.10331713 -0.108234026 0.056932226 0.083912745 -0.044817373 -0.02627644 0.05719079
-0.09387644 -0.008659005 -0.12363851 -0.0014374703 0.13319935 -0.10684498 0.1462151 -0.09869998
-0.024527878 -0.032661512 0.17370702 0.06360246 0.059883848 -0.15327735 -0.068289325 -0.0016886443
0.09365226 0.13184594 0.08436565 -0.17117873 -0.035432667 0.04849112 -0.09347892 -0.060162544
-0.061294958 -0.037155107 -0.14560899 -0.04518731 0.07170157 0.15021352 0.003408745 0.09146638
0.05565317 -0.04893458 -0.12742105 0.013489157 0.1535526 0.1378255 0.08545722 -0.0014639795
0.18470515 -0.06341112 0.19743444 -0.1292533 0.09061374 0.02826412 -0.04173723 0.12316145
0.15063338 -0.16488323 -0.043213412 -0.12630531 0.07016681 -0.15882239 0.022590965 -0.18282941
00000000: bca2 513d 0634 19be d4ae 173d ed2d 233e
00000010: ac5e 333d 3379 acbd 3220 28be 52c4 a23d
00000020: b65b 2abe 8fdf 293e 1724 36be 44ba 7c3d
00000030: 32b4 05be a8d9 d3bc 8002 533c aa31 83bd
00000040: 2265 9c3d d3c6 4b3e 80ab 2cbb 1d28 36be
00000050: 30fb b8bd 56fa a43d 3297 a63d 74f6 6d3d
00000060: 13f7 40be 661c f93d 10bd c1bc 56f8 d73d
00000070: 0d15 d7bd 784d 053d 0665 f53d aab4 87bd
00000080: c225 a13d 423a dc3d 5a13 cbbd 704f 993c
00000090: e5dd 1e3e 4c46 593d 4081 17bd b02d cabc
000000a0: 857c 2d3e 9d63 033e 56f9 ca3d 9209 a13d
000000b0: 68fd f93c 30c0 2fbc 4023 513b ca8e a03d
000000c0: b0e4 d63c 3ae0 b5bd adf0 23be 2053 a4bd
000000d0: e041 90bd 62bd bc3d 9892 d33c 9060 c7bc
000000e0: 9aef 2ebe 7938 353e a231 ff3d 2e55 fa3d
000000f0: 64d2 82bd 60db 6ebd 0775 c9bd b0da 3bbe
00000100: 7962 3a3e 8ab8 03be 256e 453e c986 2b3e
00000110: 327e c73d b2f4 8f3d 93e2 d8bd ea73 efbd
00000120: d2f9 3abe c6ef ee3d f6bf e63d 3b9e 1c3e
00000130: e079 08bc d777 c4bd 08d3 29be 80a4 213b
00000140: f39c 373e 7da2 09be 2a58 db3d 629a 1fbe
00000150: 58f6 d6bc 617b 4a3e a029 f0bb 0a04 34be
00000160: d38c bdbd 143f 04bd c998 1b3e 3a27 94bd
00000170: 5477 33bd 7588 423e e2ae 3fbe ee81 dc3d
00000180: 5640 b63d 03fb babd 600b 243c 6554 333e
00000190: 704c 21be 525f 3dbe 92e0 c93d 147a 19bd
000001a0: 7429 2b3d 72cb 28be caf2 e4bd ab15 3e3e
000001b0: 034f 38be a016 2dbd 20f8 14bd 0044 a539
000001c0: f7ed d1bd eb7d 293e f4d2 4abd a215 cc3d
000001d0: 52eb 33be 60e2 b8bb a99f 083e ed55 32be
000001e0: ee34 9d3d 90cb 92bc 8040 32bd b056 dfbc
000001f0: cff7 013e 40c5 b5bb 3bf4 2a3e 4c4c 51bd
00000200: a39a c2bd 587b 843c 160a 0abe c0b2 e9bd
00000210: 34b1 533d e013 6abc 0043 29ba 8cf4 3ebd
00000220: 08fd 173d b4f6 513d c330 2a3e cd5e b8bd
00000230: 0074 c4ba c08e e6bc 3914 1e3e 6f02 46be
00000240: 6bae 423e 1fda 3fbe 9600 88bd b108 373e
00000250: 6b33 333e 2d2c 39be b4cd 1ebd fdfc eebd
00000260: 23f9 203e 3abd 8ebd 6256 cf3d 1896 c63c
00000270: e009 493c 8534 1f3e 5aa6 f63d 8acb 30be
00000280: a029 f0bd 59ce 303e 775d 003e 5584 1fbe
00000290: 7456 32bd 2bb6 4a3e aa6a 2fbe 5c96 92bd
000002a0: 0744 4abe d47f 4cbd d9c4 2a3e 2384 efbd
000002b0: 4964 343e ca47 e4bd 20f6 10bc 859e 40be
000002c0: dd62 9dbd 0027 debc cc0b 383d 79e4 283e
000002d0: 5462 94bd 495a 2d3e a388 fcbd d7da ebbd
000002e0: f0a6 8bbc 3482 72bd dd53 1dbe c0f7 e13c
000002f0: e1dd 223e 6088 61bd ec98 0bbd 8ba1 093e
00000300: 5407 413d ee97 d33d cda9 ddbd c431 693d
00000310: 72da ab3d 6c92 37bd b041 d7bc e440 6a3d
00000320: 4a42 c0bd 80de 0dbc 3036 fdbd 8069 bcba
00000330: 6965 083e 8ad1 dabd 69b9 153e 3723 cabd
00000340: b0ee c8bc 14c8 05bd 41e0 313e 0242 823d
00000350: c448 753d bdf4 1cbe 46db 8bbd 8055 ddba
00000360: c2cc bf3d 9f02 073e e6c7 ac3d 7a49 2fbe
00000370: d821 11bd a09e 463d e071 bfbd 006d 76bd
00000380: 6c10 7bbd f42f 18bd 861a 15be 5416 39bd
00000390: 46d8 923d 93d1 193e 4065 5f3b ba52 bb3d
000003a0: 94f4 633d a06f 48bd aa7a 02be a001 5d3c
000003b0: e53c 1d3e 2122 0d3e 3204 af3d 00e3 bfba
000003c0: 5923 3d3e b0dd 81bd 412c 4a3e fa5a 04be
000003d0: b293 b93d 288a e73c a8f4 2abd 123c fc3d
000003e0: a33f 1a3e 26d7 28be 8c00 31bd 2e56 01be
000003f0: 9eb3 8f3d 56a2 22be b010 b93c a237 3bbe

bias f4 [25]
-0.024584293 -0.16085951 0.055097833 -0.18028899 0.1553532 0.12799655 -0.14193666 -0.14154097
0.026724309 0.055221245 -0.012268111 0.1295427 0.10604896 -0.0827358 -0.19917034 0.18274806
0.16489811 -0.063382626 -0.06928103 -0.09743164 -0.122295216 -0.15968105 0.122103825 -0.18905492
0.09905513
00000000: 0065 c9bc 5bb8 24be 44ae 613d ad9d 38be
00000010: e914 1f3e 8711 033e d857 11be 1ef0 10be
00000020: f0ec da3c ac2f 623d 3000 49bc d7a6 043e
00000030: 3230 d93d 6371 a9bd 4ff3 4bbe 4f22 3b3e
00000040: 0ddb 283e c0ce 81bd 36e3 8dbd 3d8a c7bd
00000050: ea75 fabd 6e83 23be 9211 fa3d 9d97 41be
00000060: 6add ca3d

weight f4 [4, 25]
-0.06211908 0.16969217 -0.13582063 -0.0025301874 -0.031889483 -0.05181244 -0.14500062 0.06711002
-0.13113555 -0.12255328 -0.028881669 0.15365021 0.15824385 0.049753428 -0.021432966 0.14487512
0.09359996 -0.12521702 0.10305108 -0.16676828 0.1447935 -0.19689377 0.14593546 0.058554187
0.10450782 0.07481025 0.07581432 -0.04276018 0.074993 0.06758995 -0.00024418533 0.043527246
0.039669275 -0.031709433 0.026171014 -0.18685944 0.067185864 0.094129935 -0.08069759 -0.14788873
0.16991074 0.04650411 -0.0419302 0.0046235025 -0.038372904 -0.15505342 -0.1361887 0.058129206
0.13240783 0.16497402 0.19696225 0.07387306 0.014851123 -0.095365934 -0.162268 0.19985496
-0.003550604 -0.080539085 -0.0888783 -0.064893335 -0.001979947 0.12833367 0.13346268 0.1676171
-0.07648995 -0.10886314 0.042274192 0.1904913 0.09483202 -0.13323906 0.075078234 -0.12788832
0.16498609 0.12910415 -0.13196683 0.0030620545 0.11234681 -0.026456669 -0.1793083 -0.07896435
0.037796587 0.15920477 -0.019369632 -0.08351495 -0.007455915 0.1252955 0.1374615 -0.18458171
0.025311232 -0.018724203 -0.08283909 -0.004666209 0.16535719 -0.14582297 0.092554465 -0.042961553
-0.13010305 0.081934944 0.05795555 -0.05103171
00000000: 9470 7ebd c9c3 2d3e 9014 0bbe 80d1 25bb
00000010: 8c9e 02bd 4839 54bd 0b7b 14be fa70 893d
00000020: 6648 06be 37fd fabd 4099 ecbc 7b56 1d3e
00000030: ad0a 223e 40ca 4b3d 3094 afbc 255a 143e
00000040: 56b1 bf3d e438 00be 720c d33d 4ec5 2abe
00000050: bf44 143e 859e 49be 1b70 153e 84d6 6f3d
00000060: 3208 d63d 1e36 993d 8a44 9b3d 4c25 2fbd
00000070: ee95 993d 9a6c 8a3d 0006 80b9 a049 323d
00000080: 407c 223d c0e1 01bd 9864 d63c 1558 3fbe
00000090: be98 893d 32c7 c03d c744 a5bd 2570 17be
000000a0: 15fd 2d3e 187b 3e3d 00bf 2bbd c080 973b
000000b0: e82c 1dbd 53c6 1ebe 0d75 0bbe e418 6e3d
000000c0: eb95 073e f3ee 283e 79b0 493e c24a 973d
000000d0: 2052 733c 374f c3bd 9529 26be c7a6 4c3e
000000e0: 40b1 68bb adf1 a4bd d305 b6bd cce6 84bd
000000f0: 00c2 01bb e769 033e 71aa 083e d1a3 2b3e
00000100: c3a6 9cbd a3f3 debd b427 2d3d 2710 433e
00000110: 4a37 c23d d26f 08be 9ec2 993d 28f5 02be
00000120: 1df2 283e e133 043e 5022 07be c0ac 483b
00000130: 1616 e63d a8bb d8bc 989c 37be 10b8 a1bd
00000140: 98d0 1a3d 9306 233e 10ad 9ebc e309 abbd
00000150: c050 f4bb 774d 003e b5c2 0c3e fd02 3dbe
00000160: 8059 cf3c 8063 99bc 8aa7 a9bd 00e7 98bb
00000170: 6553 293e 9e52 15be 328d bd3d 74f8 2fbd
00000180: bc39 05be 82cd a73d cc62 6d3d a006 51bd

bias f4 [4]
-0.108961105 -0.17393672 -0.15398936 -0.044666007
00000000: 0027 dfbd 781c 32be 63af 1dbe b4f3 36bd
