models/_brain_84.pt (torch, 14593 bytes, 12 tensors)

weight f4 [14]
00000000: 0000 803f 0000 803f 0000 803f 0000 803f
00000010: 0000 803f 0000 803f 0000 803f 0000 803f
00000020: 0000 803f 0000 803f 0000 803f 0000 803f
00000030: 0000 803f 0000 803f
1.0 1.0 1.0 1.0 1.0 1.0 1.0 1.0
1.0 1.0 1.0 1.0 1.0 1.0

bias f4 [14]
00000000: 0000 0000 0000 0000 0000 0000 0000 0000
00000010: 0000 0000 0000 0000 0000 0000 0000 0000
00000020: 0000 0000 0000 0000 0000 0000 0000 0000
00000030: 0000 0000 0000 0000
0.0 0.0 0.0 0.0 0.0 0.0 0.0 0.0
0.0 0.0 0.0 0.0 0.0 0.0

weight f4 [25, 14]
00000000: 705f b5bc e0cc 51bc 3aaf 27be 509e 1e3e
00000010: cae9 6d3e b6b6 4bbe c679 453e b81a de3d
00000020: 8057 343d da13 88be 6019 25bc 0293 88be
00000030: 509b 673e b79e 16be 7623 92bd 7058 e23d
00000040: 00f2 f43b f67b 9abd 38bd 653d 0011 3dbb
00000050: 4093 b33b e4b9 b43d 6ab9 18be e271 223e
00000060: ca62 41be 606e f53c cd93 3dbe 4066 103c
00000070: 60f3 18be b9cc 86be 3f4d 803e de48 38be
00000080: 76c9 a7bd 68cc 453d c0da 953c 2a19 713e
00000090: f645 d5bd a43b c03d a3d5 28be 3667 763e
000000a0: b028 5dbd 2235 5dbe 382c 203d eeef b3bd
000000b0: 067f 88be f093 ecbc 9e00 6c3e 48f8 dd3d
000000c0: b60a 02be cee3 7bbe 60ce 0f3d 9291 babd
000000d0: 2e48 313e b6e8 653e b402 c83d 6741 82be
000000e0: 8803 553e a2a4 7f3e 98e5 33be bce1 ae3d
000000f0: f0c0 073d 4074 0e3d 0e10 fdbd c420 103e
00000100: b8a6 c03d 96f5 b2bd 5c54 0bbe eccf c13d
00000110: 7a3f 79be 43b2 75be 1465 bdbd 8263 7dbe
00000120: 0058 903b 4c4d bd3d 0b0b 7fbe 9a8c 1d3e
00000130: 0083 283b 1b74 853e 20b6 563e e21d e4bd
00000140: a8e3 81be 0e0e 9abd 3f27 0dbe 58d6 c03d
00000150: e4da 8c3d 78be 4b3d 243b 53bd da96 a9bd
00000160: a01a 083c 4cd1 0cbd 24c6 273e b216 82be
00000170: 4405 e23d 005d 63bc 6bf4 4fbe 1691 b9bd
00000180: e409 e33d 289a 673e 3bb3 23be 1e51 723e
00000190: 62af 1bbe b2a8 9ebd 53da 51be a82e e5bd
000001a0: ec3a d53d f85a 3b3e 880f 6b3d aa66 583e
000001b0: 120c 89bd 16bd 41be 9893 60be 90c2 863c
000001c0: 986d f5bd 020c 18be da86 0c3e e027 503c
000001d0: 9454 033e 41a7 52be 1a00 a9bd 60de c83d
000001e0: 6044 82be 70c7 d73d bc22 f2bd 5271 273e
000001f0: 80b1 21bb 5cee d0bd c0d4 43bc b1ba 1bbe
00000200: a074 0e3d 3889 dcbd 87cf 7bbe 3cf6 94bd
00000210: 3e04 0fbe b839 44be 683e a6bc 98ed fb3d
00000220: 9481 df3d ed5b 87be 7e8e ffbd 6e70 183e
00000230: 30ea 91bd 6da5 823e ea8c 0cbe 10b4 783d
00000240: ec7e a13d f8c8 f53d 0203 55be 3468 11be
00000250: 1502 04be cc4c 4cbe 4a68 533e 70d4 643e
00000260: 6d1d 10be 8ee7 adbd 066d 7bbe 4cc9 6d3e
00000270: 0c98 9c3d 6c02 05bd 9636 51be 441c 543e
00000280: c3d9 84be 4008 bbbc b442 103e 60db 913c
00000290: c686 5d3e d684 033e af73 10be 3013 db3d
000002a0: 069d 34be 00d3 e3ba 04fb 1bbe c0da c83d
000002b0: ee95 153e 0c48 a73d 62fe 483e 5057 a33d
000002c0: 9ef5 0bbe 28b8 e5bc 68a4 0dbd e87b 413e
000002d0: 63e3 84be 0a31 32be 5477 6abd d422 38bd
000002e0: 50eb 14be df8c 5bbe c000 dd3d 722f 213e
000002f0: 3b1f 863e 66c3 793e e87e cdbc e0f0 603c
00000300: 0ffc 823e 6076 0dbc 1a81 2fbe d9c1 80be
00000310: 2064 77bc aa50 79be 6c16 133e a2c3 7d3e
00000320: 9cab 1a3e 2069 3cbc 7c15 69bd d2ea 413e
00000330: 0309 78be 5cb1 3d3e 006c 443c c893 84be
00000340: c835 bc3d ee7f 7b3e a045 23bc 0697 88be
00000350: 6469 a0bd 0e25 f7bd 8c22 f43d 2c7a 2f3e
00000360: b499 c6bd 4ed8 72be fa31 35be 22b0 593e
00000370: 9894 fcbc 00ed 213e 4414 873d 50be ae3d
00000380: 129e 8ebd da27 513e 9a84 9abd 2462 20bd
00000390: 1e80 2d3e bc8b 38be b885 b6bd 2040 fc3c
000003a0: 4248 85bd b093 a2bd 5d4a 43be 5add 5b3e
000003b0: cabf ccbd 566f 3cbe c48c 5abe 68af ab3d
000003c0: b024 3ebd c832 4d3e 94d1 1a3e a94b 0cbe
000003d0: be39 063e 0e24 c5bd ec75 b23d ce74 1d3e
000003e0: 7f77 72be 98fb bc3d 766b a0bd 1cb2 4ebd
000003f0: aafc dabd c4fb 2ebe 044b 6dbd e8e6 ac3d
-0.022140235 -0.012805194 -0.16375437 0.15490079 0.23233715 -0.19893917 0.19284734 0.1084494
0.04402876 -0.26577646 -0.010076851 -0.26674658 0.22617841 -0.14708982 -0.0713567 0.11052024
0.0074751377 -0.07543175 0.056088656 -0.0028849244 0.0054802 0.08824518 -0.1491448 0.15863755
-0.18885341 0.029959857 -0.18513413 0.008813441 -0.1493659 -0.26328066 0.25058934 -0.17996547
-0.081927225 0.04829064 0.018292785 0.23544756 -0.104137346 0.093863755 -0.16487746 0.2406281
-0.05399388 -0.216023 0.03910467 -0.08785997 -0.2665941 -0.028879136 0.2304711 0.108383715
-0.12699398 -0.2459862 0.035108924 -0.091097966 0.1731269 0.22452053 0.097661406 -0.25440523
0.20802128 0.24965146 -0.17568052 0.08539149 0.033142984 0.034778833 -0.12356578 0.14074999
0.09406799 -0.08738248 -0.136064 0.09463486 -0.2434062 -0.23993783 -0.09247795 -0.2474499
0.0044050217 0.09243259 -0.24906556 0.15385666 0.0025712848 0.26065144 0.20967913 -0.11138512
-0.25369 -0.07522212 -0.13784502 0.09415883 0.068776876 0.049742192 -0.051570073 -0.08280726
0.008307129 -0.03437929 0.16384178 -0.2540794 0.110361606 -0.013877153 -0.20308082 -0.09060876
0.11085871 0.226174 -0.1598634 0.23663756 -0.15203622 -0.0774702 -0.2049344 -0.111905396
0.10411629 0.1829642 0.05738786 0.21132913 -0.06691755 -0.18919787 -0.21931303 0.016450197
-0.11983794 -0.1484833 0.13723317 0.012704819 0.12825233 -0.20571615 -0.082519725 0.0980804
-0.2544279 0.105360866 -0.11823031 0.16351822 -0.0024672449 -0.102017134 -0.011952579 -0.15207936
0.03477919 -0.1076836 -0.24590884 -0.07273528 -0.13966462 -0.19162643 -0.02029343 0.12301177
0.10913387 -0.2643732 -0.1247835 0.14886639 -0.07124746 0.25516835 -0.1372563 0.060718596
0.078855366 0.12001222 -0.20801929 -0.14199907 -0.12891419 -0.1995117 0.20645252 0.22346663
-0.14073725 -0.08491431 -0.24553308 0.2322132 0.07646188 -0.032473013 -0.20430979 0.20713907
-0.2594739 -0.022831082 0.14087945 0.017804801 0.21633443 0.12843642 -0.1410663 0.10697019
-0.17638025 -0.0017381608 -0.15232474 0.09807348 0.14607975 0.08168039 0.1962829 0.07975638
-0.13667914 -0.028041914 -0.03458062 0.18894923 -0.25954732 -0.1740152 -0.057242706 -0.04495509
-0.1454289 -0.21440457 0.10791159 0.15740755 0.26195702 0.24390945 -0.025084928 0.013729304
0.2558293 -0.00863418 -0.17139092 -0.25147894 -0.015099555 -0.24347177 0.14364022 0.24781659
0.15104526 -0.011499673 -0.056905255 0.18937233 -0.24222188 0.18524688 0.01198864 -0.25893998
0.091899455 0.2456052 -0.00996533 -0.26677722 -0.07832602 -0.120676145 0.11920652 0.17136449
-0.09697285 -0.23715326 -0.17694846 0.21258596 -0.030832574 0.15813065 0.06595662 0.08532393
-0.06963743 0.20425358 -0.07544823 -0.039156094 0.16943404 -0.18022054 -0.089122236 0.030792296
-0.06507923 -0.079383254 -0.19071336 0.21471158 -0.09997518 -0.18401846 -0.2134276 0.083830655
-0.046421707 0.20038903 0.1511901 -0.13700737 0.13107964 -0.096260175 0.08713898 0.15376589
-0.23678397 0.09227675 -0.078329965 -0.050462827 -0.10692723 -0.17088228 -0.05793287 0.08442479

bias f4 [25]
00000000: d84e 0d3d 1d06 853e c5f5 803e 4e18 5b3e
00000010: a062 c2bd c0a0 0c3e b8d5 3f3d 183a 3a3e
00000020: 2e01 773e 6ecf 043e c031 bb3b 76f9 17be
00000030: 9050 9ebc 1046 1bbd 1e3b afbd fa35 263e
00000040: 4cce dfbd ceee 453e 6433 573e f8d0 52bd
00000050: 9477 9b3d f3e4 7bbe 2879 43be 20a4 803c
00000060: f35e 0bbe
0.03449902 0.25981227 0.25187507 0.2139599 -0.094914675 0.13733196 0.046834677 0.18186224
0.24121544 0.12969753 0.005712718 -0.14841256 -0.019325525 -0.037908614 -0.085561976 0.16231528
-0.1092802 0.19329378 0.21015698 -0.05146882 0.07591167 -0.24599056 -0.19089186 0.01570326
-0.13610439

weight f4 [25, 25]
00000000: 708a 9dbd eeb1 893d 00cc 0239 742b 5e3d
00000010: 92ce 9f3d 89f9 393e 384b 26bd afb9 263e
00000020: 92d7 993d 08fd 283d 4c05 07be b27a 813d
00000030: a09d 44be 3950 283e 6bca 1ebe e0dd 0ebd
00000040: f6c4 ea3d 0e2b cd3d 676a 243e c102 413e
00000050: 2f5b 383e 7b85 043e 0012 3b3c 7706 103e
00000060: 001c 04bd 707a 1bbe e7e1 3d3e 6db5 b5bd
00000070: bd72 473e 8922 463e 9333 463e f09f febd
00000080: 861b 88bd a767 3f3e f355 273e d076 623c
00000090: 3d6e 313e 77d0 efbd 2832 a63c 68e0 383d
000000a0: 177f 293e 7e1f b43d f2c5 b83d e821 413d
000000b0: a033 49be 375c f9bd f8f7 4ebd e009 3f3c
000000c0: ae0a 953d 7697 dd3d 83f0 cbbd 496c 123e
000000d0: 5034 8cbc 02ff b73d 184c fc3c 4260 b73d
000000e0: fdd7 e5bd 2b81 103e 80ac 0e3c 298f 413e
000000f0: 64e3 793d 1a26 aa3d c5b1 36be f537 08be
00000100: fd0a 26be 54bc 8bbd 89c7 1f3e 7e3f f63d
00000110: 308e 38bc 074d 083e 8086 78bb d773 9cbd
00000120: d2b5 a83d d8f0 b7bc 219f 123e 806b 693b
00000130: 7029 a83c 0702 cbbd 0055 25ba 8656 ce3d
00000140: 0808 6fbd 802d 5ebb e0d8 cfbd cd23 213e
00000150: ec60 4fbd a0c7 3e3d 8e5f b53d 6041 6abd
00000160: d7cf c7bd b354 003e 21ea 153e 1105 463e
00000170: 0ffb 073e 32b3 b33d 6c87 81bd 9908 233e
00000180: 28c2 bbbc d0ce 5ebc 3a20 a8bd 9019 97bc
00000190: a152 273e 9db3 393e 82e2 be3d 6ef8 873d
000001a0: d089 b0bc 36b7 c43d b28f e03d 2a65 e63d
000001b0: e2a5 f83d 2b35 423e 12c2 db3d 7a86 1dbe
000001c0: 8bcd 3b3e 1d62 cfbd e197 473e 7a0c d93d
000001d0: 8e1f db3d 8411 783d 1afe 41be fe26 903d
000001e0: 22a7 e43d f6b8 0bbe 78b2 63bd 593b 083e
000001f0: 99e6 023e 23b1 d8bd 1810 eb3c 3097 a8bc
00000200: 8709 a5bd d333 c7bd 20a8 4ebd 9d54 b9bd
00000210: 072a c4bd 2dc4 dabd f2b8 e83d 2e55 25be
00000220: 293a 3a3e 6ae6 b0bd c051 dfbc 173d 003e
00000230: c61e f43d f280 d53d bea3 ed3d a842 9ebc
00000240: 8dcf dbbd 45d2 263e 7626 1fbe 12db a43d
00000250: 4092 6abd aaf1 d0bd 2b1a 28be 6eb4 f93d
00000260: 95e6 40be cefc ce3d fdd0 c7bd 70ec 26be
00000270: 7b25 143e c26c 49be 1675 1cbe 7392 bcbd
00000280: 4c26 48bd bc9c 91bd 3ac5 97bd 600c 083c
00000290: 06dc 8d3d b88d 65bd 7336 d3bd 0091 4abd
000002a0: 8d00 11be f624 d63d eb07 363e c28b e63d
000002b0: ba1e 91bd e5a7 1d3e 8c69 82bd 1a6f 8f3d
000002c0: e068 50bc d873 d3bc 4547 06be 2d4a 3bbe
000002d0: 0928 473e d2ea fd3d 8087 a1bd b0ab 06bc
000002e0: 9309 f8bd 41c0 243e 1866 c53c be4c 2cbe
000002f0: 000a dabb 3a5a 3fbe c904 3b3e 6025 29bc
00000300: 80da e83a a0a4 a0bb f07e 97bc 5c34 7f3d
00000310: 238e 2dbe 58e5 27bd b2cc 893d 2aa9 98bd
00000320: a052 653c 5d7d 2d3e 271e d9bd dac9 c83d
00000330: ea7b f43d 16c5 07be bd8e 2cbe 502d d23c
00000340: b063 043c b0ac 293c c6e5 e83d b23a 46be
00000350: 7bcd 4bbe a28a bd3d e8bd 2b3d c28d 0ebe
00000360: 1247 ff3d 201a 2bbe 76d7 8f3d 953c 153e
00000370: 637b fabd 08db 1fbe 21aa 193e e028 03bd
00000380: 9521 0fbe 8a60 9b3d 2ca2 413d d4bd 2cbd
00000390: 1851 8c3c a38f 9dbd 9587 44be 965b dc3d
000003a0: 0047 06bd d3e8 27be e9fe 453e 679c b1bd
000003b0: 372d 3f3e 2895 283d a03d 27bc 30c6 003c
000003c0: 1ee8 17be d2dd ab3d 248d 4f3d 2508 4abe
000003d0: c0d8 76bd 1edb bc3d d890 2f3d 56a6 873d
000003e0: 0c55 273d 4529 1f3e 8038 b7bc c344 183e
000003f0: 2c58 21bd 39cf 3c3e c3a9 243e 74d1 77bd
-0.076924205 0.067233905 0.00012473762 0.05424066 0.07803072 0.18161596 -0.040599078 0.1628177
0.0751182 0.041256934 -0.13185614 0.063222304 -0.19200754 0.16436853 -0.15506904 -0.034879565
0.114633486 0.10017978 0.16056214 0.18848707 0.18003534 0.12941544 0.011417866 0.14064966
-0.032253265 -0.15183425 0.18543206 -0.08872495 0.19477363 0.19349112 0.19355612 -0.124328494
-0.06645875 0.18691884 0.16341381 0.013822272 0.17327209 -0.117096834 0.020287588 0.045135885
0.16552387 0.08795069 0.0902213 0.047151476 -0.196486 -0.12175792 -0.05052945 0.011660069
0.072774276 0.108199045 -0.09957983 0.1429912 -0.017114788 0.08984186 0.030798003 0.089539066
-0.11222837 0.14111774 0.008708119 0.18902268 0.061007872 0.083080485 -0.17841251 -0.13302596
-0.16215129 -0.0682303 0.1560346 0.12023829 -0.011264369 0.13310634 -0.0037921965 -0.07639282
0.082378045 -0.02245371 0.14318515 0.0035617054 0.020527571 -0.09912496 -0.00063069165 0.10075097
-0.05835727 -0.0033901632 -0.101487875 0.15736313 -0.05062954 0.046577096 0.08856116 -0.057191253
-0.09756439 0.1253231 0.14640094 0.1933787 0.13279365 0.08774413 -0.06324658 0.15921248
-0.02291973 -0.013599113 -0.08209272 -0.018444806 0.16340114 0.18134923 0.09320547 0.06639181
-0.02155009 0.09605257 0.10964908 0.11249764 0.12141015 0.18965594 0.10730375 -0.1538333
0.18340127 -0.101261355 0.19491531 0.10598083 0.10699378 0.06056358 -0.18944588 0.07038687
0.111646906 -0.13644776 -0.055590123 0.1330389 0.12783279 -0.10580661 0.028694198 -0.020579904
-0.08058458 -0.097266816 -0.050453305 -0.09049342 -0.095783286 -0.10681949 0.113634005 -0.16145775
0.18186249 -0.08637698 -0.027260661 0.12523304 0.11919932 0.10424985 0.11603497 -0.019318894
-0.107329465 0.16291149 -0.15542015 0.08049597 -0.05726838 -0.10202344 -0.16416232 0.12192617
-0.1883796 0.101068124 -0.09756658 -0.16301131 0.14467423 -0.19670394 -0.1527904 -0.092076205
-0.048864648 -0.07109973 -0.07410665 0.008303732 0.06926732 -0.056043357 -0.1031312 -0.04945469
-0.14160366 0.104562685 0.17776458 0.112571254 -0.07085939 0.15396078 -0.06367788 0.07003613
-0.012720317 -0.025812075 -0.13113125 -0.18290015 0.19448866 0.12398304 -0.07887173 -0.008219644
-0.12111201 0.16088964 0.024096534 -0.1682615 -0.006654024 -0.18686762 0.18263544 -0.010323852
0.0017765313 -0.0049024373 -0.018493146 0.062305793 -0.16948752 -0.040990204 0.06728496 -0.074541405
0.01399675 0.16942354 -0.10601454 0.09804125 0.11937697 -0.13258776 -0.16851325 0.025656372
0.008080408 0.010356113 0.11371951 -0.19358328 -0.19902603 0.09254958 0.041929156 -0.13921264
0.124647275 -0.16709185 0.07023518 0.14573891 -0.122305654 -0.15610898 0.15006305 -0.032021403
-0.13977654 0.07586773 0.0472738 -0.04217322 0.017128512 -0.07693412 -0.19192345 0.10759656
-0.032782555 -0.16397409 0.19335522 -0.086724095 0.18669592 0.04115787 -0.010207564 0.007859752
-0.1483464 0.08391918 0.05067171 -0.1972967 -0.060265303 0.09221481 0.042862743 0.06623523
0.04085259 0.15543087 -0.022365808 0.1486998 -0.039390728 0.18438424 0.16080384 -0.060502484

bias f4 [25]
00000000: 4636 1ebe 00d3 993a 3d82 adbd 59e7 1c3e
00000010: b8f6 3b3d 2535 323e ce39 8d3d 55a1 0ebe
00000020: a544 36be 0068 a8ba adaf aebd 5014 edbc
00000030: 6f88 343e 1074 95bd 2dfc eebd b285 d23d
00000040: a949 123e 404b 363d 431f e2bd d337 103e
00000050: 1489 2fbd c8bd 2f3d 6070 92bd 6800 93bc
00000060: dfa6 2ebe
-0.15450391 0.0011735857 -0.084721066 0.15322627 0.045889586 0.17403086 0.06895791 -0.13928731
-0.17799623 -0.0012848377 -0.08529601 -0.02894035 0.1763017 -0.07297528 -0.116691925 0.102794066
0.14285912 0.044505358 -0.11041119 0.14083795 -0.042855337 0.0429056 -0.0715034 -0.01794453
-0.17055844

weight f4 [25, 25]
00000000: 4022 ecbd 7dcf ebbd c721 efbd bb26 40be
00000010: 1a00 e03d 6f08 193e b738 4abe ed5b 453e
00000020: 9b37 15be f2d2 03be 5607 c33d 1204 cc3d
00000030: 8854 6ebd a068 453d 960b 10be d2b7 2bbe
00000040: 729d 9a3d adee 433e fad9 ecbd d0c6 44bc
00000050: 62a6 d73d d652 87bd 7bd6 483e d82b ab3c
00000060: b0d7 f3bc ac8a 2b3d bcc9 4f3d 8b6e 2bbe
00000070: 896b 013e cfab 483e 2032 343d f0b6 c63c
00000080: fa48 a3bd 102e a8bc 70cc fd3c 9eeb a93d
00000090: 1323 023e 4c7a 473d 40ed 2fbb 903b 27be
000000a0: c7f8 3e3e 9572 49be 12ec e13d 18b6 f5bc
000000b0: 321d d13d 98c5 913c 50c8 32be c71c 38be
000000c0: c2e8 ca3d e934 103e 75b8 2ebe c6be e23d
000000d0: b990 2d3e 5398 21be 33cb fcbd 9aae b73d
000000e0: 806f c0bc c21e b13d ee99 f23d f38b 22be
000000f0: d5c2 29be ecbe 2e3d 6a44 c43d e932 2b3e
00000100: e095 b7bd 3816 40be 0140 2c3e 943d 44bd
00000110: e3b1 fabd 407b dcbb 0a76 ce3d 6b45 133e
00000120: 0d42 413e 407a c2bb 820b ba3d f490 0cbe
00000130: ae8c 08be 0af2 24be bd74 2ebe a053 dcbb
00000140: 20bb 0ebe b413 34bd 2284 833d 0a27 913d
00000150: e27a bc3d 2d2b 41be 0c6f 8cbd e206 be3d
00000160: 287c 4cbd c06b 77bd df05 453e 0022 003a
00000170: 6390 2ebe 8116 413e e25f b93d 00ca abbb
00000180: 28fa 10be 98a2 46bd 1de9 99bd fbbd 0b3e
00000190: 2e88 a13d 699d 123e da77 8ebd b2a7 1fbe
000001a0: f9c9 1a3e a917 383e 0362 3abe 7695 c63d
000001b0: e0da 2b3d 5e76 ad3d 4520 333e 476b 3f3e
000001c0: 9909 333e c982 3c3e 6457 04be 00ee 74bc
000001d0: 9a5f d1bd 85a7 283e 2343 e8bd fa64 0ebe
000001e0: e8c8 bdbc 8adf bebd 400b 963c bb83 46be
000001f0: a8db 053d e358 243e ac84 4e3d c04e aabb
00000200: f4d6 41bd 45d3 3ebe 00b8 df3c 4c9e 74bd
00000210: 90e0 9cbc bd29 cdbd 83ca f5bd 2a61 a7bd
00000220: 96bb e23d 875c 39be d80a 153d aa24 01be
00000230: 884d 183d b0d6 8a3c 24db 98bd 8d80 2f3e
00000240: b98c 3d3e 67a4 e7bd 3038 9ebc 6719 163e
00000250: 100d fcbd 2edd c23d 8c8d 01bd 71fa 143e
00000260: ccc8 1cbd ca5b e9bd 6039 333c c225 963d
00000270: c30c 1d3e 3d10 36be 0050 ed38 e88d ec3c
00000280: e0af 73bd 7438 763d df0e 2a3e 82db 3fbe
00000290: fd8b 043e 8087 adbc ea3b 81bd 87fb bebd
000002a0: 30a1 b0bd 58d5 70bd 4309 dabd f633 8d3d
000002b0: ec5b 02bd cdfc 423e 77c9 323e 8c91 723d
000002c0: a01c 8b3b ac99 86bd 337e 1f3e b0be 3cbe
000002d0: 1741 3e3e 62ce fb3d de90 05be 3305 1b3e
000002e0: fd45 abbd 3772 f3bd 0009 14bd 3a84 dcbd
000002f0: 3081 d43c 808e 02be 406b d7bc 3f47 453e
00000300: adce 4b3e 0005 903a b914 023e 48aa 63bd
00000310: 0743 40be 02eb 923d 9acf 07be b0d9 f5bd
00000320: c822 79bd 8051 5c3b 09e8 303e bee0 ed3d
00000330: 40f7 7bbd 03ca 45be ad2d 01be 4061 2fbb
00000340: 5094 22bc abc6 43be 8d2e 9ebd c61d 25be
00000350: e7ca 143e bdb3 073e a34b b0bd 3571 3cbe
00000360: 564b 19be 32c4 e63d 00a6 4abb 8f8e 153e
00000370: e073 3dbd e800 06be 7fcc 2b3e 87aa 233e
00000380: 8814 113d d9b2 3c3e 22ad 2bbe 282e 8b3c
00000390: ca8c eabd 9a8e a73d a113 0b3e f3ee 493e
000003a0: 3678 1dbe 40e4 f6bd b3f7 0b3e d40e 5d3d
000003b0: 8073 f33c 3077 9f3c 63fe 49be d43e 98bd
000003c0: 188b 4abe 2a4b 39be f0ed db3c 8476 593d
000003d0: 6135 3d3e bd17 f1bd 010f 0a3e b503 0c3e
000003e0: 781d 54bd 7457 773d f290 a33d 394e 053e
000003f0: e5a5 36be 108c a5bd 7a61 c1bd ec75 22bd
-0.1152997 -0.115141846 -0.116763644 -0.18764775 0.10937519 0.14944623 -0.19748197 0.19273348
-0.14571993 -0.12873438 0.095228836 0.09961714 -0.058186084 0.04819548 -0.1406692 -0.1676934
0.075495616 0.19134016 -0.11565013 -0.012010291 0.10529782 -0.066075966 0.19613068 0.02089493
-0.029765934 0.041880295 0.0507295 -0.16741388 0.12638678 0.1959679 0.043993115 0.024257153
-0.079729035 -0.020529777 0.030981272 0.082968935 0.12708692 0.048700616 -0.0026844293 -0.16331315
0.18649589 -0.19672616 0.11031355 -0.029994056 0.10210647 0.017794415 -0.17459226 -0.17979728
0.09907676 0.14082684 -0.17062552 0.110715434 0.16949739 -0.15780763 -0.12343445 0.089688495
-0.023490667 0.08648445 0.11845766 -0.15873699 -0.16578229 0.042662546 0.095833614 0.1671864
-0.08964133 -0.18758476 0.1682129 -0.047910288 -0.122409604 -0.0067285597 0.10081108 0.1438195
0.18872853 -0.0059349835 0.09084226 -0.1372717 -0.13334915 -0.16107956 -0.1703672 -0.006723836
-0.1393857 -0.043964103 0.06421687 0.07087524 0.092031255 -0.18864127 -0.06857118 0.092786565
-0.049923092 -0.060405493 0.19240521 0.0004887879 -0.17047267 0.18856241 0.09051491 -0.005242586
-0.14157927 -0.048494905 -0.07515166 0.1364669 0.07887302 0.1431786 -0.069564536 -0.15591314
0.15116109 0.17977776 -0.18201451 0.09696476 0.041956782 0.084698424 0.17492779 0.18693267
0.1748413 0.18409266 -0.12923962 -0.014949322 -0.10223313 0.16470154 -0.1134093 -0.13905707
-0.023167089 -0.093199804 0.018315911 -0.19386189 0.032680184 0.16049533 0.050419495 -0.005197376
-0.047324136 -0.1863528 0.027309418 -0.059721276 -0.019150048 -0.100177266 -0.12001517 -0.081728294
0.110709354 -0.18101703 0.036387295 -0.12611642 0.037183315 0.016948074 -0.07463673 0.17138882
0.18510713 -0.11310654 -0.019313902 0.14658128 -0.12307179 0.09514843 -0.03162913 0.14548661
-0.038277432 -0.113944605 0.010938972 0.073314205 0.153369 -0.17779632 0.00011315942 0.02887626
-0.0594939 0.06011243 0.16607235 -0.1873608 0.12944026 -0.021182775 -0.06310256 -0.09325319
-0.08624494 -0.05879721 -0.10646298 0.068946764 -0.031825945 0.19041748 0.17459665 0.059220836
0.0042453557 -0.06572279 0.15575485 -0.18432117 0.18579517 0.12295224 -0.13043544 0.15138702
-0.083629586 -0.11887019 -0.036141396 -0.10767408 0.025940508 -0.12749672 -0.026296258 0.1926546
0.1990306 0.0010987818 0.12703218 -0.055582315 -0.18775569 0.071737304 -0.13262787 -0.12004411
-0.060824186 0.0033617914 0.17276014 0.11615132 -0.061515093 -0.19315343 -0.1261508 -0.0026760846
-0.009923056 -0.19118755 -0.077237226 -0.16124639 0.14530526 0.13252158 -0.086081766 -0.1840256
-0.14970145 0.1126789 -0.0030921698 0.14605163 -0.046253085 -0.13086283 0.16777228 0.1598302
0.03541997 0.184276 -0.16765264 0.016989782 -0.11452635 0.08181496 0.13581707 0.19720058
-0.15377888 -0.12055254 0.13668709 0.05396922 0.02971816 0.019466013 -0.19725947 -0.074338585
-0.19779623 -0.18095079 0.026846856 0.05309154 0.18477394 -0.11772106 0.13482286 0.13673289
-0.051785916 0.060386136 0.079866305 0.13018121 -0.17836721 -0.080833554 -0.0944242 -0.03966324

bias f4 [25]
00000000: 50ef bf3c b53b 3dbe b18c 2d3e a24d 973d
00000010: f613 29be b318 3fbe 78ea 4cbd d0cd 193c
00000020: 472a a7bd 49e6 313e 7578 1d3e e947 233e
00000030: 9acc d5bd 8025 2f3c b476 013d c35c 433e
00000040: c0c4 c23b 1980 3b3e 8047 d13c 8329 f5bd
00000050: e088 46bc 00d0 efbc 729e d13d 3bf6 18be
00000060: 84b0 593d
0.023429543 -0.18479808 0.16948201 0.07387854 -0.1651152 -0.18661766 -0.050028294 0.009387448
-0.08162361 0.17373003 0.15377982 0.159454 -0.10439415 0.010690093 0.031607345 0.19078355
0.0059438646 0.18310584 0.02554679 -0.11970808 -0.0121175945 -0.029273987 0.10235299 -0.1493768
0.053146854

weight f4 [25, 25]
00000000: 47a8 40be c37e 473e 4066 d53c 9b12 13be
00000010: 0c12 2d3d 752c 3a3e 64f8 773d 954a 383e
00000020: 239c 423e 770b a4bd 7441 603d 828c 44be
00000030: 935c 3a3e eb4e 30be 793b 283e 6cc6 83bd
00000040: fd47 1abe 5871 32be bcb1 533d 5c63 04be
00000050: 292d 483e e86b 2ebd 1cc8 6e3d cd23 253e
00000060: 17ee eabd 96e7 df3d 42ce 40be 82d4 02be
00000070: 0df1 fcbd 7ac1 f1bd a245 913d 1a93 13be
00000080: 18ef 0c3d 6a4f 86bd ecdb 8abd d188 1c3e
00000090: 961e 95bd 60d2 41be 9b39 31be 8b79 3dbe
000000a0: 0011 fd3a 28c0 1dbd 9f86 133e 608a c2bd
000000b0: 34c9 07bd 88bc 4c3d f081 bf3c b0a2 21bc
000000c0: 2bb0 433e 3824 2dbd 79ab 003e 6210 43be
000000d0: c061 efbd 90e6 cfbd e72c 273e 70d6 85bd
000000e0: eb1c 37be f80a 4c3d 006e f8bd 8923 203e
000000f0: e82a 01be fc55 04be 62da 12be bd69 debd
00000100: bd4d 2d3e e079 95bd 2051 143d 3188 1f3e
00000110: e639 91bd a05f efbd 3cb8 0bbe 64bb 7a3d
00000120: b8a9 2d3d f7fa 35be 38dc 39be 7aea 04be
00000130: 6b62 43be ba3f 2bbe d4b2 473d bae5 943d
00000140: 2ab7 fdbd 0042 c0bc 3fa5 463e 9998 493e
00000150: 11d6 483e 0081 e8bd 301c 773c 1e70 27be
00000160: 6aca 9d3d 6356 a5bd 1af0 bdbd 5e8f e93d
00000170: 5a82 b6bd ed29 383e 5677 07be 83f3 163e
00000180: c0f2 3ebd 60a7 edbb 1670 f53d 6297 37be
00000190: 5a62 8fbd d875 283d f4ff 09bd a540 173e
000001a0: a547 163e 22af bb3d f2bc d43d 5535 3f3e
000001b0: 222a 2dbe ffae 42be ca39 c1bd 90fb 9dbc
000001c0: 2817 9fbc f93c 1f3e 4893 31be 8022 77bd
000001d0: a681 9d3d 6be1 423e 343c 72bd da6c 4abe
000001e0: 9456 5ebd 1bd5 093e 8057 613b 8667 12be
000001f0: 136d febd 948a 0fbd 8760 113e c091 8cbd
00000200: 321d 9b3d e670 9a3d 8110 233e 67ef fabd
00000210: 4070 3dbe 27b6 fcbd c6a8 b23d 8d50 b5bd
00000220: 68c3 2d3d 266e 943d 8abf bcbd d47d 283d
00000230: f280 e43d a2e4 3bbe d8f9 dcbc 56c3 14be
00000240: 5ecb e63d 82aa a93d 5200 ae3d 2840 013d
00000250: 807c 023c 464f c23d 50ef 5d3c 0899 18bd
00000260: 9640 f93d 1a21 efbd c3fa 083e e008 3a3d
00000270: 304c f5bc 4b5f 19be 7f93 093e a2a2 bb3d
00000280: 686b 0c3d e934 013e 8088 92bd 025f 07be
00000290: 8569 34be bcc0 6f3d f834 10be 8c5d 34bd
000002a0: 5802 78bd d095 40be c085 e4bc 70c0 ecbc
000002b0: 9543 22be 9886 45bd 8062 17bc bde2 0fbe
000002c0: dfc7 423e a0da 6c3c 467d df3d e5e2 143e
000002d0: 3065 59bc d04c bbbc c0ba b3bb 2091 4e3c
000002e0: 0c8c 03be e831 94bc 1149 483e 8297 923d
000002f0: 6205 923d 906e dfbd 1496 71bd 39e3 333e
00000300: df12 323e 3ba1 413e b0e5 c7bd c246 df3d
00000310: eba5 1a3e ac7b 2abd 33c4 4a3e 28a4 d83c
00000320: 1246 c13d e0fc 203d 8310 b8bd 4c6d 21bd
00000330: f76a 0c3e 028c 9a3d f2b7 ca3d 531f 003e
00000340: dd0a 11be a8d4 2fbe b92f 2d3e bc24 703d
00000350: d062 193c 2592 3b3e de6d 19be 08c1 193d
00000360: e0d3 86bd 60e5 693c bc97 4e3d f5a3 4abe
00000370: cc2d 3abd a9d1 1c3e 4079 76bd ebca 323e
00000380: 7b7a 23be 3724 1b3e c0f9 bb3b 77b4 323e
00000390: 556f 3cbe 0f51 33be 357b 13be 6ad7 fa3d
000003a0: 12f1 d83d f52f 123e 8713 1f3e 5249 e13d
000003b0: 8b31 45be 04ce 96bd c303 9dbd 501d 1b3c
000003c0: e823 babc dbe4 193e 40c5 3ebd f3be bbbd
000003d0: 37c2 a1bd 000a da3b 717b 4b3e 08b5 00be
000003e0: cd2a 493e 7ee2 22be 1f88 133e 78b0 0fbe
000003f0: 32b4 a13d 634a f8bd 6af6 20be dddb c2bd
-0.18814193 0.1948195 0.026049733 -0.14362566 0.04225354 0.18181022 0.060539618 0.17997201
0.19004874 -0.08009999 0.05474992 -0.19194224 0.18199377 -0.17217605 0.16428937 -0.0643433
-0.15066524 -0.1742605 0.051683173 -0.12928528 0.19548477 -0.042583376 0.058296308 0.16126938
-0.11471193 0.109328434 -0.18828681 -0.12776378 -0.12350664 -0.11804481 0.070933595 -0.14411584
0.034407705 -0.06558116 -0.06780228 0.15286566 -0.072812244 -0.18927908 -0.17307131 -0.18503396
0.0019307435 -0.038513333 0.14406823 -0.09499049 -0.033150867 0.049984485 0.023377389 -0.009865448
0.19110171 -0.04227087 0.12565412 -0.19049218 -0.11688566 -0.10151398 0.16325723 -0.06535041
-0.17882125 0.049815148 -0.12130356 0.15638556 -0.12614024 -0.12923425 -0.14341119 -0.10860012
0.16924186 -0.072986364 0.03621018 0.15579297 -0.070911214 -0.11688161 -0.13644499 0.061213866
0.042398185 -0.17771517 -0.18150413 -0.1298007 -0.19080512 -0.16723529 0.04875453 0.07270379
-0.123884514 -0.023468971 0.19398974 0.19687118 0.1961291 -0.1135273 0.015082404 -0.16351363
0.07704623 -0.080731176 -0.09274311 0.11404298 -0.08911581 0.17984743 -0.13229117 0.1474133
-0.046618223 -0.0072526187 0.11984269 -0.17928842 -0.07001181 0.04112801 -0.03369136 0.14770754
0.14675768 0.09164263 0.10387601 0.18672688 -0.16910604 -0.19012068 -0.094348505 -0.019284993
-0.019420221 0.15550603 -0.1734134 -0.060335636 0.07690744 0.19031303 -0.059139445 -0.19768086
-0.054281786 0.134602 0.003438443 -0.14297304 -0.12423148 -0.035044268 0.14196979 -0.06863737
0.07573928 0.07541065 0.15924264 -0.122526936 -0.18499851 -0.1233943 0.08723597 -0.088532545
0.042422682 0.07247572 -0.09216221 0.041135624 0.11157407 -0.18348935 -0.026974604 -0.1452764
0.11269258 0.08284475 0.08496155 0.031555325 0.007964253 0.094877765 0.013545826 -0.037255317
0.12170522 -0.116762355 0.13376908 0.04541862 -0.029943556 -0.14977758 0.13435172 0.09161879
0.034282118 0.1261784 -0.071549416 -0.13219836 -0.17618378 0.058533415 -0.14082706 -0.044034526
-0.06054911 -0.18807149 -0.027895808 -0.028900355 -0.15846093 -0.04822406 -0.009239793 -0.14051338
0.19021557 0.014456421 0.10912566 0.14539678 -0.013268754 -0.022863775 -0.005484909 0.012607843
-0.12846392 -0.018090203 0.19559123 0.07157804 0.07129933 -0.1090976 -0.058981016 0.17567147
0.17390011 0.18909161 -0.09760606 0.10902168 0.15102355 -0.04162185 0.19801407 0.026445463
0.09437193 0.03930366 -0.08987524 -0.039410874 0.13712679 0.075462356 0.09898366 0.12511949
-0.141643 -0.17170966 0.16912736 0.058628783 0.009361938 0.18317468 -0.14983317 0.037537605
-0.06583381 0.014275879 0.050437674 -0.19789107 -0.04545383 0.15314354 -0.060174227 0.1746022
-0.15964691 0.15150534 0.0057365596 0.17451654 -0.18401845 -0.1751139 -0.14402469 0.12248118
0.105928555 0.14276107 0.15534793 0.11000313 -0.1925718 -0.07363513 -0.07666733 0.009467438
-0.0227222 0.15028708 -0.04657483 -0.0916728 -0.07898372 0.006654024 0.19871308 -0.12569058
0.19645233 -0.15906712 0.14407395 -0.14032161 0.07895698 -0.12123563 -0.15719 -0.09514592

bias f4 [25]
00000000: d087 0d3c 53e3 013e d618 ad3d ad82 043e
00000010: 5047 09be 009a 10ba d2fd 843d 60c2 883b
00000020: 7abf d13d a05a 06bd 789a 30be a2bd 853d
00000030: 4080 cc3b 99d0 473e 9052 9ebd 0dac 2a3e
00000040: 3006 423c 2cd5 59bd a4b3 03be 2bae 1ebe
00000050: d8a6 3abe d95b 213e 369d dd3d 9afb 1abe
00000060: 920b fa3d
0.008638337 0.12684374 0.08452003 0.12940474 -0.1340611 -0.0005516112 0.06493725 0.004173562
0.102415994 -0.03280127 -0.17246425 0.0653031 0.0062408745 0.19513167 -0.07730591 0.16667195
0.0118422955 -0.053181812 -0.12861496 -0.15496127 -0.18227708 0.15757693 0.10821001 -0.15135041
0.12209238

weight f4 [4, 25]
00000000: 1dde 25be fd81 dcbd 4c7e 61bd 8afc 9fbd
00000010: 8077 86bd ba6c c9bd 68af a3bc f5a4 393e
00000020: 6302 c6bd 6262 a03d 527b ad3d b1a4 343e
00000030: c256 d23d 4cca 85bd 001a ed3c 2046 093c
00000040: cf30 1e3e 17d5 373e da48 88bd 6ac3 26be
00000050: 12f1 d03d 2865 0fbd ff48 243e faf0 a5bd
00000060: 3a85 92bd cd01 03be 0ad3 e7bd c22d d03d
00000070: b3f0 f4bd e000 213d f21b ee3d 1881 1bbd
00000080: c07b b33b c227 813d 8086 6b3c 1853 0d3d
00000090: 3021 5abc 4dc8 a1bd 36bf 9a3d 5007 09be
000000a0: eba5 3c3e cf8d 283e 0ec0 c43d 8bf6 153e
000000b0: 7697 c93d fc69 4e3d bdfd 0ebe 407b 14bd
000000c0: 6ccc 94bd 10f7 febd 5054 53bc 9b48 083e
000000d0: e23b 1cbe 0cbf 62bd 003c 63bb c089 a53b
000000e0: 18e0 e5bc c859 35bd ad6c 0dbe adb4 b5bd
000000f0: ad91 e4bd b073 bcbc 097f 0d3e a8e8 173d
00000100: 9b9a 3bbe 83f0 133e a3ce 10be 0220 08be
00000110: 8453 573d f897 26bd eab8 48be 4088 85bb
00000120: 23ab 43be d8e0 e3bc cbf7 2b3e 1829 3ebe
00000130: 007a 1e3a 9d52 003e b5bd 1d3e 7012 8ebd
00000140: 0827 2c3d 843a 06be 0a13 b53d 40b2 53bd
00000150: 5863 bd3c 8021 4c3d b2b1 ea3d 5014 79bc
00000160: 49a9 283e f11b 0e3e 13f8 24be 5d6c 463e
00000170: 30bd 013c 8247 0abe 97b1 a8bd 3887 363d
00000180: 03e8 b1bd ecf2 5a3d cd4c 31be 6de8 25be
-0.1619801 -0.10766981 -0.055052087 -0.0781184 -0.065657616 -0.09835191 -0.019981101 0.18129332
-0.09668424 0.07831265 0.08470787 0.1764095 0.10270454 -0.06532726 0.028943062 0.0083785355
0.15448307 0.17952381 -0.0665452 -0.16285482 0.102022305 -0.03500858 0.16043471 -0.08102603
-0.07154317 -0.12793656 -0.113195494 0.101649776 -0.11959972 0.039307475 0.11626424 -0.03796491
0.0054773986 0.06306411 0.014375329 0.034503073 -0.013313577 -0.078995325 0.07556002 -0.13381696
0.18422668 0.16460346 0.09606944 0.1464483 0.09843342 0.050394043 -0.13963981 -0.036250353
-0.07265553 -0.12449467 -0.01289852 0.13308947 -0.15257218 -0.055357978 -0.0034673214 0.0050518215
-0.028060958 -0.044275075 -0.13810988 -0.08872352 -0.11160598 -0.023004383 0.13817991 0.037087113
-0.18320696 0.14447217 -0.14141326 -0.1329346 0.05256988 -0.040672272 -0.19601789 -0.00407508
-0.19108252 -0.027817175 0.16793744 -0.18570364 0.0006045401 0.12531514 0.15404399 -0.069371104
0.04202941 -0.1310826 0.08841522 -0.051683664 0.02311866 0.049836636 0.11459674 -0.015202597
0.16470827 0.13877846 -0.16110258 0.19377275 0.007918641 -0.1350384 -0.082369976 0.04456255
-0.08686831 0.053454325 -0.17314453 -0.16201945

bias f4 [4]
00000000: 5f7d 223e e5c4 433e e9c7 253e 3d27 31be
0.15868138 0.19118078 0.16189541 -0.17300124
