models/_brain_229.pt (torch, 14593 bytes, 12 tensors)

weight f4 [14]
000000 00 00 80 3f 00 00 80 3f 00 00 80 3f 00 00 80 3f
       1.0 1.0 1.0 1.0
000010 00 00 80 3f 00 00 80 3f 00 00 80 3f 00 00 80 3f
       1.0 1.0 1.0 1.0
000020 00 00 80 3f 00 00 80 3f 00 00 80 3f 00 00 80 3f
       1.0 1.0 1.0 1.0
000030 00 00 80 3f 00 00 80 3f
       1.0 1.0

bias f4 [14]
000000 00 00 00 00 00 00 00 00 00 00 00 00 00 00 00 00
       0.0 0.0 0.0 0.0
000010 00 00 00 00 00 00 00 00 00 00 00 00 00 00 00 00
       0.0 0.0 0.0 0.0
000020 00 00 00 00 00 00 00 00 00 00 00 00 00 00 00 00
       0.0 0.0 0.0 0.0
000030 00 00 00 00 00 00 00 00
       0.0 0.0

weight f4 [25, 14]
000000 20 15 ed 3d ce b2 7f 3e e0 25 b6 3d 98 ac 0e 3d
       0.11576295 0.24970552 0.08893943 0.034832567
000010 58 6c 19 be 12 6e 28 3e e2 81 37 be a4 07 43 3e
       -0.14982736 0.16448238 -0.1792064 0.19045883
000020 48 70 1c 3d f0 74 7b bd 40 f9 fc 3c 7c 9a c9 bd
       0.038193017 -0.061390817 0.03088057 -0.09843919
000030 b0 e0 f4 3c a4 bf 71 bd 28 90 ed 3d d0 3d f4 3d
       0.029892296 -0.059020653 0.11599761 0.11925852
000040 5c 64 55 3e 80 69 c7 3b 78 b1 30 3e c2 67 63 3e
       0.20839065 0.0060855746 0.17255199 0.22207549
000050 6c f6 bd 3d 1c 38 5e be b4 49 11 3e ec 39 85 3d
       0.09275517 -0.21701092 0.14188272 0.06505188
000060 e4 bb 89 3d 08 68 77 bd 5e 2e 03 3e 88 70 5b 3d
       0.067252904 -0.060401946 0.12810656 0.053574115
000070 da 92 7c be 79 11 86 be dc 80 fc 3d c8 67 d4 bc
       -0.24665394 -0.26185206 0.123292655 -0.025928393
000080 68 da 8d 3d f8 88 86 be 60 72 e1 3d 80 83 9e 3c
       0.06926423 -0.26276374 0.110081434 0.019349813
000090 e8 cd d8 bd 4f 16 3b be a2 38 7a 3e 88 5b 5d 3d
       -0.105861485 -0.18270229 0.24435666 0.05404237
0000a0 34 67 db 3d 9a 55 27 be c0 d4 52 3c 5f 73 3a be
       0.10713044 -0.16341248 0.012868106 -0.18208073
0000b0 da 99 88 be ce 59 23 be db 58 58 be 24 03 6d 3e
       -0.2667988 -0.15952227 -0.21127646 0.2314573
0000c0 f8 97 45 3e 9a 0f 46 be 40 b1 83 bc 88 9d f1 bc
       0.19296253 -0.19341889 -0.01607573 -0.029494062
0000d0 be 9b 7c 3e b1 25 29 be 4a be 7e be 4e 26 c8 bd
       0.24668786 -0.16518284 -0.24877277 -0.09772931
0000e0 c2 ba 09 be 20 c9 4a bd a6 fe 78 be 34 a4 21 3e
       -0.13450149 -0.049508214 -0.2431589 0.15785295
0000f0 78 0c cf 3d b8 cc 75 bd 32 6d 11 3e 40 a4 12 be
       0.101098 -0.06000969 0.14201811 -0.14320469
000100 a4 bd 34 be 88 f1 19 3d b2 56 05 3e f0 d1 37 3d
       -0.17650467 0.037583858 0.13021353 0.044877946
000110 b6 61 2d 3e 23 2d 0b be 14 b5 5f 3e ea ed d8 bd
       0.16931805 -0.13591437 0.2184642 -0.105922535
000120 08 21 d8 bc 90 ac 9c bc ea 6e 6d 3e 00 9f 35 3b
       -0.026382938 -0.019125253 0.23186842 0.002771318
000130 18 a0 12 3e 9a 56 9a bd 54 e7 44 3e 80 66 51 be
       0.14318883 -0.07536049 0.1922887 -0.20449257
000140 8a 9a cc bd a2 f2 58 3e b8 7a 93 3d e4 5c 7c bd
       -0.099904135 0.21186307 0.07201141 -0.061612025
000150 80 76 dc bb 76 0a 60 be 15 e5 63 be be 04 e8 bd
       -0.0067279935 -0.2187899 -0.22255357 -0.113290295
000160 74 ac a6 bd a7 7c 44 be 20 0f 09 bc f2 a8 6b be
       -0.081383616 -0.19188176 -0.0083654225 -0.23013666
000170 b8 e0 04 3d c0 2e a2 3b e5 ad 6d be 12 64 60 be
       0.03244087 0.0049494207 -0.23210867 -0.21913174
000180 e0 43 bc bc 70 d6 65 bd 7a be 1c be a2 21 35 be
       -0.022981584 -0.056112707 -0.15307036 -0.17688611
000190 cc fe 03 3e 4e af 86 bd 10 a8 c7 3c dd 84 64 be
       0.12890166 -0.065764055 0.02437213 -0.22316308
0001a0 04 52 12 3e f4 9a 32 be 00 c0 2b b9 28 af 2a 3e
       0.14289099 -0.17441922 -0.00016379356 0.1666838
0001b0 d4 fd 96 3d 56 66 0a be 90 a8 ef 3c 0c 16 30 bd
       0.073726326 -0.135156 0.029255182 -0.042989776
0001c0 70 8d c4 3c dc 03 60 3e 96 0a 7f 3e 98 8f 49 3d
       0.023993224 0.21876472 0.24906382 0.049209207
0001d0 0c 31 fd 3d 4c 9b 08 bd 56 5f 73 3e 14 98 5e 3e
       0.123628706 -0.033351228 0.23766837 0.217377
0001e0 1c 2e ee 3d 1a 0f 71 3e 2c d6 8f 3d 40 59 55 3c
       0.116298884 0.23540917 0.07023272 0.013021767
0001f0 9a 37 3c 3e 58 9e f6 3d 90 0a ce bd 88 75 e1 3d
       0.18380585 0.120419204 -0.100606084 0.110087454
000200 d8 df 2a 3d d8 99 68 3e 40 84 4b 3d 18 20 37 bd
       0.04171738 0.22714937 0.04968667 -0.04470834
000210 22 ac 53 be 0a 3f 28 3e e8 30 43 3d 2e 8b 0a be
       -0.20671132 0.16430297 0.047654063 -0.13529655
000220 0c 2d bf 3d 40 3a f4 3c c2 4d 86 bd 16 5d 46 3e
       0.09334764 0.029812932 -0.065578 0.19371447
000230 f0 17 a2 3c 1a 8a 6b 3e 1a f8 7f 3e ce 44 54 3e
       0.019786805 0.230019 0.24996987 0.20729372
000240 70 fd 6b bd a8 19 ba bc bf 74 45 be f6 f0 78 3e
       -0.057614744 -0.022717312 -0.19282816 0.2431067
000250 bc 9a 5b be ac 3b 03 3e 70 0f 91 3c fa 4c 02 3e
       -0.21445745 0.12815732 0.017707556 0.12724677
000260 40 07 8b bc 16 f2 03 3e 50 e3 d7 3c d8 d7 77 be
       -0.01697123 0.12885317 0.026353508 -0.24203432
000270 70 39 fb 3d 52 db b0 bd a0 ba f4 3c 68 c7 62 be
       0.12266815 -0.08635582 0.029874146 -0.2214638
000280 5a 06 3d be 00 34 4a 3e f5 d1 63 be 04 54 4b 3e
       -0.18459454 0.19746399 -0.22248061 0.19856268
000290 00 24 bd ba 00 10 b0 3c ae 67 07 3e a4 cf d8 bd
       -0.0014430285 0.021492004 0.13223144 -0.10586479
0002a0 b8 a5 bc bc 74 d8 39 3e ce 01 13 3e 14 ab 90 3d
       -0.02302824 0.18148977 0.14356157 0.070638806
0002b0 d4 6f e1 3d 18 fb e6 3d 00 11 d8 3d e4 cb 16 be
       0.11007658 0.11278361 0.105501175 -0.14726216
0002c0 e0 1e 32 3e 40 1e 93 bb 47 eb 4b be 3a 27 c2 bd
       0.1739459 -0.00448969 -0.1991397 -0.09480138
0002d0 c8 2b 6d 3d d8 06 c8 bc a0 f6 6b 3c 98 1b f1 bc
       0.05790308 -0.024417326 0.014402062 -0.029432103
0002e0 c8 f3 83 3d 0e 8d 14 be 48 89 18 3d a6 b9 2e be
       0.06442982 -0.14506933 0.037240297 -0.17063007
0002f0 a4 71 c7 3d d0 15 ee 3d 92 9a 6c 3e bc f4 0e 3e
       0.09738472 0.11625254 0.23105839 0.13960546
000300 e2 6d 35 be 90 2a 45 be ce 2a ca bd 67 99 36 be
       -0.17717698 -0.19254518 -0.098714456 -0.17831956
000310 20 c2 fb bc be 3f 75 3e bc 3c ed 3d dc 42 3a 3e
       -0.030732214 0.23950097 0.1158385 0.18189567
000320 a0 8b 7b bd 5a 8a 16 3e 42 d3 e0 bd d2 a6 e9 bd
       -0.061412454 0.14701214 -0.10977794 -0.114087716
000330 d0 ab 02 3d a2 ba 2a 3e 32 6a 7d 3e 50 24 da 3c
       0.031902134 0.16672757 0.24747542 0.026628643
000340 e6 eb 46 be 4c 44 1f 3e e0 96 d6 3d ac 86 8e bd
       -0.19425926 0.15553397 0.10477996 -0.0695928
000350 a4 d3 5e 3e 28 3a 18 bd 68 51 fe bd 60 7e 15 3e
       0.21760422 -0.037164837 -0.12417871 0.1459899
000360 fe 2a 52 be 9d 65 0e be e0 16 aa 3d f0 f1 13 3e
       -0.20524213 -0.1390595 0.08305144 0.1444776
000370 f8 69 a2 3d 5c f6 1b be 92 16 17 3e 3c 6d 38 bd
       0.07930368 -0.15230697 0.14754704 -0.04502605
000380 ec 74 6a 3e d6 c5 06 3e 0a 6a 3c be 5c 56 a8 3d
       0.22896165 0.13161406 -0.18399826 0.08219597
000390 b4 b7 6b be c6 c0 38 3e fe 82 21 be 00 9c 10 3b
       -0.23019296 0.18042287 -0.15772626 0.002206564
0003a0 f4 89 32 3e ae 0a 37 3e ee bf 24 be d1 25 83 3e
       0.17435437 0.17875168 -0.1608884 0.2561479
0003b0 1b 6e 36 be ee 06 0c be 75 3b 84 be ba 5d 6d be
       -0.1781544 -0.13674518 -0.25826612 -0.23180285
0003c0 20 18 ca 3d 80 5f 5a 3e d8 0e 12 be 88 5f 33 3e
       0.09867883 0.21325493 -0.14263475 0.17516911
0003d0 06 05 a2 bd 24 4b f1 bd 8a 5e 21 3e 18 93 5d bd
       -0.079111144 -0.1178191 0.1575872 -0.054095358
0003e0 c0 a2 45 3d e8 19 1d 3d 9a 26 6f 3e 66 cd ac bd
       0.048250914 0.038354784 0.23354569 -0.08437614
0003f0 e8 52 20 be 6e 2f ac bd 26 cb 87 be ec c2 81 be
       -0.15656626 -0.08407484 -0.26522177 -0.25344026

bias f4 [25]
000000 e8 cf 6e be a6 96 7d 3e 66 2c 99 bd ac b3 16 3e
       -0.23321497 0.24764499 -0.074791715 0.14716977
000010 30 8c a1 3d fb d1 34 be 0e 81 6f 3e e0 a8 0c 3e
       0.07888067 -0.17658226 0.23389074 0.13736296
000020 05 61 84 be 80 f7 14 bb 90 7e 4a 3d 34 26 00 3e
       -0.2585527 -0.002273053 0.049437106 0.12514573
000030 22 f6 1b 3e f4 a5 35 3e 30 14 a6 bc 88 42 3d 3e
       0.15230611 0.17739087 -0.020273298 0.18482411
000040 f0 70 27 3e a0 a2 84 3c 6a 27 04 3e 6c 70 26 3e
       0.16351676 0.016190827 0.1290566 0.16253823
000050 78 7e 22 bd 74 12 a2 3d 0c da 4d be 32 5e e5 bd
       -0.03967139 0.07913676 -0.2010271 -0.11199607
000060 40 e5 e4 3c
       0.027941346

weight f4 [25, 25]
000000 62 61 fe 3d 81 43 45 3e e8 91 d1 3c 99 5e 0e 3e
       0.12420918 0.19264032 0.025582269 0.13903274
000010 95 d7 28 3e e1 0d 47 3e a0 ca 31 bd 56 e2 92 3d
       0.16488488 0.19438888 -0.04340613 0.071720764
000020 14 b3 05 3d 20 4b 56 3c d8 62 bf 3c 33 84 db bd
       0.032641485 0.013079435 0.023362562 -0.107185744
000030 96 a3 29 be ef dc 0d 3e f1 52 3b 3e 69 e5 2d 3e
       -0.1656631 0.1385381 0.18293358 0.16982044
000040 f6 df e3 3d 80 b9 a0 3c 6f 50 12 3e 4e 37 b3 3d
       0.111267015 0.019619703 0.14288495 0.08750783
000050 88 c6 2f be 2b dd 1c be a8 3a c9 3c 4a 11 cc bd
       -0.17165577 -0.15318744 0.024564102 -0.09964235
000060 2d 87 41 3e fc 4a 59 3d 94 6d 19 bd 9b fb 3c 3e
       0.18899222 0.053050026 -0.037458017 0.18455355
000070 6c b0 5b bd 70 04 f3 3c cd 06 39 3e cd 2b b2 bd
       -0.053635046 0.029665202 0.18069 -0.086997606
000080 99 4c 49 3e e0 82 b7 bd c4 df 5e 3d 2c f0 68 3d
       0.19658126 -0.08960509 0.05441262 0.05686967
000090 b6 0c 8d bd 22 fb c0 3d 22 7c 1a be 83 86 a8 bd
       -0.0688719 0.094229 -0.15086415 -0.08228781
0000a0 e6 c0 a1 3d 8d ff 49 be ac c9 50 bd 87 ac 39 be
       0.078981206 -0.19726391 -0.05097358 -0.1813222
0000b0 bd 07 40 3e 00 ea 89 bb 7c 32 87 bd d9 6d 16 3e
       0.18752952 -0.004208803 -0.06601426 0.14690341
0000c0 6c 24 01 be bd 78 a9 bd b1 2b 31 3e 52 e6 3a be
       -0.1261155 -0.08274982 0.17301823 -0.18251923
0000d0 7e 46 0f be cd f2 30 3e f0 ca a4 bc a3 4b 0d be
       -0.13991734 0.17280121 -0.0201163 -0.13798384
0000e0 a0 c0 14 bc f7 fc e8 bd f1 ec 29 3e 7e 26 dc 3d
       -0.0090791285 -0.11376374 0.16594292 0.10749529
0000f0 b7 41 c8 bd 93 1d 24 3e a0 cb 53 3c 22 b7 9d 3d
       -0.09778159 0.16026907 0.012926966 0.077009454
000100 6a 33 90 3d 08 36 31 bd 20 ed 0b bc 04 6e 4d 3d
       0.070410565 -0.04326442 -0.008540422 0.050153747
000110 bc 11 7b 3d f1 ed 18 3e a8 a4 c7 3c 00 8a 06 bc
       0.06129621 0.14934517 0.024370506 -0.008211613
000120 70 14 8e 3c d4 6a 0b be 0e 97 ed 3d 02 80 b6 3d
       0.01734373 -0.1361497 0.11601077 0.08911134
000130 00 80 5b 3b d6 a5 1c be f0 91 d1 3c f6 80 1e be
       0.0033493042 -0.15297636 0.025582284 -0.15478882
000140 3a 2b 9c 3d 6a 5c 42 be c3 ff dc bd 70 04 f5 bc
       0.07625432 -0.18980566 -0.1079097 -0.029909343
000150 24 86 77 3d 8b 2d 31 3e d8 cf bb bc f0 cd b1 bd
       0.06043066 0.1730253 -0.022926256 -0.086818576
000160 71 c7 13 3e e2 fc 87 3d 90 49 c1 bd f0 ea d2 bc
       0.1443155 0.066400304 -0.09437859 -0.025746793
000170 14 2b 5c 3d 66 2e b5 3d 92 bf f8 3d 22 08 ed 3d
       0.05375202 0.088467404 0.12145914 0.11573817
000180 b5 13 07 3e b0 68 76 bc 67 27 e6 bd 18 6b 53 bd
       0.13191111 -0.015039608 -0.11237984 -0.051615804
000190 07 6c 9b bd e8 9e be bc 70 32 da bc 09 c6 0a 3e
       -0.07588964 -0.023269132 -0.026635379 0.13552107
0001a0 44 8e 7d 3d 1a 4a b9 3d a0 09 c7 bb a4 83 06 be
       0.061903253 0.09047337 -0.0060741454 -0.13136154
0001b0 8b cb 36 3e b0 61 21 bc 82 9b 25 be e9 08 30 3e
       0.17851083 -0.009849951 -0.16172603 0.17190899
0001c0 b2 92 81 3d e1 7c 43 3e 92 0e db 3d b8 d3 42 bd
       0.06326808 0.19090606 0.106961384 -0.047565192
0001d0 42 76 3a be a8 75 3b 3d 5e 25 9a 3d f0 82 fa 3c
       -0.18209174 0.045766503 0.075266585 0.030580014
0001e0 27 d1 ec bd b0 f6 ff bc a7 45 1e 3e c2 ed b2 3d
       -0.1156333 -0.03124556 0.15456258 0.08736755
0001f0 f5 f8 08 be d0 9e 56 bc 6e 48 d7 3d 37 82 e0 bd
       -0.1337622 -0.013099387 0.10511862 -0.109623365
000200 d3 29 06 3e 56 b1 95 bd ba 75 1d be dd 47 0d 3e
       0.13101892 -0.07309215 -0.1537694 0.13796945
000210 d9 b9 3b 3e 30 3e ca 3c 2a 4b 94 bd 18 ad 52 bd
       0.18332614 0.024687856 -0.07240899 -0.051434606
000220 a8 30 da 3c fa c6 f5 3d c8 c9 4a bd c0 85 b1 bc
       0.02663453 0.120008424 -0.04950884 -0.021670222
000230 3a 8a aa 3d 88 e0 16 3d 08 52 23 be e3 d2 1e be
       0.08327146 0.036835223 -0.15949261 -0.15510134
000240 73 e2 49 be 60 50 89 3b 93 86 3f 3e 30 8d 17 be
       -0.1971529 0.0041904896 0.1870368 -0.14799953
000250 c0 f9 b0 bb 5d 5f 0a 3e d7 e7 c5 bd f0 5b cd bc
       -0.0054008663 0.1351294 -0.096633606 -0.025068253
000260 a0 ea c2 bd 57 04 d1 bd 58 43 e6 bc e0 04 ea bd
       -0.095174074 -0.10205906 -0.028108284 -0.11426711
000270 cb da 29 be 2e f0 1c be 00 e9 86 bd e0 be 30 be
       -0.16587369 -0.15325996 -0.0658741 -0.17260313
000280 6e 4c a8 3d 22 bc 9e 3d 88 e8 23 be ad 82 b5 bd
       0.08217703 0.07750727 -0.16006672 -0.08862815
000290 e7 2a 9e bd 2d 2b ab bd 60 07 30 be 82 43 b4 3d
       -0.07723027 -0.083578445 -0.17190313 0.088019386
0002a0 13 48 1d be f3 4e 3d 3e 72 53 96 3d 05 7b 01 be
       -0.15359525 0.18487148 0.07340135 -0.12644584
0002b0 70 8e 99 3c eb db 11 3e 18 bb 15 bd 6a eb b8 3d
       0.018744677 0.14244048 -0.03655538 0.09029277
0002c0 e1 dd 13 3e d3 b0 4a be 37 4b 0d 3e 7e 78 19 be
       0.14440109 -0.19794016 0.13798223 -0.1498737
0002d0 91 14 35 3e 50 f7 82 3c 30 83 89 bc 00 c1 07 bc
       0.17683627 0.015987068 -0.016786188 -0.008285761
0002e0 1a a6 ee 3d 12 c3 db 3d 9e 29 10 be 90 58 ce bd
       0.11652775 0.10730566 -0.14078376 -0.10075486
0002f0 4c 61 48 3d 1e 0d c7 3d 48 4d 11 be 00 0b d2 ba
       0.048920915 0.09719299 -0.14189637 -0.0016025007
000300 d2 3e 2e be a3 f9 aa bd 76 7c d9 3d 16 e4 f4 3d
       -0.17016152 -0.08348396 0.10619442 0.119575664
000310 11 6d 03 3e fd 0a cd bd d9 78 09 3e 1b b9 0e be
       0.12834574 -0.100118615 0.13425006 -0.139378
000320 a7 b0 bd bd b0 35 ef bd 28 79 4b 3d d0 db b7 bc
       -0.092622094 -0.11680162 0.04967609 -0.022443682
000330 d8 31 a4 bc fe 92 c8 3d 00 1b 5f bd 20 e0 25 be
       -0.020043299 0.097936615 -0.05446911 -0.16198778
000340 40 65 16 3b c2 af b8 3d 50 48 e9 3c e0 23 3e 3c
       0.0022948533 0.09017898 0.028476864 0.011605233
000350 57 81 14 3e a8 ff 1f 3d a7 55 33 3e 49 50 15 3e
       0.14502464 0.039062172 0.17513143 0.14581408
000360 e8 8c 07 3d 1a a5 c1 bd 40 67 5f bd d4 3e 6c bd
       0.033093363 -0.09455319 -0.054541826 -0.057677105
000370 82 ce d7 3d 56 60 bf 3d ce 8c bb 3d aa 5f 9b bd
       0.10537435 0.093445465 0.09157716 -0.07586606
000380 33 e0 9c bd 60 55 19 3d 40 4b 83 3b 5c 17 04 be
       -0.0765995 0.037434936 0.0040067732 -0.12899536
000390 f2 68 f6 3d 67 37 fa bd 72 4f 32 be 9c 73 95 bd
       0.120317355 -0.122175984 -0.17413118 -0.07297441
0003a0 7e 13 8d 3d d0 70 0c be 6c b3 09 bd f6 a2 fb 3d
       0.068884835 -0.1371491 -0.033618376 0.12286942
0003b0 97 9d 42 be 20 95 0d bd 0c 2e 3d 3d 4c 62 4a bd
       -0.19005428 -0.034566045 0.04618649 -0.04941015
0003c0 e1 0a 03 3e 9a b0 82 3d db b8 4b be a2 9e fb 3d
       0.12797119 0.0638134 -0.19894736 0.12286116
0003d0 94 25 42 bd a9 a2 28 3e 25 44 02 be 11 ae 1b 3e
       -0.04739912 0.164683 -0.12721308 0.1520312
0003e0 80 15 39 be 85 01 00 be 50 99 f9 bc 14 6c 76 3d
       -0.18074608 -0.1250058 -0.030468613 0.060161665
0003f0 2a e2 92 bd 60 65 fe 3b ab 51 11 3e 61 71 3d 3e
       -0.071720436 0.0077635497 0.1419131 0.18500282

bias f4 [25]
000000 8e 04 0e be 07 14 e3 bd ed 1c fd bd 99 48 0e 3e
       -0.13868925 -0.11087804 -0.12359033 0.13894881
000010 2a c5 f4 3d 2a 35 e6 3d 20 e5 2f bc c2 7d c7 3d
       0.119516686 0.11240609 -0.01073578 0.09740783
000020 80 18 d9 3c ba 19 d2 3d 68 87 46 bd b5 42 3c 3e
       0.02650094 0.10258813 -0.048468977 0.18384822
000030 ca a4 1a be 50 40 74 bc c0 27 2b be 61 4c 4c 3e
       -0.15101925 -0.014907911 -0.16714382 0.19951011
000040 58 8d c8 3c 5a c3 c0 3d 5b f4 38 be e0 20 41 3d
       0.02448146 0.0941226 -0.18061964 0.047150493
000050 21 06 17 3e 8a 9a bf bd 4b 79 1a 3e ac a6 07 3d
       0.14748432 -0.09355648 0.15085332 0.033117935
000060 4d c3 3c 3e
       0.18433876

weight f4 [25, 25]
000000 72 eb 90 3d 0c 14 1e bd 30 f2 b0 bc 76 82 84 3d
       0.07076158 -0.038593337 -0.021599859 0.06470196
000010 9a 2f 08 be d2 0c fa 3d e8 57 1e be 6a d2 fb 3d
       -0.13299409 0.122094765 -0.15463221 0.12295993
000020 2a 7d 24 be 62 24 b8 3d 68 ab 15 be aa 54 bb bd
       -0.16063371 0.089913145 -0.14616168 -0.09147008
000030 ea 69 00 be 28 e4 07 be e5 69 37 3e 2b b9 1c be
       -0.12540403 -0.13270628 0.1791149 -0.15305011
000040 53 52 d2 bd 14 cf 4c 3d e2 f2 26 be c0 ec 8c bc
       -0.10269608 0.050002173 -0.1630359 -0.017202735
000050 c6 e2 d8 3d 40 16 89 bb e0 6a ad bd 4c 82 80 bd
       0.105901286 -0.0041835606 -0.084676504 -0.06274852
000060 4e 02 2c be e5 5a 04 be aa b4 8f 3d a8 f9 93 bc
       -0.16797754 -0.12925299 0.07016881 -0.018063381
000070 42 7c a8 3d f6 cf d8 3d 31 55 0c 3e 9b b4 3e be
       0.08226825 0.105865404 0.13704373 -0.18623583
000080 dd 80 3f 3e cd c1 15 be ae 2a c9 3d 20 f0 7d 3c
       0.18701501 -0.1462471 0.09822594 0.015499145
000090 9a 37 1b be f8 d4 21 3d 85 45 03 3e 93 ea 3e 3e
       -0.15157929 0.039509743 0.12819488 0.1864417
0000a0 10 26 d2 bd ed ed 2c 3e 20 a0 80 bd 62 a7 a4 3d
       -0.10261166 0.16887636 -0.062805414 0.08039738
0000b0 38 9e 17 3d f1 45 20 3e 50 e4 8e bc 2d 84 1a 3e
       0.037016124 0.1565168 -0.017442852 0.15089484
0000c0 78 9e 79 bd c0 82 50 bb 4e 11 e7 3d e5 6e 0a 3e
       -0.060942143 -0.0031816214 0.112825975 0.13518865
0000d0 03 ef a1 bd 02 43 84 3d 9a 58 ea bd 7f 1c 11 3e
       -0.07906916 0.06458093 -0.11442681 0.14171027
0000e0 e8 f5 42 bd 92 d8 3c be 78 a1 7f bd ba 98 25 be
       -0.047597796 -0.1844199 -0.062409848 -0.16171542
0000f0 54 9c 12 bd e6 c7 a7 3d 44 19 97 bd 50 e9 d3 3c
       -0.035793617 0.081924245 -0.07377866 0.025868088
000100 fa b7 f2 bd 5d 7d 0c 3e 00 b4 18 3d a0 8e 99 3b
       -0.11851497 0.13719697 0.037281036 0.0046861917
000110 dd 14 e3 bd 20 60 79 bd 1e 5f 1f be dd 6c e9 bd
       -0.11087964 -0.060882688 -0.15563628 -0.11397717
000120 43 84 d2 bd 07 80 2e 3e 28 e7 43 be b4 8a 14 3d
       -0.10279133 0.17041026 -0.19131148 0.03626509
000130 82 12 f1 3d f2 fd a4 3d 60 6b 62 bc 57 1f 3e be
       0.11771108 0.08056249 -0.0138195455 -0.18566643
000140 d0 c9 d1 3c cd 1a b3 bd 4c 17 0a be 3e 92 16 be
       0.025608927 -0.08745346 -0.1348545 -0.14704224
000150 95 62 29 3e 28 13 32 3d c8 f3 43 bd bd 2d 47 3e
       0.16541512 0.0434753 -0.04783991 0.19451042
000160 d8 53 33 3d d8 69 02 be 46 b8 93 bd ab b9 19 be
       0.04378113 -0.12735689 -0.07212882 -0.15012233
000170 92 ed 3f be 3e 80 a0 3d b0 d9 9b 3c 5e 19 0f be
       -0.1874297 0.0783696 0.0190247 -0.1397452
000180 c0 bf c8 bc aa 31 4b be 57 4d f2 bd 56 64 9e 3d
       -0.024505496 -0.19843164 -0.11831158 0.07733981
000190 30 aa 24 be 76 e9 1c be d8 31 a4 3c 85 71 2d be
       -0.16080546 -0.15323433 0.020043299 -0.16937836
0001a0 18 cf 0c 3d 14 2f 0b be 48 0e 67 bd aa 50 30 be
       0.034377187 -0.13592178 -0.056410104 -0.17218271
0001b0 f5 08 20 3e 82 6c c0 3d 9e 7f b3 3d be ee fa 3d
       0.15628417 0.09395696 0.087645754 0.12252568
0001c0 80 24 6c bc 35 ae 14 3e 30 d6 e7 bc 80 5e 70 bb
       -0.014412999 0.1451958 -0.028300375 -0.003667742
0001d0 ed 7b 03 3e 92 9f 2f be 10 9f 19 be b2 7f 8e 3d
       0.12840243 -0.17150715 -0.15002084 0.0695795
0001e0 35 a9 0a 3e 98 35 18 be 3a b9 e6 3d 27 18 f0 bd
       0.1354111 -0.14864194 0.11265798 -0.11723357
0001f0 fa 24 86 bd 66 00 c2 3d d3 61 0d be 74 64 00 bd
       -0.065500215 0.09472732 -0.13806848 -0.0313458
000200 1b a5 46 3e f3 2e c1 bd f4 0c 0d bd 95 95 1c be
       0.1939892 -0.09432783 -0.03443618 -0.15291436
000210 5b 33 42 be aa 21 dd bd ea ea 81 bd b0 b3 9c bc
       -0.18964903 -0.107974365 -0.063436344 -0.01912865
000220 28 37 39 bd 6c 1f 05 be da 38 d7 3d 00 7e 73 bc
       -0.045218617 -0.13000268 0.105088905 -0.014861584
000230 aa 7e 0f be d7 a6 af bd e0 16 6b 3c ed cf 29 3e
       -0.14013162 -0.08576744 0.014348716 0.16583224
000240 69 89 08 3e 61 d5 44 3e 43 ee 13 be a0 e9 30 3d
       0.13333668 0.19222023 -0.14446358 0.043191552
000250 18 e7 f8 3c 8a 94 c4 bd 67 bd c8 bd 7d b3 13 3e
       0.030383632 -0.09598644 -0.09801751 0.14423938
000260 6e b3 13 be 5b ef 12 3e a8 e5 87 bc e0 2f b6 bd
       -0.14423916 0.1434912 -0.016589 -0.0889585
000270 c3 6b 36 be bc 6a 77 3d 6f 7a 40 3e da 0f 49 be
       -0.17814545 0.060404524 0.18796705 -0.19634953
000280 a4 e5 86 bd 80 82 a7 3a 40 2d a2 3c ca b2 b8 bd
       -0.06586769 0.0012779981 0.019796968 -0.09018476
000290 00 dc 44 be 3a 03 e0 bd 32 b0 20 be 3e 0d f8 3d
       -0.19224548 -0.109381154 -0.15692213 0.12111901
0002a0 20 31 2d bc 81 3e 3b 3e 70 c3 e3 3c 82 a3 47 be
       -0.010570794 0.18285562 0.027803153 -0.19495967
0002b0 1d e1 35 3e 1f 81 00 3e 40 b0 9e 3c 46 9c d8 3d
       0.17761655 0.12549256 0.019371152 0.10576682
0002c0 ba 17 05 be 53 c8 22 be dd c9 e9 bd 68 c6 e0 bc
       -0.12997332 -0.1589673 -0.114154555 -0.027438357
0002d0 00 f2 9a 3c 4a a3 f6 bd 02 67 80 3d ca 04 93 bd
       0.018914223 -0.12042864 0.06269647 -0.07178648
0002e0 8d d1 d1 bd 54 f4 7d 3d d9 42 33 3e 61 38 3a 3e
       -0.10245047 0.062000588 0.17505969 0.1818557
0002f0 27 7a 2e be 64 83 8e bd 40 5f ca 3b 40 c0 c6 bb
       -0.17038785 -0.069586545 0.0061759055 -0.0060653985
000300 f4 7a 8d bd f5 49 4b 3e 6a 06 40 be b0 dd 8b bd
       -0.06908217 0.19852431 -0.18752447 -0.06829393
000310 7b 55 17 be 34 52 3d bd 4d 11 19 be b6 19 85 3d
       -0.14778702 -0.046220973 -0.14948006 0.064990446
000320 68 15 09 bd f2 83 d6 3d b0 2a 04 be 6b 13 36 be
       -0.03346768 0.10474385 -0.12906909 -0.17780845
000330 c8 bf 7f bd 4a 59 e1 bd 0a 9b c9 bd 60 72 e0 bb
       -0.062438756 -0.11003359 -0.098440245 -0.006849572
000340 69 a5 17 3e 83 48 1e 3e d8 e2 9b 3c 9c 9f 72 3d
       0.14809193 0.15457349 0.019029066 0.059234247
000350 e5 1f 1a 3e 60 36 9b 3b 56 e9 88 3d 23 8e db bd
       0.1505123 0.0047367066 0.0668513 -0.1072047
000360 3b 63 1d 3e e1 0c 31 3e bc 7b 82 bd 8c 55 2d bd
       0.15369885 0.17290069 -0.06371257 -0.042317912
000370 ca 5a 91 3d f3 9a c0 bd 07 11 e4 bd ef 1d 48 3e
       0.07097395 -0.09404554 -0.1113606 0.19542669
000380 71 a1 39 3e e8 ae f2 bc c7 eb 09 3e 5e a4 ef 3d
       0.18127991 -0.029624417 0.13468848 0.117012724
000390 6a d3 0f be 25 04 2b be f0 c7 db bd ec 82 5f 3d
       -0.14045492 -0.167008 -0.107314944 0.054568216
0003a0 00 ff 47 be 10 ba 87 bd 3a 8a da bd de 5d 14 be
       -0.19530869 -0.066272855 -0.10670896 -0.14488932
0003b0 53 c6 21 be 23 c0 1b 3e 89 e9 03 3e e7 15 a4 bd
       -0.15798311 0.15210013 0.12882055 -0.0801199
0003c0 28 b8 de 3c c0 14 af bc 40 8a 43 bd 8c c9 1c bd
       0.027187422 -0.021372199 -0.047739267 -0.038278148
0003d0 97 a4 cb bd 80 02 2e bc ca f0 96 bd 08 51 07 bd
       -0.099435024 -0.010620713 -0.073701456 -0.03303626
0003e0 c2 a1 f6 3d ec 24 43 3d 06 55 a1 3d 8b 98 43 3e
       0.120425716 0.047642633 0.07877545 0.1910116
0003f0 c6 de 95 3d c2 96 9d 3d 66 5c e3 3d 22 41 41 be
       0.07317881 0.076947704 0.11101608 -0.18872502

bias f4 [25]
000000 9f 61 32 be fd b6 0a be d6 b6 10 be a1 df 16 3e
       -0.17420052 -0.13546367 -0.14132246 0.14733745
000010 22 68 23 be 20 0f 78 bc 1d 7b 04 be 70 13 a2 3c
       -0.15957692 -0.015140325 -0.12937589 0.01978466
000020 73 0a d7 bd 68 7c b3 bc 47 a2 ce bd 6e 6f a4 3d
       -0.1050004 -0.021909907 -0.10089546 0.08029066
000030 01 3e 2d 3e 8d 28 01 3e 73 ce d9 bd b2 e5 ab 3d
       0.16918184 0.12613125 -0.1063508 0.0839342
000040 93 14 0b 3e b3 94 1f be 06 5f 0e be 3d ad f9 bd
       0.13582067 -0.15584068 -0.13903436 -0.12191246
000050 80 2a a4 3c 0f 4d 06 3e 43 02 a5 bd f9 43 3d 3e
       0.020039797 0.13115333 -0.08057072 0.18482961
000060 2c a3 5e bd
       -0.05435483

weight f4 [25, 25]
000000 c0 d3 8b bd 76 1c b0 3d 73 10 c5 bd 13 cc d2 bd
       -0.068274975 0.085991785 -0.09622278 -0.1029283
000010 58 e4 12 be 00 87 f3 3c 50 98 38 be 2c 2a 6b bd
       -0.14344919 0.029727459 -0.18026853 -0.057413265
000020 4a 75 dd bd e9 b2 40 3e 76 4d 18 be 4c cc 45 3d
       -0.10813387 0.18818249 -0.14873299 0.048290536
000030 51 9b 12 3e 11 70 32 3e 50 bd 8a 3c 0d bc 1c 3e
       0.14317061 0.17425562 0.016935974 0.1530611
000040 1b 31 20 3e 83 bd e5 bd b0 c5 cd bd ff 14 3f 3e
       0.15643732 -0.11217787 -0.100474715 0.18660353
000050 6c f8 07 bd 8d 0e c4 bd cc 1c 87 bd 93 89 a0 bd
       -0.033195898 -0.09573088 -0.065972894 -0.0783874
000060 42 7d da 3d 8f 92 1c 3e 10 94 a0 3c 62 03 3d be
       0.10668422 0.15290283 0.019601852 -0.18458322
000070 b0 b7 3d 3c a0 30 fd bd 52 d8 ff 3d 7d 46 0c be
       0.011579439 -0.1236279 0.12492432 -0.13698764
000080 93 f5 0e be b7 f0 3c be b0 37 49 be 9d 4d 41 be
       -0.13960867 -0.184512 -0.1965015 -0.18877263
000090 00 f6 a7 39 17 9d 38 be b2 96 a1 3d 94 68 02 be
       0.00032036006 -0.18028675 0.07890071 -0.12735206
0000a0 47 fb cc bd 7b 0f 1e be 91 a2 26 3e df 18 25 3e
       -0.10008865 -0.15435593 0.16272952 0.16122769
0000b0 88 09 11 3d ca ea b4 bd 52 fe 41 be dc 1d 0c be
       0.03540948 -0.08833845 -0.18944672 -0.13683265
0000c0 b9 5e 26 3e 8b 75 0e 3e 3d d8 be bd 78 53 47 3d
       0.16247071 0.13912027 -0.09318588 0.048663586
0000d0 00 ac 1a 3c 00 66 7a 3c 83 13 3a be b0 65 fb bd
       0.009440422 0.015283108 -0.18171506 -0.12275255
0000e0 4d e4 d3 bd 36 f7 8e 3d be ee 1b be 30 e1 9f bd
       -0.10346279 0.069807455 -0.15227792 -0.07806623
0000f0 ea d3 f9 bd e0 fe f7 bd 50 fd 5a 3c 5a 06 ee bd
       -0.121986225 -0.121091604 0.0133660585 -0.11622305
000100 03 df e7 bd 2c 6b 10 3d e0 b0 69 3c 14 e7 34 3d
       -0.11321833 0.035258457 0.014263362 0.044165686
000110 05 08 01 3e d0 3d 89 bc 2b 9d 43 3e b6 61 eb 3d
       0.12600715 -0.016753107 0.19102924 0.11493246
000120 02 33 bf 3d 00 83 7a ba 02 49 c8 3d 4a 73 d1 3d
       0.09335901 -0.00095562637 0.0977955 0.10227068
000130 3e 93 22 be c2 de d7 3d 70 b8 32 be a3 b9 e6 bd
       -0.15876481 0.105405346 -0.1745317 -0.11265876
000140 a5 d2 17 3e 74 eb 13 bd 7e 76 d6 3d 63 7b f8 bd
       0.14826448 -0.036113217 0.10471819 -0.12132909
000150 4a 2b 1b be 5d 36 1c 3e c0 e0 86 bd 43 d9 33 be
       -0.15153232 0.15255113 -0.065858364 -0.17563348
000160 8a 94 ae 3d 98 c8 9b bc f4 58 27 3d f0 ed aa bd
       0.08524425 -0.019016549 0.040856317 -0.08346164
000170 24 c9 8c bd 94 6b 63 3d 0d 6e 28 3e 60 18 d4 3b
       -0.06874302 0.055522516 0.16448231 0.0064726323
000180 2b 94 2d 3e 18 e0 00 bd d6 16 b8 3d d6 e9 e1 3d
       0.16951053 -0.031463712 0.089887306 0.11030929
000190 b4 e0 37 bd a5 80 10 3e fa 85 cd 3d c5 3f 3f be
       -0.044892028 0.14111574 0.100353196 -0.1867667
0001a0 90 75 28 be 06 67 86 bd 4d c1 09 be 8a fb e9 bd
       -0.16451097 -0.06562619 -0.13452645 -0.114249304
0001b0 80 fe 9a 3a 97 5e 37 3e 24 ef 58 3d b0 c1 25 3c
       0.0011825114 0.17907177 0.052962437 0.0101169795
0001c0 63 fa 2c 3e 27 26 33 3e df a1 07 3e e0 2f 03 3c
       0.1689239 0.17495023 0.13245343 0.00800702
0001d0 92 e3 cd 3d c0 cc ff bd 3a 8b d4 3d 40 10 ed 3c
       0.10053171 -0.12490225 0.10378118 0.028938413
0001e0 11 44 0e 3e b7 d2 ed bd 4d 36 a0 bd 53 47 b7 bd
       0.13893153 -0.11612456 -0.07822857 -0.08949151
0001f0 0b c8 14 be e8 90 09 3d 92 4d e6 3d e0 8f 04 bc
       -0.14529435 0.03358546 0.11245264 -0.008090943
000200 35 a3 03 3e 0d 8c 10 3e ae 63 1a be 80 a2 1e bb
       0.12855227 0.14115925 -0.15077087 -0.0024205744
000210 00 aa 03 bd 00 71 28 3d b4 1a 8f bd 0d 55 30 3e
       -0.032144547 0.04112339 -0.06987515 0.17219944
000220 6d a0 4b 3e dd 11 13 3e 10 01 23 be 10 f0 f1 bc
       0.19885416 0.14362283 -0.15918374 -0.029533416
000230 c0 cc 91 bb e3 e6 a6 bd cc 1d 56 bd 3a 54 e6 3d
       -0.004449457 -0.08149507 -0.05227451 0.11246534
000240 20 4c 48 3d bc f3 97 bd f2 69 de 3d 27 6d b0 bd
       0.048900723 -0.074195355 0.10860051 -0.08614569
000250 cf 98 1e 3e af c0 2c 3e 30 04 34 be 3f 03 15 3e
       0.1548798 0.16870378 -0.17579722 0.1455202
000260 97 38 ca bd a0 da 70 3c bb 53 43 3e 00 30 dd 38
       -0.09874075 0.014700562 0.1907491 0.00010547042
000270 f7 52 f5 bd da 1b 41 be 30 96 c8 3c b0 68 cc 3c
       -0.11978715 -0.18858281 0.024485677 0.024952263
000280 10 2d bd bc 89 16 3c 3e 0a 01 a6 3d c0 0e 00 3d
       -0.023092777 0.18367971 0.08105667 0.031264067
000290 c6 e4 90 bd 72 f8 43 be 41 df 15 3e 60 45 28 be
       -0.07074885 -0.19137743 0.14635946 -0.16432714
0002a0 dc 70 83 bd 98 c4 b0 3c f4 7b 08 be 5b 87 37 3e
       -0.064180106 0.021578118 -0.13328534 0.17922728
0002b0 ad df dc bd c0 98 94 3c 39 31 10 3e c4 3a 7f 3d
       -0.1078485 0.018139243 0.14081277 0.062311903
0002c0 6b 3e 42 3e 48 7c 2d 3d c5 43 12 be ca 7d da 3d
       0.18969123 0.042354852 -0.14283665 0.106685236
0002d0 70 0f 01 be 73 12 15 be 08 6f 23 3d 27 e6 05 3e
       -0.12603545 -0.14557819 0.03990081 0.13076077
0002e0 94 f0 2e 3d 68 cb 0b be 62 a2 16 be cd 0d 0f 3e
       0.042709902 -0.13651812 -0.14710382 0.13970108
0002f0 50 ec cf 3c 88 a8 1b bd 18 67 15 be 98 1c 15 be
       0.025381237 -0.03800252 -0.14590108 -0.14561689
000300 1f 10 25 3e 80 40 12 bd a2 51 b2 3d 8d 99 0e be
       0.16119431 -0.035706043 0.087069765 -0.13925762
000310 dd 0e f9 bd b0 3b b6 bc 2a bc a6 bd 20 dd 6f bd
       -0.12161038 -0.022245258 -0.08141358 -0.05856049
000320 04 e9 70 3d 4e b9 03 be 92 ce 34 be 0d 1a bd bd
       0.05881597 -0.12863657 -0.17656925 -0.092334844
000330 28 b9 95 bc 18 c2 c7 bc 63 3c 3f 3e d3 76 20 3e
       -0.018276766 -0.024384543 0.1867538 0.15670328
000340 5e 39 1f be f7 40 c0 bd 02 64 9c 3d d3 df 14 be
       -0.15549228 -0.09387391 0.076362625 -0.14538507
000350 f8 bf 2b bd 2a 68 e4 bd c9 3d 2a 3e c2 f4 c9 3d
       -0.041931123 -0.1115268 0.16625132 0.09861137
000360 0c 7a 41 bd 0c 18 3d 3d 4c d6 35 bd ec 02 61 3d
       -0.047235534 0.04616551 -0.044393823 0.054934427
000370 40 21 12 3b b2 e3 cb 3d 26 c3 16 be b0 6d ab bd
       0.002229765 0.09955539 -0.1472288 -0.083705306
000380 c7 2f 42 be e6 f3 84 3d 9a 68 1f be f0 c4 9a 3c
       -0.18963538 0.064918324 -0.15567246 0.018892735
000390 97 50 28 3e fb f9 09 3e a0 03 bd bb a6 72 a9 3d
       0.16436993 0.13474266 -0.0057682544 0.082738206
0003a0 d7 bf 09 3e 3e 63 92 3d d2 e2 2c be 76 15 11 be
       0.13452087 0.07147835 -0.168834 -0.14168343
0003b0 00 16 f5 bb 51 1a 23 3e e3 78 30 3e a8 88 11 bd
       -0.0074794292 0.15928008 0.17233615 -0.035530716
0003c0 a8 9d c5 bc d2 de d4 3d 4d f5 30 be 68 c6 08 3d
       -0.024123028 0.10394062 -0.17281075 0.03339234
0003d0 60 75 9d bd ba 12 bf bd c0 58 46 3d 77 2a 43 3e
       -0.07688403 -0.09329744 0.048424482 0.19059168
0003e0 b6 07 27 be 80 28 e6 bc f3 77 a0 bd a0 81 32 3c
       -0.16311535 -0.028095484 -0.078353785 0.010895163
0003f0 e5 b1 1e be f9 36 14 3e c0 a7 a0 bd a8 ec 19 3d
       -0.15497549 0.14474095 -0.07844496 0.03757921

bias f4 [25]
000000 c6 20 a0 3d 5c ec 62 3d 61 fa 16 3e 44 d6 6e 3d
       0.07818751 0.05540119 0.1474395 0.05830981
000010 72 d4 41 be d7 37 e3 bd 1d 28 a1 bd 60 8e e2 3b
       -0.18928698 -0.11094635 -0.07868979 0.006913945
000020 6f 9c 40 3e b0 e9 1c 3c b1 65 49 3e 5d 26 f2 bd
       0.18809675 0.0095772 0.19667698 -0.118237235
000030 e8 6d cd 3c b4 31 75 3d c5 85 47 3e 8a a2 97 bd
       0.025076821 0.059861854 0.19484623 -0.07404049
000040 7f 06 16 3e fa 2f eb bd 60 e6 9a bb 87 8b 45 3e
       0.14650916 -0.1148376 -0.00472717 0.19291507
000050 a3 81 33 be 5e 34 a3 3d 00 94 6e bc 7f b0 42 3e
       -0.17529921 0.079689726 -0.014561653 0.1901264
000060 00 b6 3f 3d
       0.046804428

weight f4 [4, 25]
000000 c8 e0 35 be f5 e7 3b 3e dc 7c 78 3d 10 eb 1a be
       -0.17761528 0.18350203 0.06066595 -0.15128732
000010 a3 62 18 3e 28 12 42 be b3 05 0f be 4c 5c 93 bd
       0.14881377 -0.18952239 -0.13967018 -0.071953386
000020 80 69 1e be 06 6e 2a be 18 09 11 3d c8 46 43 be
       -0.15469933 -0.16643533 0.035409063 -0.1906997
000030 b9 f9 00 3e c6 98 b5 3d 7a d9 a3 bd 63 f0 48 be
       0.12595262 0.0886703 -0.08000465 -0.1962295
000040 80 98 6a 3c 80 31 e1 bc 00 44 f2 3c 73 48 f0 bd
       0.014318585 -0.027489424 0.02957344 -0.117325686
000050 7b e5 14 3e ba 3a 8a bd 45 93 0c be 78 3b 45 be
       0.14540665 -0.067494825 -0.13728054 -0.19260967
000060 22 bd 14 be f3 90 16 be 45 3e 13 3e 6c ab 8f bd
       -0.14525273 -0.14703731 0.14379223 -0.07015118
000070 a2 92 d3 3d 29 f4 0b 3e ec c2 39 bd 28 f1 1a bd
       0.10330702 0.13667358 -0.045351908 -0.03782764
000080 a8 b7 6a bd 18 89 78 bd 1a f5 c3 3d 60 4e ab bd
       -0.057304054 -0.060677618 0.09568234 -0.08364558
000090 ac 36 3f 3d 11 95 48 3e 42 79 9a 3d 8a b2 c8 3d
       0.046683 0.19588114 0.07542659 0.097996786
0000a0 5e f1 b2 3d ec 97 0e 3d d6 4c d4 3d 2a 6d 1e be
       0.087374434 0.034812853 0.10366218 -0.1547133
0000b0 c9 32 33 3e 25 e0 47 3e eb b2 26 3e e2 c9 94 3d
       0.17499842 0.19519098 0.1627919 0.072650686
0000c0 a9 97 00 3e 7e 8e cc 3d 46 c0 da 3d 80 09 f0 3c
       0.12557854 0.09988116 0.106812045 0.029301405
0000d0 50 fc c4 bc e8 74 3e be 19 67 2d 3e ca 94 f8 bd
       -0.024046093 -0.18599284 0.1693386 -0.12137754
0000e0 77 7a de bd 54 f5 38 3d 49 4b 43 3e 55 f6 0b 3e
       -0.10863202 0.045155838 0.19071688 0.13668187
0000f0 60 eb e5 3b 68 59 07 3d b2 e5 d5 3d e0 11 1f be
       0.0070165843 0.03304425 0.104442015 -0.15534163
000100 b0 aa 1f bc 60 b4 07 bc 50 c8 80 bc e2 3b 09 be
       -0.009745285 -0.008282751 -0.015720516 -0.1340175
000110 b8 b0 64 bd d8 85 4a bd 25 b8 34 3e 90 64 d3 bc
       -0.055832595 -0.04944405 0.1764837 -0.025804788
000120 3a 85 1a be d7 ce d0 bd b0 10 14 bc 93 5a 2c be
       -0.15089884 -0.101957016 -0.009037182 -0.16831426
000130 14 aa 65 3d e3 83 1b be 74 c1 07 be 65 22 20 be
       0.056070402 -0.1518703 -0.1325739 -0.1563812
000140 c0 29 b8 3c d0 7a 0e bc 3b 9d 3a be 4f 0a 42 be
       0.022480845 -0.008696273 -0.18224041 -0.18949245
000150 98 92 f8 bc 30 c0 e9 bd 30 39 a0 bc 9a b9 b7 3d
       -0.030343339 -0.1141361 -0.01955852 0.089709476
000160 d3 9d 13 be c0 66 c8 3c 60 27 89 bd d2 5e 3c be
       -0.14415674 0.024463058 -0.06696963 -0.18395546
000170 62 9f 46 be 89 9f 46 3e c3 b3 9e bd a0 e6 3f be
       -0.19396737 0.19396795 -0.077491306 -0.1874032
000180 d4 dc 10 3d d8 4e aa bc b0 f9 bb bc 81 d2 32 3e
       0.035366848 -0.020789549 -0.022946209 0.17463113

bias f4 [4]
000000 60 17 76 bc d7 3a b3 bd 8c 90 00 bd 00 fb bf bc
       -0.0150202215 -0.08751457 -0.03138785 -0.023435116
