models/_brain_102.pt (torch, 14593 bytes, 12 tensors)

weight f4 [14]
1.0 1.0 1.0 1.0 1.0 1.0 1.0 1.0
1.0 1.0 1.0 1.0 1.0 1.0
00000000: 0000 803f 0000 803f 0000 803f 0000 803f
00000010: 0000 803f 0000 803f 0000 803f 0000 803f
00000020: 0000 803f 0000 803f 0000 803f 0000 803f
00000030: 0000 803f 0000 803f

bias f4 [14]
0.0 0.0 0.0 0.0 0.0 0.0 0.0 0.0
0.0 0.0 0.0 0.0 0.0 0.0
00000000: 0000 0000 0000 0000 0000 0000 0000 0000
00000010: 0000 0000 0000 0000 0000 0000 0000 0000
00000020: 0000 0000 0000 0000 0000 0000 0000 0000
00000030: 0000 0000 0000 0000

weight f4 [25, 14]
0.06492573 -0.044932738 -0.22207382 0.09429091 -0.23996612 0.2038179 -0.05874765 0.14105469
0.10976288 -0.15507397 0.083759815 -0.17353584 0.117569536 -0.16721308 0.2513068 -0.04617524
-0.1135589 0.1620625 -0.054964438 0.058841676 0.10388598 0.11296752 0.23903438 -0.013776511
-0.1003605 0.16762531 0.03913173 0.1480813 -0.18858582 0.066083044 -0.093712404 -0.24174088
0.21126395 -0.1646481 0.052746743 0.12586191 -0.128565 -0.1728481 -0.21596637 -0.142622
0.053724825 -0.2049266 -0.0948405 0.24315038 0.16477337 -0.18800122 0.020901144 -0.043981776
-0.1265806 -0.057511643 0.24652109 -0.085794225 0.2615585 -0.21579364 -0.05858551 -0.18583208
0.24315378 0.2621207 0.09977481 -0.06905688 0.12739295 0.007165402 0.08823857 0.12642145
-0.15342793 -0.20167828 -0.26255673 0.11500126 0.2613891 0.04426685 0.0646902 0.029494792
-0.06726824 -0.0029114783 -0.20280522 0.1507754 -0.22727805 -0.055641323 0.17474467 -0.054074675
-0.18648455 0.054114938 -0.16491324 -0.19854149 0.18451548 0.25483844 0.12396738 -0.21381697
-0.11327404 0.0003990531 -0.21390012 0.2537937 0.07279664 0.15956652 0.119267255 -0.19832179
-0.08193757 0.24463698 0.01907441 0.16855496 -0.20608512 -0.03961584 0.03610757 0.17644623
-0.22042847 0.034216046 -0.2324173 -0.19494164 0.17823663 -0.13119556 0.23013139 -0.18977556
-0.0010707378 0.01303938 -0.077962786 -0.22003943 0.23171908 -0.25245145 -0.029857486 -0.04460667
-0.18097675 -0.1870493 0.19993502 -0.022134244 0.16127577 0.036556005 -0.21172492 0.15174645
-0.21889527 -0.11666733 -0.13683529 0.20556816 -0.09026311 -0.1070175 0.022686273 -0.211164
0.091261715 -0.16141531 -0.13136283 0.13165408 -0.08444761 0.069395244 -0.04654762 -0.044858783
0.0031200945 0.10340643 0.069998115 0.13742581 -0.24915719 0.14655933 0.26467523 -0.101387665
-0.008321911 -0.11031078 -0.008476764 0.059908897 -0.020342916 0.23058507 0.10960278 0.15114477
-0.19619966 0.055915385 -0.22424349 0.066542685 -0.11577693 0.20588517 -0.040482268 0.2484099
0.0105469525 0.1603984 0.009082168 0.104916304 0.04606253 -0.030300409 -0.22843467 0.093969256
0.13485894 -0.07139391 -0.12213221 0.029161483 -0.041781396 -0.065583915 0.17979905 0.042604387
-0.11916712 -0.26482818 0.1773189 0.18893299 -0.21721211 -0.07012582 -0.008457959 0.15790775
-0.17544734 0.04991308 0.21243945 0.21656427 0.1027233 0.12232357 0.039263666 -0.011994362
0.21550599 -0.033615038 -0.13773268 0.21078709 0.12660894 0.13072312 -0.009333193 -0.23750468
0.027936727 -0.24459627 0.20410314 0.26308635 -0.14311229 -0.25035194 -0.18113136 0.11596641
0.10882416 -0.21647301 0.24585363 0.25511548 0.056114316 -0.2650162 0.13483301 0.1969356
-0.096283376 -0.151299 -0.19035196 -0.25104848 0.008191407 -0.19147268 0.033548146 0.23763373
0.19160506 -0.025953874 0.074950665 0.011567533 0.09519085 -0.2541557 0.03429568 0.21635747
-0.04834436 0.09386864 -0.08160801 -0.19537699 0.15395892 0.06492576 -0.2381278 0.13935483
0.16443962 -0.0845896 -0.028922781 -0.22150439 -0.22696805 -0.16805123 0.083658665 0.26213667
00000000: c8f7 843d 640b 38bd 5267 63be 981b c13d
00000010: aeb9 75be a4b5 503e 60a1 70bd a470 103e
00000020: 5ccb e03d b6cb 1ebe 448a ab3d 61b3 31be
00000030: 4cc8 f03d e839 2bbe 49ab 803e 4022 3dbd
00000040: 9291 e8bd b6f3 253e 6422 61bd f803 713d
00000050: 2cc2 d43d 845b e73d 6ec5 743e e0b6 61bc
00000060: ce89 cdbd f8a5 2b3e 9848 203d a0a2 173e
00000070: a41c 41be 8c56 873d 4aec bfbd ec8a 77be
00000080: 9455 583e 8399 28be f80c 583d f2e1 003e
00000090: 8ba6 03be 18ff 30be 4a26 5dbe 800b 12be
000000a0: 900e 5c3d 47d8 51be bc3b c2bd 6afc 783e
000000b0: 5aba 283e 6483 40be e038 ab3c 3c26 34bd
000000c0: 589e 01be 5491 6bbd 0670 7c3e e2b4 afbd
000000d0: ffea 853e 02f9 5cbe 5cf7 6fbd c44a 3ebe
000000e0: 4efd 783e af34 863e bc56 cc3d b26d 8dbd
000000f0: 4c73 023e c0cb ea3b 6cb6 b43d a074 013e
00000100: 361c 1dbe c084 4ebe d66d 86be c885 eb3d
00000110: cbd4 853e 2851 353d 4c7c 843d 109f f13c
00000120: eec3 89bd 80ce 3ebb 2cac 4fbe de64 1a3e
00000130: 94bb 68be 28e8 63bd 44f0 323e 687d 5dbd
00000140: cef5 3ebe a0a7 5d3d 04df 28be 764e 4bbe
00000150: a0f1 3c3e 2f7a 823e 9ce2 fd3d d6f2 5abe
00000160: 38fc e7bd 0038 d139 a208 5bbe 3ff1 813e
00000170: 6816 953d 6865 233e 6442 f43d de14 4bbe
00000180: e2ce a7bd 1e82 7a3e f041 9c3c ac99 2c3e
00000190: fa07 53be 3844 22bd 88e5 133d 52ae 343e
000001a0: 00b8 61be 2026 0c3d cdfe 6dbe c89e 47be
000001b0: aa83 363e 2158 06be 90a7 6b3e 8654 42be
000001c0: 0058 8cba 20a3 553c f4aa 9fbd 0452 61be
000001d0: c447 6d3e 5141 81be b097 f4bc 7cb5 36bd
000001e0: f851 39be da89 3fbe c4bb 4c3e e052 b5bc
000001f0: 7a25 253e c0bb 153d 6bce 58be 6c63 1b3e
00000200: 1526 60be 48ef eebd 8d1e 0cbe 7680 523e
00000210: dedb b8bd fe2b dbbd 90d8 b93c 603b 58be
00000220: 6ce7 ba3d 0e4a 25be fa83 06be 54d0 063e
00000230: def2 acbd 181f 8e3d b8a8 3ebd d8bd 37bd
00000240: 807a 4c3b c0c6 d33d 2c5b 8f3d 5ab9 0c3e
00000250: 1023 7fbe a613 163e 8383 873e 56a4 cfbd
00000260: a058 08bc 9eea e1bd 20e2 0abc 0863 753d
00000270: 30a6 a6bc 7e1e 6c3e 6c77 e03d b2c5 1a3e
00000280: 90e8 48be 8807 653d 16a0 65be 8847 883d
00000290: 741c edbd 90d3 523e bcd0 25bd 2a5f 7e3e
000002a0: 20cd 2c3c 7a3f 243e 60cd 143c 5cde d63d
000002b0: 10ac 3c3d 9038 f8bc c7ea 69be f472 c03d
000002c0: 7618 0a3e f836 92bd 7420 fabd 10e4 ee3c
000002d0: f822 2bbd dc50 86bd 3e1d 383e f081 2e3d
000002e0: e40d f4bd 8f97 87be 1693 353e a677 413e
000002f0: da6c 5ebe 209e 8fbd 4093 0abc 92b2 213e
00000300: 78a8 33be a871 4c3d ba89 593e 06c3 5d3e
00000310: 9860 d23d c884 fa3d f0d2 203d 0084 44bc
00000320: 9aad 5c3e ecaf 09bd cc09 0dbe 92d8 573e
00000330: c6a5 013e 48dc 053e 40ea 18bc 6d34 73be
00000340: 90db e43c 7277 7abe 6a00 513e 41b3 863e
00000350: 078c 12be 212e 80be 807a 39be cc7f ed3d
00000360: 34df de3d 1aab 5dbe 0ec1 7b3e 7f9e 823e
00000370: 20d8 653d 34b0 87be aa11 0a3e 7ca9 493e
00000380: 3830 c5bd 20ee 1abe a0eb 42be 6d89 80be
00000390: 4035 063c 6a11 44be c869 093d 4256 733e
000003a0: 1e34 443e 389d d4bc bc7f 993d c085 3d3c
000003b0: 6cf3 c23d b220 82be a079 0c3d d08c 5d3e
000003c0: bc04 46bd 343e c03d 1a22 a7bd e810 48be
000003d0: 68a7 1d3e ccf7 843d c6d7 73be 08b3 0e3e
000003e0: dc62 283e 503d adbd 78ef ecbc 0cd2 62be
000003f0: 506a 68be 9f15 2cbe 3c55 ab3d c736 863e

bias f4 [25]
-0.23269427 0.07315406 0.2613105 0.22231022 -0.2378198 0.008041978 0.2568352 0.10756442
-0.101137504 0.057471782 0.12728631 -0.21225458 -0.23882116 0.21184504 0.0039862692 -0.07802105
-0.20574963 0.05872938 0.038166344 0.14203644 0.024407774 -0.09594621 0.15174562 -0.09501898
0.24745968
00000000: 6847 6ebe ccd1 953d 7dca 853e 4aa5 633e
00000010: 0987 73be 80c2 033c e77f 833e bc4a dc3d
00000020: 2e21 cfbd 8867 6b3d 5857 023e 4459 59be
00000030: 898d 74be e8ed 583e 409f 823b 80c9 9fbd
00000040: 08b0 52be 388e 703d 5054 1c3d 0072 113e
00000050: d0f2 c73c 727f c4bd 3463 1b3e 5099 c2bd
00000060: 1266 7d3e

weight f4 [25, 25]
0.038936883 0.113023534 0.009838387 0.15009649 -0.1978749 0.06313507 -0.06457162 0.12245427
-0.13709815 -0.12983686 -0.08731117 -0.16256706 -0.12746593 0.018945768 -0.00047759712 0.086630896
0.15342714 -0.16799884 -0.17515436 -0.17372814 0.18288483 -0.107474186 0.17632495 -0.1472288
0.16385843 -0.051218987 0.042556167 0.13938169 -0.122812964 -0.16531137 0.038239837 -0.17116229
0.15755887 -0.0062134266 -0.0560489 0.008429408 0.033851057 0.19841985 -0.16354306 0.0077941865
0.03047721 -0.07893646 0.05435969 -0.08415139 0.09455098 -0.18494539 -0.058730483 -0.06755252
-0.041614726 -0.1237134 0.13167424 -0.010696486 -0.067032665 0.045165777 0.08068998 -0.111030534
-0.12837234 0.13765578 -0.18846385 -0.13120663 -0.00036275387 -0.09084254 0.005577281 0.094641164
0.10239555 0.0062746108 0.055331483 -0.06562491 -0.115872435 0.01726219 0.004357651 0.06372847
0.12040986 -0.05300097 0.08241178 0.18365471 -0.05924058 0.16703416 0.12316845 -0.06468162
-0.07103717 0.093565956 0.0770341 0.16831197 0.17211555 0.05302508 0.13501327 0.080944404
0.17156108 -0.09456568 -0.07857149 0.037120223 0.03518319 -0.12845166 -0.04679349 0.17624308
0.15552877 0.17943789 0.18582968 0.032304168 -0.08542051 -0.080307126 0.18627204 -0.18941967
-0.123746924 -0.13401142 -0.18752015 -0.12996788 -0.0056566447 0.0037975311 -0.12851745 -0.10416859
-0.072545916 0.17889641 -0.16810963 0.024387121 -0.00250113 0.032568812 -0.16246712 -0.14687598
0.10879542 0.11038737 -0.1849616 0.15552007 -0.16511536 0.069077805 0.11782612 -0.06333248
-0.07580109 0.18603681 -0.14566946 -0.035706997 0.1698562 0.1580392 -0.16699962 0.13533087
0.16543503 -0.050385445 -0.13075742 0.10654725 0.03209801 0.02208884 -0.19900425 -0.09936233
-0.030155614 0.011715919 0.18734269 0.1270328 -0.12748516 -0.05782199 -0.083884716 0.19989456
-0.083381295 -0.07377355 0.0199171 0.022990674 -0.11273632 0.16885649 -0.0072588474 -0.110625125
-0.062397793 -0.03383784 -0.19867754 -0.17692354 -0.17031507 -0.14241378 -0.05412869 0.047175646
0.17614488 0.11082934 -0.069670826 0.17065637 0.01624234 0.043443248 0.013784125 0.19918181
0.12410544 -0.035029978 0.19587506 -0.115445666 0.0049899817 0.006170392 -0.0337843 -0.13694903
0.15763177 0.16386653 -0.0514154 -0.05236867 0.19098125 0.06847416 -0.14168134 -0.15500358
0.03560953 0.10217549 -0.14661086 0.14676823 -0.12821952 -0.15671286 -0.17198494 0.061334208
-0.059041187 0.078108326 0.19853081 -0.0047341585 -0.015564293 -0.08319817 -0.17839737 -0.12580247
-0.17897466 0.14288305 0.11037962 0.1851113 -0.117592 -0.030004263 -0.094667435 -0.15121062
0.014115602 -0.03385003 0.16372193 0.14934756 0.12578131 -0.004931003 0.18690874 -0.011023089
0.023008674 -0.08232846 -0.036118835 -0.18586485 0.018256098 0.086504474 0.1313857 -0.14280145
0.031595796 -0.13327602 0.18680017 0.14313678 -0.1601257 -0.14454834 -0.022301078 0.103328034
0.03405741 0.19034822 0.05792071 0.11004861 0.041588992 -0.029167369 -0.043656632 0.038964033
0.11828251 0.15333666 -0.09526708 -0.099794984 -0.10360048 -0.042438835 -0.18384825 -0.15569405
00000000: 487c 1f3d e278 e73d 3031 213c e5b2 193e
00000010: b89f 4abe f64c 813d 203e 84bd 4ec9 fa3d
00000020: 7563 0cbe f4f3 04be 33d0 b2bd fb77 26be
00000030: 6e86 02be 2834 9b3c 0066 fab9 8a6b b13d
00000040: 011c 1d3e e307 2cbe aa5b 33be cae5 31be
00000050: 2946 3b3e 6d1b dcbd 878e 343e 26c3 16be
00000060: 81ca 273e 00cb 51bd 604f 2e3d 13ba 0e3e
00000070: 5d85 fbbd 6247 29be 60a1 1c3d 2b45 2fbe
00000080: 1d57 213e 009a cbbb 8893 65bd 801b 0a3c
00000090: 68a7 0a3d 932e 4b3e d577 27be 6066 ff3b
000000a0: 58ab f93c 70a9 a1bd 44a8 5e3d 9057 acbd
000000b0: f2a3 c13d 5362 3dbe 608f 70bd fa58 8abd
000000c0: 3474 2abd 735d fdbd 9dd5 063e 5040 2fbc
000000d0: 6c48 89bd c0ff 383d ca40 a53d fa63 e3bd
000000e0: 0a74 03be a3f5 0c3e abfc 40be 085b 06be
000000f0: 0030 beb9 a70b babd a0c1 b63b 3ad3 c13d
00000100: c2b4 d13d 409b cd3b 44a3 623d 5a66 86bd
00000110: 874e edbd 7069 8d3c a0ca 8e3b 1284 823d
00000120: 7299 f63d 8c17 59bd 82c7 a83d fb0f 3c3e
00000130: 40a6 72bd 010b 2b3e be3f fc3d cc77 84bd
00000140: f07b 91bd 829f bf3d 0ec4 9d3d f959 2c3e
00000150: 0f3f 303e d430 593d eb40 0a3e 2ec6 a53d
00000160: b5ad 2f3e a7ab c1bd 17ea a0bd 600b 183d
00000170: 401c 103d d588 03be 88aa 3fbd 1179 343e
00000180: ef42 1f3e 91be 373e 234a 3e3e 6051 043d
00000190: f3f0 aebd 1078 a4bd 19be 3e3e 3bf7 41be
000001a0: 076f fdbd 4a3a 09be 4805 40be 4d16 05be
000001b0: 605b b9bb 00e0 783b 149a 03be 5756 d5bd
000001c0: f492 94bd 9f30 373e ee24 2cbe 80c7 c73c
000001d0: 00ea 23bb e066 053d c85d 26be a866 16be
000001e0: 22d0 de3d c612 e23d 9366 3dbe a740 1f3e
000001f0: 0014 29be aa78 8d3d d24e f13d 76b4 81bd
00000200: 9a3d 9bbd 6f80 3e3e 602a 15be 8041 12bd
00000210: c9ee 2d3e 07d5 213e f301 2bbe 2d94 0a3e
00000220: cd67 293e f860 4ebd 46e5 05be 7235 da3d
00000230: 3479 033d a8f3 b43c c5c7 4bbe 7a7e cbbd
00000240: e808 f7bc 20f4 3f3c c3d6 3f3e e314 023e
00000250: 788b 02be c0d6 6cbd c0cb abbd 29b1 4c3e
00000260: d0c3 aabd 9616 97bd 3029 a33c f056 bc3c
00000270: 4de2 e6bd b7e8 2c3e a0db edbb 6d8f e2bd
00000280: d494 7fbd 8c99 0abd 2072 4bbe 722b 35be
00000290: 1367 2ebe ebd4 11be 0cb6 5dbd 403b 413d
000002a0: 535f 343e 7efa e23d 94af 8ebd 8bc0 2e3e
000002b0: a80e 853c 8cf1 313d d0d6 613c 51f6 4b3e
000002c0: fe2a fe3d 987b 0fbd 7993 483e c76e ecbd
000002d0: 0083 a33b 0031 ca3b 6861 0abd 5e3c 0cbe
000002e0: 396a 213e a1cc 273e f498 52bd 8880 56bd
000002f0: 9790 433e 2e3c 8c3d ea14 11be 42b9 1ebe
00000300: 4cdb 113d 6241 d13d 2821 16be 694a 163e
00000310: fa4b 03be 5679 20be d21c 30be 9439 7b3d
00000320: 2cd5 71bd 42f7 9f3d a94b 4b3e 0021 9bbb
00000330: 6001 7fbc cd63 aabd cdad 36be 5dd2 00be
00000340: 2245 37be ef4f 123e b60e e23d d18d 3d3e
00000350: 13d4 f0bd 80cb f5bc 00e1 c1bd f5d6 1abe
00000360: 2045 673c 54a6 0abd b9a6 273e 91ee 183e
00000370: d1cc 003e 4094 a1bb 0165 3f3e 309a 34bc
00000380: b07c bc3c d39b a8bd 58f1 13bd 5b53 3ebe
00000390: d08d 953c 4229 b13d f989 063e 8b3a 12be
000003a0: 986a 013d 8279 08be 8b48 3f3e 7392 123e
000003b0: fef7 23be 7b04 14be c0b0 b6bc a69d d33d
000003c0: c87f 0b3d a5ea 423e 443e 6d3d 2a61 e13d
000003d0: 3859 2a3d 68f0 eebc 4cd1 32bd c098 1f3d
000003e0: 1a3e f23d 4904 1d3e 631b c3bd 5061 ccbd
000003f0: 7d2c d4bd 58d4 2dbd b742 3cbe 436e 1fbe

bias f4 [25]
-0.12011106 0.09555535 0.0745946 -0.106949285 0.116990104 0.07961489 -0.18848775 0.17466648
0.16319011 0.050706312 -0.005011916 -0.1408488 -0.15557525 -0.14597352 0.068421856 -0.18286057
-0.06096001 0.017305523 -0.0010070503 0.04557924 0.08553307 0.011599749 -0.070065185 0.16071172
0.06975795
00000000: cafc f5bd 86b2 c33d 0ec5 983d 3a08 dbbd
00000010: 8298 ef3d 220d a33d ef02 41be c5db 323e
00000020: 4f1b 273e 6cb1 4f3d 003b a4bb ab3a 10be
00000030: 1e4f 1fbe 157a 15be c220 8c3d cd3f 3bbe
00000040: 34b1 79bd 50c4 8d3c 00ff 83ba 4cb1 3a3d
00000050: f62b af3d e00c 3e3c 567e 8fbd 9d91 243e
00000060: 42dd 8e3d

weight f4 [25, 25]
-0.11549141 -0.06947224 0.13752685 0.18066289 0.18274595 -0.115163326 0.0894766 -0.039586976
-0.1800328 -0.041244775 0.114603594 0.024012327 0.15164496 0.07105495 -0.012894675 -0.1998678
-0.078092195 0.008263022 -0.05420026 -0.14210041 -0.0886689 -0.05863805 0.028328016 0.009352729
-0.07265012 -0.10157068 -0.1497316 0.17880823 -0.039494798 0.19559653 0.04086499 -0.02016516
0.008514255 -0.16726878 0.026052028 -0.09591496 -0.08538347 0.07933785 0.1627347 -0.18607712
-0.034391552 -0.17592807 -0.17144334 -0.14431961 0.16054262 0.14868166 0.10983984 -0.0155394375
-0.051446795 -0.029605463 -0.06361322 0.0825872 -0.13374121 -0.04181166 -0.108405136 -0.13391498
0.13352002 0.17196132 0.05946727 -0.19057906 -0.01935193 0.1484573 -0.09535501 -0.039363384
0.11470489 -0.040900856 -0.19198123 0.18498577 -0.14322881 -0.11006434 0.19245107 0.19337685
-0.19466117 0.11244275 0.027839258 -0.077013515 -0.029633552 -0.1897953 0.16317 -0.19659384
0.17426617 -0.08196807 -0.17545345 0.18500544 0.09623541 -0.09196949 0.007663369 0.085011676
0.16126134 0.14078955 0.033001184 -0.16652866 -0.014574289 -0.07898939 -0.11507159 -0.097154215
-0.031276748 0.18613265 0.12582715 0.08967094 0.13381119 0.040238664 0.19941415 -0.07046485
-0.14994499 0.09235029 0.031913117 0.15085857 0.1920472 0.17060317 0.18211503 -0.051882237
0.11611186 -0.14770754 -0.14012814 -0.17173517 0.03986287 0.052109852 0.03816633 -0.19458023
0.16797207 0.117208734 0.14838608 -0.18865052 -0.16116841 -0.08786807 0.063222095 -0.13090205
0.18283878 0.05805756 -0.19691816 -0.17386873 -0.0820565 0.044917136 -0.029799908 0.041465834
0.19640927 -0.0019040555 -0.17651176 -0.03877744 -0.05076143 0.09641285 -0.005626872 0.18994348
-0.14497097 -0.05486512 0.06526022 -0.081272654 -0.11838191 -0.019659996 0.033464506 -0.05133894
-0.018843368 0.08060826 -0.06657621 -0.08138766 0.18205573 -0.026023775 0.09897645 0.14262547
0.19501747 0.094341055 0.12562178 -0.026435971 0.13277103 -0.088106416 0.06352441 0.025219828
0.055153236 0.16354565 -0.13407278 0.16782267 -0.030038565 -0.041465953 -0.04372406 -0.1494238
0.00665085 0.18580975 0.07278408 -0.12172303 0.058970973 0.17751504 -0.1021409 0.11423652
0.12602334 -0.002413109 -0.19930358 -0.15606873 -0.1643502 0.15692379 -0.13446851 -0.1999309
0.10054998 0.11372517 0.0737866 -0.07408936 0.07543056 0.15984578 -0.13648194 0.037736148
-0.020300075 -0.080216646 0.11659305 0.07224296 -0.16586661 -0.013427302 -0.095206454 -0.19272053
0.038107157 -0.112865284 0.08699633 0.010155082 0.0954863 0.023375675 -0.072897464 -0.105720595
0.14315774 0.07106502 0.04419899 -0.15311448 0.023773983 -0.14224875 0.16343842 -0.14516333
-0.19133925 0.0015470684 -0.07277854 -0.16222271 0.15278433 0.1976837 0.13762249 0.0119163245
-0.118032336 -0.019458145 -0.043210074 -0.17098723 0.028643563 -0.14031282 -0.056208402 -0.17045072
-0.15830073 -0.040351957 -0.058492154 0.04210858 -0.05622311 0.044784307 0.17676698 -0.103185415
0.14548995 0.15047924 -0.025626853 0.07341893 0.021737605 0.034514904 0.08139686 -0.099340916
00000000: c386 ecbd 7647 8ebd d7d3 0c3e b1ff 383e
00000010: c121 3b3e c0da ebbd 823f b73d f425 22bd
00000020: 855a 38be 48f0 28bd 4ab5 ea3d 80b5 c43c
00000030: d148 1b3e 4285 913d 3044 53bc 25aa 4cbe
00000040: cdee 9fbd a061 073c 1801 5ebd c582 11be
00000050: 0a98 b5bd 742e 70bd 2810 e83c 303c 193c
00000060: 96c9 94bd 4a04 d0bd 3e53 19be 8119 373e
00000070: 4cc5 21bd 754a 483e 0c62 273d 6831 a5bc
00000080: 607f 0b3c 8248 2bbe 106b d53c 106f c4bd
00000090: 87dd aebd e27b a23d eda3 263e 008b 3ebe
000000a0: 28de 0cbd 7d26 34be d88e 2fbe 85c8 13be
000000b0: 4965 243e 0140 183e b6f3 e03d 2099 7ebc
000000c0: e0b9 52bd 2887 f2bc a647 82bd 7a23 a93d
000000d0: 75f3 08be b442 2bbd 8303 debd 0221 09be
000000e0: 79b9 083e a116 303e f493 733d 2827 43be
000000f0: f087 9ebc 3105 183e 7d49 c3bd 803b 21bd
00000100: 66ea ea3d a887 27bd ba96 44be e96c 3d3e
00000110: 93aa 12be 6a69 e1bd e511 453e 9504 463e
00000120: 4255 47be 6248 e63d 280f e43c 43b9 9dbd
00000130: 10c2 f2bc b359 42be 0916 273e e54f 49be
00000140: d572 323e e0de a7bd 12aa 33be 1172 3d3e
00000150: 1217 c53d 805a bcbd 001d fb3b 9a1a ae3d
00000160: b121 253e 232b 103e 402c 073d 7d86 2abe
00000170: 00c9 6ebc 30c5 a1bd a7aa ebbd caf8 c6bd
00000180: 0c1c 00bd 8f99 3e3e d5d8 003e 66a5 b73d
00000190: cd05 093e 4cd1 243d 3933 4c3e e04f 90bd
000001a0: 2e8b 19be 2622 bd3d 54b7 023d ab7a 1a3e
000001b0: 05a8 443e 99b2 2e3e 5d7c 3a3e 7882 54bd
000001c0: 0ecc ed3d a540 17be c07d 0fbe 58db 2fbe
000001d0: 4047 233d 2471 553d 4c54 1c3d 0a40 47be
000001e0: df00 2c3e 220b f03d 85f2 173e 9a2d 41be
000001f0: 5509 25be 2df4 b3bd 967a 813d 300b 06be
00000200: 173a 3b3e c4cd 6d3d eaa4 49be a50a 32be
00000210: 3d0d a8bd 08fb 373d f01e f4bc 14d8 293d
00000220: 831f 493e 8091 f9ba 80bf 34be 18d5 1ebd
00000230: 38eb 4fbd 1a74 c53d a061 b8bb 8b80 423e
00000240: 4573 14be 40ba 60bd 26a7 853d 4772 a6bd
00000250: 3772 f2bd 000e a1bc 1412 093d c848 52bd
00000260: 685d 9abc f215 a53d 1c59 88bd 93ae a6bd
00000270: d16c 3a3e d02f d5bc 2ab4 ca3d 690c 123e
00000280: a9b2 473e e235 c13d ffa2 003e 4090 d8bc
00000290: 21f5 073e 2371 b4bd 1619 823d d099 ce3c
000002a0: 5ce8 613d 8378 273e 604a 09be b5d9 2b3e
000002b0: 7013 f6bc 34d8 29bd 0018 33bd 8d02 19be
000002c0: 60ef d93b e944 3e3e d20f 953d ed49 f9bd
000002d0: 8c8b 713d 81c6 353e 402f d1bd d6f4 e93d
000002e0: 430c 013e 4025 1ebb 3d16 4cbe 7bd0 1fbe
000002f0: 6b4b 28be a1b0 203e 1db2 09be b0ba 4cbe
00000300: 26ed cd3d bee8 e83d 6e1d 973d 2abc 97bd
00000310: 567b 9a3d 9dae 233e ecc1 0bbe 3891 1a3d
00000320: 584c a6bc a048 a4bd 56c8 ee3d 1ef4 933d
00000330: f0d8 29be 30fe 5bbc 9afb c2bd 8858 45be
00000340: 4016 1c3d ea25 e7bd 222b b23d 8061 263c
00000350: 528e c33d 587e bf3c 444b 95bd 0a84 d8bd
00000360: f197 123e 8a8a 913d 000a 353d 0bca 1cbe
00000370: a8c1 c23c a8a9 11be 675c 273e b2a5 14be
00000380: 70ee 43be 00c7 ca3a ea0c 95bd b61d 26be
00000390: 7f73 1c3e 996d 4a3e e9ec 0c3e b03c 433c
000003a0: f0ba f1bd b066 9fbc 0cfd 30bd 4717 2fbe
000003b0: e8a5 ea3c 2aae 0fbe c83a 66bd a28a 2ebe
000003c0: 9619 22be 1848 25bd 7895 6fbd 0c7a 2c3d
000003d0: 344a 66bd c06f 373d 6702 353e e052 d3bd
000003e0: 51fb 143e 3b17 1a3e 68ef d1bc aa5c 963d
000003f0: 1013 b23c 805f 0d3d 66b3 a63d 4073 cbbd

bias f4 [25]
-0.12207854 -0.029381037 0.12770863 -0.07081731 -0.1458536 0.011822611 0.18314187 -0.055813223
0.17892529 0.15918626 -0.030288726 0.18969326 0.03501375 -0.12097936 -0.14983264 0.18527226
-0.15772839 0.03522487 0.12737314 -0.024765491 0.037395924 -0.15970138 0.12914898 0.14996625
0.11834936
00000000: 5004 fabd 80b0 f0bc 0dc6 023e aa08 91bd
00000010: a55a 15be a0b3 413c 8b89 3b3e 689c 64bd
00000020: 3138 373e b901 233e 1020 f8bc f33e 423e
00000030: 946a 0f3d 07c4 f7bd ba6d 19be 03b8 3d3e
00000040: 8d83 21be f447 103d 1b6e 023e 00e1 cabc
00000050: 782c 193d c288 23be a13f 043e c190 193e
00000060: 2661 f23d

weight f4 [25, 25]
-0.06377025 -0.1383105 0.022478774 0.17865045 -0.11491211 0.17859603 -0.1400148 0.16417624
-0.017909214 0.1736121 -0.11101647 0.1469983 0.098395005 0.00741145 0.12544538 -0.13647819
-0.10912824 0.15972222 -0.009456247 -0.079119876 -0.17162617 -0.100571685 0.068663254 0.18502645
-0.17585264 -0.18913579 0.117663994 0.18202944 -0.040340513 0.059630707 -0.0890465 0.15263928
-0.19028257 -0.15574703 0.18479265 -0.16014454 -0.024862796 0.12374498 0.014654115 0.11979787
0.113754645 0.19953664 -0.047587305 -0.15118015 0.14966805 0.041315705 0.075842336 0.111158624
0.19285645 0.05483605 0.0997542 -0.098028615 -0.023990542 -0.15900764 -0.17604811 -0.056519955
0.10657196 0.06861515 -0.046969578 0.12781538 -0.14807704 -0.040296346 0.022017926 0.00064615905
0.15624095 0.17645864 -0.14297263 0.16301851 0.101836815 -0.04324262 0.03323379 -0.081225894
0.17773546 -0.15058789 0.06417708 -0.15028074 -0.092460535 0.088167086 -0.17288251 -0.02052787
0.01807797 0.07129456 -0.19744451 0.050842896 0.040467903 0.09850161 -0.020754129 0.08784787
0.012546346 0.1334051 0.020739645 -0.030605912 0.07966493 -0.13506138 0.10676624 0.13033415
-0.1069526 0.13413568 -0.12903878 -0.062445596 0.17329662 0.043706775 0.16538025 -0.04860203
0.101065174 -0.07387301 -0.099476315 0.045456216 -0.07048456 -0.042628884 -0.061917946 -0.015655637
0.09890236 0.12018524 0.17813759 -0.047567517 -0.1971875 0.18372776 0.10810892 -0.04462424
-0.033751532 0.09135862 -0.10356291 0.17767723 0.1956876 -0.14897272 -0.0777359 0.07601215
-0.09340706 -0.018610477 0.054538593 0.10216291 0.0890912 0.16974066 0.07625441 -0.0947511
-0.07323401 -0.1221987 -0.07550328 -0.10866437 0.013864189 0.14058472 0.17858036 0.073191956
0.13436644 0.15766509 -0.16392174 -0.0976099 -0.095498875 0.18454094 0.14070885 0.032012537
0.12572728 0.057597116 -0.0984992 -0.13997087 0.08989529 -0.019362807 0.09077518 0.06922291
0.09740923 -0.06986633 -0.17847066 0.0063536465 0.10217069 -0.1311796 0.14916636 0.08414133
0.19056545 0.11172558 -0.15043083 0.09519051 0.15135287 -0.15676382 -0.19574018 0.020965025
-0.032232434 0.06244196 0.05913581 -0.1828744 0.11552717 0.024557143 -0.0125949085 -0.13513133
-0.17687367 -0.18860912 0.0011783391 -0.035274297 0.03382738 -0.16861066 0.11524798 -0.17916961
0.050913766 0.036887333 -0.041572332 0.10979499 -0.113002755 0.03707683 0.07553621 -0.0025164336
0.032546476 0.08453642 0.031551927 0.0756482 -0.06154947 -0.020200208 -0.0962215 0.15190284
-0.00025625527 -0.0073726624 0.07408501 -0.13871427 -0.19553731 -0.053973705 0.064904466 0.15553023
0.13750781 -0.16200373 -0.044630483 -0.057335213 -0.075042985 -0.10925891 -0.013448432 -0.08917117
-0.050901026 0.14703424 -0.1705319 -0.17526697 -0.14026482 0.042125106 -0.05470185 -0.036082074
0.14933322 0.15079595 -0.118627094 -0.19850385 -0.13434765 0.04110031 0.13187392 -0.0242306
0.07669406 0.09796731 0.18963312 -0.09654575 0.113223955 -3.4600496e-05 0.13391872 -0.010894775
0.052485242 0.16419835 0.103725925 0.039144203 0.08395533 0.051922098 0.19368635 0.026274517
00000000: fa99 82bd 45a1 0dbe 6825 b83c 25f0 363e
00000010: 0a57 ebbd e1e1 363e 0a60 0fbe d11d 283e
00000020: 58b6 92bc 5fc7 313e 9a5c e3bd b986 163e
00000030: 5283 c93d c0db f23b c174 003e f0c0 0bbe
00000040: a07e dfbd 398e 233e 60ee 1abc 9a09 a2bd
00000050: c5be 2fbe 87f8 cdbd 529f 8c3d 9377 3d3e
00000060: b712 34be d0ac 41be d2f9 f03d ed65 3a3e
00000070: 183c 25bd 543f 743d 035e b6bd 794d 1c3e
00000080: 6fd9 42be 267c 1fbe 493a 3d3e eefc 23be
00000090: 10ad cbbc 026e fd3d d017 703c 9658 f53d
000000a0: 32f8 e83d 5553 4c3e e8ea 42bd f8ce 1abe
000000b0: 9542 193e a83a 293d 3a53 9b3d 22a7 e33d
000000c0: 297c 453e c49b 603d ee4b cc3d 3ac3 c8bd
000000d0: d087 c4bc e6d2 22be f545 34be 7881 67bd
000000e0: 6642 da3d 1a86 8c3d 2c63 40bd 09e2 023e
000000f0: 82a1 17be c80d 25bd f05e b43c 0063 293a
00000100: a1fd 1f3e 93b1 343e 6b67 12be 53ee 263e
00000110: d28f d03d 2c1f 31bd 2820 083d c359 a6bd
00000120: 4900 363e b633 1abe 466f 833d 32e3 19be
00000130: f35b bdbd f290 b43d 1d08 31be 102a a8bc
00000140: 4018 943c e202 923d e52e 4abe a440 503d
00000150: acc1 253d 36bb c93d 9004 aabc 96e9 b33d
00000160: 308f 4d3c 599b 083e 30e6 a93c 40b9 fabc
00000170: 5e27 a33d 884d 0abe 42a8 da3d 5176 053e
00000180: f709 dbbd dd5a 093e be22 04be f4c6 7fbd
00000190: ab74 313e e005 333d 7159 293e ec12 47bd
000001a0: 42fb ce3d bc4a 97bd 3dba cbbd 4c30 3a3d
000001b0: 365a 90bd a09b 2ebd ac9d 7dbd 4040 80bc
000001c0: 528d ca3d ae23 f63d b369 363e 28d6 42bd
000001d0: 85eb 49be 2123 3c3e 3668 dd3d e8c7 36bd
000001e0: 0c3f 0abd 3a1a bb3d ca18 d4bd 05f1 353e
000001f0: 5562 483e 4e8c 18be 0034 9fbd 42ac 9b3d
00000200: 334c bfbd 0075 98bc dc63 5f3d ca3a d13d
00000210: 7275 b63d 7fd0 2d3e 462b 9c3d dd0c c2bd
00000220: b6fb 95bd 5043 fabd 77a1 9abd 6d8b debd
00000230: a026 633c 71f5 0f3e c5dd 363e aae5 953d
00000240: 5b97 093e f572 213e 1adb 27be b3e7 c7bd
00000250: ea94 c3bd 4df8 3c3e fb15 103e 941f 033d
00000260: a7be 003e f4ea 6b3d f3b9 c9bd 8654 0fbe
00000270: 061b b83d c09e 9ebc 56e8 b93d bec4 8d3d
00000280: 7e7e c73d 1416 8fbd 03c1 36be 4032 d03b
00000290: de3e d13d f253 06be 11bf 183e 4a52 ac3d
000002a0: 9723 433e 62d0 e43d 8a0a 1abe 3ef3 c23d
000002b0: 3ffc 1a3e b286 20be 1d70 48be d8be ab3c
000002c0: 2806 04bd 24c3 7f3d 6438 723d 6d43 3bbe
000002d0: 8299 ec3d 102c c93c e05a 4ebc de5f 0abe
000002e0: 5f1e 35be c022 41be 8072 9a3a c87b 10bd
000002f0: 948e 0a3d 46a8 2cbe 2207 ec3d 3d78 37be
00000300: f48a 503d 2c17 173d c047 2abd 32dc e03d
00000310: fd6d e7bd e0dd 173d bab2 9a3d c0ea 24bb
00000320: 744f 053d 6e21 ad3d 983c 013d 72ed 9a3d
00000330: 4c1b 7cbd e87a a5bc c70f c5bd 6b8c 1b3e
00000340: 005a 86b9 6096 f1bb e2b9 973d 1d0b 0ebe
00000350: ef3a 48be 8813 5dbd a2ec 843d 5143 1f3e
00000360: d9ce 0c3e 4ee4 25be 74ce 36bd 54d8 6abd
00000370: 23b0 99bd 23c3 dfbd d056 5cbc 609f b6bd
00000380: 987d 50bd 2590 163e ea9f 2ebe 2f79 33be
00000390: 95a1 0fbe 608b 2c3d 0c0f 60bd ccca 13bd
000003a0: cfea 183e 416a 1a3e c3f2 f2bd 9844 4bbe
000003b0: 6e92 09be cc58 283d f509 073e 407f c6bc
000003c0: c611 9d3d 16a3 c83d 2f2f 423e c7b9 c5bd
000003d0: f6e1 e73d 0020 11b8 fd21 093e 0080 32bc
000003e0: c4fa 563d 9d23 283e 426e d43d ac55 203d
000003f0: c6f0 ab3d 44ac 543d b755 463e a83d d73c

bias f4 [25]
0.1065494 -0.11066692 -0.13889548 0.06557883 -0.03768623 -0.09706855 0.02105984 -0.114088275
0.18279676 0.00033780932 0.19126357 -0.1896764 0.14830323 0.07993497 -0.15995371 0.116248414
0.07966818 0.072059676 -0.017415375 -0.18053937 0.020537496 0.19751747 -0.13280006 -0.021020979
-0.017725825
00000000: 9236 da3d 57a5 e2bd 9e3a 0ebe 324e 863d
00000010: e05c 1abd e0cb c6bd b085 ac3c 1da7 e9bd
00000020: 132f 3b3e 001c b139 99da 433e 883a 42be
00000030: cddc 173e f2b4 a33d e8ca 23be a613 ee3d
00000040: 1229 a33d 0694 933d b0aa 8ebc 50df 38be
00000050: 403e a83c 0542 4a3e bdfc 07be 3034 acbc
00000060: c035 91bc

weight f4 [4, 25]
-0.1398248 0.10931642 0.06747557 0.18054746 -0.17068036 -0.010335922 0.16541435 -0.037032753
-0.0050885677 0.09206633 -0.09305759 -0.047219962 0.031549454 0.1428455 0.06377639 -0.12340035
0.0765108 0.16471632 0.016355187 -0.0048102885 0.061928853 0.07035582 -0.061189577 -0.17976241
-0.06258495 -0.010479167 -0.08627384 0.034561634 0.17345725 0.09816109 -0.022988409 -0.14275594
-0.051640123 -0.16710849 -0.0192025 -0.02283299 0.05600874 0.16948916 -0.16900663 0.16138984
0.08309899 -0.1462683 -0.16475038 0.059463397 0.112079516 -0.056594923 -0.0424473 -0.046207353
0.016873807 0.121359214 0.13917185 -0.15132034 -0.030728817 0.03355989 -0.063635305 -0.020677805
0.1395074 -0.09457188 0.19597642 -0.18369277 0.08324714 0.07177462 0.18208443 -0.1998672
0.15050022 0.12363003 -0.17027088 -0.1969357 -0.17869687 0.11225329 -0.0071587116 -0.070326954
-0.1895846 0.14921118 -0.14008844 0.11015786 0.0042827874 0.0668899 0.0033005476 -0.11450622
0.038495377 -0.015818119 0.054826304 0.08661009 0.08325137 -0.15797544 0.08627881 0.08596958
-0.1965936 -0.1781811 0.140579 0.005723074 -0.008199528 -0.020927638 0.13469549 -0.14342546
-0.09816497 -0.095413424 -0.10227676 -0.06559722
00000000: 3b2e 0fbe 4ae1 df3d a230 8a3d 6fe1 383e
00000010: d5c6 2ebe 0058 29bc 6162 293e a8af 17bd
00000020: 00be a6bb 468d bc3d fa94 bebd b869 41bd
00000030: 003a 013d 1746 123e 329d 823d 53b9 fcbd
00000040: b2b1 9c3d 65ab 283e 50fb 853c a09f 9dbb
00000050: 1ca9 7d3d b616 903d eca1 7abd a313 38be
00000060: 8a2c 80bd d0b0 2bbc 57b0 b0bd 8090 0d3d
00000070: c79e 313e ae08 c93d 3052 bcbc 9d2e 12be
00000080: 9884 53bd 7d1e 2bbe 904e 9dbc 400c bbbc
00000090: 6c69 653d 918e 2d3e 1310 2dbe 6143 253e
000000a0: ce2f aa3d 5bc7 15be 53b4 28be e48f 733d
000000b0: f289 e53d 14d0 67bd 38dd 2dbd ec43 3dbd
000000c0: f03a 8a3c 2e8b f83d 1183 0e3e b8f3 1abe
000000d0: 00bb fbbc 1876 093d 3a53 82bd 8064 a9bc
000000e0: 07db 0e3e e7ae c1bd 0bae 483e f519 3cbe
000000f0: 7a7d aa3d 92fe 923d 5774 3a3e fda9 4cbe
00000100: bb1c 1a3e be31 fd3d 7d5b 2ebe 83a9 49be
00000110: 50fc 36be 0ee5 e53d a093 eabb 9407 90bd
00000120: 7722 42be d1ca 183e 5873 0fbe 729a e13d
00000130: a056 8c3b 92fd 883d 004e 583b 3d82 eabd
00000140: 54ad 1d3d 0095 81bc 8c91 603d a260 b13d
00000150: b27f aa3d 50c4 21be f2b2 b03d d210 b03d
00000160: d54f 49be 1b75 36be f1f3 0f3e a088 bb3b
00000170: 5057 06bc 7070 abbc 9ded 093e 20de 12be
00000180: b70a c9bd 1d68 c3bd 7a76 d1bd d657 86bd

bias f4 [4]
-0.009145543 0.1090429 0.12184526 0.09045185
00000000: 30d7 15bc e251 df3d 028a f93d d23e b93d
