models/_brain_239.pt (torch, 14593 bytes, 12 tensors)

weight f4 [14]
1.0 1.0 1.0 1.0 1.0 1.0 1.0 1.0
1.0 1.0 1.0 1.0 1.0 1.0
00000000: 0000 803f 0000 803f 0000 803f 0000 803f
00000010: 0000 803f 0000 803f 0000 803f 0000 803f
00000020: 0000 803f 0000 803f 0000 803f 0000 803f
00000030: 0000 803f 0000 803f

bias f4 [14]
0.0 0.0 0.0 0.0 0.0 0.0 0.0 0.0
0.0 0.0 0.0 0.0 0.0 0.0
00000000: 0000 0000 0000 0000 0000 0000 0000 0000
00000010: 0000 0000 0000 0000 0000 0000 0000 0000
00000020: 0000 0000 0000 0000 0000 0000 0000 0000
00000030: 0000 0000 0000 0000

weight f4 [25, 14]
-0.09772301 -0.18614651 0.11347446 -0.17200668 -0.1412038 -0.16541836 0.12478274 0.22472155
-0.24828793 0.08933061 -0.20905645 -0.021859989 0.047722667 0.10065329 -0.23565969 0.13272357
-0.15122446 0.13420793 0.1285358 -0.010672241 0.05484405 -0.2095839 0.13892579 0.17346823
-0.12248002 0.22641689 0.2440637 0.2476956 -0.16771767 -0.17157823 0.10880354 0.24407598
0.09899059 -0.0023528934 0.2577059 0.084577054 0.049567908 0.0453355 0.16971299 0.07067403
0.08128509 0.21892434 -0.078498095 0.24028113 -0.10192025 -0.08750549 -0.04068923 0.25614122
0.008713901 -0.14176531 -0.18602711 0.046652257 0.106897354 0.18493474 0.21981728 0.1498762
0.20844135 0.12697208 -0.23170331 0.09319368 -0.17647241 -0.25911 0.21630886 0.12826017
-0.1597265 0.057923287 0.07252437 -0.23638591 0.08046514 -0.074222535 -0.13572 -0.1360868
0.047192216 -0.025442585 -0.017619893 0.002778411 0.06669542 -0.024858683 0.09696466 0.1516684
-0.070313856 0.054010898 0.07644573 0.25014493 0.017199397 -0.24182582 -0.17313218 -0.09126803
-0.24707186 -0.21774748 0.063925445 0.049996972 -0.10824439 -0.14794634 -0.054719076 -0.15389624
0.095889926 -0.19828916 0.17220867 0.1520431 0.19477782 -0.23349094 -0.23685187 -0.20079489
-0.16907375 -0.19135004 -0.15498593 0.20475328 -0.17276555 0.046299756 0.027712584 -0.012605131
-0.063176766 0.23437247 -0.15577321 -0.02240257 0.22235993 0.079577506 -0.0021160543 -0.08206332
0.07259837 0.07521534 -0.14508773 -0.14606686 0.14902875 0.0013906062 0.1797486 0.25759724
-0.16210732 -0.21214592 -0.05967611 -0.1148044 -0.25992757 -0.24095684 -0.18741655 -0.21110457
-0.24359615 0.20545691 0.16815042 0.21410257 0.21072891 0.23872289 0.19458014 0.000865072
0.24322143 0.13320053 -0.20829496 -0.0780952 -0.06858714 0.20935303 -0.23275939 -0.2598632
-0.21226844 -0.035187617 -0.045184687 0.25482574 -0.06321937 0.12380555 -0.24017847 -0.12537244
0.1959165 -0.10113901 0.114040285 -0.19980842 0.1477215 0.22708985 -0.21951559 0.11329612
-0.01021567 0.16535172 0.23149088 -0.001657635 -0.12189029 0.14807186 -0.0804608 0.24211058
0.15898731 0.25186524 -0.07907893 -0.007852882 0.028137028 0.18537182 0.07314268 -0.11891995
-0.13614307 -0.07348272 -0.25299436 0.14525896 -0.17381822 0.26046047 0.13041699 0.23051032
-0.11648394 0.03864929 -0.06526576 -0.02288872 -0.11077969 -0.0347964 0.05114445 0.15802377
-0.18427171 -0.0271485 0.15908033 0.0897682 0.2327039 0.2583771 0.14675799 0.04958108
-0.16798651 0.08423239 0.13247335 -0.11827634 -0.16792133 -0.10400605 0.012722701 -0.21552534
0.17689484 0.00638175 -0.2650866 0.22761351 0.005732298 -0.16183114 -0.17912817 0.24911883
-0.034607217 0.17788512 -0.1252897 -0.10838251 0.049419552 -0.21464467 0.001211226 -0.26114792
0.13886082 -0.17605677 0.080552936 -0.09206572 -0.064731345 -0.05608113 -0.08594136 0.00092601776
0.14982235 -0.15061557 -0.1372411 0.20383245 0.17737025 -0.25524637 -0.18566188 0.23524877
-0.016560405 0.26602527 -0.26703426 -0.20688188 -0.11437659 -0.20504624 0.1796279 -0.0962967
00000000: 0023 c8bd 319d 3ebe 4c65 e83d 8522 30be
00000010: bb97 10be 6e63 29be 188e ff3d 681d 663e
00000020: 313f 7ebe f8f2 b63d e512 56be b813 b3bc
00000030: d878 433d 5023 ce3d c650 71be b0e8 073e
00000040: 96da 1abe ce6d 093e e49e 033e a0da 2ebc
00000050: 28a4 603d 299d 56be 9042 0e3e a8a1 313e
00000060: ced6 fabd d4d9 673e d6eb 793e eaa3 7d3e
00000070: 2ebe 2bbe 34b2 2fbe 64d4 de3d 0eef 793e
00000080: 94bb ca3d 0033 1abb 07f2 833e bc36 ad3d
00000090: b807 4b3d b8b1 393d 3ec9 2d3e 8cbd 903d
000000a0: cc78 a63d b42d 603e 9cc3 a0bd 420c 763e
000000b0: 90bb d0bd 1436 b3bd c0a9 26bd f124 833e
000000c0: c0c4 0e3c ed2a 11be e47d 3ebe 7016 3f3d
000000d0: 00ed da3d 885f 3d3e c817 613e 2679 193e
000000e0: a671 553e f804 023e a243 6dbe 54dc be3d
000000f0: 2fb5 34be 11aa 84be 1280 5d3e a256 033e
00000100: 588f 23be f840 6d3d a887 943d 260f 72be
00000110: e8ca a43d fc01 98bd 2ffa 0abe 575a 0bbe
00000120: a04c 413d f86c d0bc 9857 90bc 0016 363b
00000130: 9c97 883d 70a4 cbbc 6895 c63d f64e 1b3e
00000140: b600 90bd 883a 5d3d 948f 9c3d ff12 803e
00000150: c0e5 8c3c 30a1 77be 9049 31be bcea babd
00000160: 6800 7dbe 32f9 5ebe 58eb 823d a0c9 4c3d
00000170: 3caf ddbd 3f7f 17be 1c21 60bd fa96 1dbe
00000180: f061 c43d 500c 4bbe 7857 303e 30b1 1b3e
00000190: d673 473e 4018 6fbe 4c89 72be 2d9d 4dbe
000001a0: ab21 2dbe 44f1 43be a2b4 1ebe d8aa 513e
000001b0: 74e9 30be d0a4 3d3d 8005 e33c c085 4ebc
000001c0: d262 81bd 56ff 6f3e 0383 1fbe 9885 b7bc
000001d0: 52b2 633e 88f9 a23d 80ad 0abb d010 a8bd
000001e0: 74ae 943d 800a 9a3d e191 14be 8d92 15be
000001f0: fe9a 183e 0045 b63a 0410 383e c9e3 833e
00000200: 76ff 25be c83c 59be f06e 74bd 921e ebbd
00000210: 3a15 85be 64bd 76be 20ea 3fbe cc2b 58be
00000220: 4571 79be 4c63 523e a02f 2c3e b43d 5b3e
00000230: 52c9 573e c673 743e 0440 473e 00c6 623a
00000240: 0a0f 793e b865 083e 464b 55be 60f0 9fbd
00000250: 6a77 8cbd a460 563e 7a58 6ebe ca0c 85be
00000260: e65c 59be e420 10bd 9413 39bd 8578 823e
00000270: 2879 81bd c48d fd3d 58f1 75be a261 00be
00000280: 569e 483e f821 cfbd f48d e93d 949a 4cbe
00000290: 4e44 173e 3e8a 683e b2c8 60be cc07 e83d
000002a0: a05f 27bc f651 293e f20b 6d3e 0045 d9ba
000002b0: 9ea1 f9bd 26a0 173e a2c8 a4bd d6eb 773e
000002c0: 92cd 223e 7bf4 803e 22f4 a1bd 60a9 00bc
000002d0: a07f e63c 1cd2 3d3e d4cb 953d 4e8c f3bd
000002e0: 1769 0bbe 1c7e 96bd 7a88 81be c4be 143e
000002f0: 67fd 31be 135b 853e 088c 053e e60a 6c3e
00000300: 228f eebd b84e 1e3d 0eaa 85bd 2081 bbbc
00000310: 76e0 e2bd ac86 0ebd d87c 513d fcd0 213e
00000320: b9b1 3cbe 8866 debc f4e5 223e 64d8 b73d
00000330: ee49 6e3e 014a 843e ba47 163e 8815 4b3d
00000340: a804 2cbe 0882 ac3d 18a7 073e de3a f2bd
00000350: 92f3 2bbe 2001 d5bd e072 503c adb2 5cbe
00000360: ec23 353e 001e d13b 6eb9 87be 8413 693e
00000370: 00d6 bb3b 10b7 25be 606d 37be 0219 7f3e
00000380: 4cc0 0dbd 8427 363e f14b 00be a6f7 ddbd
00000390: 286c 4a3d d0cb 5bbe 00c2 9e3a 2eb5 85be
000003a0: 8831 0e3e 3a48 34be f0f8 a43d f48c bcbd
000003b0: de91 84bd 54b5 65bd 0602 b0bd 00c0 723a
000003c0: 086b 193e f83a 1abe ee88 0cbe 74b9 503e
000003d0: 8ca0 353e a7af 82be 261e 3ebe 0ee5 703e
000003e0: b0a9 87bc 7734 883e b7b8 88be d8d8 53be
000003f0: 463e eabd a4f7 51be 60f0 373e 3437 c5bd

bias f4 [25]
0.10514593 -0.09688455 0.01084289 0.14040172 -0.014697194 0.042381197 0.116829485 -0.09202513
-0.11170821 -0.18885204 0.19922048 -0.012645096 0.25774536 0.023671895 0.22520506 -0.14121164
-0.19304907 0.13763294 0.16561165 0.10589957 -0.02091451 0.16924098 -0.05951567 -0.14543542
-0.101856455
00000000: c056 d73d 686b c6bd 60a6 313c 78c5 0f3e
00000010: 80cc 70bc e897 2d3d 4c44 ef3d ac77 bcbd
00000020: 46c7 e4bd 6e62 41be 7400 4c3e 602d 4fbc
00000030: 33f7 833e 90eb c13c 289c 663e c999 10be
00000040: a8ae 45be a6ef 0c3e 1a96 293e e0e1 d83d
00000050: e854 abbc 824d 2d3e b4c6 73bd 06ed 14be
00000060: 1e9a d0bd

weight f4 [25, 25]
0.13820021 0.032120615 0.015372947 0.19608353 0.11624099 0.038705558 0.08809443 0.034461647
0.09168787 0.11843322 0.0041412413 -0.1571935 0.12692206 -0.17532893 0.13601665 0.021475479
-0.18080619 0.13841973 0.19227983 0.15800788 -0.16052647 -0.102059774 0.061164394 0.16973962
-0.15882626 -0.18128638 0.027971461 0.019605443 0.12393732 0.07932319 0.08989675 0.086380735
0.13151188 0.11544265 0.17218252 -0.14897236 0.016616672 0.16738273 -0.1300981 0.15949531
-0.09091704 -0.09667633 -0.17048419 -0.03777027 0.057371303 0.19486587 0.04554978 -0.027196169
-0.16797352 -0.05110018 0.14230312 -0.06853883 -0.14475858 0.03192234 -0.10018895 -0.05299039
-0.06914011 -0.15098384 -0.087189436 -0.17407294 0.1863947 -0.1999135 -0.18856905 -0.010804415
0.007075861 -0.02439621 0.09047778 0.18530034 -0.16939814 0.09710054 0.06811537 -0.06713112
0.1486815 0.07671724 0.13012134 0.035014346 0.19146548 0.17883866 0.16652848 -0.07010524
-0.12956345 -3.0368567e-05 -0.17106652 0.077675655 0.14204772 -0.15444116 -0.14115135 -0.066426784
-0.12908381 -0.072108716 -0.16899565 0.037124395 0.11861308 0.0724863 -0.16480474 -0.13196743
-0.12518549 0.108984694 0.0680884 -0.09055729 0.18978111 0.10044555 -0.12873483 -0.055085346
0.19282193 0.019870132 -0.19080499 0.108842716 -0.072788194 0.0680982 -0.11465545 0.0077331364
0.0023333281 -0.059227064 -0.18121178 0.14770718 -0.14337549 0.1904806 -0.05397053 0.0019268245
0.1947027 -0.06351967 -0.039389938 -0.09658642 0.050233558 0.08015512 0.039434224 -0.018770888
-0.18603352 -0.04737802 0.1694846 -0.1672906 -0.041261673 0.13264321 -0.091269664 -0.15929702
-0.1201632 0.1638347 0.11554457 0.054296657 -0.16528599 0.06813295 0.18406661 -0.16713294
-0.078012325 0.19660781 0.1719637 0.06719409 -0.07501414 -0.14713362 0.039942056 -0.17176771
0.13871993 -0.11753159 -0.19728123 -0.073250055 -0.14460032 -0.12327194 -0.17316817 -0.06972182
0.103376284 0.18611799 -0.18691187 0.13988228 -0.14475 0.15352942 0.17247106 -0.17083147
0.033194974 -0.17295597 -0.14802524 -0.06973505 -0.07268253 0.004695326 0.16324015 -0.16160353
0.0040760785 0.12310992 -0.14228919 -0.13476057 -0.063503265 0.12178965 0.04165438 0.13066824
0.006169051 0.17115559 0.025895357 0.092530146 -0.12703641 -0.16101055 -0.06312795 -0.08757999
0.030020446 -0.05140941 -0.01034382 -0.16548029 -0.11618133 0.18818773 -0.12918383 0.03158848
0.028412268 -0.19358833 0.048597902 -0.13349219 -0.1441906 0.09285708 -0.1635985 -0.07642072
-0.18273972 -0.17237993 -0.16295734 0.067181066 0.026332766 -0.07886749 0.01757875 -0.06858793
-0.111338854 0.19895227 0.1597705 0.16283168 0.0786957 -0.06318624 -0.088046126 0.05833687
0.075524315 -0.027653486 0.12835671 0.12262435 -0.13397601 -0.13040307 -0.07172927 -0.1699479
0.013839886 -0.08092637 0.16619043 -0.1420296 -0.040719196 0.0015312135 -0.04785244 -0.066235095
0.06753792 0.115678325 -0.07469849 0.19564112 -0.026183203 -0.058745652 -0.19483471 -0.10545864
-0.030151725 0.030194834 0.053992316 -0.1470213 0.023579985 0.07425307 -0.18104231 -0.19155848
00000000: 5b84 0d3e e890 033d d0de 7b3c 1fca 483e
00000010: c20f ee3d b889 1e3d da6a b43d a827 0d3d
00000020: dac6 bb3d 1e8d f23d 40b3 873b 55f7 20be
00000030: dbf7 013e 6d89 33be f347 0b3e 58ed af3c
00000040: 4225 39be e7bd 0d3e 01e5 443e d1cc 213e
00000050: 0d61 24be b704 d1bd 8487 7a3d 39d0 2d3e
00000060: 5aa3 22be 23a3 39be 6824 e53c 989b a03c
00000070: dad2 fd3d 3274 a23d ca1b b83d 62e8 b03d
00000080: 0dab 063e 326d ec3d 9d50 303e 368c 18be
00000090: b01f 883c 6166 2b3e 7038 05be bd52 233e
000000a0: b732 babd 3dfe c5bd 6893 2ebe 00b5 1abd
000000b0: 2cfe 6a3d eb8a 473e 6892 3a3d 80ca debc
000000c0: 4001 2cbe 6c4e 51bd e9b7 113e 165e 8cbd
000000d0: 983b 14be 00c1 023d dd2f cdbd 740c 59bd
000000e0: 5499 8dbd 829b 1abe 6090 b2bd 2d40 32be
000000f0: 41de 3e3e 20b6 4cbe 3f18 41be 0005 31bc
00000100: a0dc e73b 90da c7bc 6a4c b93d 5fbf 3d3e
00000110: b576 2dbe a6dc c63d 1280 8b3d 0a7c 89bd
00000120: f73f 183e ee1d 9d3d 873e 053e 346b 0f3d
00000130: 870f 443e 7b21 373e 7186 2a3e 5693 8fbd
00000140: 48ac 04be 00c0 feb7 102c 2fbe 6a14 9f3d
00000150: f574 113e d325 1ebe fb89 10be c40a 88bd
00000160: 8c2e 04be bcad 93bd 320d 2dbe c00f 183d
00000170: 6aeb f23d b273 943d 93c2 28be 7822 07be
00000180: a030 00be 5e33 df3d ee71 8b3d 1a76 b9bd
00000190: fb55 423e 66b6 cd3d 10d3 03be 2ca1 61bd
000001a0: 1d73 453e b0c6 a23c 6262 43be eee8 de3d
000001b0: fa11 95bd 1277 8b3d 7ad0 eabd 4066 fd3b
000001c0: c0ea 183b 1498 72bd 958f 39be 8d40 173e
000001d0: 06d1 12be 590d 433e 3410 5dbd 808d fc3a
000001e0: 2560 473e 9a16 82bd 5857 21bd 1acf c5bd
000001f0: b4c1 4d3d 5e28 a43d c885 213d 68c5 99bc
00000200: 927f 3ebe 740f 42bd 5f8d 2d3e 3a4e 2bbe
00000210: 0002 29bd 9fd3 073e 97eb babd c21e 23be
00000220: 2018 f6bd 49c4 273e a2a2 ec3d 2c66 5e3d
00000230: bb40 29be 4a89 8b3d f57b 3c3e e624 2bbe
00000240: edc4 9fbd 8f53 493e 4117 303e 0e9d 893d
00000250: 03a1 99bd 32aa 16be 489a 233d e0e3 2fbe
00000260: 990c 0e3e 67b4 f0bd 1704 4abe 2004 96bd
00000270: 1b12 14be 0076 fcbd ff52 31be 50ca 8ebd
00000280: f2b6 d33d b795 3e3e d365 3fbe 4d3d 0f3e
00000290: 5839 14be d136 1d3e 419c 303e 72ee 2ebe
000002a0: 74f7 073d 5f1b 31be ee93 17be 40d1 8ebd
000002b0: 94da 94bd 40db 993b 6d28 273e 657b 25be
000002c0: a090 853b 0e21 fc3d 42b4 11be adfe 09be
000002d0: 000e 82bd da6c f93d c89d 2a3d e5cd 053e
000002e0: c025 ca3b 6943 2f3e 8022 d43c 7280 bd3d
000002f0: d515 02be f3df 24be 3a49 81bd 235d b3bd
00000300: 70ed f53c ac92 52bd 2079 29bc aa73 29be
00000310: 7af0 edbd 49b4 403e c448 04be ec62 013d
00000320: d8c0 e83c 053c 46be 980e 473d 2db2 08be
00000330: b3a6 13be da2b be3d 5d86 27be 7782 9cbd
00000340: 1f20 3bbe 5d84 30be 4ade 26be 3a96 893d
00000350: d0b7 d73c 4785 a1bd 5001 903c d477 8cbd
00000360: a005 e4bd 25ba 4b3e e19a 233e 59bd 263e
00000370: 362b a13d ca67 81bd 8751 b4bd a4f2 6e3d
00000380: 7eac 9a3d 9089 e2bc f16f 033e 7a22 fb3d
00000390: 0231 09be 6288 05be cce6 92bd d306 2ebe
000003a0: b0c0 623c babc a5bd d32d 2a3e 3570 11be
000003b0: 2cc9 26bd 00b3 c83a ec00 44bd 44a6 87bd
000003c0: 5251 8a3d c2e8 ec3d 86fb 98bd 2556 483e
000003d0: 287e d6bc 489f 70bd c082 47be b3fa d7bd
000003e0: c000 f7bc 285b f73c 0c27 5d3d c08c 16be
000003f0: d02a c13c fe11 983d 2863 39be e827 44be

bias f4 [25]
-0.030594468 -0.16858704 0.07269277 -0.13014194 0.03540452 -0.05411187 -0.13327646 -0.083796166
-0.062067717 -0.16945861 -0.00638178 -0.15058155 0.13888837 0.05844082 -0.06862362 0.06534876
0.1914324 -0.12746361 -0.06024289 -0.042093962 0.07511939 0.1595122 0.07756598 0.19258259
0.04362996
00000000: 40a1 fabc 15a2 2cbe f2df 943d ee43 05be
00000010: 5404 113d 68a4 5dbd a079 08be 539d abbd
00000020: b83a 7ebd 8f86 2dbe 401e d1bb 0d32 1abe
00000030: c138 0e3e a45f 6f3d 8a8a 8cbd 92d5 853d
00000040: db06 443e d285 02be 40c1 76bd b86a 2cbd
00000050: 32d8 993d 2b57 233e eada 9e3d 5f34 453e
00000060: 54b5 323d

weight f4 [25, 25]
0.17576824 -0.14689879 -0.0028625727 -0.015157416 0.0035666674 -0.040983632 0.108999506 -0.08236144
-0.069742605 0.005373642 -0.011135459 -0.16027343 0.091714606 0.05153741 0.13192476 -0.057130367
0.0094228685 0.055983767 -0.19413526 -0.0042084754 0.0052802116 -0.19968317 0.1561348 0.1234511
-0.05079849 0.13169746 0.16128983 0.13651429 0.023439959 -0.077633284 -0.15353604 -0.17309225
-0.044864804 0.033003733 -0.19813047 0.0740007 -0.1714284 0.17338718 -0.07916468 -0.17192411
-0.054146886 -0.009352967 -0.050748825 -0.11866999 0.013083607 -0.08135142 -0.1734225 -0.134281
0.029745102 0.04990506 0.011474609 0.021327406 -0.012646198 -0.12327814 -0.07182269 -0.18012671
0.11191119 -0.16436008 -0.05932176 0.1332293 -0.0043822825 -0.017183155 -0.15857077 0.062629566
0.017873734 -0.050377607 -0.061345622 -0.18499994 0.029450536 -0.05941847 -0.0605257 -0.05448024
0.084410116 0.18234827 -0.11354017 0.036124438 -0.13781813 0.14548911 -0.15326533 0.05127813
0.15732442 -0.14149198 0.041597888 0.17143585 -0.15891346 -0.018722385 -0.1757119 0.012815595
-0.04778357 -0.017584756 -0.10553312 -0.017913625 -0.0817647 -0.09039271 -0.12379544 -0.10789221
-0.16886333 -0.15399155 -0.010576338 -0.106272556 0.025555372 -0.17276464 -0.13151176 0.11877991
0.13745226 -0.09716349 -0.03537059 0.10906996 0.09403922 0.12804614 -0.16235821 -0.097918704
0.03423819 0.18890287 -0.14635877 0.0291498 -0.18236552 -0.15956633 0.0038623065 0.097630635
-0.107112885 -0.13024643 0.12275331 -0.04064417 0.19036745 -0.061659366 -0.09021156 -0.081073284
-0.05192566 -0.017002732 -0.023482755 0.12117602 -0.07756298 -0.026183635 -0.15854461 0.03631933
0.18648912 0.034617186 0.085981116 0.12938727 -0.17667149 0.054466143 -0.19683988 0.15951549
0.051643148 0.008230254 0.1707231 -0.0824394 -0.044555217 0.17871581 0.18701153 0.17374165
-0.025406048 0.060108557 0.039319947 -0.060602352 -0.10346823 0.16203152 -0.012712926 0.021831825
0.15811457 -0.19700602 0.13680859 -0.03102544 0.07331677 0.10642569 -0.15087226 -0.0105184615
-0.037295625 0.17490442 -0.03044784 0.18447267 0.004807994 -0.09812319 -0.1973001 0.09281658
-0.12847316 0.002955526 -0.10138078 0.045057505 -0.18114793 -0.15934312 0.14921682 0.03210941
0.14722635 0.07906486 0.01303561 -0.19554682 0.12949125 -0.16296482 -0.06872232 -0.19581166
-0.02278927 -0.14895217 -0.14706214 0.16057251 0.021175116 0.14843096 -0.16527255 -0.031075984
0.16746534 -0.0520927 -0.05894132 -0.19972888 -0.17342511 0.1056626 0.058887735 -0.09202287
-0.036206484 -0.06374216 -0.1593177 0.18583961 -0.19373491 -0.1622301 0.16787554 -0.09493368
0.011712551 -0.09257843 0.059144482 0.008791044 0.08130355 0.0053664893 0.00907743 -0.08962166
0.027080566 -0.061551332 -0.048141837 -0.0013359338 -0.06636712 0.116341814 0.17618956 -0.12029071
-0.16617748 0.023469284 -0.0042478293 0.17142476 0.119378224 0.005378887 0.054566488 0.012930363
0.008167908 0.16410111 0.028613478 -0.16324973 0.17952694 -0.18412255 0.065632835 0.04054229
0.19387816 0.040424377 -0.19971204 -0.113282375 -0.1090642 0.12314381 -0.06154713 0.011719972
00000000: 97fc 333e a36c 16be 009a 3bbb d056 78bc
00000010: c0be 693b 74de 27bd 223b df3d 1dad a8bd
00000020: 36d5 8ebd 6015 b03b 8071 36bc b81e 24be
00000030: ded4 bb3d e418 533d 4917 073e 8801 6abd
00000040: 6062 1a3c 3c4f 653d 65cb 46be 40e7 89bb
00000050: a005 ad3b bf79 4cbe cde1 1f3e eed3 fc3d
00000060: 1412 50bd b3db 063e 2929 253e 67ca 0b3e
00000070: 2805 c03c 33fe 9ebd 8d38 1dbe 183f 31be
00000080: 28c4 37bd ec2e 073d b7e2 4abe ae8d 973d
00000090: ed8a 2fbe 698c 313e 1721 a2bd e00c 30be
000000a0: 20c9 5dbd 303d 19bc 00de 4fbd 4009 f3bd
000000b0: a05c 563c 939b a6bd ab95 31be f580 09be
000000c0: 00ac f33c 4069 4c3d 0000 3c3c d0b6 ae3c
000000d0: 0032 4fbc 4079 fcbd c617 93bd 2373 38be
000000e0: b231 e53d 024e 28be 60fb 72bd 436d 083e
000000f0: 4099 8fbb b0c3 8cbc 6060 22be ee43 803d
00000100: f06b 923c c058 4ebd 8c45 7bbd a070 3dbe
00000110: 4042 f13c c860 73bd cce9 77bd ac26 5fbd
00000120: 36df ac3d 81b9 3a3e c087 e8bd 38f7 133d
00000130: 3220 0dbe 19fb 143e 96f1 1cbe 0409 523d
00000140: a719 213e 46e3 10be 8c62 2a3d e18c 2f3e
00000150: 36ba 22be b05f 99bc d2ed 33be 80f8 513c
00000160: b4b8 43bd e80d 90bc c021 d8bd 98bf 92bc
00000170: 4074 a7bd d01f b9bd 7788 fdbd 97f6 dcbd
00000180: 82ea 2cbe f6af 1dbe 6048 2dbc 6da5 d9bd
00000190: 8059 d13c 37e9 30be 05ab 06be e242 f33d
000001a0: 49c0 0c3e a7fd c6bd c0e0 10bd 1260 df3d
000001b0: a297 c03d 871e 033e 3b41 26be 9a89 c8bd
000001c0: 583d 0c3d c16f 413e 13df 15be 90cb ee3c
000001d0: 07be 3abe 5b65 23be c01e 7d3b 92f2 c73d
000001e0: 005e dbbd 525f 05be 1666 fb3d 807a 26bd
000001f0: afef 423e 888e 7cbd d7c0 b8bd c009 a6bd
00000200: 00b0 54bd 5049 8bbc e85e c0bc 222b f83d
00000210: 57d9 9ebd 107f d6bc 8559 22be 94c3 143d
00000220: 01f7 3e3e c0ca 0d3d de16 b03d 197e 043e
00000230: 5fe9 34be e417 5f3d 6590 49be 0758 233e
00000240: c487 533d 30d8 063c 09d2 2e3e fdd5 a8bd
00000250: 887f 36bd 4701 373e f37f 3f3e 55e9 313e
00000260: 5820 d0bc 6434 763d f40d 213d 2c3a 78bd
00000270: 27e7 d3bd 97eb 253e e049 50bc a8d8 b23c
00000280: c9e8 213e f2bb 49be 8d17 0c3e 1029 febc
00000290: 1a27 963d b6f5 d93d 427e 1abe a055 2cbc
000002a0: 4cc3 18bd 251a 333e c06d f9bc 67e6 3c3e
000002b0: 608c 9d3b d0f4 c8bd 0a09 4abe 9e16 be3d
000002c0: 788e 03be 80b1 413b baa0 cfbd 388e 383d
000002d0: d87e 39be d82a 23be 4bcc 183e 2885 033d
000002e0: 81c2 163e c2ec a13d 5093 553c 6d3d 48be
000002f0: 5b99 043e 40e0 26be 4abe 8cbd da82 48be
00000300: 90b0 babc eb86 18be 7597 16be 1f6d 243e
00000310: 7077 ad3c 49fe 173e 353d 29be 1093 febc
00000320: 097c 2b3e 285f 55bd 746c 71bd ba85 4cbe
00000330: 5a96 31be a265 d83d 4434 713d 7d76 bcbd
00000340: 404d 14bd 408b 82bd 2e24 23be bd4c 3e3e
00000350: 7262 46be a61f 26be 91e7 2b3e 976c c2bd
00000360: 00e6 3f3c c399 bdbd 7c41 723d 5008 103c
00000370: 7a82 a63d 60d9 af3b 80b9 143c 908b b7bd
00000380: 10d8 dd3c 401d 7cbd 6030 45bd 801a afba
00000390: 7ceb 87bd 9e44 ee3d 096b 343e fa5a f6bd
000003a0: 6e2a 2abe a842 c03c 6031 8bbb f989 2f3e
000003b0: 927c f43d 6041 b03b 1c81 5f3d e0d9 533c
000003c0: b0d2 053c 1f0a 283e d066 ea3c f02a 27be
000003d0: e9d5 373e 9f8a 3cbe 826a 863d ac0f 263d
000003e0: ff87 463e 0894 253d 5081 4cbe 9700 e8bd
000003f0: 0d5d dfbd d232 fc3d d818 7cbd 2005 403c

bias f4 [25]
0.16355632 -0.08364115 0.09857847 -0.051072836 0.022107393 0.048524454 -0.10859702 0.024623513
0.019149587 -0.100934006 -0.11575153 0.18131362 0.044050574 -0.021648213 -0.068516135 -0.0073016435
-0.16067159 0.18169357 0.05314435 0.06592439 -0.13362987 0.122589365 0.15733849 0.02388008
-0.11180206
00000000: 4f7b 273e 0d4c abbd 82e3 c93d c031 51bd
00000010: 901a b53c 94c1 463d 1d68 debd 40b7 c93c
00000020: 98df 9c3c 7db6 cebd 230f edbd 47aa 393e
00000030: 606e 343d 9857 b1bc 3052 8cbd a042 efbb
00000040: 1887 24be e10d 3a3e e4ad 593d 5e03 873d
00000050: 45d6 08be 2210 fb3d 571d 213e 28a0 c33c
00000060: 7af8 e4bd

weight f4 [25, 25]
0.18908723 0.10759379 -0.06148489 0.15337576 0.028680652 -0.021516293 -0.15110183 0.007948279
0.17741229 0.13521151 -0.025794938 -0.15973993 -0.10342951 -0.121477604 0.19705878 -0.119119145
0.16226013 0.09766425 0.15744244 -0.124810696 0.118633136 0.09021054 0.08411874 0.13912918
0.0013317168 -0.107787706 0.04130037 0.064514235 0.015763834 -0.12900162 0.0026193112 0.025328115
0.067060575 0.16748308 0.095610276 0.16528143 0.16124083 -0.02133353 0.047075197 -0.012191445
0.030705243 0.0092166215 0.15078937 0.18377413 -0.14808714 0.023391917 0.06294392 0.1453418
0.14562722 -0.12083705 0.17150609 -0.017000556 -0.18644547 0.08538307 -0.08072539 0.033037513
0.07824542 0.14594953 0.106225565 -0.052504376 0.13482966 -0.0111872405 -0.13901885 0.035326406
-0.085621215 -0.12662771 -0.14406697 0.10253607 -0.07313356 -0.087213926 -0.13290349 -0.093730785
0.03439462 0.036260918 0.098232254 -0.08934396 0.0038681477 -0.087066844 0.04557541 -0.12182975
0.031363577 0.13018523 -0.17041723 -0.09612434 0.040648147 -0.08926854 0.18795083 0.088597134
0.12642871 0.18213095 0.018636316 0.09414007 0.059498295 -0.14308396 0.1301428 0.14414938
0.0980389 0.03394246 -0.06292589 0.038440272 0.13476409 -0.13202257 0.041116074 -0.12415121
0.10339372 0.19798641 -0.1591686 -0.09277394 0.11639659 0.08211942 0.1081412 -0.034044534
-0.052064925 0.18294246 -0.11106043 0.1797479 0.00012528896 0.14175965 -0.08982768 0.12390737
0.14751093 -0.023602635 0.13757162 -0.0054821223 0.10220219 -0.07870746 -0.14451575 -0.19722311
0.009085149 -0.030566022 -0.13415247 0.004298851 -0.10491927 0.039530486 0.1385336 -0.030410498
0.056968704 -0.12295592 -0.030456662 -0.13601145 0.15409617 -0.03216389 0.029178813 -0.1280603
0.03862293 -0.13859752 -0.01399979 0.0065565854 -0.018199056 0.021731779 -0.044648454 0.09345774
0.06407653 0.13874157 0.0066825897 0.040244818 0.11330353 0.10825144 -0.08791869 -0.056211516
-0.08196976 0.08654614 -0.17134741 -0.13711211 -0.052494243 -0.19089548 0.1823888 -0.16942151
-0.021753147 0.12621142 0.15399791 -0.08396485 -0.083962396 0.1924134 -0.010403603 0.0998006
0.038143948 0.08367874 0.05854298 0.0031401664 0.18453388 -0.18683162 0.13572074 -0.15996528
-0.043062255 -0.04386583 0.001005888 -0.1525989 -0.12057483 0.037227124 0.10050808 0.18585001
-0.16290927 0.08971332 0.1696632 0.06310631 -0.1102519 0.073223546 0.011178523 -0.056575805
-0.08071747 -0.14184561 -0.0007685423 0.11913644 0.10681917 -0.18323784 -0.101869486 -0.092902325
-0.15889537 -0.11475563 -0.1895666 -0.051243514 0.1150042 0.16094236 -0.083326004 -0.17452684
0.05726914 -0.14529869 -0.0948225 0.19257961 -0.084499456 0.16909324 0.021210462 -0.14918713
0.19985177 0.11247198 -0.17686789 0.1207719 -0.04462409 0.18413784 -0.17205012 0.04417944
0.019023418 -0.17375223 0.12368418 0.14049254 0.17489098 -0.14597782 0.06909867 0.12731706
-0.19154973 0.0054813623 -0.13219899 0.08248688 -0.0093795955 -0.0380989 -0.025032848 0.18536921
-0.19890077 0.03125927 -0.04887052 0.0007353574 -0.033047885 -0.0076645315 0.059143677 0.012548
00000000: 15a0 413e 225a dc3d 94d7 7bbd 890e 1d3e
00000010: b0f3 ea3c f042 b0bc 70ba 1abe 8039 023c
00000020: 91ab 353e e374 0a3e e84f d3bc dd92 23be
00000030: dad2 d3bd 40c9 f8bd c7c9 493e bdf4 f3bd
00000040: 8527 263e 3204 c83d 9738 213e c09c ffbd
00000050: eef5 f23d 4ec0 b83d 7246 ac3d e177 0e3e
00000060: 008d ae3a cdbf dcbd 942a 293d 0a20 843d
00000070: 2823 813c 0019 04be c0a8 2b3b e87c cf3c
00000080: 0e57 893d af80 2b3e 52cf c33d 893f 293e
00000090: 511c 253e a8c3 aebc ecd1 403d a0be 47bc
000000a0: 9089 fb3c 5001 173c 8768 1a3e 492f 3c3e
000000b0: 28a4 17be 68a0 bf3c bee8 803d 7bd4 143e
000000c0: 4d1f 153e 6a79 f7bd 4b9f 2f3e c044 8bbc
000000d0: 90eb 3ebe 52dd ae3d 5a53 a5bd 5852 073d
000000e0: 223f a03d cb73 153e ca8c d93d d40e 57bd
000000f0: c910 0a3e b04a 37bc f55a 0ebe 6cb2 103d
00000100: 2d5a afbd b2aa 01be 4b86 13be 6efe d13d
00000110: 0cc7 95bd 379d b2bd da17 08be edf5 bfbd
00000120: 60e1 0c3d 5486 143d fe2d c93d f7f9 b6bd
00000130: c080 7d3b 1a50 b2bd 48ad 3a3d e081 f9bd
00000140: 1877 003d 474f 053e db81 2ebe d7dc c4bd
00000150: ac7e 263d 6dd2 b6bd 2f76 403e 6a72 b53d
00000160: 8776 013e 8980 3a3e 30ab 983c 82cc c03d
00000170: 7cb4 733d 9a84 12be 2744 053e e59b 133e
00000180: 9ec8 c83d 4007 0b3d 4adf 80bd 8c73 1d3d
00000190: 99ff 093e ed30 07be 5469 283d fd42 febd
000001a0: 16c0 d33d f3bc 4a3e 18fd 22be 4300 bebd
000001b0: 5661 ee3d 3a2e a83d 2279 dd3d 4872 0bbd
000001c0: 0842 55bd 4555 3b3e a773 e3bd d50f 383e
000001d0: 0060 0339 7129 113e 93f7 b7bd 26c3 fd3d
000001e0: 1b0d 173e 505a c1bc 93df 0c3e 60a3 b3bb
000001f0: 624f d13d 6031 a1bd f0fb 13be dbf4 49be
00000200: e0d9 143c 9865 fabc 445f 09be 60dd 8c3b
00000210: eadf d6bd b8ea 213d c1db 0d3e 701f f9bc
00000220: 0458 693d 50d0 fbbd 4080 f9bc 9646 0bbe
00000230: 63cb 1d3e 48be 03bd 6808 ef3c 3d22 03be
00000240: 1433 1e3d 82ec 0dbe 605f 65bc a0d8 d63b
00000250: 3016 95bc d806 b23c 4ce1 36bd c666 bf3d
00000260: 8e3a 833d 4512 0e3e a0f9 da3b c0d7 243d
00000270: ae0b e83d eeb2 dd3d b70e b4bd 0c3e 66bd
00000280: c3df a7bd 1a3f b13d b275 2fbe 1e67 0cbe
00000290: 3404 57bd 1b7a 43be 21c4 3a3e d57c 2dbe
000002a0: a833 b2bc 913d 013e a1b1 1d3e c3f5 abbd
000002b0: 7af4 abbd 0508 453e e073 2abc 4264 cc3d
000002c0: d43c 1c3d c25f ab3d c4ca 6f3d 40cb 4d3b
000002d0: 73f6 3c3e ca50 3fbe 61fa 0a3e f0cd 23be
000002e0: 0c62 30bd a8ac 33bd 00d8 833a e342 1cbe
000002f0: f0ef f6bd 787b 183d 2ed7 cd3d 774f 3e3e
00000300: b0d1 26be 9ebb b73d 31bc 2d3e e23d 813d
00000310: c0cb e1bd 3af6 953d 2026 373c 08bc 67bd
00000320: 334f a5bd fa3f 11be 0078 49ba cefd f33d
00000330: 02c4 da3d b3a2 3bbe f3a0 d0bd 9343 bebd
00000340: 78b5 22be 0005 ebbd bf1d 42be b8e4 51bd
00000350: 5287 eb3d 13ce 243e d3a6 aabd 2ab7 32be
00000360: 0c93 6a3d 2ec9 14be 4d32 c2bd 9733 453e
00000370: 0d0e adbd c726 2d3e 90c1 ad3c 83c4 18be
00000380: f1a5 4c3e b657 e63d db1c 35be 4257 f73d
00000390: c0c7 36bd a18e 3c3e e82d 30be 80f5 343d
000003a0: 00d7 9b3c 1bec 31be 224e fd3d 47dd 0f3e
000003b0: 9f16 333e 367b 15be 9a83 8d3d 675f 023e
000003c0: 9d25 44be 009d b33b 2c5f 07be e2ee a83d
000003d0: e0ac 19bc 980d 1cbd b011 cdbc 6dd1 3d3e
000003e0: a5ac 4bbe b809 003d 742c 48bd 00c5 403a
000003f0: 385d 07bd c026 fbbb a440 723d 2096 4d3c

bias f4 [25]
0.09004019 -0.03168848 0.1878617 -0.0073811263 0.078800246 -0.18400455 0.105480805 0.17773019
0.063491955 0.14171506 -0.16581841 0.030652732 0.029933289 0.16602392 0.08891381 -0.120802596
-0.051991194 0.019955203 -0.05981095 -0.18973851 -0.18250902 -0.17305425 -0.009166077 0.18412791
-0.1161988
00000000: fe66 b83d c8cb 01bd d15e 403e 60dd f1bb
00000010: 0662 a13d b06b 3cbe 5206 d83d e7fe 353e
00000020: 1208 823d c11d 113e 4dcc 29be 701b fb3c
00000030: a836 f53c 2d02 2a3e 7218 b63d 5a67 f7bd
00000040: b8f4 54bd 1879 a33c 54fc 74bd d04a 42be
00000050: a5e3 3abe 2235 31be 502d 16bc 078c 3c3e
00000060: a3f9 edbd

weight f4 [4, 25]
0.19627304 -0.01438877 0.119167075 -0.14930613 -0.030910537 -0.010331154 -0.17904542 -0.005399272
0.14587285 0.18298154 0.04526785 0.11089818 0.16752662 -0.060648054 0.110008135 -0.08541796
-0.04054968 -0.0045520365 -0.06656137 0.079889014 0.19805218 -0.08113966 -0.19803213 0.1223077
-0.07904406 -0.1183454 -0.04064043 -0.0016932935 0.15957366 0.15403844 -0.11529803 0.12304206
-0.15483639 -0.12066441 0.12093486 -0.09771731 -0.120582364 0.054941818 -0.049866155 0.19300316
-0.17222671 -0.18434215 0.19019125 0.10961895 -0.16863123 -0.079230145 0.12782718 0.007579133
-0.0715944 -0.16421363 0.1123838 0.09952034 0.07922493 -0.15849316 -0.15582728 0.07663114
0.09050216 0.0097307265 0.024523184 0.089028284 -0.0676786 0.11243193 0.038149238 -0.0666831
-0.14749627 0.039132833 -0.05067472 0.037146285 -0.093256116 0.10157205 0.096893206 0.04631035
-0.17908697 0.13896482 0.10362412 -0.05132313 -0.051140025 0.11271761 0.043417573 -0.03407097
-0.04754451 -0.15859488 0.19515528 -0.08947241 -0.013507932 -0.12763137 -0.10131552 -0.09924281
0.07779278 -0.020198539 0.120448366 0.14664845 0.123779014 -0.18876548 0.05082403 0.008986115
-0.16621439 0.13882704 -0.19042066 0.052964017
00000000: cdfb 483e e0be 6bbc de0d f43d b5e3 18be
00000010: 1838 fdbc 0044 29bc af57 37be 60ec b0bb
00000020: b15f 153e 835f 3b3e c86a 393d 961e e33d
00000030: 198c 2b3e 186a 78bd f24b e13d 9def aebd
00000040: 6c17 26bd 4029 95bb 5451 88bd da9c a33d
00000050: 31ce 4a3e 8d2c a6bd efc8 4abe 767c fa3d
00000060: dae1 a1bd 135f f2bd 9476 26bd 80f1 ddba
00000070: 4767 233e 41bc 1d3e 6021 ecbd 7afd fb3d
00000080: 6e8d 1ebe e71e f7bd b2ac f73d 0320 c8bd
00000090: e3f3 f6bd ac0a 613d 7440 4cbd 9fa2 453e
000000a0: 335c 30be 30c4 3cbe 7fc1 423e e67f e03d
000000b0: aaad 2cbe 6a43 a2bd 21e5 023e 605a f83b
000000c0: 16a0 92bd 9e27 28be 7a29 e63d 52d1 cb3d
000000d0: ae40 a23d 084c 22be 3091 1fbe caf0 9c3d
000000e0: 3259 b93d a06d 1f3c d8e4 c83c 7654 b63d
000000f0: 149b 8abd b642 e63d 6042 1c3d 2691 88bd
00000100: 4309 17be c049 203d 4c90 4fbd b426 183d
00000110: 10fd bebd 0205 d03d f26f c63d ecaf 3d3d
00000120: 9362 37be cb4c 0e3e e238 d43d 3438 52bd
00000130: 3478 51bd 7ed8 e63d a0d6 313d 008e 0bbd
00000140: 08be 42bd b266 22be c9d6 473e 503d b7bd
00000150: 6050 5dbc ccb1 02be 837e cfbd d03f cbbd
00000160: d251 9f3d 6877 a5bc a2ad f63d 032b 163e
00000170: da7f fd3d bd4b 41be dc2c 503d 803a 133c
00000180: 1b34 2abe ad28 0e3e a2fd 42be ccf0 583d

bias f4 [4]
0.0530975 -0.112454966 0.16720726 -0.016856626
00000000: c47c 593d ca4e e6bd 6138 2b3e e816 8abc
