models/_brain_250.pt (torch, 14593 bytes, 12 tensors)

weight f4 [14]
00000000: 0000 803f 0000 803f 0000 803f 0000 803f
00000010: 0000 803f 0000 803f 0000 803f 0000 803f
00000020: 0000 803f 0000 803f 0000 803f 0000 803f
00000030: 0000 803f 0000 803f
1.0 1.0 1.0 1.0 1.0 1.0 1.0 1.0
1.0 1.0 1.0 1.0 1.0 1.0

bias f4 [14]
00000000: 0000 0000 0000 0000 0000 0000 0000 0000
00000010: 0000 0000 0000 0000 0000 0000 0000 0000
00000020: 0000 0000 0000 0000 0000 0000 0000 0000
00000030: 0000 0000 0000 0000
0.0 0.0 0.0 0.0 0.0 0.0 0.0 0.0
0.0 0.0 0.0 0.0 0.0 0.0

weight f4 [25, 14]
00000000: bcad 433e 10ac 113e 3ca6 02bd 0010 8739
00000010: b69b 7abe 40d6 163c f092 ec3d bcf5 39be
00000020: a23e 183e c097 4f3e 8c60 d9bd 30cb d23d
00000030: c2f3 073e 1097 6f3d e015 1cbe 3ca2 a13d
00000040: d535 5abe 52d0 753e 1e0f 433e 1676 743e
00000050: 0a9c 75be d465 683e 7c7c 5a3e 94dc bf3d
00000060: b64b 4dbe 9c89 843d bcd2 973d e9c8 00be
00000070: c2f1 e6bd 7afa b5bd 1817 4e3d 769d e3bd
00000080: 5082 ce3d 7797 7abe e89a 2bbd 7959 0fbe
00000090: 80ed 4fbc 903f d33d c886 07bd cabd aabd
000000a0: 6df2 7abe e6d9 6cbe e4d8 06bd c6a3 a8bd
000000b0: 40de c23b bce3 ad3d 0957 61be ecd8 d83d
000000c0: 7477 463e 802b b73c 4159 7dbe b27f 80bd
000000d0: a326 843e a9fe 39be 74c6 623e c81f 0a3e
000000e0: 3242 37be e828 0f3e f0ff fdbc 3cfe c03d
000000f0: 1a4f 2fbe c09c 953d 8863 353d 6fd9 823e
00000100: 18d0 693e c672 5c3e d8b7 3d3d 508d 4f3d
00000110: 812a 813e 7ac5 2b3e b7cd 5bbe 0273 3fbe
00000120: 5f77 78be c0b7 92bb aac3 0dbe fa6a 553e
00000130: 08eb 043d 50f1 c3bc e0be 523d a45f 6a3e
00000140: 92f3 003e 26fd 633e 049f c5bd dc6c 103e
00000150: 8060 56bc bec1 453e 40c9 683d 580a 4cbd
00000160: 63ce 76be 4c42 933d 82b5 81be 5ac7 7a3e
00000170: ac45 c63d 8841 1b3e ca77 b1bd ea8c 26be
00000180: 7650 333e dce3 42be 2051 a23d 80bb 2b3c
00000190: d6cd 62be 5c07 193e 62a0 2d3e fcb6 023e
000001a0: 6082 4bbe 609d ff3c d8a9 df3d 1802 c73d
000001b0: 020d 533e 80ed 04bd 3a23 2d3e d613 103e
000001c0: 0ea9 e2bd 829a 6f3e 46a3 523e 86a8 81be
000001d0: 2857 f03d f64c 0c3e 68ec 3b3d 60f4 58bc
000001e0: 24dc 70bd 7838 8fbd 0753 50be 781c 333e
000001f0: 7010 04be fd10 56be 5888 90bd b2e7 323e
00000200: 86f2 4b3e 8846 c73d e677 75be 40ca 97bc
00000210: dc57 d13d 9cf5 44bd f4e6 15be 3490 fd3d
00000220: f4a8 4b3e a2fe e9bd 4129 71be e9bf 5ebe
00000230: 54e9 25bd 3723 80be acb5 053e 0126 823e
00000240: 0018 b939 38a1 5bbd a83b bdbd 826c 263e
00000250: 3873 6bbd 8b0f 883e 9c16 0f3e 88db 113e
00000260: 8921 0dbe bed5 2f3e 02bf 013e 004d 233b
00000270: dfad 81be 9821 653d e4c8 31bd 7112 843e
00000280: f2a7 8dbd 1859 473e cd7b 2abe 68ee 643e
00000290: 00e7 e0bd 0f6b 2ebe 0d02 823e 08d9 cdbc
000002a0: 5435 eb3d 8200 223e b6f7 313e 88eb 06be
000002b0: 7834 ac3d b228 3fbe 42c5 84be bf4b 36be
000002c0: 5eb4 50be 6963 11be 780e 7f3d a098 1fbc
000002d0: 4ca7 553e 48f9 0abd fcd1 37bd 92ea 123e
000002e0: b695 4ebe 0cb0 653e cf78 0fbe e0e5 30bc
000002f0: d254 87bd 8e5d 0a3e f8df 403e 08f5 e53d
00000300: e69a d3bd 30b8 c8bc 509e b9bd 6296 52be
00000310: f23a 013e c4d0 f63d f68d 603e 00a5 efbb
00000320: 041c c3bd 62e7 6f3e 68be 7c3d 4b40 07be
00000330: 808c 36bc e1a0 803e 203b 0f3d a27d 283e
00000340: 28a3 7a3d 6e9e 64be 6e0c 45be 00d5 663b
00000350: fce5 0ebe fa6e ddbd f073 b3bd 4617 393e
00000360: b881 3b3e 7801 0ebd fc79 b5bd 68a8 47be
00000370: 46f8 5b3e 4750 2fbe 428b 513e e846 073d
00000380: 836a 18be 7706 813e 8c48 51be 3ab4 52be
00000390: 888f 42be 82b7 82be 787b 303d 43a3 78be
000003a0: e093 b4bd f245 7d3e 4446 1bbe 08d7 313e
000003b0: 18b6 5abe e2b6 1fbe 06da 7abe 3682 3d3e
000003c0: b087 483d 6885 10be 71e9 14be dedd b8bd
000003d0: 0c4f b53d 127f e6bd 3800 323d 3833 d9bd
000003e0: 3072 8ebc 42cd 5b3e 4fe8 75be d06d 973c
000003f0: 1c8a 61be 4804 463d 009e 8aba c828 c0bc
0.19109243 0.14225793 -0.031896815 0.00025761127 -0.24473462 0.009206355 0.115514636 -0.18160146
0.14867643 0.20272732 -0.10614118 0.10292661 0.1327658 0.058493674 -0.1524272 0.07892272
-0.21309598 0.24005249 0.19048735 0.23873171 -0.23985305 0.22695094 0.2133655 0.09368244
-0.20048413 0.064715594 0.07413241 -0.12576641 -0.112765804 -0.08885665 0.050314993 -0.11114018
0.10083449 -0.24471842 -0.041895777 -0.13998975 -0.012690902 0.10314858 -0.03308752 -0.08336981
-0.2450654 -0.23129997 -0.032921687 -0.08234362 0.0059469044 0.084907025 -0.22005858 0.105882496
0.19381505 0.02235961 -0.24741079 -0.06274356 0.25810727 -0.18163551 0.22146016 0.13488686
-0.17896345 0.13980448 -0.03100583 0.09423491 -0.17120019 0.07305288 0.044284374 0.25556514
0.22833288 0.21528158 0.046317905 0.050671875 0.2522774 0.1677455 -0.21465193 -0.18696216
-0.24264286 -0.004477471 -0.13844171 0.2084159 0.032450706 -0.023918778 0.051451564 0.22888047
0.12592915 0.22264537 -0.096494704 0.14104027 -0.013084531 0.19312188 0.056832552 -0.049814552
-0.24102168 0.071903795 -0.25333792 0.24490109 0.096812576 0.15161717 -0.08665426 -0.16264692
0.17511162 -0.19032234 0.079256296 0.010481715 -0.22148833 0.14944214 0.16955712 0.12765115
-0.19873953 0.031202972 0.10921067 0.09717196 0.20610431 -0.03245306 0.16907969 0.14070067
-0.11067401 0.23398784 0.20570096 -0.25323886 0.11735374 0.13701233 0.04587975 -0.013241857
-0.058803692 -0.069931924 -0.20344172 0.17491329 -0.12896895 -0.20904918 -0.070572555 0.17471197
0.19916734 0.0973025 -0.23971519 -0.018529058 0.10221836 -0.048085794 -0.14638883 0.1238102
0.19888669 -0.114255205 -0.23550893 -0.21752895 -0.040505722 -0.25026867 0.13057584 0.2541962
0.0003530383 -0.053620547 -0.09239894 0.1625233 -0.057482928 0.26574358 0.13973469 0.14243901
-0.13782324 0.1717138 0.1267052 0.0024917722 -0.25327966 0.05594024 -0.043404475 0.2579532
-0.06916799 0.1946758 -0.16648789 0.2235657 -0.1098156 -0.17033027 0.2539219 -0.025127903
0.11484781 0.15820506 0.1737965 -0.13175786 0.08408445 -0.18667868 -0.25931746 -0.17802332
-0.20381305 -0.14198078 0.062269658 -0.0097409785 0.208646 -0.03392914 -0.04487799 0.14347294
-0.20174298 0.22430438 -0.14010929 -0.010796994 -0.06607975 0.13512251 0.18835437 0.112283766
-0.10332279 -0.02450189 -0.09063399 -0.20565179 0.12620142 0.12051538 0.21929154 -0.0073133707
-0.09526828 0.2342811 0.061705023 -0.1320812 -0.011141896 0.2512274 0.034968495 0.16454175
0.061190754 -0.22326061 -0.19243023 0.0035222173 -0.1395492 -0.10812183 -0.08762348 0.18075284
0.18311203 -0.03466937 -0.08861157 -0.19497836 0.21481428 -0.17120467 0.20463279 0.033026606
-0.14884381 0.25200245 -0.2043783 -0.20576563 -0.19000065 -0.2553063 0.0430865 -0.2428103
-0.088172674 0.24733713 -0.15163523 0.17367184 -0.21358526 -0.15597108 -0.24497232 0.18506703
0.048957527 -0.1411339 -0.14542176 -0.09026693 0.088529676 -0.112547055 0.04345724 -0.10605472
-0.017388433 0.21465018 -0.240144 0.01848498 -0.22025341 0.048343927 -0.0010575652 -0.023456946

bias f4 [25]
00000000: 0430 b93d 42d9 283e 5ce6 d2bd a8de 343d
00000010: e484 a8bd 1ce6 77be a6d3 25be 1819 d1bc
00000020: 98d9 493e 7a5e 27be 72ce 4ebe d032 233d
00000030: 385c 403e 1aa9 95bd 77cb 883e 463b 29be
00000040: 7c22 583e f44d 1bbd 206d 3ebe 007e cb3c
00000050: 97a8 00be 342f 523e 98ee 583e 7ad5 84be
00000060: 4c80 65be
0.090423614 0.16489127 -0.10297844 0.044157654 -0.08228472 -0.24208874 -0.16194019 -0.025524661
0.19711912 -0.16344634 -0.2019594 0.03984338 0.18785179 -0.07307644 0.2671773 -0.16526517
0.21106905 -0.03791614 -0.18596315 0.024840355 -0.12564312 0.20525819 0.21184766 -0.2594412
-0.22412223

weight f4 [25, 25]
00000000: 318c 093e e8ce 17be 5267 30be 943a 87bd
00000010: fbe8 1fbe 1ab7 dbbd da4a d33d 6ecf 993d
00000020: d8f6 eabc 2926 4b3e a393 bdbd 706e ec3c
00000030: a8e0 a2bc e09d 503c cacd ae3d bfe1 41be
00000040: c270 a23d 26ba b03d 87f3 e4bd c2ea be3d
00000050: b983 2a3e 8db6 403e 8f74 433e b902 433e
00000060: 183a bbbc d0d3 7fbc 5dea dcbd 3132 173e
00000070: ead6 81bd c6c1 a33d 92d1 3ebe 9254 e63d
00000080: b4d6 083d c0c9 a1bd 4a5a 00be 172f 2fbe
00000090: 6af3 e3bd 5a3e eb3d 9dd5 d3bd 8fe4 3d3e
000000a0: 69b0 2d3e 00d4 f73b cdf4 b9bd 4031 b8bc
000000b0: d850 f63c aea8 ed3d 8e31 f23d e66a ec3d
000000c0: 5721 333e 68ca 47be 9724 bbbd 58b8 ca3c
000000d0: b29a a83d 2a13 c63d 88b5 1f3d 0461 7e3d
000000e0: 57eb 37be 4e96 e83d 9a98 a0bd 730a 13be
000000f0: 0919 373e 9207 e93d 06ec 803d 5f1c 233e
00000100: e0ab c1bd ae8d a13d 3772 eabd 2748 333e
00000110: 338f 4abe 5058 213c 585b ad3c 7a9c 12be
00000120: 3a39 d73d 2824 55bd e00e 09bd b4ba 033d
00000130: acb6 4a3d a4a2 01be 719b 483e bde1 323e
00000140: 4880 52bd 82a2 d53d 237f e2bd 70cf d1bd
00000150: 6e30 cc3d d088 733c cf65 4b3e 8fe3 083e
00000160: 192c 3f3e a097 0bbe 20ea b6bd e0c8 47be
00000170: 768e f53d c0d8 d33c d948 0c3e 0848 3bbd
00000180: 820e 813d e0cb 65bd a057 183c 702e c1bd
00000190: 3a74 eabd 5af8 bebd e289 da3d b172 1e3e
000001a0: eb0f 2cbe c0e7 fb3b f8d0 0dbe d725 0e3e
000001b0: a696 e93d 447d 553d 80ff 8e3c d819 22be
000001c0: 0a62 d7bd cda0 33be bb1b 3e3e 3594 1a3e
000001d0: 5727 2d3e 6c50 0f3d 0042 ce3b 55cc 443e
000001e0: 0208 10be 0ad7 f3bd 5bae 33be ab5e 29be
000001f0: ae9c 8e3d 8d8d f4bd 3f74 043e 8c10 32bd
00000200: 9d7a b0bd 3a04 993d 285e 213d feba 1fbe
00000210: 5058 ce3c 9b6b 4bbe 987e 25be d320 eebd
00000220: 0076 04bb dde2 b9bd 85fd 0cbe 8d40 d1bd
00000230: 40a0 be3c 9ef1 c03d 034f afbd ba89 e03d
00000240: 8a3e a0bd c095 15bd e873 fe3c 3474 8ebd
00000250: aedd 8f3d 643e 01be 984f 6dbd 2cf1 18bd
00000260: 2018 4abe 76e7 22be 0019 3abd 5413 2bbd
00000270: 97b8 9cbd ada2 21be 1027 17be 9a80 bcbd
00000280: 5412 013d 72fa bd3d fd32 3a3e 3635 e93d
00000290: fc89 96bd 2498 553d f44e 783d ded4 f23d
000002a0: 70cc e93c 408e bfbb 4717 b2bd 5731 453e
000002b0: 3ac9 e7bd 7da1 1a3e 332a f4bd 6496 533d
000002c0: a3e1 c0bd 3211 b33d 4d81 e5bd 9349 d8bd
000002d0: a7a9 f8bd 9d82 debd 6de1 1cbe 825d d33d
000002e0: 76a4 f93d 18a9 2cbd 46bf bc3d b6d3 28be
000002f0: 3429 7d3d 5d5e 39be 6f13 41be fa3b 843d
00000300: 1fbc 32be f4a8 6bbd 88ea 01bd 8955 1b3e
00000310: e271 e43d 4dc7 ffbd a002 3cbe 7025 e63c
00000320: 9a6f a43d cb60 3ebe 0800 01be e13a 003e
00000330: 53b3 143e 1839 203d 2027 77bc 5084 3ebe
00000340: 978e 333e 8048 6d3b d21e ac3d 747c 35bd
00000350: d5eb 273e 323d 953d 8cb2 153d a804 66bd
00000360: 5067 a73c ca8f 80bd 44a6 4e3d f3cc dbbd
00000370: 74a6 6b3d 61b3 3d3e 5a6f 4cbe 27f8 9cbd
00000380: 80b7 a73c d43b 1a3d 7672 b93d e603 c13d
00000390: 06f8 00be 1716 0e3e 60c1 f0bb 7469 113d
000003a0: 2002 063c 08c1 013d ccc1 85bd 3db8 363e
000003b0: 65e3 013e 3260 e83d 6637 0bbe 5095 343c
000003c0: 6b33 1a3e 97ec b6bd 48c7 013d 8857 103d
000003d0: d427 573d d01e 3abe 37b3 483e fed0 863d
000003e0: d4e0 113d 00d4 d43c feae f13d a2e7 fa3d
000003f0: 204b 2dbd 1a0a efbd 6043 b73b 4646 963d
0.13432385 -0.14825022 -0.17226914 -0.0660297 -0.15616219 -0.10728283 0.10317011 0.07510267
-0.028682157 0.19838776 -0.09256675 0.028861254 -0.019882515 0.012732953 0.08535345 -0.18933772
0.07931663 0.08629255 -0.11179262 0.0932212 0.1665181 0.18819638 0.19087432 0.19044007
-0.02285485 -0.015614465 -0.10786889 0.1476524 -0.0633982 0.07995944 -0.18634632 0.11246599
0.03340788 -0.07899809 -0.12534443 -0.17107807 -0.11130412 0.11486502 -0.10343478 0.1854422
0.16961826 0.007563114 -0.09079895 -0.022484422 0.030067846 0.11604439 0.11825858 0.11543827
0.17493187 -0.19510806 -0.09137838 0.024746105 0.08232631 0.09671624 0.03899148 0.06210424
-0.17960869 0.11356793 -0.078416064 -0.14359455 0.17880644 0.11378397 0.06295018 0.15928791
-0.09456611 0.078883514 -0.11447566 0.17507993 -0.19781189 0.0098477155 0.02116172 -0.14317504
0.10508962 -0.052036434 -0.03346145 0.032160476 0.049490616 -0.12659699 0.19590546 0.17468925
-0.05139187 0.104313865 -0.11059406 -0.10244644 0.09970175 0.014864162 0.19863056 0.13368057
0.18669166 -0.13632059 -0.089313745 -0.19510221 0.11990063 0.02586019 0.13699664 -0.04572299
0.06301595 -0.056102633 0.009298235 -0.094326854 -0.1144795 -0.09324713 0.1067083 0.15473439
-0.16802947 0.007687539 -0.13849247 0.13881622 0.11405687 0.052121416 0.017455816 -0.15830171
-0.10516746 -0.1754181 0.18565266 0.15095599 0.16909538 0.034988806 0.006294489 0.19218571
-0.14065555 -0.1190625 -0.1754698 -0.16540019 0.06963478 -0.11941061 0.1293497 -0.04347281
-0.086171366 0.07471509 0.039396435 -0.15598676 0.025188595 -0.19865267 -0.16161573 -0.116273545
-0.0020211935 -0.09076474 -0.13768585 -0.1021739 0.023269773 0.09421085 -0.08559992 0.10963769
-0.078244284 -0.036519766 0.031061128 -0.06955758 0.07024704 -0.12621456 -0.057937235 -0.037339374
-0.19735765 -0.15908608 -0.045433998 -0.04176648 -0.07652395 -0.15784712 -0.14760995 -0.09204216
0.03151162 0.09276284 0.18183513 0.11387102 -0.07350537 0.052147046 0.06062217 0.118570074
0.028539866 -0.005845815 -0.08695846 0.19257103 -0.11317678 0.15100665 -0.11922111 0.051657096
-0.09418037 0.08743514 -0.11206303 -0.10560908 -0.121417336 -0.10864756 -0.15320368 0.103205696
0.121895716 -0.042153448 0.0921617 -0.16487011 0.061806872 -0.18102403 -0.1885507 0.06456752
-0.17454575 -0.057534173 -0.031717807 0.15169348 0.11154534 -0.124891855 -0.18360376 0.028094023
0.08029099 -0.18591611 -0.12597668 0.1252246 0.14521532 0.03911695 -0.015085012 -0.1860516
0.17534862 0.0036206543 0.08404316 -0.04430814 0.16398557 0.07287063 0.03654723 -0.056156784
0.020435005 -0.062774256 0.050451532 -0.1073245 0.05753179 0.18525459 -0.19964352 -0.07664519
0.020473242 0.037654713 0.09055035 0.09424572 -0.12594613 0.13875614 -0.007347271 0.03550096
0.008179218 0.03167823 -0.065311044 0.17843719 0.126844 0.11346473 -0.13595352 0.011021927
0.15058677 -0.08931845 0.03168419 0.035239726 0.052528217 -0.18175817 0.19599615 0.06582831
0.035614803 0.025979996 0.11800955 0.12251212 -0.042307973 -0.116718486 0.0055927485 0.07337622

bias f4 [25]
00000000: 92ea d33d b8da 46be 9ce0 5f3d 90d7 d0bd
00000010: 6236 c83d bdc4 353e 1511 47be 4c9c 553d
00000020: 2a65 f7bd 8cfe 633d b035 753c 94d6 193d
00000030: b4a9 333d 1268 953d 00d4 8bbd 686a fa3c
00000040: efe1 393e 4055 3ebb 1708 a0bd 1745 e2bd
00000050: e54f 40be 29b0 2b3e 4669 8d3d 989d 32be
00000060: 7a56 30be
0.10347475 -0.19419372 0.054657564 -0.10197365 0.09775998 0.17750831 -0.1944011 0.05215101
-0.120798424 0.055662677 0.014966413 0.037558153 0.043863013 0.072952405 -0.06827545 0.030568317
0.18152593 -0.0029042512 -0.07814043 -0.11048334 -0.18780477 0.16766419 0.06904845 -0.1744293
-0.17220488

weight f4 [25, 25]
00000000: d2d7 fc3d b391 abbd 2078 783c f6b2 80bd
00000010: d052 a3bc 3be6 123e 981a 1bbe e871 c03c
00000020: cce1 75bd b476 4bbd 8586 413e e9a0 163e
00000030: 548b 8cbd 803b 373c c067 90bd c6e8 b23d
00000040: 80b6 9eba 00bf d5bd 3373 a6bd f8f4 03bd
00000050: f290 02be 9230 d23d 58f3 68bd 1d82 27be
00000060: a0e2 df3b c122 063e 028e 983d f09a f7bd
00000070: c96f 473e 4c01 4a3d bffe 083e b341 a3bd
00000080: f28c ba3d d022 a0bc f30a f5bd 2d26 40be
00000090: bfe4 443e 0092 09be e0ae 05be b20c b03d
000000a0: d82b 203d 60df 0abe 2a5f 25be 9afc 23be
000000b0: d430 21bd f3b3 f4bd 66b6 fa3d d06c a9bd
000000c0: f825 43bd 63d7 2f3e 6ecf b03d 74ff 333d
000000d0: 7323 3bbe 183c d0bc 12fe b83d c03f d2bc
000000e0: d87c 3ebd da7f ffbd c2b0 d23d df36 33be
000000f0: 0de4 0b3e c07c d63b cbea 25be 8d83 223e
00000100: 5de7 d9bd 6e0b 15be 6654 14be ae80 2cbe
00000110: 3290 d03d f79e a0bd 047a 7e3d 2d44 4bbe
00000120: 6663 8c3d 00d6 dc39 08c9 263d a005 083c
00000130: f9a7 193e 0e53 ed3d 1033 c7bd ffe0 323e
00000140: 6caa 3e3d 9282 843d 1b68 043e d0d4 0f3c
00000150: 1890 32be 45ce 16be 328c 823d d0d7 673c
00000160: e176 1d3e 0241 f03d 0895 1bbd d2f2 9c3d
00000170: 101f 22be c25f e53d 7d72 143e b876 54bd
00000180: 9030 edbd a781 433e c256 44be 7a63 21be
00000190: c074 50bd 600c 31be 35d4 1fbe a286 1ebe
000001a0: 4794 293e 63de 3cbe 989f 5dbd 37ff aebd
000001b0: 6412 603d b63f a33d 102f 4bbe c2f2 db3d
000001c0: 7421 273d dcb3 82bd 9383 efbd a839 2ebe
000001d0: a300 38be d509 1a3e a139 1b3e aa78 8c3d
000001e0: e564 31be fa19 e7bd 00d6 63bd 88a1 013d
000001f0: 23f8 45be 2d38 08be ec01 3abd f8d9 203d
00000200: a63c e63d 28fe 30be 0849 54bd cdaf 31be
00000210: a069 d13b 4a60 ce3d 8c21 04be 8a92 febd
00000220: 767f a73d 7443 5dbd f44f 82bd 2526 413e
00000230: a753 243e 40c8 a4bd fdc6 32be b80d 093d
00000240: dd10 e2bd 2a18 f43d 8465 6e3d fd16 07be
00000250: 1a2b 19be cccc 233d c7a5 e2bd 6157 493e
00000260: ce39 aa3d 86e4 bc3d 5867 e83c 8052 243b
00000270: 1ba5 3a3e 3ebb eb3d 81bd 1b3e 80a9 8abc
00000280: 6a74 82bd c088 e0bb 9222 d53d de04 09be
00000290: 4641 06be 63ad 123e 3af4 e73d 1db8 04be
000002a0: 7d02 323e 3213 0fbe 8b9e 013e 3a44 27be
000002b0: 2800 4a3d 53bf 3dbe aa93 45be 69c0 453e
000002c0: 1885 58bd 1700 383e 1081 d13c 33f5 dbbd
000002d0: 8034 abbd 70ea e6bc 081d 103d d245 d13d
000002e0: 25ad 053e 49bb 233e 2baf 0f3e 3a75 aebd
000002f0: 301e 3fbc 80fa 46bd 75bb 263e 2aac e13d
00000300: 982c 3dbd 75ba 11be 1348 143e 3a3d c4bd
00000310: 105b 8dbc fde2 bcbd 3785 a8bd 886d 56bd
00000320: 634e 2ebe bbea 373e 809a 1b3d 9085 96bd
00000330: 340a 453d a759 173e c2f1 ed3d 68d1 b3bc
00000340: ca69 d7bd 400c e03c df47 2c3e 5215 e53d
00000350: 3189 113e c57d 46be 0dd5 cebd 1d1c 0cbe
00000360: c670 ca3d d1c2 483e d867 a1bc 546b 1a3d
00000370: 123f b93d 7c5a 83bd 31f0 003e c44e 753d
00000380: a027 95bb 95d9 063e 7502 30be 3d65 48be
00000390: 9049 00be 7fe1 363e 6081 bbbb ec05 453d
000003a0: 8215 46be ded8 dc3d 6a4d e53d c390 a7bd
000003b0: 1f7b 253e 0ead b63d a0a0 0d3c 8a10 873d
000003c0: eb05 1cbe 1b79 393e 289b 9ebc 1a6b efbd
000003d0: 7a3e 91bd be1a f93d 96cf c93d 9a1c ae3d
000003e0: 2293 ab3d 664b 91bd 1423 52bd f6bb 883d
000003f0: a08a 653c 69b4 433e 62b8 fe3d 6e3a 22be
0.12345852 -0.08377399 0.015165359 -0.06284134 -0.019936949 0.14345638 -0.15146863 0.023491815
-0.06002979 -0.04967375 0.18898971 0.1470982 -0.06862512 0.0111836195 -0.07051039 0.08735804
-0.0012108833 -0.10436821 -0.08127441 -0.032216042 -0.12750605 0.1026317 -0.056872696 -0.16358228
0.0068324357 0.13099195 0.07448961 -0.12090099 0.19476236 0.049317643 0.13378428 -0.079715155
0.091089144 -0.01954785 -0.11964979 -0.18764563 0.19227885 -0.13434601 -0.13054991 0.085961714
0.039104313 -0.13561773 -0.16149583 -0.16014329 -0.039353207 -0.11948385 0.12241821 -0.082727075
-0.04764363 0.17172007 0.08633314 0.04394479 -0.18275242 -0.02541928 0.09032835 -0.025665164
-0.04650578 -0.124755576 0.1028762 -0.175014 0.13661213 0.006545633 -0.16202848 0.15870495
-0.10639832 -0.14555141 -0.1448532 -0.16845962 0.10183753 -0.0784282 0.062128082 -0.19850226
0.06854896 0.00042121112 0.040719062 0.008302122 0.15005483 0.11588107 -0.09726536 0.17468642
0.046549246 0.06470217 0.12930338 0.008778766 -0.1743778 -0.14727123 0.063743964 0.014150575
0.1537738 0.11731149 -0.037983924 0.07663502 -0.15832162 0.11199905 0.14496799 -0.05187103
-0.11581528 0.19092427 -0.1917372 -0.15760604 -0.05089259 -0.17289877 -0.15608294 -0.15481046
0.1656047 -0.18444209 -0.05410728 -0.08544772 0.05470504 0.07971136 -0.19842172 0.10739662
0.040803388 -0.06381962 -0.11695018 -0.17014182 -0.17968993 0.15042813 0.15158702 0.06858952
-0.17323644 -0.112842515 -0.05562401 0.03164819 -0.19332938 -0.1330268 -0.04541199 0.03927037
0.112420365 -0.17284453 -0.05182746 -0.17352219 0.0063907653 0.100769594 -0.12903422 -0.12430294
0.08178608 -0.054019406 -0.06362906 0.18862207 0.16047536 -0.08046007 -0.1745872 0.03346035
-0.11038373 0.119186714 0.05820228 -0.13192363 -0.14957848 0.03999023 -0.11066776 0.19662239
0.083118066 0.09223275 0.02836959 0.0025073588 0.18227045 0.11510323 0.15209009 -0.016926527
-0.063698605 -0.0068522394 0.104069844 -0.13380763 -0.13110837 0.14323954 0.113258794 -0.12960859
0.17383762 -0.13972166 0.12658136 -0.1633462 0.049316555 -0.18530016 -0.1929461 0.1931168
-0.052861303 0.17968784 0.025574237 -0.107401274 -0.08359623 -0.02818796 0.035183936 0.10218395
0.1305433 0.15989412 0.14031665 -0.08518453 -0.011664912 -0.04857874 0.16282447 0.11019166
-0.046185106 -0.14231284 0.14480619 -0.095819905 -0.017255336 -0.09222982 -0.08228534 -0.05235055
-0.1702209 0.17960636 0.03798914 -0.07349694 0.048105434 0.14780293 0.11618377 -0.021950439
-0.105182245 0.027349591 0.16824292 0.11185707 0.1421249 -0.19383915 -0.1009923 -0.136826
0.09884791 0.19605567 -0.019702837 0.037700012 0.09045233 -0.06413743 0.12591626 0.05988957
-0.004551843 0.13168938 -0.17188437 -0.1956987 -0.12528062 0.17859457 -0.00572221 0.04810135
-0.19344142 0.10783552 0.11196406 -0.08181908 0.16160248 0.08919726 0.008644253 0.065949515
-0.15236633 0.18112604 -0.019361094 -0.1169035 -0.070919946 0.12163304 0.09854047 0.08501549
0.08377673 -0.07094459 -0.051302984 0.06676476 0.014010102 0.1911179 0.12437512 -0.15842602

bias f4 [25]
00000000: 0d77 30be e46f 98bd 1ab9 48be 73cf f6bd
00000010: 6e9f cf3d 13f0 aabd 4bdb 3bbe 0282 d53d
00000020: f777 e4bd 1b54 2fbe a888 0bbe dedb b63d
00000030: 0691 9c3d 00f8 11ba 68d7 b7bc e3fb 22be
00000040: 81ed 393e 9a8f cdbd 7ae6 a73d aa07 d03d
00000050: 54a5 243d 4b3d 2bbe 23a8 debd 1a55 f73d
00000060: ee4a d93d
-0.17232914 -0.074432164 -0.1960186 -0.120512865 0.10137831 -0.08346572 -0.18345372 0.10425188
-0.11155694 -0.17121927 -0.13626349 0.08928655 0.076448485 -0.0005568266 -0.02244158 -0.159164
0.18157007 -0.100371554 0.08198257 0.10157712 0.04019673 -0.167226 -0.10871913 0.12076779
0.10609995

weight f4 [25, 25]
00000000: e551 14be 8049 ab3c 0a98 ac3d 00fd 83ba
00000010: 273d 453e 0c19 65bd 3052 603c b3ac edbd
00000020: 5e79 0fbe e0bc 153d 35e6 03be 31dc 223e
00000030: 98ba a33c ed85 dcbd f0de 3abe 002b 233c
00000040: 963c f43d ba9b 86bd a76f 3ebe 9d0d 0ebe
00000050: 26df 8bbd 901f d03c 566a 1dbe 50c5 f0bd
00000060: ce04 803d d7cb 083e 68cd 9a3c 7fa8 483e
00000070: d1ee 3f3e 131c e3bd 3481 1ebd 5a59 e33d
00000080: 1dd3 31be 6044 163c 3eeb 813d 3270 bb3d
00000090: a861 42be 82f3 d03d ef1a 363e fba4 2fbe
000000a0: 0794 b0bd c435 553d 6c16 85bd 30b8 afbc
000000b0: 9a62 4cbe 7911 3c3e a8e7 77bd 5d33 d5bd
000000c0: bd3a b2bd b0d3 8cbd 38fe 23be cc56 21bd
000000d0: a874 f93c 7647 22be 98a5 74bd eec9 fc3d
000000e0: eaab dbbd 6dcd 1f3e d3ba 9ebd 8ffc 213e
000000f0: 6801 fabc 3791 3c3e b27b 09be ae8f f13d
00000100: b09e 5c3c b217 24be 00a8 ac3b 20da ffbd
00000110: e017 0bbc 3f43 053e ea66 c8bd a0b0 3d3c
00000120: 663d e13d d238 45be f088 a93c a006 b3bd
00000130: a25a 8f3d 5ab3 2cbe ab03 34be de1b 04be
00000140: 0160 473e 40fa d43c dba9 073e ddcf b8bd
00000150: c2be c53d f2d1 8c3d 16bd 25be b653 8bbd
00000160: 879a 213e 37f6 a4bd faff 96bd 434e 45be
00000170: d1c9 2e3e 3b9c 153e 5a1e e8bd fff0 43be
00000180: 0bcf 393e f94b 343e 368b 90bd 9886 24bd
00000190: 58fc 76bd 6df9 0e3e 0a24 c83d 010e 493e
000001a0: 6a00 fd3d f3d0 23be f079 fcbd 804f ce3c
000001b0: 006c 4db9 462b 22be c2cf be3d 384d 23bd
000001c0: 3abf db3d a8b5 3fbe 14bc 05bd 4c8a 72bd
000001d0: 9b7b 45be 4dc0 abbd cd1c 353e 0b47 233e
000001e0: 0ed2 983d c85e 78bd 8e1f b13d 4d51 c2bd
000001f0: b134 1d3e 5104 263e bd44 fdbd a485 6f3d
00000200: 80af b8bd 40bd 4abd a855 063d 18d0 803c
00000210: 20e6 57bd 987c 41bd 4cec 2e3d 00dc 2a3b
00000220: bf03 223e f4c7 5cbd 4f41 153e dadd 1cbe
00000230: da80 81bd 277c f2bd d5fc 1d3e 611f 423e
00000240: 376b d2bd 9197 4a3e e07a 0abd b940 433e
00000250: 4f5c 493e 8494 633d 031d a5bd 4753 033e
00000260: 6e62 cd3d 36e6 94bd 4a73 aabd 526f fd3d
00000270: 8c69 5abd 3b5e 363e b93b 1c3e 0aa0 dfbd
00000280: e348 163e 901b adbd d090 343c 215f 2b3e
00000290: 75dd 32be 916b 373e df74 203e 93d8 39be
000002a0: 988c 58bd f9a1 183e 84d9 763d 5e89 e13d
000002b0: 6bec 123e 5a87 0bbe 2888 0ebd a7c1 4c3e
000002c0: fef0 873d 2845 f13c ca9c dcbd d877 1ebd
000002d0: 689a bdbc 5a16 fabd 4db0 2f3e dae6 8f3d
000002e0: 1beb 003e d7fe f7bd 67dd 38be cf2e 233e
000002f0: 2809 99bc 0067 48bd d04f 12bc ab97 1dbe
00000300: 28b5 3ebd b283 34be b485 713d 9ee6 1cbe
00000310: 3cb8 09be e2e8 fb3d 97ba 113e c7fa c9bd
00000320: 6800 2dbe a5a4 4b3e 368e 05be 0ab2 a93d
00000330: a32d 23be 5875 febc b252 48be bde3 04be
00000340: 92eb c13d 20f7 77bd 8617 813d b065 39be
00000350: 77e1 153e aa7e 8cbd a6e6 91bd 7a2f ea3d
00000360: e1e6 183e 5533 0d3e b248 18be 69fe 353e
00000370: 5177 103e f63d 95bd 5b22 20be d8d6 15bd
00000380: 7354 43be 7876 103d 8f7c 063e c6f0 e43d
00000390: 00ae 08be a0a9 103d b97b 143e 0e66 a33d
000003a0: d787 d6bd 8e72 823d 4cdf 64bd a03f c4bd
000003b0: 54df 4abd e823 6fbd c08b cebb a9ef 003e
000003c0: b626 0bbe 23ba 4c3e 30bc b2bd 09c0 1a3e
000003d0: 999d 403e 3709 f2bd c3dd c3bd 93da 36be
000003e0: cec6 fd3d 9d14 d9bd 3622 28be 3875 22be
000003f0: f239 40be a82b 27be 2c7d 05bd 940e 703d
-0.14484365 0.020909071 0.08427437 -0.0010069907 0.19261609 -0.05593209 0.01369147 -0.116052054
-0.14011142 0.03655708 -0.12880786 0.15904309 0.019986436 -0.10767732 -0.18249106 0.0099589825
0.11925618 -0.06572671 -0.1859728 -0.1387238 -0.068296716 0.025405675 -0.15372595 -0.117563844
0.062509164 0.13359009 0.018896773 0.19595526 0.18743445 -0.11089339 -0.038697436 0.11101027
-0.1736569 0.009171575 0.06343697 0.09152259 -0.18982565 0.102026954 0.17783712 -0.17152779
-0.08621984 0.052053228 -0.06498417 -0.021450132 -0.19959489 0.1836604 -0.06052366 -0.104101874
-0.0870261 -0.06876314 -0.16014946 -0.039389417 0.030451134 -0.15847573 -0.059728235 0.123432025
-0.107261494 0.15605707 -0.07750478 0.15819 -0.030518249 0.1841477 -0.13426092 0.11794983
0.013465568 -0.16024664 0.0052690506 -0.12492776 -0.008489579 0.13013934 -0.09785254 0.011577755
0.10998039 -0.19259956 0.02069518 -0.08741498 0.06999709 -0.16865292 -0.17579524 -0.12901255
0.19470216 0.025998235 0.13248388 -0.09024022 0.09655525 0.068759814 -0.16185412 -0.06803076
0.15781604 -0.08054774 -0.073730424 -0.19268136 0.17069174 0.14610378 -0.11333914 -0.19134901
0.18145387 0.17607106 -0.070578024 -0.04016742 -0.060299248 0.13962336 0.09772499 0.19634248
0.123535946 -0.15997677 -0.12327945 0.025184393 -0.00019590557 -0.1583682 0.093169704 -0.039868563
0.10729833 -0.1872164 -0.03265007 -0.05921392 -0.19285433 -0.08386288 0.17686768 0.1594507
0.0746194 -0.060637265 0.08648597 -0.09488163 0.15352131 0.16212584 -0.123666264 0.05847706
-0.09017849 -0.04949689 0.032796532 0.015724227 -0.0527097 -0.047237962 0.04270582 0.0026071072
0.15821742 -0.053901628 0.14575695 -0.15319005 -0.063234046 -0.118400864 0.15428479 0.18957283
-0.10274356 0.1978438 -0.03380859 0.19067658 0.19664119 0.055561557 -0.08062174 0.12824737
0.100285396 -0.07270472 -0.08322771 0.12374748 -0.053323314 0.17809384 0.15257157 -0.10919197
0.14676242 -0.08452523 0.011020854 0.16735508 -0.17467292 0.17912127 0.15669583 -0.18149023
-0.052868456 0.14905538 0.060266033 0.11012529 0.14347999 -0.13625851 -0.034797817 0.19995748
0.066377625 0.029451922 -0.10772093 -0.03868851 -0.023144916 -0.122112945 0.17157097 0.07026453
0.12589686 -0.12109154 -0.18053208 0.15935825 -0.018681124 -0.048926353 -0.008930162 -0.15389888
-0.046559483 -0.17628363 0.0589654 -0.15322348 -0.13449186 0.12300278 0.14231335 -0.09862285
-0.16894686 0.19887026 -0.1304253 0.082859114 -0.15935378 -0.031061813 -0.19562796 -0.129775
0.094687596 -0.06053841 0.06303315 -0.18105197 0.1463679 -0.06860097 -0.07124071 0.11434837
0.14931823 0.13789113 -0.14871481 0.17772831 0.14108016 -0.07287209 -0.15638106 -0.036581844
-0.19075184 0.03526923 0.13133453 0.111787364 -0.13347626 0.035318017 0.14500321 0.0797845
-0.10475128 0.06369506 -0.055877015 -0.09582448 -0.04952939 -0.058383852 -0.0063032806 0.12591423
-0.13588986 0.1999288 -0.087273 0.15112318 0.18810119 -0.11818164 -0.09563782 -0.17856817
0.123914346 -0.10599635 -0.164193 -0.15865028 -0.18772104 -0.16325247 -0.032590076 0.058607653

bias f4 [25]
00000000: 00fa 6b3b e8b9 cc3c 8b98 103e d090 a8bc
00000010: d820 a13c 14f6 7b3d 19aa 073e d7ce ecbd
00000020: dbfd 3e3e d8fe ab3c 8331 dcbd 728d 30be
00000030: f8b7 44be d5b9 3d3e d2ae ff3d ab0f 003e
00000040: b0e5 5cbc f2e2 d63d a066 203d da3a 843d
00000050: 9c4a 96bd 6c44 12bd 0bc1 2d3e 3d46 d3bd
00000060: e864 9ebc
0.0036007166 0.02499099 0.1412069 -0.020576864 0.019668981 0.061513975 0.13248481 -0.11562889
0.18651526 0.020995542 -0.10751631 -0.17241457 -0.19210804 0.1852792 0.12484516 0.12505977
-0.013482496 0.10492505 0.03916037 0.064565375 -0.07338449 -0.035709783 0.16968171 -0.10316131
-0.019335225

weight f4 [4, 25]
00000000: 3492 233d ac84 08be 50e9 a9bd aaeb 8cbd
00000010: 86de 943d f437 293d ea14 f1bd 5701 383e
00000020: b144 463e 6d36 183e 0353 fabd 15e7 00be
00000030: 2a63 06be 9290 d83d f82c 3bbd 918a 163e
00000040: 294f 2b3e 2498 603d 1475 18bd 4a7d cb3d
00000050: 27b6 fabd 0076 cebb ae93 883d ce8c e83d
00000060: 8bd3 3d3e ef0f 103e 0de1 43be a057 053c
00000070: 48b1 32bd deb2 973d 5204 8f3d 2851 293d
00000080: 6aab 83bd 1551 0fbe bae2 be3d 8016 983c
00000090: c954 263e ae6c ba3d 90d8 d83c f075 fdbd
000000a0: cd03 0dbe 1079 8fbd 12ed be3d 8475 91bd
000000b0: c0ae 883c ae1c 1dbe f050 fbbc 7e92 2abe
000000c0: a65b 853d c0fe c3bc 029a c53d 4d35 293e
000000d0: 5c27 723d 4093 93bc dd53 423e 70b9 be3c
000000e0: 8052 38bb 3324 c0bd 57bc 3bbe e49d 00be
000000f0: 18b3 39be e340 e5bd 6ede a53d 47c7 433e
00000100: 0eb9 c63d 88c6 393d c3cd c7bd 1227 983d
00000110: c021 b4bd 4a6d cdbd a48c 7b3d 5854 febc
00000120: c7d2 e0bd 2f14 063e 6737 3fbe 8b2d 373e
00000130: 00c4 4abe 2094 a1bd 9ba7 2f3e b7d9 023e
00000140: 7b76 103e 84de 95bd a883 25be c3e4 243e
00000150: d611 fb3d 6856 21be 127e a73d 034b d7bd
00000160: 4746 eebd 333e 433e a124 3f3e 3a2b f0bd
00000170: 00b0 b7bb f45f 763d b41b 1dbd 92b8 a63d
00000180: 32ad 953d 76f9 89bd 5067 b23c 28d9 68bd
0.039934352 -0.1333186 -0.08296454 -0.06880887 0.072690055 0.041313127 -0.11771567 0.17969261
0.19362141 0.14864512 -0.122228645 -0.12588151 -0.13123766 0.105744496 -0.045697182 0.14701296
0.16729416 0.054832593 -0.03722103 0.09936006 -0.12241774 -0.006300688 0.06668793 0.11354981
0.18537728 0.14068578 -0.19128819 0.008138567 -0.0436261 0.07407163 0.06983246 0.041337162
-0.06429179 -0.13995774 0.093205884 0.018565416 0.1624328 0.0910276 0.026470453 -0.123760104
-0.13770981 -0.07005513 0.09322561 -0.071024925 0.01668489 -0.15342972 -0.030678242 -0.16657445
0.06511621 -0.023925185 0.09648515 0.16524239 0.059119567 -0.01801455 0.18977304 0.023281783
-0.0028125346 -0.093819045 -0.18333565 -0.1256023 -0.18134725 -0.11194017 0.08099066 0.19118987
0.09703265 0.04535535 -0.09756043 0.07429327 -0.087955 -0.10030611 0.061413422 -0.031046078
-0.109777026 0.13093637 -0.18673478 0.17888467 -0.1980133 -0.07889581 0.1715378 0.12778364
0.14107697 -0.07317832 -0.16163504 0.1610289 0.12259261 -0.15755618 0.08178343 -0.10512354
-0.11634498 0.19066696 0.18666317 -0.11726995 -0.0056056976 0.0601501 -0.038356498 0.08140673
0.07308425 -0.06737034 0.021777779 -0.05684772

bias f4 [4]
00000000: 4f28 2dbe 3dcb 2e3e 5977 073e 52c5 813d
-0.16909908 0.17069717 0.13229121 0.06336464
