models/_brain_160.pt (torch, 14593 bytes, 12 tensors)

weight f4 [14]
00000000: 0000 803f 0000 803f 0000 803f 0000 803f
00000010: 0000 803f 0000 803f 0000 803f 0000 803f
00000020: 0000 803f 0000 803f 0000 803f 0000 803f
00000030: 0000 803f 0000 803f
1.0 1.0 1.0 1.0 1.0 1.0 1.0 1.0
1.0 1.0 1.0 1.0 1.0 1.0

bias f4 [14]
00000000: 0000 0000 0000 0000 0000 0000 0000 0000
00000010: 0000 0000 0000 0000 0000 0000 0000 0000
00000020: 0000 0000 0000 0000 0000 0000 0000 0000
00000030: 0000 0000 0000 0000
0.0 0.0 0.0 0.0 0.0 0.0 0.0 0.0
0.0 0.0 0.0 0.0 0.0 0.0

weight f4 [25, 14]
00000000: 906f a63c 3d3e 38be 7459 6bbe f20e 5dbe
00000010: 4c8a f3bd 518b 86be 86e5 783e fc95 d43d
00000020: cc8f 39be b00f 1b3e 2c42 5cbd 80ef 67be
00000030: f4ef 5abd 0ce7 ad3d 7841 71bd 47c4 813e
00000040: 3e4a 81be bb00 82be c0c9 ef3c 06cf 053e
00000050: dc44 8f3d 1e61 1bbe f877 183d 664f 25be
00000060: c863 5dbd d2c4 743e 1027 b93d 1acf 733e
00000070: 9eed 25be 1801 c53d 1042 e43c 9230 463e
00000080: 7c5d 453e 821a f0bd 6cb3 3abe 73ff 09be
00000090: b36a 74be 9607 4abe 3cc2 bf3d 5724 01be
000000a0: 50a4 8c3d 74d7 53bd ac99 67bd 8e39 463e
000000b0: 54e4 5fbe fc29 f23d a0c8 5b3c a12f 3dbe
000000c0: 59a9 45be e84c a3bd 00bd 45be 80b3 aa3d
000000d0: 00da a13d b03c 753d a40e 83be 30e5 b8bd
000000e0: 04b3 db3d 3896 84be a22d 2ebe 4ed2 aabd
000000f0: d070 a1bd 1a2b 19be 448d d4bd 3894 58be
00000100: 1a7e 293e 32a2 033e 2742 883e ec84 e73d
00000110: bd1b 70be 5071 e83c 0426 72bd c0c1 1bbc
00000120: d30b 843e f857 63bd 53e4 09be eac4 f3bd
00000130: 805b f03b 04ee 9f3d ef43 7bbe 0925 39be
00000140: 8a68 b7bd ccc5 553e be2a babd 145d ce3d
00000150: 089e cf3d 0cf9 323e ecd3 423e 8b22 6fbe
00000160: be82 253e 4879 12bd 002f 2a3e 7cf7 6bbd
00000170: 762b 7b3e 145f bcbd 27c1 823e 8084 94bd
00000180: 1c71 23bd f0dc b6bc 78bd b6bc c3fc 0cbe
00000190: 9031 b5bd 36f6 5d3e 5097 dbbc 5d67 78be
000001a0: ac52 5cbd 5c76 d8bd 063a 07be 007e 40bc
000001b0: 008b f9bd 966c 783e cc6f 643e 6cad 283e
000001c0: b435 2b3e e886 5f3e 76c0 6b3e 93ef 833e
000001d0: aaf5 e3bd 5857 b4bd 3d1b 48be e47f 20be
000001e0: fa9e 3ebe 7acb 113e 26b7 edbd 6e05 cebd
000001f0: e019 47bc 8045 50bb b0d3 10bd 9565 833e
00000200: 784f f2bc ea83 553e 8899 563d 2ad5 4fbe
00000210: b0d0 e33d 348f 023e 378d 853e 245d e03d
00000220: b40e 04bd 5258 703e 56c5 553e 80cc 0ebb
00000230: c654 88be 1075 22bd 68da 5d3e 8801 673e
00000240: 2061 793c e0ad 2e3e 282d 323d 48d1 20bd
00000250: 7482 9f3d 53f8 43be 0471 0cbd 14f4 24be
00000260: cf19 7cbe 2c19 af3d 00a8 25bc fc0e 9ebd
00000270: 76d3 89bd d67c 85be d0d5 6b3d 2041 5cbc
00000280: daae 613e a0e4 1e3d 307b c53d a01d 843d
00000290: b39e 873e 9346 3ebe 0098 f2ba e627 483e
000002a0: d076 c1bd 3aac 3bbe 9af8 113e d233 2e3e
000002b0: f0ee 00bd e0b3 753d d0a1 1c3e e2cb dcbd
000002c0: 48bd ad3d 8018 e3bb dc37 5b3e 00e8 663c
000002d0: b883 c53d 18d1 d93d 9eda d7bd 1446 74bd
000002e0: c497 fa3d 662b 753e 60ac d13d 8ca5 6a3e
000002f0: 180a 903d 0083 03bd 06a5 69be 82ea 71be
00000300: dcb5 e43d 0020 b4b9 78f9 2d3e 6756 36be
00000310: b43f 80bd 3760 6dbe 4615 003e d092 fb3c
00000320: 285f 0dbe d8b0 d8bd 3cff 6abe f002 db3d
00000330: f0e1 923d 7adf 043e e013 853c c0ca ff3c
00000340: 74b1 4b3e 3047 9f3d ea79 7d3e 9f05 7bbe
00000350: ec29 69be 4043 2ebc 28fa 963d 9677 47be
00000360: 88b7 9bbd 886e 183d a69c 1a3e 00ed 94bb
00000370: c836 543d c4da 073e fa42 243e 6a04 473e
00000380: c6f3 00be 6c4d bc3d c087 033d c0e5 e73b
00000390: f0bd 283d aa02 06be 3a6e 5b3e 8016 aa3b
000003a0: aeb3 763e 9036 e63c d8f1 643d 8451 61be
000003b0: 601d 1b3c 88c9 6f3d a454 533e e7d4 6bbe
000003c0: 98e0 39bd aa7b 2fbe e458 d53d 18d2 5b3d
000003d0: 6f04 64be ca07 43be e8fb 22be 6467 9a3d
000003e0: e00a 7a3c ba0a 9fbd b076 853d 3082 c6bc
000003f0: a04d 0cbc 3038 b73d 6027 c33d ea7f 493e
0.020316869 -0.17992492 -0.22983342 -0.21587732 -0.118916124 -0.26278165 0.24306306 0.1038017
-0.1812126 0.15142703 -0.053774044 -0.22649956 -0.053451493 0.08491334 -0.058900326 0.2534506
-0.25251955 -0.25391182 0.029271007 0.13067254 0.06995556 -0.15173766 0.037223786 -0.1614357
-0.054050237 0.23903206 0.09040654 0.23809472 -0.16203925 0.09619349 0.027863532 0.19354466
0.19273943 -0.11723806 -0.18232507 -0.13476352 -0.23868828 -0.19729456 0.09363219 -0.12611519
0.068672776 -0.051719144 -0.056543037 0.19357893 -0.21864444 0.11824414 0.013414532 -0.184752
-0.19302882 -0.07973653 -0.19310379 0.08335018 0.07902908 0.05987233 -0.25597107 -0.09028089
0.10727504 -0.25895858 -0.17009595 -0.08340894 -0.078828454 -0.14957848 -0.10378507 -0.21150291
0.1655201 0.12854841 0.2661297 0.1130465 -0.23448081 0.028374344 -0.059118286 -0.009506643
0.2579027 -0.055503815 -0.13466005 -0.11902793 0.0073351264 0.0780907 -0.24537633 -0.18080534
-0.08955486 0.20876235 -0.09090184 0.10076347 0.10137564 0.17477816 0.19026154 -0.23353021
0.16163155 -0.035760194 0.16619492 -0.057609066 0.24528298 -0.09197822 0.2553799 -0.07251835
-0.03990279 -0.022322148 -0.022307143 -0.13768296 -0.08847344 0.21675953 -0.02680555 -0.2425818
-0.05378978 -0.1056945 -0.13205728 -0.011748791 -0.12184715 0.24260172 0.22308272 0.16472405
0.16719705 0.21828806 0.23022637 0.25768718 -0.11130841 -0.08805722 -0.1954164 -0.15673786
-0.18615332 0.14237776 -0.116071984 -0.100596294 -0.012152165 -0.0031779706 -0.03535813 0.25663438
-0.02957891 0.20851102 0.052392513 -0.2029616 0.11123788 0.1274994 0.260843 0.10955265
-0.032240584 0.23471192 0.20876059 -0.0021789372 -0.26627177 -0.03966242 0.21665347 0.22559178
0.01522091 0.17058516 0.043500096 -0.039262086 0.07788554 -0.19137697 -0.034287468 -0.16108733
-0.2461922 0.08549723 -0.010110855 -0.07717702 -0.06729786 -0.26071805 0.057576954 -0.013443261
0.22039357 0.038792253 0.09642637 0.06450963 0.26488265 -0.1858161 -0.0018508434 0.1954647
-0.0944649 -0.18327418 0.1425499 0.17011955 -0.03147787 0.059985995 0.15296102 -0.10781075
0.08483368 -0.006930411 0.21408027 0.014093399 0.09644264 0.106355846 -0.10539745 -0.059637144
0.12235978 0.23942336 0.10237956 0.22914714 0.07033175 -0.032107353 -0.22816858 -0.23624614
0.111674994 -0.00034356117 0.16989696 -0.17806397 -0.062621504 -0.23181234 0.12508115 0.030709654
-0.1380583 -0.10580605 -0.22948927 0.1069392 0.071720004 0.12975875 0.016244829 0.031224608
0.19891912 0.0777725 0.24753538 -0.24513863 -0.22769898 -0.010636151 0.07371932 -0.19479212
-0.07603365 0.037214786 0.15098819 -0.004544854 0.051810056 0.13267046 0.16041175 0.19435278
-0.12592992 0.091944546 0.032111883 0.007076949 0.041196764 -0.13086954 0.21428767 0.0051906705
0.2409198 0.02810219 0.055894703 -0.22003752 0.009467453 0.058541805 0.20637757 -0.23030435
-0.045380205 -0.17137018 0.10417345 0.053667158 -0.22267316 -0.1904594 -0.15916407 0.075392514
0.015261382 -0.07765718 0.065167785 -0.024232 -0.008563429 0.08946264 0.095289946 0.19677702

bias f4 [25]
00000000: 770a 73be 4e07 7b3e 0ecc 313e 8c22 76be
00000010: ec48 523e 936d 20be 6e8d 78be 7030 173d
00000020: 3415 a7bd 38ca 033e 31ed 873e b0a1 a83d
00000030: 1c69 56bd 203a 883c c66c 2fbe b6dc f6bd
00000040: fa06 403e 76b1 2f3e 98e2 663e 24f8 87bd
00000050: 8e61 65be ac38 68be dd6b 1abe 00a5 d8bd
00000060: c0eb a5bb
-0.23734461 0.24514505 0.17362997 -0.24036616 0.2053563 -0.15666799 -0.24272701 0.036911428
-0.08158341 0.12870109 0.2654815 0.082339644 -0.052346334 0.016629279 -0.17131338 -0.12053816
0.18752661 0.1715754 0.22547376 -0.06639126 -0.22400495 -0.22677869 -0.15080209 -0.10578346
-0.005063504

weight f4 [25, 25]
00000000: 40bb 63bd 0a78 a6bd 83a6 d4bd f009 a9bd
00000010: 5bcf 0f3e 60ca 5fbd b779 443e f57b 09be
00000020: c38c f7bd 744c 1a3d f9ac 353e 5f69 0a3e
00000030: 00f7 a8bb 1838 ab3c 8dbb eebd 98c3 5dbd
00000040: 662d c33d 5c25 90bd a94d 3e3e 821e bc3d
00000050: 71ea 0b3e 70c8 903c 1f89 1d3e c088 6fbd
00000060: 6e24 eb3d 6de8 3ebe 1829 193d 668d f13d
00000070: 0af3 fdbd 74b9 0a3d e2f5 da3d cf3a 41be
00000080: 7fa8 143e 83c6 13be 17ee 3a3e 2856 383d
00000090: 08b8 3e3d dc4e 01be 7472 7c3d da95 d6bd
000000a0: 2096 273d 3c18 573d 892b 293e 679e 443e
000000b0: c879 78bd 932f 40be 5dbb aebd 0044 f03a
000000c0: c08a b2bd 80b8 d6bc b28f de3d 00cc 04bb
000000d0: 23f5 0fbe d073 3d3c 89a1 2a3e 4348 38be
000000e0: fa2f 90bd d872 e7bc e8b6 b73c 739d 4a3e
000000f0: cb80 3dbe 589b 2ebd 00e2 de3b 56f4 d63d
00000100: 8c3e 53bd 58cf 55bd a845 13bd a0ac 94bd
00000110: f470 3b3d 504b 9e3c 5cac 04be 18c2 2bbe
00000120: ee78 8b3d c2f6 a93d 0038 1bbd 1d1b 23be
00000130: 9f59 33be b473 2a3d 5d72 c4bd 6aef bb3d
00000140: aaa8 c2bd 1f7d 0a3e e414 663d 3a13 863d
00000150: 594c 2a3e 70e1 f93c c247 c93d 9d2c b3bd
00000160: 52de 883d 6959 0d3e de1d 933d adc1 38be
00000170: 009d 703c 60b7 abbd 2db7 45be 40ff debc
00000180: 88fc 43bd 7f72 293e 3d8b eabd 0c93 0cbe
00000190: 258d 34be 2a37 903d 6ef1 0cbe 6010 04bc
000001a0: 8089 453b d835 e3bc 1207 e03d b12d 173e
000001b0: 6046 fa3b 2ced 6ebd 2a9c b33d 80a3 733c
000001c0: 78ac 0abd 94e4 15bd 1405 58bd 7396 033e
000001d0: 5bad 1fbe a862 1cbe 98ea dd3c 2420 563d
000001e0: 67a2 c0bd 607c 7b3c 2021 24bc 6a67 ed3d
000001f0: 5031 5b3c 28dc 073d 78f2 4ebd 9e81 04be
00000200: 20dd b3bd 1339 ecbd 5204 f33d 2041 77bd
00000210: 7197 203e 4c2c 253d d050 fcbd 4c3b 1fbd
00000220: e0e2 d6bd 7adf 3bbe f70a fdbd 3693 2abe
00000230: f977 103e 28e0 9b3c 4c2c 93bd 1c5d 763d
00000240: d1e5 0d3e 32be f53d e579 1e3e 209c 65bc
00000250: 55d4 1e3e 33dd 3cbe cb2c 2e3e 80b9 273d
00000260: 37fb e0bd 6a4e 45be c025 74bd 2036 ebbd
00000270: cc4a 7fbd 989a fcbc 8971 393e 4208 aa3d
00000280: a061 0ebc 3444 723d ad18 0cbe dcf6 703d
00000290: e699 d73d 3d46 1ebe 66f7 89bd 30a3 d2bd
000002a0: 85f5 05be a061 1d3c 405c 1abe e98d 0a3e
000002b0: 3fa2 49be dab9 19be 083e 6bbd 3d04 04be
000002c0: 8a33 f7bd 1182 183e 2c77 313d 690a 193e
000002d0: f680 c83d 1e54 24be a088 003d 2d48 193e
000002e0: 0c28 623d 6000 e23b c897 1bbd d9f8 033e
000002f0: 3238 9c3d 33b2 45be a2cc cc3d bf9c 1c3e
00000300: cb70 24be ba59 d33d 21d8 4a3e f4ad 42bd
00000310: 743d 403d 27cc b9bd fab9 17be 8164 383e
00000320: 1c77 87bd cb5e 1ebe 7e21 9d3d 21ca 2f3e
00000330: 0006 453d 0c0b 053d 960a 8f3d 40f0 21bd
00000340: 46af 11be 6260 823d ed9e 3dbe 8a37 83bd
00000350: 8de3 bbbd 489e 08be 1537 15be 1a74 33be
00000360: 74ff 6f3d 9b66 0b3e 2068 8fbd 902d a1bc
00000370: ce96 c83d 4bef 14be 80d8 0ebd bdba 473e
00000380: e6c6 f73d 53cf 35be 3007 6d3c 40a0 823b
00000390: 00cf d73c 5e0e c73d 464d e63d 6a7f aa3d
000003a0: 426a f43d 00b6 533c 4174 1a3e 83ff 35be
000003b0: cd2b 083e 66ad 893d d6ab a53d 6e42 15be
000003c0: 1410 53bd 90f6 8b3c 3447 4dbd a0c8 e5bd
000003d0: bd12 e2bd 850f 36be 6787 b8bd d810 163d
000003e0: c702 cfbd 8d30 afbd 5285 43be 417e 2d3e
000003f0: 5a9d dcbd 4c11 47bd f6c8 823d 8469 4e3d
-0.055598497 -0.081283644 -0.10383322 -0.082538486 0.14043944 -0.05463636 0.19187056 -0.13426192
-0.12087395 0.037670568 0.17741765 0.13516758 -0.005156398 0.020900771 -0.11656866 -0.05414161
0.095301434 -0.07038376 0.18584312 0.091855064 0.13663651 0.017673701 0.15384339 -0.058480024
0.11481558 -0.18643351 0.037392706 0.11794548 -0.12399872 0.033868268 0.1069143 -0.1887009
0.14517401 -0.14431195 0.18254887 0.04500404 0.046562225 -0.12627739 0.06163259 -0.10477801
0.040914655 0.052513346 0.16520514 0.1920105 -0.060663015 -0.18768148 -0.085318305 0.0018330812
-0.08717871 -0.026211023 0.108672515 -0.0020263195 -0.14058356 0.011563256 0.16663183 -0.17996316
-0.07040401 -0.028253004 0.022426084 0.19786625 -0.18506162 -0.042628616 0.0068018436 0.10495822
-0.05157332 -0.05219969 -0.0359551 -0.07259488 0.045762017 0.019323021 -0.12956375 -0.1677326
0.06810175 0.082990184 -0.037895203 -0.15928312 -0.17514656 0.04161425 -0.095921256 0.09176524
-0.09504826 0.13524292 0.056172267 0.06546636 0.16630687 0.030503005 0.0982814 -0.08748744
0.06683029 0.13803639 0.07183431 -0.18042631 0.014685869 -0.083845854 -0.19308157 -0.027221322
-0.047848254 0.16547583 -0.11452339 -0.13727969 -0.17631967 0.07041772 -0.13763973 -0.008060545
0.003014177 -0.027735636 0.109388486 0.14763524 0.007637784 -0.058331653 0.0877002 0.014870524
-0.033855885 -0.036594942 -0.052739218 0.1285036 -0.15593474 -0.1527201 0.027089402 0.052276745
-0.09405976 0.0153494775 -0.010017663 0.1159199 0.013378456 0.03316894 -0.050524205 -0.1294007
-0.087824106 -0.115343235 0.118660584 -0.060364842 0.1568277 0.040325448 -0.12320101 -0.03887491
-0.10492492 -0.18346968 -0.12355607 -0.16657719 0.14108266 0.019027784 -0.07186183 0.06014739
0.13857199 0.119991675 0.15476187 -0.014014274 0.15510686 -0.18443756 0.17009275 0.04094839
-0.109854154 -0.19268194 -0.059606314 -0.11484933 -0.06232719 -0.030835435 0.18109716 0.08302356
-0.008690268 0.059147075 -0.13681288 0.058829173 0.10527401 -0.15456481 -0.06736641 -0.10285032
-0.1308194 0.009605795 -0.15074253 0.13530697 -0.19690798 -0.15012303 -0.057432204 -0.12892242
-0.12070377 0.14893366 0.04332654 0.14945377 0.09790222 -0.16047713 0.031380296 0.14968939
0.055213973 0.0068970174 -0.037986547 0.12887897 0.07627906 -0.19306259 0.09999968 0.15294169
-0.16058652 0.10319848 0.19809009 -0.047529176 0.046933606 -0.09072142 -0.14817038 0.18007089
-0.06614515 -0.15465848 0.07672404 0.1716695 0.048101425 0.03248124 0.06984441 -0.03953576
-0.14227018 0.0636604 -0.18517657 -0.064070776 -0.09174261 -0.1334163 -0.14571793 -0.17524758
0.05859323 0.1361336 -0.07002282 -0.019675046 0.09794389 -0.14544408 -0.03487444 0.19504829
0.12098484 -0.17754869 0.014467046 0.0039863884 0.026343822 0.09719537 0.112452075 0.083250836
0.119343296 0.01292181 0.1508341 -0.17773251 0.13297959 0.06722526 0.08089416 -0.14576122
-0.051529005 0.017085344 -0.050116733 -0.11219907 -0.1103873 -0.17779358 -0.09010201 0.036637157
-0.101079516 -0.08554182 -0.19093826 0.16942693 -0.107722 -0.04860048 0.063859865 0.050393596

bias f4 [25]
00000000: 1749 d3bd 3785 4a3e 11d3 193e 41ec 3f3e
00000010: e0a0 3e3d d4c5 2e3d 00f6 793a 0039 94bd
00000020: 92f1 863d 0139 203e 1239 14be c0ff f63c
00000030: fba8 43be 967a 943d e870 e9bc 2d3e 213e
00000040: 93bb 2e3e 4074 f3bd 6560 203e 587a 033d
00000050: 7416 01be 3326 a4bd 5869 95bc 3f4e 4a3e
00000060: 3f01 34be
-0.10316675 0.1977738 0.15021922 0.18742467 0.04654014 0.042669132 0.0009535253 -0.072374344
0.06589045 0.15646745 -0.14474896 0.030151248 -0.1910743 0.07249944 -0.02849622 0.15746374
0.17063741 -0.11887407 0.15661772 0.032099098 -0.12606221 -0.080150984 -0.018238708 0.19756411
-0.175786

weight f4 [25, 25]
00000000: 732a b4bd fa01 e43d 001c cab9 7ab4 08be
00000010: 6529 2cbe 331c 1dbe bb7d 083e 42bd f73d
00000020: d8cd ff3c 0d34 093e 3740 053e 2d4a 073e
00000030: 00e0 71ba 7105 0c3e 28d0 ccbc 8c14 7f3d
00000040: aa98 863d 778c 3bbe 5acd aabd ca47 30be
00000050: 6a40 953d 9847 c23c 7036 e8bc 8ef7 bc3d
00000060: 1b4a 28be d7d4 a4bd 9acb b4bd ae43 be3d
00000070: e02a 413d 7b10 22be 86f3 ae3d a254 3cbe
00000080: d0a0 49be c5ab 07be 4fb7 093e 3fd5 37be
00000090: c056 143d 569d 29be 344f 6e3d 4040 a33c
000000a0: 3097 a3bc 267f c63d 9389 2dbe e8ad 9fbc
000000b0: 4be5 27be 708e 823c 491f 353e 3f74 433e
000000c0: 6876 0d3d fcfe 89bd 501d 05be c105 163e
000000d0: 3d3d 26be 823e b73d 1979 3c3e c0fd dbbd
000000e0: c8e5 4abe 5400 59bd 9338 9bbd 0248 ca3d
000000f0: dd6c 12be 08b6 373d 00e6 85bb aa15 b83d
00000100: 5a4e a93d 42a9 23be 634c e0bd f0fd 8d3c
00000110: 3255 943d 3f5c 4b3e 94e5 35bd 00a9 9f3b
00000120: 40f4 1e3d 02bb c13d e9ec 153e f19a 253e
00000130: 144f 5e3d a732 253e e3c8 203e d206 3bbe
00000140: f083 9f3c ec8a 4dbd 6764 edbd 8a17 ae3d
00000150: d8ca 17be 7f57 35be d4c8 82bd 8c53 6bbd
00000160: ed55 e7bd 6019 07be e644 8bbd 9125 4c3e
00000170: c044 a6bc 89ff 043e 40cf f0bc 26fe 12be
00000180: 55c9 4abe 8820 50bd ffae 433e 3396 413e
00000190: e06a 46bd aa1e 91bd 5200 9e3d 6c83 0fbd
000001a0: e8d4 f13c a0c2 dc3b 6492 83bd 6246 48be
000001b0: 1e49 e83d a25d cb3d b296 bd3d 8412 763d
000001c0: 6caa 1dbd e9be 2f3e 00c9 45be b776 e9bd
000001d0: e8f9 e3bc 9593 13be 6ea2 28be 6d7d 36be
000001e0: 3ff5 3ebe cc24 6c3d 0050 073d 504c de3c
000001f0: 4dfb 05be 2390 10be d117 173e 0c4e 0d3d
00000200: 20c8 4b3c ce5c ea3d c862 5fbd 92ae d23d
00000210: 3636 c13d 28f0 3abd 98f7 9fbc ba8a 07be
00000220: 9567 42be 6a37 26be c3ba 303e 20f8 373c
00000230: e04e 073d a067 3b3d 5005 c33c a418 503d
00000240: 7a5e cbbd c376 23be 7a80 d3bd b03c 89bc
00000250: d882 25bd 95bb 0d3e 50a9 d6bd 2735 45be
00000260: 00d0 0aba a77d eebd b117 313e 4055 46bb
00000270: 899d 233e 6848 ab3c 9504 3fbe 1e60 903d
00000280: 2abe aebd 716a 373e 5a57 47be 630b 2dbe
00000290: 00bf b53a 9f14 37be 00e0 5238 6609 933d
000002a0: 76ee 15be 3020 bf3c 30bc 47be c7ae 0a3e
000002b0: f757 353e 74a4 263d 2a7c 03be 0974 4b3e
000002c0: 19e4 103e 73ab 413e cf77 023e c030 383b
000002d0: dd45 a3bd 1354 b3bd 08ba 4c3d e7a3 363e
000002e0: 9214 c13d 98d1 3cbd 5721 253e c662 8ebd
000002f0: f70e d7bd b232 f43d b53c 063e c208 17be
00000300: 2daa 9cbd 5631 e63d 66ac ef3d 5b18 2f3e
00000310: bff1 3fbe 9452 673d 504a 15bc 9b2c 3c3e
00000320: 0561 13be 9b72 383e 471a f5bd 43c2 333e
00000330: 5adc 29be 23c9 a9bd 7491 07be 8025 c4bc
00000340: 9e26 14be aa2a f4bd d8fd 49be f647 91bd
00000350: f5a7 023e eae7 f43d 7170 3e3e 0e06 f13d
00000360: dfdc 423e e8af 0b3d bd9b 07be 4097 44be
00000370: 0770 a8bd b0c4 553c 0de4 1d3e 074b 1e3e
00000380: 6deb 063e 0670 0dbe c6a6 ba3d 67bf 183e
00000390: 8bc9 26be eed2 873d f093 9d3c b585 3b3e
000003a0: 4767 c6bd ac65 16bd 6274 ee3d 9841 15be
000003b0: 0a1a 46be fd07 b0bd 12a1 0bbe ef27 273e
000003c0: 6c9c 4ebd 30ff 063c 00a7 f3bb 7039 25be
000003d0: 4663 08be fb82 48be 40d5 b63b c05b f63c
000003e0: 1760 c5bd 5e3a 1dbe 8e29 0fbe 1993 443e
000003f0: 8c91 83bd 3826 31bd 1122 3c3e 20d2 20be
-0.08797159 0.111331895 -0.00038549304 -0.13350096 -0.16812666 -0.15342788 0.13329212 0.12096645
0.031226084 0.13398762 0.13012777 0.1321189 -0.0009226799 0.1367395 -0.0250016 0.062275454
0.06572087 -0.18315302 -0.08339949 -0.17214885 0.07287677 0.02371578 -0.02834627 0.09226905
-0.16434519 -0.080484085 -0.088278964 0.092902526 0.04716003 -0.158266 0.08542542 -0.1839166
-0.19690251 -0.13249119 0.13448833 -0.1795244 0.036215544 -0.16563925 0.058181003 0.019928098
-0.019969553 0.096922204 -0.16947012 -0.019492105 -0.16396062 0.01593706 0.17687716 0.19087313
0.03453675 -0.067380875 -0.12999463 0.14650632 -0.16234298 0.08947469 0.1840557 -0.10741758
-0.19814217 -0.05297883 -0.0757915 0.09877016 -0.1429934 0.044851333 -0.004086256 0.08988507
0.082668975 -0.15982535 -0.109520696 0.017333 0.07242812 0.19859408 -0.044408396 0.0048724413
0.038807154 0.09459497 0.14641155 0.16172387 0.054274634 0.16132604 0.15701632 -0.1826432
0.019472092 -0.050181314 -0.11591416 0.085005835 -0.14823472 -0.17709158 -0.06385961 -0.057452723
-0.11295686 -0.13193274 -0.06800251 0.19936205 -0.020296454 0.12988104 -0.0293957 -0.14354762
-0.19803365 -0.050812274 0.19109724 0.18904953 -0.048441768 -0.07085927 0.07714905 -0.035037443
0.029520467 0.0067370683 -0.06424406 -0.19558099 0.11342071 0.099299684 0.092572585 0.06007625
-0.038492605 0.1716267 -0.19314957 -0.11399596 -0.027829126 -0.14411767 -0.16468212 -0.17821284
-0.18648241 0.05765228 0.03303528 0.027135998 -0.13084145 -0.14117484 0.14755179 0.03449826
0.01243785 0.11443482 -0.054537565 0.10287203 0.09434168 -0.045639187 -0.019527242 -0.13236514
-0.18984826 -0.16232076 0.17258744 0.011228591 0.033034205 0.04575312 0.023806244 0.05080475
-0.09930129 -0.15963273 -0.10327239 -0.01675257 -0.040407985 0.13841088 -0.104815125 -0.19258557
-0.00052952766 -0.1164506 0.17294194 -0.0030263215 0.15978064 0.02090855 -0.18654092 0.07049583
-0.08532365 0.17911698 -0.19466916 -0.16898875 0.0013866127 -0.1787896 5.0276518e-05 0.07179527
-0.14641747 0.023330778 -0.19505382 0.13543235 0.17709337 0.04068418 -0.12840334 0.19868483
0.14149512 0.18913059 0.12741016 0.002810523 -0.0797231 -0.0875627 0.0499821 0.17835961
0.094277516 -0.04609832 0.16126 -0.06952433 -0.10500901 0.11923732 0.13109095 -0.14749435
-0.07649646 0.11239879 0.11702804 0.17099135 -0.18744563 0.056475237 -0.009111956 0.1837639
-0.14392479 0.18012469 -0.11967903 0.17554574 -0.16587964 -0.08290317 -0.1323908 -0.023943663
-0.14467856 -0.119222 -0.1972574 -0.070938036 0.12759383 0.119582966 0.1859758 0.11768733
0.19029568 0.034103304 -0.13243003 -0.19198322 -0.082244925 0.013047382 0.15419026 0.15458308
0.13175745 -0.13812265 0.09113841 0.14916764 -0.1628782 0.066320285 0.019235581 0.18312724
-0.09687667 -0.036718056 0.11643292 -0.14575803 -0.1934587 -0.08595274 -0.13635662 0.16323827
-0.050442144 0.008239552 -0.0074356794 -0.16135192 -0.1331912 -0.19581215 0.0055796206 0.030073047
-0.09637468 -0.15354297 -0.13980696 0.19196738 -0.06424245 -0.04324934 0.1837237 -0.15705156

bias f4 [25]
00000000: 8627 82bd 5b7b 4b3e f0f1 9bbd aaea 8abd
00000010: 74e0 15bd aa9d c13d 80c9 d9bd ae7e 00be
00000020: 1a92 92bd a05f c43b d776 47be 9228 923d
00000030: 6856 82bc 6fa1 243e 1433 663d 3a81 9cbd
00000040: f044 48be 74d8 87bd 1462 8cbd 324c 4bbe
00000050: 90e5 bd3c 48d1 3e3d 4024 91bb 7a86 fabd
00000060: 3016 6cbc
-0.06355195 0.19871275 -0.07614505 -0.0678304 -0.03659101 0.094539 -0.10634136 -0.12548324
-0.07156773 0.0059928447 -0.19478928 0.071366444 -0.015910342 0.16077207 0.056201056 -0.076418355
-0.19557548 -0.06633082 -0.068546444 -0.19853285 0.023180753 0.046586305 -0.00442937 -0.122326806
-0.014409587

weight f4 [25, 25]
00000000: 22f8 b93d ec6d 303d 3000 943c e286 d43d
00000010: fe15 08be 3cbd 81bd 50a8 173c 0072 b33b
00000020: d0ee 0abc 063a 2abe 1ac8 48be 0d13 fbbd
00000030: e188 223e 287e 95bc 308f 153c ed56 babd
00000040: a132 123e 9f39 033e 34a2 303d 329c bb3d
00000050: 9aea 09be eb78 373e ac0e 6e3d 7660 1fbe
00000060: daf4 eebd 729f e03d 23ec 023e 80b4 e6bc
00000070: 0ddc d3bd 21da 303e a694 d73d e6f7 88bd
00000080: fbe8 073e 3249 da3d 4013 cd3b 2f87 3d3e
00000090: bda9 3abe 448e 763d 4bed 0e3e 28bf 5cbd
000000a0: 8fba 423e 402c 0bbe b204 07be ed17 ecbd
000000b0: cc08 99bd 16d5 803d f724 39be accf 463d
000000c0: da71 f73d ea71 8ebd 7bdf 3e3e 12e3 d13d
000000d0: 401c 56bd 74f7 09bd 6adb 82bd 425b d53d
000000e0: 8efe d93d f3a1 103e 4c0a 62bd 50f1 cd3c
000000f0: b0dc e53c a01f 043c 16ff a53d d425 4dbd
00000100: 23dd 48be 0ee0 ea3d a209 04be b047 99bc
00000110: 09a4 483e 72e7 aa3d 400d 47bb 1652 bf3d
00000120: 6180 033e b60b f53d bd72 febd c0b4 453b
00000130: cea3 a23d 7e15 01be 404c 8b3b 8c79 0abe
00000140: 0a56 a13d ead4 2bbe bdde a7bd 6083 73bc
00000150: a8bc d33c 1738 aebd 2036 46be e069 163c
00000160: 53f7 2a3e 733c e4bd c049 08bd 6942 183e
00000170: 3ec5 b53d 206b f7bd bd30 b2bd 8e96 b23d
00000180: e891 cc3c 0378 b7bd b893 4bbd 63fe 193e
00000190: 68f9 67bd 1b58 013e 48e4 2abe c8d2 073d
000001a0: 80f9 b5ba 0a75 bebd 9e85 07be 902c 49be
000001b0: 22f6 3ebe 4175 483e 9bda 313e 22f8 49be
000001c0: 496c 223e e0cc 62bd 2b30 43be 0109 333e
000001d0: 9b14 493e 46b6 8a3d 7130 333e 308f 39be
000001e0: 9ee5 ad3d 3961 403e 31fd 193e 640e 7c3d
000001f0: 83c3 323e 8fb5 4abe 5f26 273e 18de f33c
00000200: 65de 22be 685f 4bbd a23e fd3d ea7c f23d
00000210: 6724 3dbe c0c2 3abe aa3a 2dbe 8055 5ebc
00000220: 75b1 22be fac2 ca3d 686e 083d b2a6 823d
00000230: 4da6 48be ab27 46be 7011 9ebc 430c 3bbe
00000240: 37b1 c7bd 00b6 e23b e820 193d f328 063e
00000250: bfa4 4bbe 800f 7ebc 9241 e23d 2098 40be
00000260: 6131 013e 7eaf a93d 71a5 453e e368 303e
00000270: f741 d9bd 612a 0b3e 9e1d bc3d e42f 86bd
00000280: f0e3 933c 603a abbb 60be af3b f93b 063e
00000290: 45fe 2fbe a21d a23d 177a ecbd 2dec 21be
000002a0: d40c 17bd 83ea 30be e0bb 07be 90d7 cabd
000002b0: 2858 0cbd 9ab2 4cbe 3a40 eabd 0210 883d
000002c0: 19e1 0d3e 70a8 d6bc a88e 38be a445 793d
000002d0: c309 b4bd cd4e 2abe d9d9 443e 5a06 8bbd
000002e0: b81c 6ebd 195a 113e 3cbd 763d 9a3c a8bd
000002f0: 2bae 26be 2af8 a23d 627e b23d d07a e1bd
00000300: c5c9 013e c09a d3bc c850 41be 456c 293e
00000310: e2a4 f03d e0ee 3bbd c240 ef3d da78 27be
00000320: 0bec 29be 4117 0a3e e407 4e3d 4055 40be
00000330: 40a0 ec3b 4275 c13d e6a8 19be 6084 98bb
00000340: a41a 5d3d 5980 303e b057 473c f86e 47bd
00000350: 4d35 30be 0298 8d3d 7efd 11be 081c 123d
00000360: 905e e3bd a578 01be 100b c1bd 6a46 9fbd
00000370: 2c64 44bd 4829 323d c00e 58bb 3049 12bc
00000380: 5286 9e3d 2af6 e9bd a6c6 a73d ab56 3fbe
00000390: 60d9 c4bb 50b2 36be 88a2 48be 4097 603b
000003a0: b0d8 08be 2c84 2f3d 06a0 bb3d 99da 383e
000003b0: 3050 713c 80ca 1b3b bcb6 703d 3435 90bd
000003c0: 7729 cdbd 2b58 12be 950c 003e 0e34 ed3d
000003d0: 88e2 29be 2ab6 e03d a8f3 213d b812 2c3d
000003e0: 1d38 b2bd a275 dd3d 755a 32be 5888 f33c
000003f0: 3672 c73d 0d05 bebd 3069 883c 6959 143e
0.09080531 0.04307358 0.018066496 0.10377289 -0.1328964 -0.06334922 0.009256437 0.0054762363
-0.008479789 -0.16623697 -0.19607583 -0.12259493 0.15872528 -0.018248633 0.009128377 -0.09098611
0.14277126 0.1281495 0.04312344 0.09160651 -0.134684 0.1791722 0.05811946 -0.1556414
-0.116677955 0.10967912 0.12785392 -0.028162241 -0.10344706 0.1727071 0.10526399 -0.06687908
0.13272469 0.10658492 0.0062583983 0.185086 -0.18228813 0.06019427 0.13957708 -0.05389324
0.19016479 -0.13591099 -0.13185385 -0.11528001 -0.07472381 0.06290643 -0.18080507 0.048537895
0.12082262 -0.06955321 0.18639939 0.10248388 -0.052273035 -0.033683255 -0.06389506 0.10417797
0.106442556 0.14124279 -0.0551856 0.02513948 0.028059334 0.008064181 0.081052944 -0.050084904
-0.19615607 0.11468516 -0.128943 -0.018710941 0.19593824 0.08344926 -0.0030372888 0.093418285
0.12841941 0.11965124 -0.12424228 0.003016755 0.079413995 -0.12605855 0.004251033 -0.13522929
0.07877739 -0.16780439 -0.08196781 -0.014862865 0.025846794 -0.08506792 -0.19356585 0.009180516
0.16695909 -0.11144342 -0.03327346 0.14869083 0.088755116 -0.12080979 -0.08700702 0.08720122
0.024971917 -0.08958437 -0.049701422 0.15038447 -0.056634337 0.12631266 -0.16688645 0.03316
-0.0013883561 -0.09299667 -0.13234565 -0.19645905 -0.1864858 0.19575979 0.17368548 -0.19723561
0.1586162 -0.055371165 -0.19061343 0.17483903 0.19636767 0.06773047 0.17498948 -0.18121028
0.08491062 0.18787088 0.15037991 0.06153716 0.17457394 -0.19795822 0.16323231 0.029768988
-0.1590515 -0.049651533 0.12365462 0.11840232 -0.18470918 -0.18238354 -0.1691691 -0.0135701895
-0.15888007 0.0990047 0.033308417 0.06379451 -0.19594689 -0.1935107 -0.019295424 -0.18266396
-0.09750598 0.0069186687 0.037384897 0.13101558 -0.19887064 -0.015506625 0.11047663 -0.18808031
0.12616493 0.082854256 0.19301392 0.17227511 -0.10608285 0.13590385 0.091853365 -0.06552103
0.018053025 -0.0052254647 0.0053632706 0.13108815 -0.1718684 0.07915808 -0.11546724 -0.1581275
-0.03687747 -0.17276959 -0.13255262 -0.099043965 -0.03426376 -0.19990006 -0.114380315 0.06643678
0.13855399 -0.026203364 -0.18023169 0.06085743 -0.087909244 -0.16631623 0.19223727 -0.06788321
-0.058132857 0.14194526 0.06023906 -0.08214684 -0.16277377 0.0795749 0.08715512 -0.11009753
0.12674625 -0.025830626 -0.18878472 0.16545208 0.11750199 -0.045882106 0.116822734 -0.16354695
-0.1659395 0.13485433 0.050300494 -0.1878252 0.0072212517 0.09446193 -0.15005836 -0.004654452
0.053980485 0.17236461 0.012166902 -0.048689812 -0.17207833 0.06913759 -0.14256856 0.035671264
-0.11102021 -0.12643678 -0.09425938 -0.07777102 -0.047947094 0.0434964 -0.0032967776 -0.008928582
0.07740463 -0.11423905 0.08192186 -0.18685405 -0.0060073584 -0.17841458 -0.19593251 0.003426984
-0.1336391 0.04285066 0.091613814 0.18052138 0.014728591 0.0023771822 0.05876802 -0.07041398
-0.100176744 -0.14291446 0.125048 0.11582194 -0.16590321 0.10972245 0.03953901 0.04201004
-0.08702109 0.10813452 -0.17417319 0.0297281 0.09738581 -0.09278307 0.01665172 0.14487232

bias f4 [25]
00000000: 3051 7e3c f0a2 b8bc 7dd1 a9bd 75ac 24be
00000010: 1195 273e 29dc 0f3e a0e4 99bb dfd1 063e
00000020: a8ef 28bd b442 2ebd 8b22 323e 0223 de3d
00000030: 6d61 11be 2ad8 d0bd 0099 6abc 3034 94bc
00000040: f138 243e b3f0 18be 8bb2 253e d2e1 cc3d
00000050: 5973 163e b8f4 233d 3c96 663d d607 96bd
00000060: c8db 22be
0.015522286 -0.022538632 -0.0829191 -0.16081412 0.16365458 0.14048828 -0.0046964437 0.13165997
-0.04124418 -0.04254408 0.1739599 0.10846521 -0.14197321 -0.1019748 -0.014318705 -0.018091291
0.16037346 -0.1493557 0.1618139 0.10004009 0.14692439 0.040028304 0.05629562 -0.07325713
-0.15904152

weight f4 [4, 25]
00000000: 0144 273e 2a23 86bd e0e9 84bd 580b 32be
00000010: 98c7 093d 8026 57bd 58d2 90bc 14dc 39bd
00000020: 80eb 07bc 7c5a 00be 1d86 c5bd c0e6 96bd
00000030: 77aa acbd 16b7 ec3d cab2 e03d a0f4 f6bb
00000040: e0f0 0bbe 3095 efbd 4838 0fbd be55 dc3d
00000050: 4015 8bbb dbc1 35be 1d3d c6bd f0f1 9fbc
00000060: 6d2b 33be a3b6 48be b2ae bf3d 9227 fd3d
00000070: dbad 443e ce22 873d 0c1f 303d 3321 debd
00000080: 79a2 383e a650 84bd f0a0 91bd b197 293e
00000090: d867 91bc c3aa 3ebe 4fc3 473e 22a4 fb3d
000000a0: 3c96 09be d1c0 033e e0d9 09bc ccc4 6fbd
000000b0: f7c8 313e 3a46 a83d b0f6 bebd e0e4 2f3c
000000c0: 7384 0e3e c9b3 023e 1642 80bd bd33 323e
000000d0: a79b bcbd 98e5 8b3c 2a0a ae3d a295 be3d
000000e0: 5ea2 b93d a06c 3f3d 43f9 eabd 7065 d3bd
000000f0: bad4 e63d ad78 21be 8695 fb3d 1d30 9abd
00000100: 50f1 afbc f267 2fbe ca40 843d 9ae1 9ebd
00000110: 5719 f8bd 0000 0437 f051 eebc f3e0 2bbe
00000120: 3f56 123e 34cb 633d 65cd 193e b075 563c
00000130: 42eb 31be 38fe 23be a833 a03c 35c7 493e
00000140: d867 df3c 6a2f f8bd 4985 073e de17 9d3d
00000150: 980d f7bc 4232 0abe 5b3e 2e3e 001d 313d
00000160: 31d9 243e 6074 cabd 7442 4dbd 967b 87bd
00000170: 8ac8 d2bd 0080 9ab9 dafb b7bd 536f 163e
00000180: 6363 30be e4db 643d a604 98bd b1f7 1a3e
0.16334535 -0.06549676 -0.064899206 -0.1738714 0.033637613 -0.05252695 -0.017678425 -0.0453759
-0.008295894 -0.12534517 -0.09644721 -0.07368231 -0.08430951 0.11558358 0.10971601 -0.007536486
-0.13666105 -0.11698377 -0.034965783 0.107585415 -0.0042444766 -0.17749731 -0.09679625 -0.019524544
-0.17497034 -0.1960092 0.09359492 0.12361063 0.19206946 0.06598435 0.04299836 -0.10846176
0.18030728 -0.06460695 -0.071107745 0.16561772 -0.017749712 -0.18619828 0.19508098 0.12287165
-0.13436216 0.12866522 -0.008413762 -0.05853729 0.17361818 0.0821652 -0.09324396 0.01073572
0.13917713 0.12763895 -0.06262605 0.17402549 -0.09209376 0.017077252 0.084980324 0.09305884
0.09064172 0.046734452 -0.11473324 -0.10322082 0.11271043 -0.1576869 0.12284379 -0.07528708
-0.021477371 -0.17129496 0.0645767 -0.07757874 -0.12114208 7.867813e-06 -0.029091805 -0.1678503
0.14290713 0.05561371 0.15019758 0.013089582 -0.173749 -0.16014946 0.019555882 0.19704898
0.027271196 -0.121184185 0.13234438 0.07670568 -0.03015785 -0.13495734 0.17015974 0.043240547
0.16098477 -0.09885478 -0.050112203 -0.06615369 -0.10292156 -0.00029468536 -0.08983584 0.14690904
-0.17225413 0.055873767 -0.074227616 0.1513355

bias f4 [4]
00000000: 2a16 bcbd 5838 023d 4704 d2bd b766 ecbd
-0.09183915 0.031792015 -0.10254722 -0.11543029
