models/_brain_47.pt (torch, 14593 bytes, 12 tensors)

weight f4 [14]
0	0x3f800000	1.0
1	0x3f800000	1.0
2	0x3f800000	1.0
3	0x3f800000	1.0
4	0x3f800000	1.0
5	0x3f800000	1.0
6	0x3f800000	1.0
7	0x3f800000	1.0
8	0x3f800000	1.0
9	0x3f800000	1.0
10	0x3f800000	1.0
11	0x3f800000	1.0
12	0x3f800000	1.0
13	0x3f800000	1.0

bias f4 [14]
0	0x00000000	0.0
1	0x00000000	0.0
2	0x00000000	0.0
3	0x00000000	0.0
4	0x00000000	0.0
5	0x00000000	0.0
6	0x00000000	0.0
7	0x00000000	0.0
8	0x00000000	0.0
9	0x00000000	0.0
10	0x00000000	0.0
11	0x00000000	0.0
12	0x00000000	0.0
13	0x00000000	0.0

weight f4 [25, 14]
0	0x3e089766	0.13339004
1	0xbde5d17c	-0.112215966
2	0x3dcc8bb8	0.09987587
3	0xbe5db18b	-0.21649759
4	0x3d8c1d9c	0.06841585
5	0x3d8af404	0.067848235
6	0xbd612014	-0.054962233
7	0xbb900b00	-0.0043958426
8	0xbe66a385	-0.22523315
9	0xbd05293c	-0.032510027
10	0x3baf6180	0.005352199
11	0x3c91ef70	0.017814368
12	0xbe81afeb	-0.25329527
13	0x3e7bfbc6	0.24607763
14	0x3b9626c0	0.004582256
15	0x3d7b69d8	0.061380237
16	0xbe7c3e77	-0.24633203
17	0xbe18cefe	-0.14922711
18	0x3df01318	0.11722392
19	0x3d940eb8	0.0722937
20	0xbe7456bd	-0.23861213
21	0xbe57933c	-0.21052259
22	0x3e809c71	0.25119355
23	0x3db11f30	0.08648527
24	0xbdcf7d78	-0.10131353
25	0x3db64bd4	0.08901182
26	0x3c8aa8e0	0.016926229
27	0x3d96d174	0.07364169
28	0xbe56af2f	-0.20965265
29	0x3dce9f34	0.10088959
30	0x3e52a0ec	0.205692
31	0xbd615c58	-0.055019706
32	0x3c3b2020	0.011421233
33	0x3d419a80	0.047266483
34	0x3de91bd4	0.11382261
35	0xbe4ad131	-0.19806363
36	0xbc0f9b00	-0.008764982
37	0xbe252254	-0.16126376
38	0x3d96d50c	0.07364854
39	0x3d969c90	0.07354081
40	0x3e28699c	0.16446537
41	0x3e7d6b22	0.24747899
42	0x3e2a47a8	0.16628897
43	0x3e062054	0.1309827
44	0x3e1d0410	0.15333581
45	0xbd2c99e8	-0.042138964
46	0x3e43f61e	0.19136855
47	0xbe13842c	-0.14405888
48	0x3d578af0	0.052622736
49	0x3d34a958	0.04410681
50	0xbd982600	-0.07429123
51	0x3e821997	0.25410149
52	0xbd084a64	-0.03327407
53	0xbe3917ca	-0.18075481
54	0xbd9201f8	-0.07129282
55	0x3e3a51f2	0.18195322
56	0x3e34d214	0.17658263
57	0x3df1bd34	0.11803666
58	0xbe4a7ab3	-0.19773369
59	0xbd63e074	-0.055633977
60	0x3e167c18	0.14695776
61	0x3d0cdaa0	0.034388185
62	0xbe808ba8	-0.2510655
63	0xbb49d600	-0.003079772
64	0x3e8339df	0.2563009
65	0xbdb6bcb8	-0.08922714
66	0xbdc85f1a	-0.09783764
67	0xbd8b58be	-0.068040356
68	0x3e546326	0.20740947
69	0x3e7f7142	0.24945548
70	0x3d514e10	0.051099837
71	0xbe802bff	-0.25033566
72	0x3e6169b8	0.22012985
73	0x3e6148b8	0.22000396
74	0xbd42a138	-0.04751703
75	0x3c8841c0	0.016632915
76	0x3cd58870	0.026066035
77	0x3e39a61e	0.18129775
78	0x3e686466	0.22694549
79	0xbd1ea4d0	-0.038731396
80	0xbdbd67ec	-0.09248337
81	0x3dadeb6c	0.08492169
82	0x3d817844	0.06321767
83	0xbe051e81	-0.12999918
84	0x3e1c4988	0.15262425
85	0xbcebee60	-0.02880019
86	0xbd08197c	-0.03322743
87	0x3d725e88	0.059172183
88	0x3e291ce2	0.16514924
89	0xbca06658	-0.019580051
90	0x3d92707c	0.07150361
91	0x3e36a1cc	0.17835158
92	0xbca0d6a8	-0.019633606
93	0x3e498762	0.1968055
94	0x3e67ca54	0.22635776
95	0x3e42709c	0.1898827
96	0xbb00f380	-0.0019676387
97	0xbe178757	-0.14797722
98	0xbd55bf5c	-0.052184448
99	0xbe0835e6	-0.1330181
100	0x3e80ae19	0.25132826
101	0x3e3bf9b8	0.18356979
102	0x3e0ce968	0.13760912
103	0xbe5a431f	-0.21314667
104	0xbd8b1abe	-0.0679221
105	0xbe629b8e	-0.22129652
106	0x3d4abaa0	0.049494386
107	0xbdd435c6	-0.10361819
108	0x3e2e41e8	0.17017329
109	0xbdb8a0a2	-0.09015013
110	0x3dc4eb84	0.096152335
111	0x3c4f46e0	0.012651175
112	0xbd2dd230	-0.04243678
113	0x3dcd1f44	0.10015729
114	0xbe60d04b	-0.21954457
115	0x3dd0162c	0.10160479
116	0x3d949bf0	0.07256305
117	0x3e3201ca	0.17383495
118	0xbe476848	-0.19473374
119	0xbb848780	-0.004044473
120	0x3d94dd94	0.07268825
121	0xbdc188f0	-0.09449947
122	0x3e177322	0.14790013
123	0x3d855d1c	0.065119
124	0x3ded57b0	0.11588991
125	0x3e807a55	0.25093332
126	0xbcbfe028	-0.023422316
127	0x3cdfa4e0	0.027300298
128	0xbdce440e	-0.10071574
129	0x3e1b0c5c	0.15141433
130	0x3e6e8d76	0.2329615
131	0xbe605178	-0.21906078
132	0x3cdb1df0	0.026747674
133	0xbdff3ae4	-0.12462404
134	0x3e14057a	0.14455214
135	0x3e262144	0.16223627
136	0x3a183e00	0.00058075786
137	0xbe4f07f5	-0.20217879
138	0xbda4e18e	-0.08050834
139	0xbdda39aa	-0.1065553
140	0x3e26e3e4	0.16297871
141	0x3e75add2	0.23992088
142	0xbe802a02	-0.2503205
143	0x3e1c80c2	0.15283492
144	0x3e844573	0.25834236
145	0x3df1c308	0.118047774
146	0x3e225e66	0.15856323
147	0x3e58d568	0.21175158
148	0xbc944850	-0.018100888
149	0xbd87ebbe	-0.06636761
150	0x3df26984	0.11836532
151	0x3e4cea7a	0.2001132
152	0xbe3b7a62	-0.18308404
153	0xbe8362ec	-0.2566141
154	0x3df3edc8	0.119105875
155	0xbe09ec1e	-0.13468978
156	0x3e8752f3	0.26430473
157	0x3e32d660	0.1746459
158	0xbd93e292	-0.07220949
159	0x3dc04f04	0.09390071
160	0x3e102374	0.14076024
161	0xbe3625b0	-0.17787814
162	0x3d985ca8	0.07439548
163	0xbde6a1a6	-0.11261301
164	0x3d7182d0	0.058962643
165	0x3d9aa8ac	0.07551703
166	0xbd74b5cc	-0.059743688
167	0xbe49ebe4	-0.19718891
168	0x3d9f2288	0.07770258
169	0x3cabf920	0.020992815
170	0x3e0a584a	0.13510242
171	0x3e26a606	0.1627427
172	0x3e2669b6	0.16251263
173	0xbd9fb4ac	-0.07798132
174	0xbe882f5e	-0.26598638
175	0xbe672a05	-0.22574623
176	0x3d5bcd68	0.053662688
177	0xbc18e500	-0.009331942
178	0xbe3e5c1f	-0.18589829
179	0xbe70e6c4	-0.2352553
180	0x3e86702f	0.26257464
181	0xbdb414ee	-0.087930545
182	0xbe3fe4b0	-0.18739581
183	0xbd05adac	-0.03263633
184	0xbd436494	-0.04770334
185	0x3d844114	0.06457725
186	0x3cb11d90	0.021620542
187	0xbe7f0677	-0.2490481
188	0x3da4f478	0.08054441
189	0x3d501bb8	0.050807685
190	0x3e69e942	0.22842887
191	0xbc95ecc8	-0.018301383
192	0x3e78084a	0.24221912
193	0xbc8d6600	-0.017260551
194	0xbe19381c	-0.1496281
195	0xbe6da9a1	-0.2320924
196	0xbda1a2ce	-0.07892381
197	0x3e2fa7a8	0.171538
198	0xbdd8e15e	-0.105898604
199	0x3e096f76	0.13421425
200	0xbd81246a	-0.063057736
201	0x3e13910a	0.14410797
202	0x3e882b31	0.26595452
203	0xbe56af38	-0.20965278
204	0xbe027162	-0.12738565
205	0x3ca39500	0.01996851
206	0x3e2b319a	0.1671814
207	0xbe78c6a6	-0.24294528
208	0xbe32c09c	-0.17456287
209	0xbe6a7699	-0.22896804
210	0x3deb2dd8	0.114833534
211	0xbe53e849	-0.20694079
212	0x3def83d0	0.11695063
213	0x3e1a7224	0.15082604
214	0xbe0d7e95	-0.13817818
215	0x3e73d782	0.23812678
216	0xbe5a8540	-0.21339893
217	0x3e1a2d3c	0.15056318
218	0xbe0c3fa0	-0.13696146
219	0xbd859790	-0.06523049
220	0x3e200164	0.1562553
221	0x3e3db262	0.18525079
222	0xbe31362d	-0.17305823
223	0xbe0d3165	-0.13788374
224	0xbe754e26	-0.23955593
225	0xbe4e6a35	-0.20157702
226	0x3e7113ae	0.23542663
227	0xbe3817ba	-0.17977801
228	0xbdb14daa	-0.08657391
229	0x3e7ef4fa	0.24898139
230	0x3cbbdc10	0.022932082
231	0xbe50a8ba	-0.20376864
232	0xbdca90ea	-0.098909214
233	0x3d40e938	0.047097415
234	0xbe80e0e3	-0.25171575
235	0x3d44e8d0	0.04807359
236	0x3dc44870	0.09584129
237	0xbcf0d4d0	-0.029398352
238	0xbe4be34f	-0.1991093
239	0xbe6d467c	-0.23171419
240	0xbe86d7b5	-0.26336446
241	0xbdea4d52	-0.11440529
242	0xbe807a40	-0.2509327
243	0xbe3f8bf7	-0.18705736
244	0xbe3e8bd2	-0.18608025
245	0x3d609b20	0.05483544
246	0xbdd19f04	-0.10235408
247	0x3e18340c	0.14863604
248	0xbe59be7a	-0.21264067
249	0x3e520466	0.2050949
250	0xbe44ffdc	-0.19238228
251	0x3e884f33	0.26622924
252	0x3e45522a	0.19269624
253	0xbdaf3bf8	-0.0855636
254	0x3e8475f5	0.25871244
255	0x3d77c8a0	0.060494065

bias f4 [25]
0	0xbdb3af96	-0.08773725
1	0xbe60d308	-0.21955502
2	0x3e112186	0.14172944
3	0x3e805e27	0.25071833
4	0x3d8f4538	0.06995624
5	0x3bf1a8c0	0.007374853
6	0x3e4df3dc	0.20112556
7	0x3d821264	0.06351164
8	0x3bd8b7c0	0.0066137016
9	0xbdc85d72	-0.09783448
10	0xbe1617a8	-0.14657462
11	0x3e87e855	0.26544443
12	0xbe52f589	-0.20601477
13	0x3d30bc88	0.043148547
14	0xbded7b26	-0.11595754
15	0xbe074c9f	-0.13212822
16	0x3e7024b2	0.23451498
17	0xbe10906f	-0.14117597
18	0xbe59db57	-0.21275078
19	0x3e887907	0.26654837
20	0x3e7064aa	0.234759
21	0x3d1da4d8	0.038487285
22	0xbe0c6acc	-0.13712615
23	0xbe04a0eb	-0.1295201
24	0xbe44f56e	-0.19234249

weight f4 [25, 25]
0	0x3de15102	0.11001779
1	0x3e403c4d	0.18773003
2	0xbe12364d	-0.14278527
3	0x3e09c5c3	0.13454346
4	0xbd56ff88	-0.052489787
5	0x3d963c5e	0.07335733
6	0x3e1b5bd1	0.15171744
7	0xbe1c2aba	-0.15250674
8	0xbc0de9e0	-0.008661717
9	0x3dcfa502	0.101388946
10	0xbdc01b93	-0.09380259
11	0x3e2c456b	0.16823356
12	0x3dab416a	0.08362086
13	0x3db305ee	0.087413654
14	0x3e2e2be9	0.17008938
15	0xbe0a2a1c	-0.13492626
16	0x38e9c000	0.000111460686
17	0x3e09be81	0.13451578
18	0x3e2bd675	0.16781028
19	0xbd93cdd4	-0.07216993
20	0xbe06d835	-0.13168414
21	0xbe06dcc8	-0.13170159
22	0xbe000e40	-0.12505436
23	0xbd2fb7d8	-0.042899936
24	0x3d72dc34	0.059292033
25	0xbe138375	-0.14405616
26	0x3dcde6ee	0.10053812
27	0xbe2c61aa	-0.16834131
28	0xbd4884d4	-0.0489548
29	0x3e154e0f	0.14580558
30	0xbe0931fc	-0.13397974
31	0xbc3a8660	-0.011384577
32	0xbdf0b243	-0.11752751
33	0xbe4adc23	-0.19810538
34	0x3e1ca319	0.15296592
35	0xbcf12940	-0.029438615
36	0xbc6020a0	-0.013679653
37	0xbe4c41d2	-0.19946983
38	0x3e3e1141	0.1856127
39	0x3d811632	0.063030615
40	0x3d89fb62	0.067374006
41	0xbd827864	-0.06370619
42	0xbcfa9328	-0.030587748
43	0xbe46336f	-0.19355558
44	0xbd2b23c0	-0.04178214
45	0xbd5fe1e0	-0.05465877
46	0xbd1b7e58	-0.037962288
47	0xbd80dfc4	-0.0629268
48	0xbd939cda	-0.072076514
49	0x3e0deac5	0.13859089
50	0xbd9d4b4a	-0.07680376
51	0xbc43eba0	-0.011958033
52	0xbe412d3b	-0.1886491
53	0xbda6bbd0	-0.08141291
54	0xbd1d6bd8	-0.038432926
55	0x3e1fa439	0.1558999
56	0x3e4002b9	0.18751039
57	0xbdcbcb6d	-0.0995091
58	0x3e081a01	0.1329117
59	0xbc691660	-0.014226526
60	0xbd63ebd8	-0.05564484
61	0xbe27ef60	-0.16399908
62	0x3cffe550	0.031237274
63	0xbe09884c	-0.134309
64	0x3dd2e96e	0.102984294
65	0xbe468620	-0.19387102
66	0x3cf25198	0.029579923
67	0xbd682628	-0.056677014
68	0xbdc4a143	-0.09601071
69	0x3d9d553a	0.07682271
70	0x3b827660	0.0039813966
71	0x3e01efd5	0.12689145
72	0x3cf12570	0.029436797
73	0x3db1e5a2	0.08686377
74	0xbd06514c	-0.032792374
75	0x3e3f4639	0.18679132
76	0x3b829940	0.003985554
77	0x3d4dc86c	0.050239965
78	0x3df461e6	0.11932735
79	0xbe21eaba	-0.15812197
80	0xbe06b3c5	-0.13154514
81	0xbd67a098	-0.05654964
82	0xbc83cdd8	-0.016089365
83	0x3e257cd7	0.16160904
84	0x3d2cb120	0.042161107
85	0x3d64f55c	0.055898055
86	0x3c3e69a0	0.011621863
87	0xbde4d5aa	-0.11173566
88	0xbde4a9aa	-0.11165173
89	0xbc2bf120	-0.0104945
90	0xbe15e2aa	-0.14637247
91	0x3d7127dc	0.058875903
92	0xbe005a1e	-0.12534377
93	0x3d6bbb44	0.057551637
94	0xbe2418f8	-0.1602515
95	0x3d55770c	0.052115485
96	0xbe0dbc20	-0.13841295
97	0xbe15e933	-0.1463974
98	0xbe33ede3	-0.17571215
99	0x3def4bfe	0.11684416
100	0xbe0305de	-0.12795207
101	0x3d30d40c	0.043170974
102	0x3d2401e8	0.04004088
103	0x3db4489a	0.0880291
104	0xbd6d4c0c	-0.057933852
105	0xbd437cec	-0.047726557
106	0xbe364f0d	-0.17803593
107	0x3d94a3f2	0.072578326
108	0xbd942d70	-0.07235229
109	0xbdadad00	-0.08480263
110	0xbc9fa4b0	-0.019487709
111	0x3c3025e0	0.010751218
112	0xbe433fcd	-0.19067307
113	0xbe216a32	-0.15763167
114	0x3db2f5ea	0.08738311
115	0x3c16e460	0.009209722
116	0xbe1a30ae	-0.15057632
117	0x3e2969c1	0.16544248
118	0xbd950d96	-0.07277982
119	0x3d17c7b8	0.0370557
120	0x3b762d80	0.0037563741
121	0xbd8dc3ec	-0.06922135
122	0x3e03142b	0.12800662
123	0xbda8b833	-0.08238258
124	0x3de62b1a	0.1123869
125	0x3dfd7b02	0.123769775
126	0xbe2b5ba8	-0.16734183
127	0x3e312aa1	0.17301418
128	0x3e2b4b3d	0.1672792
129	0x39d88400	0.00041297078
130	0xbde2d51a	-0.11075802
131	0x3e0efdef	0.13964055
132	0x3d811ebe	0.06304692
133	0xbdf0ae5d	-0.11752007
134	0x3e3acb79	0.18241681
135	0x3dae6a22	0.08516337
136	0xbddca1fd	-0.10773084
137	0xbd0adb00	-0.03390026
138	0xbe051b9e	-0.12998816
139	0x3a65fb00	0.00087730587
140	0x3dd9e8d2	0.1064011
141	0xbd4bc9f8	-0.04975316
142	0x3d0ffc0c	0.03515248
143	0x3e31062b	0.17287509
144	0x3cfe9398	0.031076238
145	0xbae50d00	-0.0017475188
146	0x3d95ee12	0.07320799
147	0x3de694d2	0.11258854
148	0xbcce72d0	-0.025201231
149	0x3df968f2	0.1217822
150	0x3e06e457	0.13173042
151	0x3d056f00	0.03257656
152	0xbe1e2992	-0.15445545
153	0x3d99f832	0.075180426
154	0xbe1772a2	-0.14789823
155	0x3cc4e940	0.024037004
156	0x3dc841ae	0.097781524
157	0xbd814314	-0.06311622
158	0x3e306167	0.17224656
159	0x3e3a95d5	0.18221219
160	0x3d70a7f4	0.058753923
161	0xbe1dd1f3	-0.1541212
162	0x3e278bbd	0.163619
163	0x3e3ad62b	0.18245761
164	0xbdc13893	-0.09434619
165	0x3e082041	0.13293554
166	0xbde1ff33	-0.110350035
167	0xbe03ab6d	-0.12858362
168	0xbdaf97b3	-0.08573856
169	0x3d7e43ec	0.062076494
170	0x3e0479ab	0.12937038
171	0xbe0f63b8	-0.14002883
172	0xbdbd9c8a	-0.09258373
173	0x3e19dff1	0.15026833
174	0x3e4b2a77	0.19840418
175	0x3e007585	0.1254483
176	0x3930ec00	0.00016872585
177	0x3de428fa	0.11140628
178	0x3b910c60	0.004426524
179	0x3dc1bdc6	0.094600245
180	0x3e11d091	0.14239718
181	0x3e2dba7d	0.16965671
182	0xbe0457d4	-0.12924129
183	0x3d081688	0.033224612
184	0x3d78c5d4	0.06073554
185	0xbdcfe633	-0.10151329
186	0xbe497ced	-0.19676562
187	0xbd227d60	-0.03967035
188	0x3e0169eb	0.12638061
189	0x3cc04e80	0.023474932
190	0xbaf37980	-0.0018575639
191	0x3e0de003	0.13854985
192	0x3c3e2a00	0.011606693
193	0x3dd768d6	0.10518043
194	0x3daa12d2	0.08304371
195	0xbe1d9f96	-0.15392908
196	0x3d8ed172	0.06973542
197	0x3e056c79	0.1302966
198	0xbe3fdc8f	-0.1873648
199	0xbd80a76a	-0.06281932
200	0xbe040096	-0.12890849
201	0xbaf8a300	-0.0018969476
202	0xbdea9b70	-0.114554286
203	0x3dcaa362	0.09894444
204	0x3e46aa87	0.19400989
205	0xbc81fd68	-0.015867904
206	0x3d502bb4	0.05082293
207	0xbe019030	-0.1265266
208	0x3e45455d	0.19264741
209	0x3d980ee2	0.07424714
210	0x3db5ce5e	0.08877252
211	0x3e27a0e5	0.1636997
212	0xbe4c541a	-0.19953957
213	0x3cbc2c00	0.0229702
214	0xbdbd1f60	-0.092345
215	0x3e226831	0.15860058
216	0x3e03468f	0.12819885
217	0x3db57952	0.08861031
218	0xbdba16f7	-0.090864114
219	0xbde3333d	-0.11093757
220	0x3e1ff267	0.15619813
221	0xbda20480	-0.079110146
222	0x3df034f2	0.117288485
223	0x3e0a9a73	0.1353548
224	0x3d012f74	0.031539395
225	0x3ce87228	0.028374746
226	0xbdc4e9a3	-0.09614875
227	0x3e057d37	0.13036047
228	0xbca453a8	-0.020059422
229	0x3c899498	0.016794488
230	0x3da59e46	0.08086829
231	0xbd2fe70c	-0.042944953
232	0xbc7f1f20	-0.015571386
233	0xbca05298	-0.019570634
234	0x3d1a00ac	0.037598297
235	0x3a4ec300	0.00078873336
236	0xbdb25b6a	-0.08708842
237	0x3b617f80	0.0034408271
238	0xbdcc2b83	-0.09969237
239	0xbddef330	-0.10886228
240	0xbc1b11e0	-0.009464711
241	0xbd05db2c	-0.03267972
242	0xbcdc52c0	-0.026894927
243	0x3e360fcf	0.17779468
244	0xbd3c2648	-0.045934945
245	0x3e47ecbd	0.19523902
246	0x3e483789	0.19552435
247	0xbdb32403	-0.08747103
248	0x3cd870f0	0.02642104
249	0xbd34f3cc	-0.044177815
250	0x3da263e2	0.079292074
251	0x3c4c15a0	0.012456328
252	0xbdc81d0d	-0.09771166
253	0xbe0ac410	-0.13551354
254	0xbe201d6e	-0.15636227
255	0x3e450851	0.19241454

bias f4 [25]
0	0xbd49b300	-0.049242973
1	0x3e2b95a7	0.16756307
2	0x3e177835	0.14791949
3	0x3dd9433e	0.106085286
4	0xbc818670	-0.015811175
5	0x3ca99658	0.020701572
6	0x3e1d48c1	0.15359785
7	0xbd1315f8	-0.035909623
8	0xbd48ef58	-0.04905638
9	0x3dddf666	0.108380124
10	0x3dd40d4e	0.103541
11	0xbe1ca5a0	-0.15297556
12	0x3dcea636	0.10090296
13	0xbdeaeca7	-0.11470919
14	0x3e48a729	0.19595017
15	0xbcc85140	-0.024452806
16	0x3bdb5c60	0.0066943616
17	0x3cb5d980	0.022198439
18	0x3dc32642	0.095287815
19	0xbd03990c	-0.03212838
20	0xbc519550	-0.0127919465
21	0xbe0c1ca2	-0.13682798
22	0x3d6b0a44	0.057382837
23	0x3c8187f0	0.01581189
24	0x3e2fd3c9	0.17170633

weight f4 [25, 25]
0	0x3e2bc05f	0.16772602
1	0x3e424e93	0.18975286
2	0xbcd74650	-0.026278645
3	0x3dae0962	0.084978834
4	0xbe3edb42	-0.18638328
5	0xbe3f0d83	-0.18657498
6	0x3d9eb806	0.077499434
7	0x3e350b81	0.1768017
8	0x3da41c16	0.080131695
9	0x3ddf187a	0.108933404
10	0x3c5690a0	0.013096005
11	0xbded7f03	-0.11596491
12	0x3dfb52be	0.12271641
13	0x3dd1091a	0.10206814
14	0x3dc7a456	0.097481415
15	0x3d2fc608	0.042913467
16	0x3e258a1f	0.1616597
17	0xbe05fdf2	-0.13085154
18	0x3e02eef1	0.12786461
19	0x3cddf698	0.027095124
20	0x3dd5f756	0.10447566
21	0x3dac7952	0.084215775
22	0x3d7c3cfc	0.061581597
23	0x3c60f530	0.013730332
24	0x3d6c68fc	0.05771731
25	0x3d8aa7ba	0.067702726
26	0xbde1de3d	-0.11028717
27	0xbe1df3db	-0.15425055
28	0x3e2ac13d	0.16675277
29	0x3d4dc24c	0.050234124
30	0x3e00e7ed	0.12588473
31	0xbd82f174	-0.0639371
32	0xbe3d904d	-0.18512078
33	0x3d3f4478	0.046696156
34	0x3d7d0a9c	0.061777696
35	0xbd1871c8	-0.037217885
36	0xbce2f858	-0.02770631
37	0x3dfe84d6	0.1242768
38	0xbdc18197	-0.094485454
39	0xbe4aa328	-0.19788802
40	0xbe0d577d	-0.13802905
41	0xbe1ed01d	-0.15509076
42	0xbe16fe93	-0.1474555
43	0x3e298213	0.16553526
44	0x3e004a6d	0.12528391
45	0x3d9b4722	0.07581927
46	0xbe1778ee	-0.14792225
47	0xbe40ab28	-0.18815291
48	0x3d5f8244	0.05456759
49	0x3e33fbbd	0.175765
50	0x3d937d92	0.07201685
51	0x3df2fca2	0.11864592
52	0x3e15bfdd	0.14623971
53	0x3e23d5b1	0.15999486
54	0x3ccc0c80	0.024908304
55	0x3dce90ba	0.10086198
56	0xbde2957d	-0.11063669
57	0xbcc01a70	-0.023450106
58	0xbda0829a	-0.0783741
59	0x3e2ec345	0.17066677
60	0xbe2f366b	-0.17110603
61	0xbe0170ea	-0.1264073
62	0xbe3984a0	-0.18116999
63	0x3e3507af	0.17678712
64	0xbe36f2f8	-0.17866123
65	0x3dd15ab2	0.10222377
66	0xbe2d414f	-0.16919445
67	0x3d6f7aac	0.0584666
68	0x3e0ddceb	0.13853805
69	0xbdf4764a	-0.11936624
70	0xbcc13e70	-0.023589343
71	0x3e12cad3	0.14335184
72	0x3e448459	0.19191112
73	0x3c37a220	0.011208087
74	0x3c2942a0	0.010330826
75	0x3bee17c0	0.007266015
76	0xbda88433	-0.0822834
77	0x3d0a5694	0.033773974
78	0xbcb73ec0	-0.022368789
79	0x3d9fbab2	0.07799281
80	0x3e47fca1	0.19529964
81	0xbd810466	-0.06299667
82	0xbe15297e	-0.1456661
83	0x3de5905a	0.112091735
84	0x3e29f509	0.1659738
85	0x3d74f46c	0.05980341
86	0x3e345c59	0.17613353
87	0xbe2f8aa8	-0.17142737
88	0xbd7d1134	-0.061783984
89	0xbd8b1a8c	-0.06792173
90	0xbdc4bb2a	-0.09606011
91	0x3e19bc71	0.15013291
92	0xbc6cdeb0	-0.01445739
93	0xbdbe9873	-0.09306421
94	0xbd19efe0	-0.03758228
95	0x3df1e452	0.11811127
96	0xbe0a0cca	-0.13481441
97	0x3c70d2a0	0.014698654
98	0x3dd2e4fe	0.10297583
99	0x3d22a5f8	0.03970906
100	0xbaf49980	-0.0018661469
101	0xbe4c69ba	-0.19962206
102	0xbe0bb6bd	-0.13643928
103	0xbe4468c2	-0.19180587
104	0x3d0b0440	0.0339396
105	0x3e3aa8d9	0.18228473
106	0x3dc649ae	0.09682022
107	0xbe35da5b	-0.17759077
108	0xbcc0ab68	-0.023519233
109	0xbe21d75b	-0.15804808
110	0x3d829cfe	0.063776
111	0xbe4705f2	-0.19435862
112	0xbdb9bdea	-0.09069426
113	0x3ddb6ee2	0.107145086
114	0x3b077080	0.002066642
115	0x3dd3a916	0.10334985
116	0x3e202c53	0.15641908
117	0x3e203219	0.1564411
118	0xbe3140b5	-0.1730984
119	0x3d3213d8	0.043475956
120	0x3e06493b	0.13113873
121	0x3c807fc0	0.015685916
122	0xbc363c00	-0.011122704
123	0x3dd56266	0.10419159
124	0x3e315db7	0.17320906
125	0xbddcd7f3	-0.107833765
126	0x3e11a33f	0.1422243
127	0xbe403692	-0.18770817
128	0xbd29eae8	-0.04148379
129	0x3d213840	0.039360285
130	0x3e2c4b41	0.16825582
131	0xbda6da6a	-0.08147128
132	0x3e4ccb49	0.19999422
133	0xbe4af4df	-0.19819973
134	0x3bf4f360	0.0074753016
135	0x3ced22d0	0.028947264
136	0x3deb4e86	0.114895865
137	0xbd34acc8	-0.04411009
138	0x3e26d969	0.16293873
139	0xbd85f750	-0.06541312
140	0xbdc17f2a	-0.09448083
141	0xbdc22063	-0.094788335
142	0xbca5e100	-0.02024889
143	0x3e0d05c5	0.13771732
144	0xbdfe255a	-0.12409468
145	0xbe0e54de	-0.13899562
146	0x3e3dc10b	0.18530671
147	0x3d9eed26	0.07760076
148	0xbe49704d	-0.19671746
149	0xbd114798	-0.035468668
150	0x3def3da2	0.116816774
151	0x3e18b26d	0.14911814
152	0xbddb499d	-0.107074
153	0x3d83bfa2	0.064330354
154	0xbda13343	-0.078711055
155	0x3d99852e	0.07496105
156	0xbe4085da	-0.1880106
157	0x3d71e7a4	0.0590588
158	0xbde7586a	-0.112961605
159	0xbe3c2e3f	-0.18377016
160	0x3e3397c3	0.17538361
161	0xbdd7c347	-0.10535293
162	0x3e34ffb7	0.17675672
163	0x3c30dd80	0.010794997
164	0x3dd6f162	0.10495259
165	0x3cd328d8	0.025776312
166	0x3dce465e	0.10072015
167	0x3e314303	0.17310719
168	0xbda4305d	-0.08017037
169	0x3ca9b368	0.02071543
170	0xbe44e6af	-0.19228624
171	0x3cb67798	0.022273824
172	0x3ce75de8	0.02824302
173	0x3d4ee52c	0.050511524
174	0xbe06bd6d	-0.13158198
175	0xbde6959a	-0.11259003
176	0x3cd82898	0.026386544
177	0xbe3be9fb	-0.18350975
178	0xbe4a1357	-0.1973394
179	0xbdea5b67	-0.11443215
180	0xbd3f2a78	-0.04667136
181	0xbdf70530	-0.12061536
182	0x3dc0da52	0.09416641
183	0x3e436e19	0.19084968
184	0x3dd515ea	0.104045704
185	0xbe16f3ae	-0.14741394
186	0xbd84596c	-0.06462368
187	0x3e185799	0.14877166
188	0x3e2180d1	0.15771796
189	0x3ce89e98	0.028395936
190	0x3e00973b	0.1255769
191	0xbdcd62c7	-0.10028606
192	0x3d84403a	0.06457563
193	0x3d3f9bec	0.046779558
194	0x3e3cdb39	0.18443002
195	0x3e072ee1	0.13201477
196	0x3df94742	0.121717945
197	0xbda543f3	-0.08069601
198	0xbe3ca460	-0.18422079
199	0x3e2ed3d9	0.17073001
200	0xbe09e300	-0.134655
201	0xbe4b1daf	-0.19835542
202	0xbcb2a710	-0.021808177
203	0x3de32dc6	0.11092715
204	0xbdec350a	-0.11533554
205	0xbdba67e7	-0.09101849
206	0xbd4b72c0	-0.04966998
207	0xbd317820	-0.04332745
208	0xbd0fa0d8	-0.035065502
209	0xbd1a44ac	-0.037663147
210	0x3e2be031	0.16784741
211	0x3d9b2e12	0.075771466
212	0xbe4a1743	-0.19735436
213	0x3dfb6002	0.122741714
214	0x3cbcc380	0.02304244
215	0x3e0d2b59	0.13786067
216	0xbe2e8eba	-0.17046633
217	0xbc95cc68	-0.018285945
218	0xbd4cb1ec	-0.049974367
219	0x3e110b7f	0.14164542
220	0x3d946f62	0.07247807
221	0x3e0fbd41	0.14037038
222	0xbd166b80	-0.036723614
223	0x3d3a3314	0.04545887
224	0xbd2321a0	-0.03982699
225	0xbe22c320	-0.15894747
226	0x3e428b4b	0.18998449
227	0x3dd1c6ca	0.10242994
228	0x39969000	0.00028717518
229	0xbddae19d	-0.106875636
230	0x3dbd1e9e	0.092343554
231	0x3e0fc0ed	0.14038439
232	0x3cfa9030	0.030586332
233	0xbe13214e	-0.14368173
234	0xba4b9800	-0.0007766485
235	0xbdadc3fa	-0.08484645
236	0x3daf92de	0.085729346
237	0xbd043e54	-0.032286003
238	0x3d1cd580	0.038289547
239	0x3e1c9fe9	0.15295376
240	0xbe4593a5	-0.19294603
241	0x3d7e9814	0.06215675
242	0xbd09e340	-0.033663988
243	0x3dd474ee	0.10373865
244	0xbd07f280	-0.03319025
245	0xbde8129a	-0.11331673
246	0x3def7e2a	0.11693986
247	0xbe09ce3c	-0.13457578
248	0x3d2d6cd8	0.04234013
249	0x3d8b27a2	0.06794669
250	0xbd7ccf14	-0.061720923
251	0x3df1af12	0.1180097
252	0xbda50f03	-0.08059504
253	0x3e16f169	0.14740528
254	0xbc859df0	-0.016310662
255	0xbd6461c8	-0.055757314

bias f4 [25]
0	0xbe42d407	-0.19026195
1	0xbe009f3c	-0.12560743
2	0x3e2ed699	0.1707405
3	0x3d2e33a0	0.042529702
4	0x3e1c60d1	0.15271308
5	0xbe0eee50	-0.13958097
6	0xbe0c94e5	-0.13728674
7	0x3d044c28	0.03229919
8	0x3cd58080	0.02606225
9	0xbdf57b4a	-0.11986406
10	0xbd4ac0b4	-0.049500182
11	0x3ccd0b70	0.025029868
12	0x3e34f7e1	0.17672683
13	0xbd8edc9c	-0.06975672
14	0xbd0e8bd4	-0.03480132
15	0xbd534948	-0.05158356
16	0xbe285d98	-0.16441953
17	0x3e0b23c7	0.13587867
18	0x3c80de90	0.015731126
19	0x3e380643	0.17971139
20	0x3d5d8344	0.054080263
21	0xbdfea3b7	-0.1243357
22	0x3daae752	0.08344902
23	0x3c0166e0	0.0078980625
24	0x3c6c3660	0.014417261

weight f4 [25, 25]
0	0x3defb5ba	0.117045835
1	0x3e39dbe7	0.18150292
2	0xbda0395d	-0.07823441
3	0x3da37b72	0.0798253
4	0x3de375ae	0.1110643
5	0x3de85aee	0.113454685
6	0xbe222132	-0.15832976
7	0xbdaae697	-0.08344763
8	0xbd5caa78	-0.05387351
9	0x3d435008	0.047683746
10	0x3e1cdd65	0.1531883
11	0xbc0b66a0	-0.008508354
12	0x3df6a106	0.120424315
13	0x3e29cabb	0.16581242
14	0x3dded052	0.10879578
15	0x3dd9ec8e	0.10640822
16	0x3df70742	0.12061931
17	0xbd861b46	-0.06548171
18	0xbda4969a	-0.080365375
19	0x3d1f6420	0.038913846
20	0x3e40d3b9	0.18830766
21	0xba9dd300	-0.0012041032
22	0x3e328cb9	0.17436494
23	0x3e32f793	0.17477255
24	0x3e295319	0.16535605
25	0x3e3b0521	0.18263675
26	0x3e2cea9f	0.16886376
27	0x3e25c205	0.16187294
28	0xbd60dfcc	-0.05490093
29	0xbdce392a	-0.10069497
30	0xbbe29e40	-0.0069158375
31	0xbd957b66	-0.07298927
32	0xbe02dd64	-0.12779766
33	0x3dc2877e	0.09498499
34	0xbddfbf57	-0.10925167
35	0xbdbdf8a7	-0.09275942
36	0xbc959570	-0.018259734
37	0xbcdca4d0	-0.026934057
38	0x3e04536b	0.12922446
39	0x3de53bf2	0.11193074
40	0x3dab5ac2	0.0836692
41	0x3dd8edc2	0.10592224
42	0x3e33eb3d	0.17570205
43	0xbddb072d	-0.10694728
44	0x3ca0ad58	0.019613907
45	0x3e11084b	0.1416332
46	0xbc803470	-0.015650004
47	0xbe14f50e	-0.14546606
48	0xbd833ab0	-0.06407678
49	0xbd6d2a18	-0.05790147
50	0xbcf0aaa8	-0.02937825
51	0x3e0f96e9	0.14022411
52	0x3de5f4fa	0.11228366
53	0x3e0e2a31	0.13883282
54	0xbdffdec0	-0.12493658
55	0xbe410dd8	-0.18852937
56	0xbe25aca6	-0.16179141
57	0x3dacd452	0.084389344
58	0x3df4e4fe	0.11957739
59	0xbe34e3d2	-0.17665032
60	0x3bffb860	0.0078039616
61	0xbcd4b6a8	-0.025966004
62	0x3d171648	0.036886483
63	0x3e453b0b	0.19260804
64	0x3da4fdfa	0.08056255
65	0x3dcbfb92	0.099600926
66	0xbe0bef5e	-0.1366553
67	0x3e15c94f	0.14627574
68	0x3e118b9b	0.14213412
69	0xbe3ed40f	-0.18635581
70	0x3dddc122	0.10827853
71	0xbd43aa54	-0.04776986
72	0x3e254c47	0.16142379
73	0xbe0747ee	-0.13211033
74	0xbe2bfe3b	-0.167962
75	0xbe2d3197	-0.16913448
76	0xbdee73e3	-0.116431974
77	0x3e196c89	0.14982809
78	0xbdc3c37a	-0.095587686
79	0xbdd0d513	-0.10196891
80	0xbdd8765a	-0.10569449
81	0xbe1f06de	-0.15529963
82	0xbdde83e0	-0.10864997
83	0xbddc0e93	-0.10744967
84	0x3e31dff1	0.17370583
85	0x3e013dbd	0.12621208
86	0xbdd69757	-0.104780845
87	0x3e1991a7	0.14996968
88	0xbda1055d	-0.07862351
89	0x3d62c5c4	0.055364385
90	0x3c45b4e0	0.01206705
91	0x3d9b2e5a	0.075772
92	0x3dcdd462	0.100502744
93	0xbd668a58	-0.05628428
94	0x3d2dafc8	0.042403966
95	0x3df921a6	0.12164621
96	0x3e4a6031	0.19763257
97	0xbe37b193	-0.17938833
98	0x3d7f5a84	0.06234218
99	0x3e08debd	0.13366218
100	0xbbd47940	-0.0064841807
101	0x3dca6eaa	0.09884389
102	0xbe36186b	-0.17782752
103	0x3ca9f540	0.020746827
104	0xbd079af8	-0.033106774
105	0x3e183a4b	0.14865987
106	0xbe2d9ec0	-0.1695509
107	0x3dbcd422	0.092201486
108	0x3d8ac41a	0.06775685
109	0x3dd1c8ba	0.10243364
110	0xbe153c0a	-0.14573684
111	0xbe2a2e02	-0.16619113
112	0x3e324809	0.17410292
113	0x3e21dbd9	0.15806521
114	0x3d6cda24	0.057825223
115	0x3e01328d	0.1261694
116	0x3c420e30	0.011844203
117	0x3c3d8250	0.011566713
118	0xbd9f8697	-0.07789343
119	0x3d037568	0.03209439
120	0xbdd6170d	-0.10453615
121	0x3dc1473a	0.094374135
122	0x3d975412	0.07389082
123	0x3dee55e2	0.116374746
124	0x3dc6c192	0.09704889
125	0x3e09df6b	0.13464133
126	0xbd5f4f54	-0.054519013
127	0x3cc97100	0.024590015
128	0xbe1fc018	-0.15600622
129	0xbdb2d553	-0.087320946
130	0x3d2ac7e0	0.041694522
131	0xbe1a28c5	-0.15054615
132	0x3d0b5c60	0.034023643
133	0xbd1de198	-0.03854522
134	0x3e47a089	0.19494833
135	0x3df16936	0.117876455
136	0xbd51d540	-0.05122876
137	0x3e3823b1	0.17982365
138	0x3ce80ea8	0.028327301
139	0xbe49d0e3	-0.1970859
140	0x3be04660	0.006844327
141	0x3e1ca691	0.15297915
142	0xbe23d055	-0.15997441
143	0xbe3f1f4d	-0.18664284
144	0x3dc84bea	0.097801045
145	0x3bc12da0	0.0058953315
146	0xbe1248b8	-0.14285553
147	0xbd037874	-0.032097295
148	0x3d99b776	0.075056955
149	0x3e201547	0.15633117
150	0xbe106ec8	-0.1410476
151	0x3db25b42	0.08708812
152	0x3e277f55	0.16357167
153	0xbe2cc41e	-0.16871688
154	0x3db5cd22	0.088770166
155	0xbda6c17d	-0.08142374
156	0xbde7b010	-0.11312878
157	0xbd62e660	-0.055395484
158	0xbe1b6f6a	-0.1517922
159	0x3da5ac06	0.080894515
160	0xba966f00	-0.0011477172
161	0x3e105b79	0.14097394
162	0x3de4ff82	0.11181547
163	0xbdf098f3	-0.11747923
164	0x3dd15466	0.10221176
165	0xbcb069e8	-0.021534875
166	0x3dc02c0e	0.09383403
167	0x3dfc2e66	0.12313537
168	0x3d891142	0.06692745
169	0xbd3c59b8	-0.045984
170	0xbe2c9eb3	-0.16857414
171	0xbdf98d60	-0.12185168
172	0x3dff0296	0.12451665
173	0x3ddc071a	0.10743542
174	0xbdc05bd3	-0.09392514
175	0xbd9cbb5d	-0.07652924
176	0xbe2494b6	-0.16072354
177	0xbe2abd75	-0.16673835
178	0xbe3c0a2f	-0.1836326
179	0xbe1239ea	-0.14279905
180	0xbe105eeb	-0.14098708
181	0x3e21bfff	0.15795897
182	0xbe34cd90	-0.17656541
183	0xbe415703	-0.18880849
184	0xbd7ba614	-0.06143768
185	0xbc4f3930	-0.012647912
186	0xbe12ccb2	-0.14335898
187	0xbbfabd40	-0.007651955
188	0x3cacb818	0.021083876
189	0xbe46ad7b	-0.19402115
190	0x3d4bafc0	0.049728155
191	0x3e057665	0.13033445
192	0x3e248fb1	0.16070439
193	0x3de89532	0.11356582
194	0xbe181736	-0.14852604
195	0x3d8eeaae	0.06978355
196	0x3dab066a	0.08350833
197	0xbd7f62ac	-0.06234996
198	0xbdad0bc0	-0.08449507
199	0x3d7541c4	0.059877172
200	0xbe34ec7d	-0.17668338
201	0xbe0475d5	-0.12935574
202	0x3db4b406	0.08823399
203	0x3d6e94f4	0.05824752
204	0x3e30043f	0.1718912
205	0xbdca86ea	-0.09889014
206	0xbe1dcfc2	-0.15411285
207	0x3e028b21	0.12748386
208	0xbde959b7	-0.11394065
209	0xbd98bbac	-0.074576706
210	0xbdd71127	-0.105013184
211	0x3d547804	0.05187227
212	0x3ddd746a	0.1081322
213	0x3dadb566	0.08481865
214	0xbd14500c	-0.03620915
215	0x3de3404e	0.110962495
216	0x3e34eb89	0.17667975
217	0x3dca6862	0.09883191
218	0x3d170d58	0.03687796
219	0xbcbaf0a8	-0.022819832
220	0xbe3b8bbb	-0.18315022
221	0x3d5cc8ec	0.05390255
222	0xbdcac283	-0.099003814
223	0x3e2a2759	0.16616572
224	0xbc9a1390	-0.018808156
225	0x3d32dcec	0.04366772
226	0x3ddbd69a	0.107342914
227	0x3e0b5425	0.13606317
228	0x3d03cef4	0.032179788
229	0xbe1a6c3a	-0.15080348
230	0xbe3dfaff	-0.18552779
231	0x3de7b23a	0.11313291
232	0xbdc0dc93	-0.09417071
233	0x3d35a20c	0.044343993
234	0x3d3f85c0	0.046758413
235	0xbe314552	-0.173116
236	0xbe2ec2d0	-0.17066503
237	0x3dd2c8ca	0.10292204
238	0xbd93a8c4	-0.07209924
239	0x3df84b36	0.1212372
240	0x3e402249	0.18763079
241	0xbd74ac28	-0.059734493
242	0x3e4ab349	0.19794954
243	0x3e286f99	0.16448821
244	0xbe12cbda	-0.14335576
245	0x3d8c1f32	0.068418875
246	0xbda11e2a	-0.078670815
247	0x3dd380c2	0.10327293
248	0x3d01a240	0.031648874
249	0x3e1434bd	0.14473243
250	0xbd65b158	-0.05607733
251	0xbe46c72d	-0.19411917
252	0x3df0a39e	0.117499575
253	0x3e34ce4d	0.17656823
254	0x3bab89c0	0.005234927
255	0x3dd3c522	0.103403345

bias f4 [25]
0	0x3e0e50a7	0.13897954
1	0xbdc836b3	-0.09776058
2	0x3d1b4508	0.03790763
3	0xbe142cf6	-0.14470276
4	0xbc649cb0	-0.013953373
5	0x3e0c5a2f	0.13706277
6	0x3df01742	0.11723186
7	0x3d973cfa	0.07384677
8	0xbe22d59a	-0.15901795
9	0x3df410fa	0.119173005
10	0xbe089480	-0.13337898
11	0x3dec4ae6	0.11537723
12	0x3da5c4ce	0.08094178
13	0xbe15423a	-0.14576045
14	0xbd242148	-0.040070802
15	0xbc8af300	-0.016961575
16	0x3e112549	0.1417438
17	0x3e308551	0.17238356
18	0xbe2b15fb	-0.16707604
19	0x3dec8822	0.11549403
20	0xbd359400	-0.044330597
21	0xbdd8d78d	-0.10587988
22	0xbe064f88	-0.13116276
23	0x3d8a6456	0.06757419
24	0x3d714304	0.0589018

weight f4 [4, 25]
0	0x3d53d2f4	0.051714852
1	0xbe16272d	-0.14663382
2	0x3d2d3138	0.042283267
3	0x3db3c86a	0.0877846
4	0xbde71d5a	-0.11284895
5	0x3e1cf0ed	0.15326281
6	0x3df0c172	0.11755647
7	0xbdfd9d5d	-0.1238353
8	0xbddce71a	-0.107862666
9	0xbdf191aa	-0.11795361
10	0xbe137920	-0.14401674
11	0x3d981722	0.07426287
12	0x3d6b454c	0.057439134
13	0xbc58f3d0	-0.013241723
14	0xbe207666	-0.15670165
15	0x3d75b734	0.05998917
16	0x3e1944b1	0.1496761
17	0xbd906ab4	-0.07051602
18	0x3e30d2a1	0.17267849
19	0x3e39362d	0.18087073
20	0xbe25b1de	-0.16181132
21	0x3dd8e082	0.105896965
22	0xbd4fb1cc	-0.05070667
23	0xbe3b11df	-0.18268536
24	0x3e256481	0.1615162
25	0xbcfda398	-0.030961797
26	0x3dbd0722	0.09229876
27	0xbdf4c5ad	-0.11951766
28	0x3e1993af	0.14997743
29	0xbe2246e2	-0.15847352
30	0x3e200657	0.15627418
31	0x3c5874b0	0.013211414
32	0x3c8f24a8	0.017473534
33	0xbd8389ac	-0.06422743
34	0x3e1710b5	0.14752467
35	0xbdc60b23	-0.09670093
36	0x3e429301	0.1900139
37	0xbd8b3486	-0.067971274
38	0x3e37bd95	0.17943414
39	0xbe349138	-0.17633522
40	0xbe2c2753	-0.16811876
41	0xbe0bb1ee	-0.13642094
42	0x3e3d759b	0.18501894
43	0x3ca57ae8	0.020200208
44	0xbe468097	-0.1938499
45	0xbd2fef58	-0.042952865
46	0x3c5bb760	0.013410419
47	0x3e199e99	0.15001906
48	0x3df55356	0.11978786
49	0xbce518d8	-0.027965948
50	0xbda56600	-0.080760956
51	0xbe0be5e6	-0.13661918
52	0xbdaa14c3	-0.08304741
53	0x3da4181a	0.080124095
54	0x3d972146	0.07379393
55	0xbe2cf66d	-0.16890879
56	0xbe361d1f	-0.17784546
57	0x3d94f642	0.072735325
58	0x3ddbff5e	0.10742067
59	0xbdf0fb90	-0.11766732
60	0x3e2f4311	0.17115428
61	0x3d9c4d76	0.07631962
62	0x3c24c0e0	0.010055751
63	0xbe2b0005	-0.16699226
64	0xbe1dde13	-0.15416746
65	0x3dfec972	0.124407664
66	0x3e0d2003	0.13781743
67	0xbd362ba0	-0.044475198
68	0xbe2023aa	-0.15638605
69	0xbda1c4ed	-0.07898889
70	0xbe024415	-0.12721284
71	0xbe3fb9e0	-0.1872325
72	0x3d6f4c7c	0.05842255
73	0xbc3dae20	-0.011577159
74	0x3e3464e9	0.17616619
75	0xbe3957ad	-0.18099852
76	0xbe1278a8	-0.14303839
77	0xbe185a5d	-0.14878221
78	0x3e176c01	0.14787294
79	0xbc0fe0d0	-0.008781627
80	0x3ddeef22	0.10885455
81	0x3d9e6f26	0.07736044
82	0x3e10605d	0.1409926
83	0xbdaff87a	-0.08592315
84	0x3ba41960	0.0050079077
85	0x3e04b241	0.12958623
86	0xbdfb8957	-0.12282055
87	0x3bba9d40	0.005695015
88	0x3d3c456c	0.045964643
89	0x3da23026	0.0791934
90	0xbd9b1d27	-0.0757392
91	0xbd844e4c	-0.064602464
92	0xbd316598	-0.043309778
93	0x3e1c5ee9	0.1527058
94	0xbe2da56b	-0.16957633
95	0x3dbc7c96	0.092034504
96	0xbd7b36b4	-0.061331466
97	0x3dbb9616	0.09159486
98	0x3c195d80	0.009360671
99	0x3d8bcd8e	0.06826316

bias f4 [4]
0	0xbe49ea80	-0.19718361
1	0xbe080786	-0.1328412
2	0xbe174c90	-0.147753
3	0xbde1906d	-0.11013875
