models/_brain_60.pt (torch, 14593 bytes, 12 tensors)

weight f4 [14]
0	0x3f800000	1.0
1	0x3f800000	1.0
2	0x3f800000	1.0
3	0x3f800000	1.0
4	0x3f800000	1.0
5	0x3f800000	1.0
6	0x3f800000	1.0
7	0x3f800000	1.0
8	0x3f800000	1.0
9	0x3f800000	1.0
10	0x3f800000	1.0
11	0x3f800000	1.0
12	0x3f800000	1.0
13	0x3f800000	1.0

bias f4 [14]
0	0x00000000	0.0
1	0x00000000	0.0
2	0x00000000	0.0
3	0x00000000	0.0
4	0x00000000	0.0
5	0x00000000	0.0
6	0x00000000	0.0
7	0x00000000	0.0
8	0x00000000	0.0
9	0x00000000	0.0
10	0x00000000	0.0
11	0x00000000	0.0
12	0x00000000	0.0
13	0x00000000	0.0

weight f4 [25, 14]
0	0xbe69b65a	-0.22823468
1	0x3e07d92c	0.13266438
2	0x3e5cda84	0.21567732
3	0xbe83ffb4	-0.25781024
4	0xbcde2320	-0.027116358
5	0xbe88013c	-0.26563442
6	0xbe6a9e07	-0.22911845
7	0x3c3c9440	0.011509955
8	0xbdf16996	-0.11787717
9	0xbe3492aa	-0.17634073
10	0xbe3d0e7a	-0.18462554
11	0x3e28645a	0.16444531
12	0xbe100d46	-0.14067563
13	0xbe678b0f	-0.2261164
14	0xbdc6460a	-0.09681328
15	0xbdd8e95a	-0.10591383
16	0x3dd150dc	0.10220501
17	0x3e19a582	0.15004542
18	0xbd9d45c4	-0.07679322
19	0xbdb637ae	-0.08897339
20	0xbd78dc80	-0.06075716
21	0xbe805adb	-0.25069317
22	0x3daeed64	0.085413724
23	0xbdebebcc	-0.11519584
24	0xbe61a987	-0.22037326
25	0x3e740f76	0.23834023
26	0x3e816a7d	0.25276557
27	0xbde9d4a4	-0.11417511
28	0xbe584362	-0.21119455
29	0xbd344ae8	-0.04401675
30	0xbd418d00	-0.04725361
31	0x3e6245ea	0.22096983
32	0x3d54bab8	0.05193588
33	0xbd90d060	-0.070709944
34	0xbe8450dc	-0.2584294
35	0x3aa41d00	0.001252085
36	0x3e69f130	0.22845912
37	0x3e474a04	0.19461828
38	0x3d9eb38c	0.077490896
39	0xbe148fb8	-0.1450795
40	0x3dd29160	0.10281634
41	0xbe749a17	-0.23886906
42	0xbd94894c	-0.0725275
43	0xbe1f8264	-0.15577084
44	0x3e1be8f2	0.1522558
45	0xbe017a46	-0.126443
46	0xbe78ce9c	-0.24297565
47	0xbe416242	-0.18885139
48	0x3e66138c	0.22468394
49	0x3e0843f8	0.13307178
50	0x3d4f9728	0.050681263
51	0x3de079ac	0.10960707
52	0x3e4343ba	0.19068804
53	0xbdea7f3c	-0.11450049
54	0xbcfb9158	-0.030708954
55	0xbd2ff604	-0.04295923
56	0x3e7fb426	0.24971065
57	0x3e2c0cfe	0.16801831
58	0x3deeab90	0.11653817
59	0xbe85cd0d	-0.26133004
60	0xbe178a94	-0.14798957
61	0xbe4f1fd2	-0.20226982
62	0x3c0cf1c0	0.00860256
63	0xbe0e7a74	-0.139139
64	0xbd683dac	-0.05669944
65	0x3e382240	0.17981815
66	0xbe20a649	-0.15688433
67	0x3e486c30	0.1957252
68	0xbe1b16f0	-0.15145469
69	0x3d0001e8	0.031251818
70	0x3df929f8	0.12166208
71	0x3e272788	0.16323674
72	0xbcab8b80	-0.020940542
73	0xbd817f66	-0.063231274
74	0x3c9e8aa0	0.01935321
75	0xbd7414e8	-0.05959025
76	0x3e47965e	0.19490954
77	0x3a28c400	0.00064378977
78	0x3e208fe6	0.15679893
79	0xbca3b3c0	-0.019983172
80	0xbd22fd6c	-0.039792463
81	0x3e47dc9e	0.19517753
82	0x3df50d30	0.11965406
83	0xbe5bfd9d	-0.21483465
84	0xbdfeb4b2	-0.12436809
85	0x3e3bd3a2	0.1834245
86	0x3e83e677	0.25761768
87	0xbdf3a126	-0.11895971
88	0x3c435a80	0.011923432
89	0xbdad42fe	-0.08460043
90	0x3e7ca72a	0.24673143
91	0xbdae6e1c	-0.085170954
92	0xbcda5220	-0.026650488
93	0xbe5cedea	-0.21575132
94	0x3da8b478	0.08237547
95	0xbe39703a	-0.18109217
96	0x3e385440	0.18000889
97	0xbdc3328e	-0.09531127
98	0x3e5c5fe0	0.21520948
99	0x3d08c6f8	0.033392876
100	0x3d8b2ec8	0.06796032
101	0x3d886aa8	0.06660968
102	0xbe643a88	-0.22287953
103	0xbdc7b8f6	-0.097520754
104	0xbe4381ce	-0.19092485
105	0x3dc2a82c	0.095047325
106	0xbc849fa0	-0.016189396
107	0x3cec85a0	0.028872311
108	0xbe7c3f47	-0.24633513
109	0xbe17570c	-0.147793
110	0xbc10bb20	-0.008833677
111	0x3e6da2aa	0.23206583
112	0x3e33edca	0.17571178
113	0x3e0792da	0.13239613
114	0xbd9b1e9c	-0.07574198
115	0x3c0d3120	0.008617669
116	0x3e35e014	0.1776126
117	0x3e28bfc4	0.16479403
118	0x3dc8d2bc	0.098058194
119	0xbd83a714	-0.06428352
120	0xbdf3e0fa	-0.11908145
121	0x3d95d520	0.07316041
122	0x3dea0280	0.11426258
123	0x3e86a81b	0.2630013
124	0x3b9daec0	0.0048120916
125	0xbe1aeeae	-0.15130112
126	0x3e0a9ad6	0.13535628
127	0xbe675096	-0.22589335
128	0x3d281718	0.04103765
129	0xbe4512b6	-0.19245419
130	0x3e4346e8	0.19070017
131	0x3db04f10	0.0860883
132	0x3d57ce38	0.0526869
133	0x3e02cc3c	0.12773222
134	0xbd728864	-0.059212103
135	0x3e1622a0	0.14661646
136	0xbe4b0f12	-0.19829968
137	0xbd12cc1c	-0.035839185
138	0xbd82761e	-0.06370185
139	0x3e70883e	0.23489472
140	0x3e2d4a8c	0.16922969
141	0x3e4e3484	0.2013722
142	0x3dfb0594	0.12256923
143	0xbe437a58	-0.19089639
144	0x3d075768	0.03304234
145	0x3d7b0e80	0.061293125
146	0xbe45c082	-0.19311717
147	0x3d60cd98	0.05488357
148	0x3d906374	0.07050219
149	0xbe03d995	-0.1287597
150	0x3e6f038e	0.233412
151	0x3db27dc0	0.08715391
152	0x3df12ae8	0.11775762
153	0xbe3bc98c	-0.18338603
154	0x3e6e86ae	0.23293564
155	0x3e454b14	0.19266921
156	0xbdcfaf04	-0.101408035
157	0xbe239344	-0.15974146
158	0x3e3695a4	0.17830521
159	0xbdbb0cb2	-0.09133281
160	0xbd49fab4	-0.049311355
161	0xbe864923	-0.26227674
162	0x3c98a7c0	0.018634677
163	0x3e032fb8	0.12811172
164	0xbdde66fe	-0.10859488
165	0xbd8a6bee	-0.06758867
166	0x3de4db5c	0.11174652
167	0xbe84d99f	-0.25947282
168	0xbe1ca78d	-0.1529829
169	0x3c314380	0.010819316
170	0xbd4c92f0	-0.049944818
171	0xbe07eeb9	-0.13274659
172	0xbe16574c	-0.14681739
173	0xbc257f60	-0.010101169
174	0x3e01352a	0.12617937
175	0x3da952c8	0.082677424
176	0x3d28bdf8	0.041196793
177	0x3e3af7b0	0.18258548
178	0xbdb4d2b8	-0.08829254
179	0x3cbb7850	0.022884518
180	0xbe48c2b8	-0.1960553
181	0x3c0088e0	0.007845134
182	0xbe4ff026	-0.20306453
183	0xbe816f95	-0.25280443
184	0x3b203c00	0.0024449825
185	0xbe47092a	-0.1943709
186	0xbe825e88	-0.25462747
187	0x3e326512	0.17421368
188	0xbe481882	-0.19540599
189	0xbc5f4e60	-0.013629526
190	0xbd95e606	-0.07319264
191	0xbe8044a3	-0.25052366
192	0xbe0a88a4	-0.13528687
193	0x3e323ab8	0.17405212
194	0xbd18cf44	-0.03730704
195	0x3dc6e0b8	0.097108305
196	0xbe822311	-0.2541738
197	0x3d1546e0	0.036444545
198	0x3e064d8a	0.13115516
199	0x3e8479e3	0.25874242
200	0xbe1f0bd8	-0.15531862
201	0x3e1aa822	0.151032
202	0xbced1028	-0.028938368
203	0x3e6422a6	0.22278842
204	0x3e0f3ca6	0.1398798
205	0xbd8d3810	-0.06895459
206	0x3d430ce0	0.0476197
207	0x3e873541	0.26407817
208	0x3e81e0cf	0.25366828
209	0xbe815b8d	-0.2526516
210	0xbe757719	-0.23971213
211	0xbe5d9997	-0.21640621
212	0xbdf3c82c	-0.11903414
213	0xbe2d0494	-0.16896278
214	0x3e84864f	0.2588372
215	0xbd7618f4	-0.06008239
216	0xbc96da70	-0.018414706
217	0x3e5eef70	0.21771026
218	0xbe60a7c5	-0.21938999
219	0x3dbfa1a0	0.093569994
220	0xbceb3338	-0.028710946
221	0xbdd08308	-0.10181242
222	0xbe652836	-0.2237862
223	0xbdcd2d16	-0.10018365
224	0x3e61eab8	0.22062194
225	0x3d55a6a0	0.05216086
226	0x3b124400	0.0022318363
227	0x3e81eb53	0.2537485
228	0xbe0182c4	-0.1264754
229	0x3dee7fc0	0.1164546
230	0x3c92a230	0.017899603
231	0x3e0ac640	0.13552189
232	0xbe25f036	-0.16204914
233	0xbde84ba2	-0.11342551
234	0x3e47db08	0.19517148
235	0x3e55a5a0	0.20863962
236	0x3a9a1a00	0.0011757016
237	0xbc28b060	-0.010295957
238	0xbe165225	-0.14679773
239	0xbe1fa87e	-0.15591618
240	0xbd0e5428	-0.034748226
241	0xbd8339ec	-0.06407532
242	0x3e7d8b16	0.24760088
243	0xbe4d4696	-0.20046458
244	0x3dd29be4	0.1028364
245	0xbd88ab9e	-0.066733584
246	0xbe4692a0	-0.1939187
247	0xbe3e1308	-0.18561947
248	0x3daf1144	0.08548215
249	0x3dc1c560	0.094614744
250	0xbe2bbf4a	-0.1677219
251	0x3dd8d8cc	0.10588226
252	0xbd9a4fbc	-0.075347394
253	0x3d50b0a0	0.050949693
254	0x3d723780	0.05913496
255	0xbe54b032	-0.20770338

bias f4 [25]
0	0x3d30d310	0.043170035
1	0x3ad6ce00	0.0016388297
2	0x3e58d07a	0.21173277
3	0xbc95fff8	-0.018310532
4	0xbe802ce2	-0.25034243
5	0xbdfa1d7a	-0.122126535
6	0xbdb81dec	-0.08990082
7	0xbc76cc80	-0.015063405
8	0xbd215e68	-0.039396673
9	0xbe3b5e62	-0.18297723
10	0xbd34a3c0	-0.044101477
11	0xbcf0e120	-0.029404223
12	0x3dd193cc	0.10233268
13	0x3e32fdce	0.17479631
14	0x3e265304	0.16242605
15	0x3da342cc	0.07971725
16	0xbcf1faf0	-0.029538602
17	0xbcc3df18	-0.02391009
18	0xbdcd2c8c	-0.10018262
19	0xbdc0a9be	-0.09407376
20	0x3e71de9e	0.23620078
21	0xbddf78da	-0.109117225
22	0xbe23646e	-0.1595628
23	0xbe57c319	-0.21070518
24	0x3e58fdb2	0.21190527

weight f4 [25, 25]
0	0xbdff49a3	-0.12465217
1	0x3dd6f67e	0.104962334
2	0xbe1976ee	-0.14986774
3	0x3d53d4cc	0.05171661
4	0x3da7b756	0.081892654
5	0xbe046a50	-0.1293118
6	0xbd388bac	-0.045055076
7	0xbe059506	-0.13045129
8	0x3d245094	0.040115908
9	0x3cb83e98	0.022490785
10	0x3e27e851	0.16397215
11	0x3d919be2	0.071098104
12	0x3e19cf25	0.15020426
13	0x3dfa59de	0.12224172
14	0x3ce44330	0.027864069
15	0xbdcafbfd	-0.09911344
16	0x3d954bce	0.07289849
17	0xbc2e98d0	-0.0106565505
18	0xbd3f4a34	-0.046701625
19	0x3d57258c	0.052526042
20	0x3d0c91f4	0.03431888
21	0xbdc7804a	-0.09741266
22	0x3d94f992	0.07274164
23	0xbd774c14	-0.060375288
24	0xbd2a9148	-0.041642457
25	0xbd6f722c	-0.058458492
26	0x3e46ee8d	0.19426937
27	0x3d4b2fb4	0.04960604
28	0x3e010cfd	0.12602611
29	0xbd9f5d7a	-0.07781501
30	0x3dd67c62	0.10472943
31	0xbc8cc728	-0.017184809
32	0xbe0bd36e	-0.13654873
33	0xbd3c90c0	-0.04603648
34	0xbe1e2375	-0.15443213
35	0xbe056fc6	-0.1303092
36	0xbd8961c6	-0.06708102
37	0xbe28eb2e	-0.16495964
38	0xbdad6b4d	-0.084677316
39	0x3e192a9d	0.14957662
40	0xbd656060	-0.056000113
41	0x3e093153	0.13397722
42	0x3e2d65e9	0.16933407
43	0x3dbca01a	0.092102244
44	0xbe1544e6	-0.14577064
45	0xbd431108	-0.047623664
46	0x3e3493e9	0.17634548
47	0x3da6a21e	0.0813639
48	0xbe402147	-0.18762694
49	0xbde327a0	-0.11091542
50	0x3e091c1b	0.13389628
51	0x3e374171	0.17896058
52	0xbe3aa528	-0.18227065
53	0xbce5a6d8	-0.028033659
54	0xbde9ea4d	-0.114216425
55	0x3e4179a5	0.1889406
56	0x3c0be860	0.008539289
57	0xbe0b7d15	-0.13621934
58	0xbd220528	-0.0395557
59	0xbe30f058	-0.17279184
60	0xbd6961a8	-0.056977898
61	0x3d5a7e24	0.053342953
62	0xbe2fab8f	-0.17155288
63	0xbd43d658	-0.047811836
64	0xbdb3f923	-0.087877534
65	0x3e382e4d	0.17986412
66	0x3e11cf27	0.14239179
67	0xbdf69a00	-0.12041092
68	0x3ddcc502	0.10779764
69	0xbe1c215a	-0.15247098
70	0xbe209fdb	-0.1568598
71	0xbe2a08c5	-0.16604908
72	0x3dfeb736	0.124372885
73	0x3d4af900	0.04955387
74	0xbd42dca0	-0.047573686
75	0x3dbc2f12	0.091886654
76	0xbcc0ff80	-0.023559332
77	0xbdf59703	-0.11991694
78	0x3d90910a	0.07058914
79	0xbe334a7d	-0.17508884
80	0xbde0e9b7	-0.109820776
81	0x3da9d3aa	0.08292325
82	0xbdc5fa70	-0.09666908
83	0x3e1be179	0.1522273
84	0x3c1e4b50	0.009661511
85	0xbe027b84	-0.1274243
86	0xbdca4653	-0.098766945
87	0xbcfe5d00	-0.031050205
88	0x3b9609a0	0.004578784
89	0x3bac99c0	0.005267352
90	0x3db8ee56	0.09029834
91	0x3dc7d63e	0.0975766
92	0xbe24ffdd	-0.16113229
93	0x3dc49c2e	0.096001014
94	0xbde56b40	-0.11202097
95	0x3cd8c858	0.026462719
96	0x3e3061bd	0.17224784
97	0x3b884360	0.0041584224
98	0x3da31a12	0.07963957
99	0xbda5c14a	-0.080935076
100	0x3e2a666d	0.16640635
101	0x3e1d07c3	0.15334992
102	0xbd2f7db4	-0.04284449
103	0xbd5a38f8	-0.053276986
104	0x3c84c910	0.016209155
105	0x3e396c4b	0.18107717
106	0x3e16e4bb	0.14735691
107	0xbcddb710	-0.02706483
108	0x3cf976d0	0.030452162
109	0x3e0489dd	0.12943216
110	0xbe019438	-0.12654197
111	0xbe435358	-0.19074762
112	0xbdf6fee3	-0.120603345
113	0x3e37d5bf	0.17952631
114	0xbe3c576a	-0.18392721
115	0xbdd310ad	-0.10305915
116	0x3dea5082	0.11441137
117	0xbd535e94	-0.05160387
118	0xbe10e775	-0.14150794
119	0xbd735560	-0.05940759
120	0x3e374085	0.17895706
121	0xbe2fd835	-0.1717232
122	0x3dbac992	0.09120478
123	0xbc9af0c0	-0.018913627
124	0x3dbb1daa	0.09136517
125	0xbd8dc8a6	-0.06923036
126	0x3b006e00	0.0019596815
127	0x3e30b1b3	0.17255287
128	0xbdc7568d	-0.09733305
129	0xbd4c03c8	-0.049808294
130	0x3d619bd4	0.05508025
131	0xbd812eda	-0.06307764
132	0xbe0adb8c	-0.13560313
133	0x3de0f7b2	0.10984744
134	0xbe3a7468	-0.18208468
135	0xbdce379d	-0.10069201
136	0x3dfd1b86	0.12358765
137	0x3deea406	0.11652379
138	0xbe34edf3	-0.17668895
139	0x3d5cf924	0.053948537
140	0x3e0b855f	0.13625096
141	0xbdeb911d	-0.115022875
142	0xbe00a134	-0.12561494
143	0xbde90fca	-0.11379965
144	0xbe352652	-0.176904
145	0x3d163fd8	0.03668198
146	0xbe315e95	-0.17321236
147	0xbdc0735d	-0.09397004
148	0xbd874090	-0.06604111
149	0xbd7f4468	-0.062321097
150	0x3d86a39e	0.06574176
151	0xbdb4679a	-0.08808823
152	0xbe25c2ee	-0.16187641
153	0x3db3e97e	0.087847695
154	0x3e2b68e1	0.16739227
155	0x3e3a5113	0.1819499
156	0x3dca900a	0.098907545
157	0x3e224645	0.15847118
158	0x3e405ad3	0.18784647
159	0x3c79aae0	0.015238494
160	0xbe3111e2	-0.17291978
161	0xbc327b80	-0.0108937025
162	0xbe057d44	-0.13036066
163	0xbe272dab	-0.16326015
164	0x3bf65a00	0.007518053
165	0xbdd00780	-0.101576805
166	0x3d6b0fb4	0.057388023
167	0xbb1246c0	-0.0022320002
168	0x3dcfbce6	0.101434514
169	0x3d048fb4	0.03236361
170	0xbe23a33d	-0.15980239
171	0x3e32d5a7	0.17464314
172	0x3e13e4f7	0.14442812
173	0x3e17e05b	0.14831679
174	0x3dd4a73a	0.103834584
175	0xbdcefbe3	-0.10106637
176	0xbd821e74	-0.06353465
177	0xbddfd99a	-0.10930176
178	0xbd81c36a	-0.063361004
179	0x3ce1ace8	0.027548268
180	0x3d806982	0.06270124
181	0x3e4cc0f1	0.19995476
182	0x3d90903e	0.07058762
183	0xbd6c4dc0	-0.057691336
184	0xbe44ab20	-0.19205904
185	0xbe44736d	-0.19184656
186	0xbd491988	-0.049096614
187	0xbdc42137	-0.09576648
188	0xbe295052	-0.16534546
189	0xbd273060	-0.04081762
190	0xbe49736a	-0.19672933
191	0x3df883ea	0.121345356
192	0x3e348edf	0.17632626
193	0xbe02543d	-0.12727447
194	0xbd886c34	-0.06661263
195	0xbd4dac88	-0.050213367
196	0x3dbfc15e	0.09363054
197	0xbe2729ce	-0.16324541
198	0x3ccf7b98	0.025327489
199	0x3d1caee8	0.03825274
200	0x3e16712b	0.14691608
201	0x3d7b447c	0.06134461
202	0x3cc2dc58	0.023786709
203	0xbdfed373	-0.124426745
204	0x3e27afa7	0.163756
205	0x3e3e3171	0.18573548
206	0xbd9cf9d0	-0.076648355
207	0x3de59fda	0.1121213
208	0xbe2ff17f	-0.17181967
209	0xbe367a78	-0.17820156
210	0xbda2622d	-0.07928882
211	0xbd93fa16	-0.072254345
212	0xbca69718	-0.020335719
213	0xbd739ba8	-0.059474617
214	0x3e2b7f69	0.16747822
215	0x3e089199	0.13336791
216	0xbe2fafdb	-0.17156927
217	0x3dfdf422	0.1240008
218	0xbdd11f23	-0.10211017
219	0xbe0705fe	-0.1318588
220	0x3e3ab441	0.18232824
221	0x3b331600	0.0027326345
222	0xbe0d19b6	-0.13779339
223	0x3c811530	0.015757173
224	0xbdc616fa	-0.09672351
225	0x3e0d92e1	0.13825561
226	0xbdb8c3fa	-0.090217546
227	0x3d903d62	0.07042958
228	0xbe23ae7a	-0.15984526
229	0x3e3560c9	0.17712702
230	0xbe24b473	-0.16084461
231	0x3d42ac8c	0.047527835
232	0x3e30f3b9	0.17280473
233	0x3e3c4ea1	0.1838937
234	0x3def9406	0.11698155
235	0x3e3417b5	0.17587169
236	0x3c830530	0.015993685
237	0x3e0ada07	0.13559733
238	0x3ca3fbd0	0.020017534
239	0x3c792450	0.0152064115
240	0xbd9a5c1d	-0.075371005
241	0x3ddb2a32	0.107014075
242	0xbdf092b3	-0.11746731
243	0xbc2bb8d0	-0.010481074
244	0x3e0d708d	0.13812466
245	0x3ca81280	0.020516634
246	0x3defb886	0.11705117
247	0xbca7ab70	-0.02046749
248	0xbe2cfe23	-0.1689382
249	0xbe03e6fa	-0.1288108
250	0x3db0ea32	0.08638419
251	0xbd6f57b8	-0.058433264
252	0x3c4f0630	0.012635753
253	0xbd9dd650	-0.077068925
254	0x3e38469f	0.1799569
255	0x3e0a29bd	0.13492484

bias f4 [25]
0	0x3c6eeeb0	0.014583275
1	0x3e20eee5	0.15716131
2	0xbb620200	-0.0034486055
3	0xbe200d8e	-0.1563017
4	0xbe00e54d	-0.12587471
5	0xbdc73f90	-0.097289205
6	0x3d936a2e	0.071979865
7	0xbe49a9ea	-0.19693723
8	0x3e4262bb	0.18982975
9	0x3c942a18	0.018086478
10	0xbcecd500	-0.02891016
11	0x3dded53a	0.108805135
12	0xbe2cecdf	-0.16887234
13	0x3dc4631a	0.095892146
14	0xbda3ee40	-0.08004427
15	0x3d975dc6	0.07390933
16	0xbde21797	-0.11039656
17	0xbde79f2a	-0.11309655
18	0x3e18c741	0.1491976
19	0xbd5ef238	-0.054430217
20	0xbde9d2ea	-0.11417182
21	0xbcc8dd40	-0.024519563
22	0xbe2d5c2f	-0.16929697
23	0x3e1cdc01	0.153183
24	0x3e073791	0.1320479

weight f4 [25, 25]
0	0xbdab0047	-0.08349662
1	0x3de4155a	0.11136885
2	0xbdb950e0	-0.09048629
3	0xbe276223	-0.1634603
4	0x3d3b9268	0.04579392
5	0x3ddf0a16	0.108905956
6	0x3dd68432	0.10474433
7	0x3e4b4109	0.19849028
8	0x3db70a6e	0.08937536
9	0x3e35507d	0.17706485
10	0x3e1e4741	0.15456869
11	0xbe1509b5	-0.14554484
12	0xbe059b50	-0.13047528
13	0x3daacfd2	0.0834042
14	0x3d828086	0.0637217
15	0xbe184e5b	-0.1487364
16	0x3dcf01f6	0.10107796
17	0x3deaa7ae	0.114577636
18	0xbe330173	-0.17481022
19	0x3d39d118	0.045365423
20	0xbddc69f0	-0.107623935
21	0x3dcd73de	0.100318655
22	0xbbd4b940	-0.00649181
23	0xbe2dd5df	-0.16976117
24	0xbe1eed52	-0.15520218
25	0xbe2bd196	-0.1677917
26	0x3de3cb72	0.111227885
27	0x3e1b843b	0.1518716
28	0x3e35b6c9	0.17745508
29	0x3dd0a91a	0.101885036
30	0xbdaea870	-0.08528221
31	0x3dd7e5c2	0.1054187
32	0xbde3bfc7	-0.11120563
33	0xbe4bd2aa	-0.1990458
34	0xbe01e71e	-0.1268582
35	0x3dbd55c2	0.09244873
36	0x3da25246	0.07925849
37	0x3e13777b	0.14401047
38	0xbe3fe238	-0.1873864
39	0x3de9f852	0.114243165
40	0x3d3ce3c8	0.046115667
41	0xbe114540	-0.14186573
42	0x3e052a39	0.13004388
43	0x3dc99f46	0.09844832
44	0x3dd36a7e	0.10323046
45	0xbce90350	-0.028443962
46	0xbe2819fe	-0.16416165
47	0xbde8e157	-0.11371105
48	0x3d0a82b4	0.033816054
49	0x3ccaecc0	0.024771094
50	0x3b93b9c0	0.004508227
51	0xbdf73353	-0.12070336
52	0xbdbe151d	-0.09281371
53	0xbd0027f4	-0.031288102
54	0xbcbdc658	-0.023165867
55	0xbc250f00	-0.010074377
56	0x3d1fb640	0.038992167
57	0x3e199787	0.1499921
58	0xbe19cb75	-0.15019019
59	0x3cf48780	0.029849768
60	0x3dd6ff2e	0.104978904
61	0x3e4969d5	0.19669278
62	0x3e0ce247	0.13758193
63	0x3e040f43	0.12896447
64	0xbd7db538	-0.0619404
65	0x3bd8f7c0	0.006621331
66	0x3e302f93	0.17205648
67	0x3d640e6c	0.055677816
68	0x3cbad228	0.022805288
69	0x3dc8940a	0.09793861
70	0xbc9f7740	-0.019466043
71	0x3e4cb961	0.19992591
72	0x3e19bbcb	0.15013044
73	0xbcbe6740	-0.023242593
74	0xbd98b6f4	-0.074567705
75	0xbe4b046d	-0.19825907
76	0xbd7207d8	-0.05908951
77	0xbcd18850	-0.025577694
78	0xbe3825db	-0.1798319
79	0x3d266fac	0.040633842
80	0xbd922adc	-0.07137081
81	0x3d30a2c8	0.04312399
82	0x3c453100	0.012035608
83	0x3beb0140	0.00717178
84	0xbbce9fa0	-0.00630565
85	0x3d4e8da4	0.050428048
86	0xbc31ceb0	-0.010852501
87	0x3d8ca092	0.06866564
88	0x3e2ef151	0.17084242
89	0x3d67cf04	0.05659391
90	0x3e471065	0.19439848
91	0x3ddf97e2	0.10917641
92	0x3b0dc780	0.0021633804
93	0xbdca902a	-0.09890778
94	0x3d8f9aba	0.070119336
95	0xbd254f58	-0.04035887
96	0xbd94e044	-0.07269338
97	0xbd594338	-0.05304262
98	0x3c3ef820	0.011655837
99	0x3d99a542	0.075022236
100	0xbe086eba	-0.13323489
101	0xbdbb881a	-0.09156819
102	0xbdba0207	-0.09082418
103	0x3c8e89c0	0.017399669
104	0x3dcc10a2	0.0996411
105	0xbd33ba00	-0.043878555
106	0xbc9413f0	-0.018075913
107	0xbe0c82a2	-0.13721707
108	0xbd0c25f8	-0.034215897
109	0xbcc37d00	-0.023863316
110	0xbe331f20	-0.17492342
111	0x3dceaee2	0.1009195
112	0x3e328e7f	0.1743717
113	0x3e48c237	0.19605337
114	0xbdefb11a	-0.11703701
115	0x3de84762	0.1134174
116	0x3dd39b4e	0.103323564
117	0xbda31d80	-0.07964611
118	0x3dca81d2	0.098880425
119	0xbb843160	-0.0040342063
120	0xbe1eb7e0	-0.1549983
121	0xbcfd8a98	-0.030949876
122	0xbc372280	-0.011177659
123	0xbcdd9818	-0.027050063
124	0xb9f78000	-0.0004720688
125	0x3cf598b0	0.029980034
126	0xbe38520b	-0.18000047
127	0x3cf9f8c0	0.030514121
128	0x3e3fa0a3	0.18713622
129	0xbd98fc0c	-0.07469949
130	0x3dc8f13e	0.09811638
131	0x3e315385	0.17317016
132	0xbd495354	-0.049151734
133	0x3da83222	0.08212687
134	0x3da57ba2	0.08080222
135	0x3de4c53a	0.111704305
136	0x3a849e80	0.0010118037
137	0x3d40458c	0.046941325
138	0xbdbfa49a	-0.09357567
139	0x3e20be5f	0.15697621
140	0x3df3d576	0.11905949
141	0x3dc2dca6	0.095147416
142	0xbdf318e3	-0.11869981
143	0x3e2c13eb	0.16804473
144	0x3d81bb9a	0.0633461
145	0xbe01b242	-0.12665656
146	0xbcec4d70	-0.028845519
147	0x3dcb7d82	0.09936048
148	0xbda49307	-0.08035856
149	0xbdf53e8d	-0.11974821
150	0xbdda50d0	-0.10659945
151	0xbd1b4af8	-0.037913293
152	0xbdc78c00	-0.097435
153	0x3e2a6317	0.16639362
154	0x3e111803	0.14169316
155	0x3de42ef2	0.111417666
156	0xbe10b580	-0.14131737
157	0xbdddfc4a	-0.10839136
158	0xbe01a5f0	-0.12660956
159	0x3bab7860	0.0052328557
160	0xbe18fbfd	-0.14939876
161	0x3d9a54f2	0.07535733
162	0x3c8ef3b0	0.017450184
163	0xbd8b8df0	-0.06814182
164	0x3dd71af2	0.10503186
165	0x3e378b5d	0.17924257
166	0x3d9cf33a	0.07663579
167	0x3e0ebd31	0.13939358
168	0xbddacb33	-0.106832884
169	0xbe0eed30	-0.13957667
170	0x3e17fe59	0.1484312
171	0x3e36ed5f	0.17863987
172	0xbc8205d0	-0.015871912
173	0x3e44bb43	0.1921206
174	0xbd13c758	-0.03607878
175	0x3e3408f3	0.17581539
176	0xbe196c82	-0.14982799
177	0xbe486c3a	-0.19572535
178	0xbd8b31d0	-0.0679661
179	0xbce7e518	-0.028307483
180	0xbe2639e3	-0.1623302
181	0xbd8cc834	-0.06874123
182	0x3da669b2	0.081256285
183	0xbe3ec817	-0.18631016
184	0x3e352d59	0.1769308
185	0xbe17ec05	-0.14836128
186	0x3e192049	0.14953722
187	0xbd393f98	-0.045226663
188	0xbda73a3a	-0.08165403
189	0x3d212bd4	0.03934844
190	0xbcf504a8	-0.029909447
191	0x3d1edc98	0.038784593
192	0x3e435481	0.19075204
193	0x3e2b0b43	0.16703515
194	0x3e40a70f	0.18813728
195	0xbbabae00	-0.0052392483
196	0xbde43e37	-0.11144679
197	0x3e212f79	0.15740766
198	0xbdebc07a	-0.11511321
199	0x3e0bca99	0.13651504
200	0x3db30c46	0.08742575
201	0x3e339129	0.17535843
202	0x3e20759b	0.15669863
203	0x3d6e5004	0.058181778
204	0xbe357d4f	-0.17723583
205	0xbd46524c	-0.04841833
206	0xbc9a6110	-0.018845111
207	0x3d82ed36	0.06392901
208	0xbdb14f80	-0.086577415
209	0x3ca0f398	0.019647405
210	0xbe302437	-0.17201315
211	0xbdf56113	-0.11981406
212	0x3d31d754	0.043418244
213	0xbda49410	-0.08036053
214	0xbe2b4008	-0.16723645
215	0xbe30318d	-0.17206402
216	0xbe013535	-0.12617953
217	0xbe0972da	-0.13422719
218	0x3e28f22f	0.16498636
219	0x3e0ab58b	0.13545816
220	0xbdef2e97	-0.11678808
221	0x3d1939a8	0.0374085
222	0xbd9dc01d	-0.07702658
223	0xbbccd5a0	-0.006251052
224	0x3bcbaea0	0.0062158853
225	0xbe459603	-0.19295506
226	0xbd621920	-0.055199742
227	0x3e23b87d	0.15988345
228	0x3e201021	0.15631153
229	0x3cba8650	0.022769123
230	0x3ddf0f8a	0.10891636
231	0x3c7a2d80	0.015269637
232	0x3e223a71	0.15842606
233	0x3d2e1100	0.04249668
234	0x3d32c798	0.04364738
235	0x3d9a5e5a	0.075375274
236	0xbe271a52	-0.16318634
237	0xbe2f44b2	-0.17116049
238	0x3e46fb9b	0.19431917
239	0xbcfa6890	-0.030567437
240	0x3d251640	0.040304422
241	0xbd23b654	-0.039968804
242	0xbe31e86d	-0.1737382
243	0x3e34700b	0.17620866
244	0x3ceccce8	0.0289063
245	0x3e15031b	0.14551966
246	0x3d4c8aac	0.049936935
247	0x3d96803a	0.07348676
248	0xbd86c2aa	-0.06580098
249	0x3dd42042	0.10357715
250	0xbc877af0	-0.016538113
251	0x3b9e9100	0.0048390627
252	0x3cd515d8	0.026011392
253	0x3dc29002	0.095001236
254	0xbdd6e37a	-0.104926065
255	0xbd32dc60	-0.043667197

bias f4 [25]
0	0xbda9aa3a	-0.08284421
1	0xbda83cfd	-0.082147576
2	0xbd985a20	-0.07439065
3	0x3d929a96	0.07158391
4	0x3de6b5aa	0.112651184
5	0x3df874b6	0.12131636
6	0xbe22515a	-0.15851346
7	0x3e07273d	0.13198562
8	0xbe203d55	-0.15648396
9	0xbdfaf177	-0.12253087
10	0x3e226ae7	0.15861093
11	0xbe12e462	-0.14344934
12	0xbd158d8c	-0.036511943
13	0x3d3dcd0c	0.046338126
14	0x3da7616a	0.08172877
15	0xbdc8551d	-0.09781859
16	0x3e288fa1	0.1646104
17	0xbe08edc5	-0.13371952
18	0x3e25efd9	0.16204776
19	0x3dc39c72	0.09551324
20	0x3d56e20c	0.05246167
21	0x3e30e081	0.17273141
22	0x3d8fc4b6	0.070199415
23	0x3e214289	0.15748037
24	0x3d700fdc	0.058608875

weight f4 [25, 25]
0	0x3deb9fca	0.11505087
1	0xbe44d642	-0.19222358
2	0xbd6243ac	-0.05524032
3	0xbe3b8128	-0.18310988
4	0xbe1f2716	-0.15542254
5	0xbd586e48	-0.052839547
6	0x3e46a987	0.19400607
7	0xbe1a1833	-0.15048294
8	0x3df95c12	0.12175764
9	0x3d95f682	0.07322408
10	0x3ccec390	0.025239736
11	0x3dd6f08e	0.10495101
12	0x3e1fcde1	0.1560588
13	0x3d8c9dee	0.0686606
14	0xbe16d5f5	-0.14730056
15	0xbdd8246a	-0.105538204
16	0x3c4679d0	0.012114003
17	0xbc999368	-0.018747047
18	0xbc8ac650	-0.016940266
19	0xbe000458	-0.12501657
20	0x3dba39ea	0.090930775
21	0x3db87dba	0.090083554
22	0xbe170762	-0.1474891
23	0x3d257c00	0.04040146
24	0x3dd65f7a	0.104674295
25	0xbdb1d5e3	-0.08683374
26	0xbd3a9658	-0.045553535
27	0x3d157a18	0.03649339
28	0xbd450720	-0.048102498
29	0xbb26d340	-0.0025455505
30	0xbd2f2600	-0.04276085
31	0x3ca369a8	0.019947842
32	0x3d951f32	0.07281341
33	0x3e0ebcff	0.13939284
34	0x3dba1b2a	0.090872124
35	0x3c2f2ee0	0.010692328
36	0x3e30d499	0.172686
37	0x3dce1b42	0.10063793
38	0x3d5f3cfc	0.05450152
39	0xbcc4ff58	-0.024047539
40	0xbe357a23	-0.17722373
41	0x3def15a2	0.11674048
42	0x3dca2022	0.0986941
43	0xbde484ca	-0.1115814
44	0xbe0c70a5	-0.13714845
45	0xbdcef250	-0.10104811
46	0xbdd37080	-0.10324192
47	0x3cc184a8	0.023622826
48	0xbdff0c43	-0.124535106
49	0x3e2b0e51	0.1670468
50	0x3da98ab6	0.0827841
51	0xbe02373c	-0.12716383
52	0xbe1ee366	-0.15516433
53	0x3e2d2481	0.16908456
54	0xbe07ed72	-0.13274172
55	0xbe4c51e8	-0.1995312
56	0x3ce61b30	0.028089136
57	0xbde3caba	-0.111226514
58	0xbd5cd340	-0.0539124
59	0x3d87b4d2	0.066262856
60	0x3c795250	0.015217379
61	0xbb5d94c0	-0.0033810586
62	0x3e406517	0.18788563
63	0xbc7a6aa0	-0.01528421
64	0xbc785b80	-0.015158534
65	0x3c4aa730	0.012368962
66	0xbd534cc0	-0.051586866
67	0xbdc94617	-0.09827822
68	0xbdbaf337	-0.09128421
69	0xbddbd63d	-0.10734222
70	0xbd9cbcba	-0.07653184
71	0x3e3f86c1	0.18703748
72	0x3df3ede6	0.1191061
73	0xbe19de6e	-0.15026256
74	0xbde3bec7	-0.11120372
75	0xbe317c12	-0.17332485
76	0xbdea37f0	-0.114364505
77	0xbd81941c	-0.06327078
78	0xbde9088d	-0.11378584
79	0xbe2d4a8b	-0.16922967
80	0xbe3edfb5	-0.18640025
81	0x3e4ab223	0.19794516
82	0x3e3edf89	0.1863996
83	0xbdda3ffd	-0.10656736
84	0x3defa582	0.1170149
85	0xbe105f00	-0.1409874
86	0x3dac87f6	0.0842437
87	0x3d5d14d4	0.05397494
88	0x3e20bf51	0.15697981
89	0xbd5d7c98	-0.0540739
90	0x3cf3f980	0.029782057
91	0x3d250658	0.040289253
92	0x3e20b5b7	0.15694319
93	0xbdb03c50	-0.08605254
94	0x3d1a2238	0.03763029
95	0xbe1e1ae8	-0.15439951
96	0xbe41fe68	-0.18944705
97	0x3e288a27	0.16458951
98	0xbdc43fba	-0.095824674
99	0xbd25a3d8	-0.040439457
100	0x3d3e7ae0	0.0465039
101	0xbd959c60	-0.07305217
102	0x3dbe15f6	0.092815325
103	0x3dabcd22	0.08388735
104	0xbd92f12a	-0.07174905
105	0x3e23945f	0.15974568
106	0x3e45c4d7	0.1931337
107	0x3dd5f96a	0.104479626
108	0x3e299441	0.1656046
109	0xbd85608c	-0.065125555
110	0xbe3a5152	-0.18195084
111	0x3dbe9ba2	0.09307028
112	0xbc670c00	-0.014101982
113	0xbe4155bf	-0.18880366
114	0x3e0caaa1	0.13736965
115	0xbc987ac0	-0.01861322
116	0x3dab35b2	0.08359851
117	0x3cc38830	0.02386865
118	0x3e3d0133	0.18457489
119	0x3c564930	0.013078973
120	0x3e228351	0.15870406
121	0x3db7d57e	0.08976267
122	0x3dfa700e	0.12228404
123	0x3deac066	0.11462478
124	0xbd3be220	-0.045869946
125	0x3e166521	0.14687015
126	0x3e032ded	0.12810488
127	0x3bb510c0	0.0055256784
128	0x3c046860	0.008081526
129	0x3e01f045	0.12689312
130	0x3e1b9139	0.15192117
131	0x3de7add2	0.113124505
132	0x3c0c2130	0.008552834
133	0x3e3de1ff	0.18543242
134	0x3e20b939	0.15695657
135	0x3d9235a6	0.07139139
136	0x3d281568	0.04103604
137	0xbe115033	-0.1419075
138	0x3e1f8bd5	0.15580685
139	0xbdec520a	-0.11539085
140	0xbc21c750	-0.00987418
141	0x3dd787de	0.105239615
142	0x3e3e7af7	0.18601595
143	0xbd7d4d68	-0.0618414
144	0x3decefe2	0.115691915
145	0xbc1896e0	-0.009313315
146	0xbddb372a	-0.10703881
147	0x3e419c6b	0.18907325
148	0x3db7fae6	0.08983402
149	0x3e4bcd8d	0.1990263
150	0xbdb450e7	-0.088044934
151	0xbd00ac74	-0.031414464
152	0xbe2253b5	-0.15852244
153	0x3ddc6d42	0.10763027
154	0xbd9eda4d	-0.07756481
155	0xbde804cd	-0.11329041
156	0x3daf5fea	0.08563216
157	0x3cee0dd8	0.029059336
158	0xbe39e322	-0.1815305
159	0x3de6a32a	0.1126159
160	0xbe289f3a	-0.1646699
161	0xbe35e238	-0.17762077
162	0xbd16c280	-0.036806583
163	0x3db37db2	0.08764209
164	0x3db520f2	0.088441744
165	0xbde669c7	-0.11250644
166	0xbd921236	-0.0713238
167	0xbd1e4d08	-0.03864768
168	0x3c50cc80	0.012744069
169	0x3e19a88f	0.15005706
170	0x3e0394e7	0.1284977
171	0xbe0ec0d3	-0.13940744
172	0x3dfa4782	0.1222067
173	0x3e2e83bf	0.17042445
174	0x3d3da4d4	0.04629977
175	0x3e082c65	0.13298185
176	0xbc1ec5e0	-0.009690732
177	0xbda7bc97	-0.081902675
178	0x3e33e1cd	0.17566605
179	0x3d6dd8c4	0.058068052
180	0xbda95af7	-0.08269303
181	0xbddebe1d	-0.10876105
182	0x3e484d69	0.1956078
183	0xbe2ea0e8	-0.17053568
184	0x3df7822e	0.12085377
185	0xbe2fde77	-0.17174707
186	0x3e0a8761	0.13528205
187	0x3ce08db0	0.027411312
188	0x3dfe68d2	0.12422337
189	0x3d2f9594	0.04286726
190	0x3d61b644	0.055105463
191	0xbd5a7288	-0.05333188
192	0xbe27499e	-0.16336676
193	0xbe0322ea	-0.12806287
194	0xbdf58cf0	-0.11989772
195	0x3d4202ac	0.04736583
196	0xbde05077	-0.109528475
197	0xbe008534	-0.12550813
198	0xbe452cb3	-0.19255333
199	0x3db669ae	0.089068756
200	0xbe219c90	-0.1578238
201	0x3d8c2a22	0.06843974
202	0xbe2b139d	-0.167067
203	0x3df2a5a6	0.11848001
204	0xbe15a7e5	-0.14614828
205	0x3d995252	0.074864045
206	0xbdbce530	-0.092234015
207	0x3e485c97	0.1956657
208	0xbd442038	-0.04788229
209	0x3e0d280d	0.1378481
210	0xbe002920	-0.12515688
211	0xbe31b4d3	-0.17354135
212	0x3da236d2	0.079206124
213	0x3e32eb31	0.17472531
214	0x3cb22ab0	0.02174887
215	0xbe2ce512	-0.16884258
216	0x3dab6a76	0.08369915
217	0x3e0511b3	0.12995033
218	0xbb18a540	-0.0023291856
219	0xbd20ee00	-0.039289474
220	0xbdf466b7	-0.11933654
221	0xbd14122c	-0.036150143
222	0xbbde4ec0	-0.00678429
223	0xbd274e40	-0.04084611
224	0x3de66b22	0.11250903
225	0xbe1814b5	-0.14851649
226	0xbe14e6ed	-0.14541216
227	0xbd8f1dc6	-0.06988101
228	0x3d550e14	0.05201538
229	0xbe0f96b5	-0.14022334
230	0x3ba337c0	0.004981011
231	0xbdba37ea	-0.09092696
232	0xbe27d596	-0.1639007
233	0x3e192e71	0.14959122
234	0x3e29e3e9	0.16590847
235	0xbe1aa066	-0.1510025
236	0xbdfad3c0	-0.12247419
237	0x3d612bb4	0.05497332
238	0x3e0437a5	0.12911852
239	0xbda34963	-0.07972982
240	0x3ddf5f92	0.109069005
241	0x3e045c2d	0.12925787
242	0x3d6fa964	0.058511153
243	0x3e1e9589	0.1548673
244	0xbdf3d07a	-0.11904998
245	0xbd9438a0	-0.07237363
246	0x3e37e873	0.17959766
247	0xbccf2fb0	-0.025291294
248	0xbdee3ce0	-0.11632705
249	0x3e0783e9	0.13233913
250	0xbde3beb3	-0.11120357
251	0xbcea8928	-0.028629854
252	0x3e210ba5	0.15727098
253	0x3e044ee7	0.12920724
254	0x3b46ff80	0.0030364692
255	0x3d9bb096	0.076020405

bias f4 [25]
0	0x3dc92392	0.098212376
1	0xbe182e85	-0.14861496
2	0x3d5af7c4	0.053458944
3	0x3de9ea3e	0.11421631
4	0x3dd34af2	0.10317029
5	0x3df955da	0.12174578
6	0xbe040c52	-0.12895325
7	0x3e04cd59	0.12968959
8	0xbe49f8d8	-0.19723833
9	0xbe1c24de	-0.15248439
10	0xbe4bb2d7	-0.1989244
11	0x3e4686b9	0.1938733
12	0xbdb392ba	-0.0876822
13	0x3e4ab171	0.19794251
14	0xbcdb20e8	-0.02674909
15	0x3e27e2b1	0.1639507
16	0xbc261120	-0.010135919
17	0x3e1d06ad	0.15334578
18	0xbbe540c0	-0.006996244
19	0x3e48fcd7	0.19627701
20	0x3ca52110	0.020157367
21	0xbada5180	-0.0016656369
22	0xbe1c6073	-0.15271167
23	0xbe21f0b5	-0.15814479
24	0x3d484638	0.04889509

weight f4 [4, 25]
0	0xbdaa3d7d	-0.08312509
1	0x3cd43de8	0.025908425
2	0xbddfb01a	-0.109222606
3	0xbe089316	-0.13337359
4	0xbd50ee74	-0.051008657
5	0x3da67a9a	0.08128853
6	0x3cd4add8	0.025961801
7	0x3daf35ce	0.08555184
8	0x3d8c1a36	0.06840937
9	0xbd25a748	-0.040442735
10	0xbe2a5abb	-0.16636173
11	0xbe013162	-0.12616494
12	0xbe175210	-0.14777398
13	0xbdfd6e4d	-0.12374554
14	0xbbace5c0	-0.005276412
15	0x3d8c0572	0.06836976
16	0x3cffe190	0.031235486
17	0x3de10b92	0.10988535
18	0xbc9ed168	-0.019386962
19	0x3e3b0461	0.18263389
20	0xbbd36440	-0.0064511597
21	0x3e283c73	0.1642931
22	0xbd0d090c	-0.034432456
23	0xbd310e14	-0.043226317
24	0x3d42a54c	0.04752092
25	0xbe2c8328	-0.16846907
26	0xbdf45f7a	-0.11932273
27	0xbbc06600	-0.0058715343
28	0x3d406d08	0.04697898
29	0xbdd39b8a	-0.10332401
30	0xbd34a2d8	-0.044100612
31	0xbc65f930	-0.014036462
32	0xbdbf3d43	-0.093378566
33	0xbe26e9dd	-0.1630015
34	0xbe2add12	-0.16685894
35	0xbe2c40ee	-0.16821644
36	0xbd84d004	-0.06484988
37	0x3da4e7e6	0.080520436
38	0xbd1d6d00	-0.03843403
39	0x3d0e8760	0.034797072
40	0x3de04426	0.10950498
41	0x3d85d9ae	0.0653566
42	0xbe172e80	-0.14763832
43	0xbe486fe5	-0.19573934
44	0xbdcab660	-0.098980665
45	0xbd610334	-0.054934695
46	0x3d0ec4ec	0.034855768
47	0xbcb4a980	-0.02205348
48	0xbe408c00	-0.18803406
49	0x3e144379	0.14478864
50	0x3e4b7bc1	0.19871427
51	0x3d21ab18	0.03946981
52	0xbe27161a	-0.16317025
53	0x3d257cec	0.040402338
54	0xbe28e67e	-0.16494176
55	0x3daf5722	0.08561541
56	0x3df2b8fa	0.11851688
57	0xbd97ef64	-0.07418707
58	0xbd32f5f4	-0.04369159
59	0xbe3ff22a	-0.18744722
60	0x3e1db357	0.15400444
61	0xbc9f92a8	-0.01947911
62	0x3c3e5300	0.011616468
63	0xbd3337a0	-0.04375422
64	0xbe3df262	-0.18549493
65	0x3e230411	0.1591952
66	0xbe45c38f	-0.19312881
67	0xbccd5af0	-0.025067776
68	0xbc6e9da0	-0.014563948
69	0xbe38a1a5	-0.18030412
70	0x3db1921e	0.08670448
71	0xbe254d25	-0.1614271
72	0x3e20ac9b	0.15690844
73	0xbd9229c6	-0.07136874
74	0x3db9cd42	0.09072353
75	0xbd5ec300	-0.054385185
76	0x3e1128dd	0.14175744
77	0x3e1b66b9	0.15175904
78	0x3de2d5e6	0.11075954
79	0x3dbc7842	0.09202625
80	0x3d873ad6	0.06603019
81	0xbe4be91f	-0.19913147
82	0x3d8a22d6	0.06744926
83	0xbe2ce793	-0.16885214
84	0xbddf9307	-0.10916715
85	0x3dae9a42	0.08525516
86	0x3cf79fc0	0.030227542
87	0xbe08a1f5	-0.13343032
88	0xbd779698	-0.06044635
89	0xbe057994	-0.1303466
90	0x3cd142b0	0.025544494
91	0xba4c8000	-0.0007801056
92	0xbe142273	-0.14466266
93	0xbd614a40	-0.05500245
94	0x3e1b1627	0.15145169
95	0x3e43306d	0.19061442
96	0xbd3ec700	-0.0465765
97	0xbdd18bd0	-0.10231745
98	0x3d682784	0.05667831
99	0x3d8589d2	0.06520428

bias f4 [4]
0	0x3de6c732	0.11268462
1	0x3d380994	0.04493101
2	0xbe07181a	-0.13192788
3	0x3dcc8fa6	0.09988336
